omniisaacgymenvs/runs/WEE/nn/last_WEE_ep_200_rew_-3976.256.pth (torch, 623460 bytes, 36 tensors)

value_mean_std.running_mean f8 [1]
00000000: 9488 b431 fdcb 42c0
-37.59366437258828

value_mean_std.running_var f8 [1]
00000000: 259a d0d0 9839 7140
275.5998085163613

value_mean_std.count f8 []
00000000: 0000 0008 0000 8941
52428801.0

running_mean_std.running_mean f8 [32]
00000000: 378f fba6 6c74 9e3f 5f4c ce1a e33b 6bbf
00000010: 0d9b 09a4 7d8e df3f 017e c5d7 0f8e dd3f
00000020: 38bf 2d43 7e46 a53f 0601 87c4 a16d b3bf
00000030: 573a 14fe fcb7 dc3f 8c90 296d 53ed bd3f
00000040: 55df dda9 62a5 ab3f 53b2 c225 ec8e b83f
00000050: 7663 8c50 d52f 85bf 1998 dc7d fe15 a23f
00000060: a06d cbda 63c1 c83f 9779 e744 e84b d7be
00000070: 99df 8376 7759 10bf f10e d691 8835 db3f
00000080: 4ab5 4284 1a3a e83f edf0 d6e7 7e64 20bf
00000090: 3534 fbeb 27eb 32bf cbdd f3bf 21db da3f
000000a0: 653c b6e8 741d 213f a7e9 854b 06c1 36bf
000000b0: ad4b cee6 35ef 51bf d4d0 7ace 3e8e 763f
000000c0: 7eb1 1977 5675 7a3f d644 a87f 5525 803f
000000d0: 0000 0000 0000 0000 0000 0000 0000 0000
000000e0: 0000 0000 0000 0000 0000 0000 0000 0000
000000f0: 0000 0000 0000 0000 0000 0000 0000 0000
0.02974099892789114 -0.003324454845321109 0.49307194728173515 0.4617957694190125 0.041553445530438216 -0.07589160011321291 0.4487297517052062 0.11690255560967183
0.053996165500335515 0.09593082353485131 -0.010345140953676096 0.03532405172727255 0.19340179618198494 -5.554321502702906e-06 -6.236831325512198e-05 0.4251424240285209
0.7570927222456387 -0.0001250653184977699 -0.00028867458966602987 0.4196247458016528 0.0001305775843829265 -0.00034719852148836844 -0.0010946298964184906 0.0055067494756039954
0.006459558253123608 0.007883708914081227 0.0 0.0 0.0 0.0 0.0 0.0

running_mean_std.running_var f8 [32]
00000000: 16a9 8113 3c2e 5b3f acda 73d5 9c58 433f
00000010: 52f0 796a 3da0 643f bd11 8686 6e9d da3f
00000020: 03fd 1647 9b79 793f 8fe0 1e7c a170 993f
00000030: 3cb3 8cb3 afd5 c03f 8578 ee84 5479 f43f
00000040: d36a 23ce fcbf f83f 06ff d8ee 29de ec3f
00000050: 929b abbb 5fc6 7040 3646 4a97 87e2 6c40
00000060: 5f43 8103 818b 7f40 4369 414b 6eab e23e
00000070: 5139 21ff 5a05 f03e 7f0f 3c7f cdaa d73e
00000080: 4086 c576 f7fa b93f b9b4 82ff 425d 413f
00000090: 6883 338b 61a9 413f fcc8 4f81 b5f7 c23f
000000a0: 6ab5 44f4 397b 793f 7f01 2ddb af48 7a3f
000000b0: add0 24df 3d98 733f 159d 0ee3 19c1 2b40
000000c0: 059b 72a7 84e2 2b40 f328 13c5 50b6 2240
000000d0: fca2 923a e17a 643e fca2 923a e17a 643e
000000e0: fca2 923a e17a 643e fca2 923a e17a 643e
000000f0: fca2 923a e17a 643e fca2 923a e17a 643e
0.0016589724237073326 0.0005903974332842252 0.002517814591383818 0.4158588708599174 0.006219488671774134 0.02484371490547282 0.13152118937559887 1.279621619476104
1.5468719532279251 0.9021196045868869 268.39837233576066 231.07905163294498 504.7189974831908 8.90238366240261e-06 1.5278739688811858e-05 5.642699750788601e-06
0.10148569726654788 0.0005299164904692045 0.000538990620409502 0.148184478893718 0.006221033462037931 0.006416975916011202 0.0047838608609717505 13.87715062669171
13.942418320407805 9.356084974850523 3.8146971201058415e-08 3.8146971201058415e-08 3.8146971201058415e-08 3.8146971201058415e-08 3.8146971201058415e-08 3.8146971201058415e-08

running_mean_std.count f8 []
00000000: 0000 0010 0000 7941
26214401.0

a2c_network.sigma f4 [12]
00000000: b46f 94be a104 3fbe c02f adbf 5e66 d2bd
00000010: 111d 86be 10ac 01c0 c291 37be 4441 2abe
00000020: 09f0 1dbe 160d 17be a2a2 b2be 3066 0cbe
-0.28991473 -0.1865411 -1.3530197 -0.10273431 -0.2619405 -2.0261269 -0.17926696 -0.1662646
-0.15423597 -0.14751086 -0.34889704 -0.13710856

a2c_network.actor_mlp.0.weight f4 [256, 32]
00000000: f1e0 393e a6f7 ee3d e60c 87be eda6 bb3d
00000010: 72db c73d f251 6e3e f2ea 83bc 9dbd 633d
00000020: b86e ed3c c014 c3bd 7955 8b3d b386 723d
00000030: 2f95 203e 56df 81bd bfae 863c 5160 da3c
00000040: c1fa 443d bf8e 33be cd21 97be 9fbf 46bc
00000050: 48a3 0ebe 9c3c d83d 56ac b63b a2e4 d03d
00000060: ad44 7d3d d11e 803d cfaa 0d3e e09d 00be
00000070: c85c 363c 1f1b f7bd 4c45 5f3d 025c 79bd
00000080: b77e e33d 4c8e aabc 7d5f 4b3e bd34 9abd
00000090: 6e08 f8bd 606a 45be 9b11 193e 45e8 0c3e
000000a0: 1c00 5c3e 1231 82be f54b 6dbe ddef bdbd
000000b0: 1a20 eabd 0d77 b33d 4af2 ad3d fa9e e33d
000000c0: da5b e2bd fa10 84bd 2942 013e 5a0b a1bd
000000d0: 77bf d03d 9710 cbbd 199f 333e 94bc 0ebd
000000e0: 2272 3039 230d 03be 4e13 193d 1f9c 38bd
000000f0: d9cc d73d 021e f63d 3945 03be eb47 c1bd
00000100: e6f1 d83d a7da f1bc e07a b1bd a52d 83be
00000110: f9a5 60be bd08 0c3e 34ec 9ebd 660a 80be
00000120: 53d5 5b3d 2b5f 27be 2d2f 7fbe cc8e 25be
00000130: ec3e 47be c4f8 9bbd c454 ee3d e541 983d
00000140: 8bd3 4d3d af71 3bbe ac38 f1bd 2053 f4bc
00000150: 8665 dfbd 1381 25be ef9a b6bd 2b84 b8bd
00000160: efdd 5abd 384e 7abd b4b3 48bc 0254 f5bd
00000170: 6880 f8bd c936 d3bd 8dd9 77bd 07e0 0ebe
00000180: c523 1e3e f421 e33c cb55 843e 3bd0 d13d
00000190: 755a 88be cdc1 d23d 5936 21bd ea25 89bd
000001a0: 3ef0 3dbe 97cf 60be 45fd 8c3d 7309 49bd
000001b0: 0483 c13d 002d f9bd bb8c f53d b6bb eebd
000001c0: e241 0a3d 5838 7d3c ab7c 863d cc9c 133e
000001d0: 805b 153e 27f9 04be 1b6d 943d bb1a 80bd
000001e0: 4603 70bd f71f 10be 0ee2 243e f6db 04be
000001f0: f57d c13d 2e78 7e3d 114b 6b3d 1ebc c3bd
00000200: dfb0 4a3e a820 023e 6414 9bbd 9034 64be
00000210: 6b4d e03d e378 b0bd 18ec 17be 9f26 203e
00000220: 75b8 eb3c c788 c3bd 1a6e 1dbe e4af 71bd
00000230: 675a 093d 38a5 02bd ad0e 0fbe 75f0 a0bd
00000240: e56d adbd 8c8c a03d 44d9 de3d 05d3 edbd
00000250: 27b5 453b 8abd 153d fff0 093d b535 e9bc
00000260: 15b3 a03d d453 593b 4960 873d c678 febc
00000270: 91bc 3fbd c7ec 9a3c 8dd2 ffbc 9bc6 57bd
00000280: 746e 1c3e 72f6 073e be2a 5cbe d8c2 ae3b
00000290: cdec 2fbd 1f3b fbbc 3c00 f73c 0223 8b3d
000002a0: f1a8 50be 9651 45bd c780 e43d cace 263e
000002b0: 7020 55bd ab41 abbd 7e0b 01be cb51 0cbe
000002c0: f380 cd3c 22ea 7c3d d3dd e53d 5f12 943d
000002d0: 376e 8ebe 7d75 02be bb47 a6bd c016 7e3e
000002e0: 009b d13b 92aa 46be eac7 953d d3e4 89bd
000002f0: e254 eabd ab1f 043e a09e a4bd 4727 11bd
00000300: 313d 70be cb70 333e a73e 133e ebd3 803d
00000310: 78ff 1fbe 9852 54be 8498 babd 245e 823e
00000320: ac0c 8c3c 21e3 693e 03fb fe3d 1866 f1bb
00000330: 7eea 23bd 8463 61be 76d5 1cbe a51b 9cbd
00000340: beb8 283d c2ea 0bbe bdc1 7bbd f719 9cbd
00000350: f943 44bd b4b8 38bd 2d1c 84be 1e6b c83c
00000360: 2786 05be 1bfd 7e3d 554a 68bd 34ca 04be
00000370: c782 ffbc 4f7f afbd 7e86 5dbd 6154 2cbe
00000380: df21 aa3d 78c1 02be e404 1e3e 7f20 be3d
00000390: 9e26 e23d 6415 26bd 8f58 303e f15f 70bd
000003a0: 0c1f 3e3e 9102 263e 6557 45bc da80 94bd
000003b0: 7989 9ebd ba74 24be 5344 e53d fc81 86be
000003c0: 0db4 f83d 9ad0 5a3e 66a9 883e e1d2 8b3c
000003d0: fc0d 50be 5cf6 ce3d d52a 003d fdc8 80be
000003e0: da7b 75bd ca01 8abe 7152 7dbc 4833 b2bd
000003f0: 5bfd 93bd 62dd 65bd fe05 2cbe 1987 143e
0.18152215 0.11668329 -0.26377028 0.09162698 0.09758653 0.23273447 -0.016103242 0.05560075
0.028983459 -0.09525442 0.06803412 0.05921049 0.15681909 -0.06341426 0.016440747 0.026657255
0.0480907 -0.17534922 -0.29517975 -0.012130647 -0.13929474 0.10558435 0.0055747433 0.10199858
0.061833072 0.06255878 0.1383469 -0.12560225 0.011130519 -0.1206572 0.054509446 -0.06087876
0.11108153 -0.020819806 0.19860645 -0.0752959 -0.12110983 -0.1927886 0.14948122 0.13760479
0.21484417 -0.25428063 -0.23173507 -0.09274266 -0.11431904 0.087629415 0.084934786 0.11114307
-0.110526755 -0.064485505 0.12622894 -0.07863493 0.10192769 -0.09915274 0.1754116 -0.03484781
0.00016827186 -0.1279798 0.037371926 -0.045070764 0.105371185 0.12017442 -0.12819375 -0.094375454
0.105930135 -0.029523207 -0.08666015 -0.25620762 -0.21938314 0.13675208 -0.07759896 -0.25007933
0.05367024 -0.16344897 -0.2492034 -0.16167754 -0.19457597 -0.07615808 0.116372615 0.074344434
0.05025057 -0.18305086 -0.117783874 -0.029824793 -0.10908036 -0.16162519 -0.0891627 -0.09009584
-0.05343431 -0.06110975 -0.012249876 -0.11978914 -0.121338665 -0.10313184 -0.060510207 -0.13952647
0.15443332 0.027726151 0.25846705 0.10244795 -0.26631513 0.10290871 -0.03935847 -0.06696685
-0.18548676 -0.21954189 0.06884245 -0.049081277 0.09448817 -0.12166786 0.11989733 -0.11656897
0.033754237 0.015455328 0.06566747 0.14415282 0.14585686 -0.12985669 0.07247373 -0.062550984
-0.05859687 -0.14074694 0.16101858 -0.12974533 0.094478525 0.06212633 0.057444636 -0.09557365
0.19794033 0.1270777 -0.075722486 -0.22285676 0.10952266 -0.08616807 -0.14836156 0.15639733
0.02877448 -0.095475726 -0.15374032 -0.059005633 0.03353348 -0.031895846 -0.13970442 -0.078583635
-0.08468226 0.07839307 0.10881284 -0.116125144 0.003016779 0.03655771 0.033677097 -0.028467992
0.07846657 0.0033161538 0.06610162 -0.031063449 -0.04681069 0.018911732 -0.031228328 -0.05267964
0.1527651 0.13277605 -0.2150068 0.005333286 -0.04295044 -0.03066784 0.030151479 0.067937866
-0.20376946 -0.04817351 0.11157375 0.16289821 -0.052032888 -0.083621345 -0.1260204 -0.13703077
0.025085902 0.061746724 0.1122395 0.072300665 -0.27818462 -0.1274013 -0.0811915 0.24813366
0.0063966513 -0.19401005 0.07313521 -0.06733098 -0.11441971 0.12902705 -0.08038068 -0.03543785
-0.23460843 0.17523496 0.14379369 0.0629042 -0.15624797 -0.20734632 -0.09111121 0.2546245
0.017095886 0.22840549 0.124502204 -0.007366907 -0.04001855 -0.22010618 -0.15315804 -0.0762246
0.04119181 -0.13663772 -0.06146406 -0.0762214 -0.047916386 -0.04509802 -0.25802746 0.02446514
-0.13039456 0.0622531 -0.056711514 -0.1296776 -0.03119029 -0.08569204 -0.05408334 -0.16829063
0.08307242 -0.12769115 0.15431553 0.09283542 0.11042522 -0.040547743 0.17221282 -0.058685247
0.18566531 0.16211917 -0.012044762 -0.07251139 -0.077410646 -0.16060153 0.111946724 -0.26271045
0.12143717 0.21368638 0.2669174 0.017068328 -0.20317835 0.10105583 0.031290848 -0.25153342
-0.059932567 -0.2695449 -0.01546155 -0.08701187 -0.07226058 -0.05611933 -0.16799161 0.1450466

a2c_network.actor_mlp.0.bias f4 [256]
00000000: 2df6 b3bd c8fa 583e 6689 ec3b abc3 86bd
00000010: 94df 9cbd ba81 263c 51b5 b7bd 3170 9bbd
00000020: c4be 063d 95b1 01bd 6bc4 00be 2b5b 86bd
00000030: 51d6 173d d213 15bd bb2b eabd 909e 21be
00000040: ad79 5f3c 11b6 9dbd e716 91bd d686 103e
00000050: d8d2 efbd 6e80 a7bd 319b b73d 9460 023e
00000060: e445 3b3e dd82 ec3d 9747 b8bd 838e 18be
00000070: 4bbb 42be 2f77 7fbd 55e1 c5bd 6117 993d
00000080: 6729 d6bc 288f 19bd 4428 4abe c26a a23d
00000090: a25d 073e a2e9 073e 8d96 cb3d ff97 6ebe
000000a0: dd75 88bd b9e3 933c b667 923d 2d2c ffbb
000000b0: 1c3b edbd 84a5 d9bd be22 163e ce8e c43d
000000c0: ce6e 0f3e ee28 30bd ddb8 1a3d aede 87bd
000000d0: 527e 50be f70b 7c3e 1df2 f6bb 40a2 053e
000000e0: 80a6 83bd 6174 e4bd abcc 363e 1592 993e
000000f0: 77fc 5abc 32b1 9bbc 5bfe c93d 1426 a4bd
00000100: 740d fe3d 0d66 54be 5381 17bd 22ba fe3c
00000110: 30ad 6fbd 6f09 173e c9c4 44be 4b9e 03bd
00000120: a7d5 523e 0e59 2c3d 675f 1f3e 247b 083e
00000130: 4eef d03d 6b9a c43d 9ac1 323e 9e31 94bb
00000140: e241 eebd 02e8 993d fe21 d43d 2c8e 903d
00000150: 05ec e23d 7fe9 6f3d c17d be3d 974e 243d
00000160: 7e5a 99bd 5316 983d c97a ce3d 5a8c 9fbc
00000170: 9154 c9bd 71a4 08bc 24ec 633e 7b63 e53d
00000180: beaa 54bd e99e 253d afe1 2f3e 1cd5 ab3d
00000190: a068 013d c431 17bd b2dc 95bc b9f8 99bd
000001a0: cde9 64bc b598 2c3e ec20 b3bd 68c7 8abe
000001b0: be3e 443e b47d 00be eb86 ddbd ba0d 73bc
000001c0: b82a a0bc 0f91 f8bd 0a87 113e 7f50 81be
000001d0: cb2b 373e 95e9 0a3e aa46 ef3d eb54 6b3e
000001e0: 061f 24be d6c3 96bd aca8 cf3c e894 29bd
000001f0: 96f1 33be 72d3 113e 37d7 233e 1c7a 4d3d
00000200: fc5d a9bd 1ab8 c33c f6ee 063e 0e32 0b3e
00000210: b0c4 d93c 4ed0 d4bd 048f 02bd 4b36 16be
00000220: 2f62 d4bd adcf 003e f737 1f3d 07ae fb3d
00000230: 19c0 783d 2f57 d73d 2501 5cbe 7d05 52be
00000240: 1765 c93d 96e1 583d 0725 253e 1bff 2dbe
00000250: 91eb 48be 5b5d 7fbd c195 0cbd ed7f 893d
00000260: a024 033e 3a90 2b3e 4a0c a3bd a0a0 2dbe
00000270: aa1d 553d c0ed ffbd 3a47 2f3e 8430 053e
00000280: 4604 8ebc 1218 2f3d 4495 ba3d 77ef a5bd
00000290: e32d 24be c50c 74bc 8e47 12be a28d 21be
000002a0: f131 e13c 10d0 b73c 1e3c e9bd 4a34 123d
000002b0: 5aaf f3bd bc29 603e c995 0b3d e612 ea3d
000002c0: 2fab 1a3e 7a8c cb3d 4bc5 d6bd 7232 b0bc
000002d0: c4b4 3b3e f0ff 2fbe 08c8 113e 1d36 213d
000002e0: a39a d7bd 7a68 853d b423 a3bb d2a3 1f3e
000002f0: 2c78 ef3c fe39 653c c855 8bbd 0903 e2bd
00000300: 2b4c 3a3d 7629 3c3d 30f8 43bd 936e f43d
00000310: 8e70 033e 0371 90bb 0370 623d 7e15 1cbe
00000320: 0917 833d 5374 5bbe ae42 13be 04b9 2f3e
00000330: 1b4a 1e3e 2c24 53bd 22d3 6fbd 95c5 843d
00000340: c79f 61bd a753 073e 8146 1cbd bb42 0f3e
00000350: f95f f03d 3064 37be 8367 2b3d 7003 b33c
00000360: 011a ddbd b9a8 b83d 7a6b c7bd d32f 1abd
00000370: 64ba 05be 9a94 1cbd 7769 aabd ddc3 cfbd
00000380: 5c2d acbd 11cd 80bd 60cf 653c 1fb8 09bd
00000390: 8f6c b3bd 1d2d 223d da4b cebd 04b0 c43d
000003a0: 2ef5 8a3c 374e d4bd f43b e73d 7ab1 26bd
000003b0: 3fca bf3a dbf4 003d e9aa 8b3d 60a8 f23c
000003c0: 2f08 01be 8d06 a1bd a04a 183e 47de bfbc
000003d0: facf 81bd 6db9 943d 64d6 523e d9c6 373b
000003e0: 9af0 c53d 3e9e 713b d439 d0bd bde5 13bd
000003f0: cecf 0ebc b6e5 3cbe 4400 ef3d ae35 e73c
-0.08787189 0.21189415 0.0072185276 -0.065802895 -0.07659832 0.010162765 -0.0897013 -0.07589758
0.032896772 -0.031663496 -0.12574928 -0.06560358 0.037069622 -0.036395855 -0.11434122 -0.15783143
0.01363985 -0.07700742 -0.070844464 0.14113936 -0.11710137 -0.08178793 0.08965147 0.12732154
0.1828838 0.11548398 -0.0899803 -0.14898114 -0.19016759 -0.06236952 -0.09662119 0.07475162
-0.026142789 -0.03749004 -0.19741923 0.07930519 0.13219312 0.13272718 0.09940825 -0.2330017
-0.06663106 0.018052923 0.071486875 -0.0077872486 -0.1158354 -0.10627273 0.1466169 0.0959755
0.14007112 -0.043007784 0.037773956 -0.0663427 -0.20360687 0.24613939 -0.0075361864 0.13050175
-0.06428242 -0.1115501 0.17851512 0.29994264 -0.013365856 -0.019005392 0.098629676 -0.08015075
0.1240491 -0.20742054 -0.036988568 0.031094614 -0.058514774 0.14749692 -0.19215693 -0.03213338
0.20589314 0.042077117 0.15563737 0.13328224 0.10201894 0.095997654 0.17456666 -0.0045225164
-0.1163366 0.07514955 0.10358046 0.07058367 0.110801734 0.05857229 0.093013294 0.04011401
-0.07487963 0.07426133 0.10082013 -0.019476105 -0.09830583 -0.008339987 0.22258049 0.11200615
-0.051920645 0.04043475 0.17175935 0.08390257 0.03159392 -0.036912695 -0.018293712 -0.07518143
-0.013971758 0.16855128 -0.08746514 -0.2710526 0.19164559 -0.12547952 -0.10816749 -0.014834816
-0.01955162 -0.12137043 0.1421167 -0.25256726 0.178878 0.13565667 0.116834 0.22981612
-0.1602746 -0.073615715 0.025348984 -0.041401774 -0.17572626 0.14240816 0.16000067 0.05016528
-0.08269879 0.023891497 0.13177094 0.13593313 0.026583046 -0.103912935 -0.03187467 -0.14669149
-0.103702895 0.12579222 0.03887173 0.122890525 0.060730074 0.10514676 -0.21484812 -0.20509906
0.098337345 0.05294951 0.16127406 -0.16991846 -0.19621111 -0.06234489 -0.034322504 0.06713853
0.1280694 0.16754237 -0.07961328 -0.16955805 0.052030243 -0.12496519 0.17117015 0.13006788
-0.017336022 0.042747565 0.091105014 -0.08102315 -0.1603313 -0.014895623 -0.14285108 -0.15776685
0.027489634 0.02243808 -0.113884196 0.035694398 -0.1189868 0.2189092 0.034078393 0.11429386
0.15104364 0.09938903 -0.104868494 -0.02150843 0.18330675 -0.17187476 0.14236462 0.039358247
-0.105275415 0.06514068 -0.0049786214 0.15589836 0.029232107 0.013990877 -0.06803471 -0.11035735
0.045482796 0.045937978 -0.047844112 0.11935153 0.12835905 -0.0044080033 0.055282604 -0.15242574
0.06400878 -0.21431093 -0.14380905 0.17160422 0.15457956 -0.051548168 -0.05855096 0.06482998
-0.055084016 0.13215505 -0.038153175 0.139903 0.11737055 -0.17909312 0.041846763 0.021852225
-0.107959755 0.09016556 -0.097372964 -0.037643265 -0.13059384 -0.038227655 -0.08320897 -0.1014478
-0.08407089 -0.06289113 0.014026493 -0.033622857 -0.0876094 0.039593805 -0.10073061 0.09603885
0.016962614 -0.10366481 0.11290732 -0.0406966 0.0014632418 0.031483512 0.06819708 0.029621303
-0.12600778 -0.078625776 0.14872217 -0.02342142 -0.063384965 0.0726193 0.20589596 0.0028042106
0.09665032 0.0036868001 -0.1016728 -0.036107767 -0.008716537 -0.18447003 0.116699725 0.028223839

a2c_network.actor_mlp.2.weight f4 [128, 256]
00000000: dbf8 edbd 7c54 1a3e d9d8 1ebd e09a 6dbd
00000010: 2734 1f3d 6560 1bbe 5f92 01be 0986 5dbc
00000020: a13d 633c f216 82bc 3387 15be 2045 e13c
00000030: 9550 95bd fa32 adbd 75cf 113c 55af 0cbe
00000040: 0fb9 a2bb 2762 d83b a454 6abd c981 283d
00000050: 18ea 6ebd bea4 10bc 6a79 f5bc 0df0 8d3d
00000060: df07 6cbd 0402 96bc 8f4c e03c 63ca 12bd
00000070: d5a9 833d ab31 92bb 97c4 bb3c ecae 8a3d
00000080: 45b9 a9bb 3f81 4abd 501d 3cbc d198 23be
00000090: 72ae 833d 0022 c03c c6b3 f63c 6bd4 313d
000000a0: 5e13 2a3d fdd1 a93c c284 2abd 6574 83bd
000000b0: 8eb8 81bd 79e0 f0bd 4c8c afbd 1b24 03be
000000c0: 22d8 073d 4346 183c b1a7 75bd 4adb 70be
000000d0: 9a2d 6b3d 0adc b5bd c18a 24bd cb93 cf3d
000000e0: aa5a cbbc de46 70be ff4a 623d a554 6fbd
000000f0: 6fcb a6bd 8ff3 e5bd 981d 3dbd dab5 d0bd
00000100: eb7b 053d ffa3 3abd 6ae7 af3d d1c0 f4bd
00000110: c23c 42be 01ee 873d 5be8 383d 4006 5dbd
00000120: 813e a1bc 8d05 c9bc d773 f7bc 072a 093d
00000130: 9742 753d baf9 a13d ef8b cd3d c690 403d
00000140: 2294 363d 0616 f83d cb88 b03d d98f c23d
00000150: ec0a 0a3e f622 c73d ff19 0bbd 9813 3bbe
00000160: 2066 73bd 8375 fcbb d36d c0bd 74d7 86bd
00000170: 54d6 20be 1bf2 3dbe 63bb 2fbd cd8a f73d
00000180: 4e86 e0bd 05a1 59b9 fd01 5cbd 63e3 3d3c
00000190: 86e5 41be b3fe 803d f7cc 6f3d 495c 823c
000001a0: 2c0f 203d 3b30 493c f282 913c 65cc d53d
000001b0: f73a 4f3d 0f0f 70bd 138a b2bd b7a8 a33c
000001c0: 56ba e2bc 75ae 043e bd60 a53c 16fb b63d
000001d0: b065 d93c 1e80 75bb 6c18 fa3c eb49 633d
000001e0: 2c92 dfbc ff65 02bd e230 4e3d 90ee 393c
000001f0: 45d3 ddbd 4c30 4abd c39a babd 0816 863d
00000200: f0d4 e7bd f3dc 503d dc3a e6bb a3d7 b93d
00000210: 101c 1ebe d3de eebc 808b b43c 11f4 65bc
00000220: cd2e 58bd 4369 04be 9d19 89bd bd8e 273c
00000230: d3a7 c83c 62bc 1e3e 0366 7b3d 05ca 2b3d
00000240: 5d29 f43d bf51 0f3d 6220 74bd 9bc2 c23d
00000250: 9308 8b3d 6096 51bd e84c cf3d 4be4 103d
00000260: 68b3 593d 518a b1bc d759 edbd 52a8 55bd
00000270: d4f7 0b3d 44d4 0bbe 9615 33bd 228b 0fbe
00000280: 0560 1cbc e55a 7ebd 4656 ffbc e1bc 4a3c
00000290: 8850 8dbc ce83 1dbd 5a15 4bbc 0966 cdbd
000002a0: 414c a83c 5fe2 693d 967a 06bd 0e44 2dbe
000002b0: 09b5 873d 934a 44bc 667b b5bd 269a babd
000002c0: a5c8 683c d380 de3c 1587 95bd 6c8d d8bd
000002d0: c8cb eb3d d137 fdbc 652d a1bb 61e0 d0bb
000002e0: 3639 64bd 2605 78bc d94f 0e3e f7f2 10be
000002f0: 853e b2bc 3573 9d3c f887 a53d 8cdc 91bd
00000300: 705f 333d ea4b 933a c5ed 6bbd e30a 583d
00000310: 5577 0bbe 969e 2f3d 0255 cfbd abf8 823d
00000320: 31e7 acbc 48c9 343d 1258 3fbd b300 b4bc
00000330: 7833 343d 07d3 183e c0d3 84bc 21b6 9cbd
00000340: f8b3 a4bc 8467 843b 6b33 ecbd 719a b73c
00000350: 9698 1e3d 8ee5 693d 7733 c93c 8c62 af3d
00000360: 7259 4c3d 0cef 63bc a603 f1bd 56cd cebc
00000370: 3a63 103e 0ed4 08be da3a 8cbd 5d27 e9bd
00000380: 3d76 1dbe d5d3 80bd 5738 253d bde3 693d
00000390: 862b 2bbe d675 28be a458 8d3d da1b 83bc
000003a0: 440f 4abd c40d b8bc 9d72 a9bd 89b6 86bd
000003b0: 235b a63a 7ff4 49bd da71 4abd c78c 94bd
000003c0: 9bef 8cbd 5928 53bc e50f 86bd a32a 0e3e
000003d0: 272e aa3a 161d 05be 4109 4e3d 11f0 90bd
000003e0: e234 aebd 905c 0dbe 75ff 68bd b47f 13be
000003f0: e9ab dfbc 3c76 09be 15ed bebd 582e aebd
-0.11619731 0.1507129 -0.03878102 -0.05800903 0.038868096 -0.1517349 -0.12653492 -0.013520726
0.013869674 -0.015880082 -0.14602356 0.027498782 -0.072907604 -0.08456989 0.008899559 -0.13738759
-0.0049659084 0.0066034975 -0.057209626 0.041139398 -0.058328718 -0.00882834 -0.029965121 0.06930552
-0.057624694 -0.018311508 0.027380256 -0.035837542 0.06428877 -0.0044614873 0.02292089 0.06771645
-0.0051795566 -0.049439665 -0.011481598 -0.15976264 0.06429757 0.023453712 0.03011502 0.04341547
0.041522376 0.020730013 -0.041630514 -0.06418685 -0.06334029 -0.11761565 -0.085716814 -0.12806742
0.033165105 0.009294095 -0.059974376 -0.23521152 0.057416536 -0.0887986 -0.04017139 0.10135611
-0.024823505 -0.23464534 0.055247303 -0.058430333 -0.08144271 -0.11228096 -0.0461708 -0.101909354
0.03258888 -0.045566555 0.085890606 -0.11950839 -0.1896849 0.066371925 0.045143466 -0.05396104
-0.019683124 -0.02453878 -0.030206604 0.033487346 0.05987796 0.0790896 0.10036456 0.047013067
0.044574864 0.12113576 0.08619841 0.09500093 0.13480729 0.09723465 -0.03396034 -0.18269193
-0.059423566 -0.007704438 -0.09395947 -0.06584063 -0.1570676 -0.18549387 -0.042903315 0.12087021
-0.109631166 -0.00020754717 -0.053712834 0.011589858 -0.18935212 0.0629858 0.05854508 0.015913146
0.03907697 0.012279565 0.017762635 0.10439376 0.050593343 -0.05860811 -0.08717742 0.01997791
-0.027676743 0.12957175 0.02018773 0.089346096 0.026537746 -0.0037460397 0.030529223 0.055490416
-0.02729138 -0.031835552 0.050339587 0.011348382 -0.10831312 -0.049362466 -0.0911155 0.06547171
-0.113199115 0.050991964 -0.0070260596 0.090743326 -0.15440392 -0.029158985 0.022039175 -0.014035241
-0.052779008 -0.12930779 -0.066943385 0.010226903 0.024494087 0.1550155 0.061376583 0.041940708
0.11921952 0.03499007 -0.059601195 0.09509774 0.06788745 -0.0511688 0.101220906 0.035373967
0.05314961 -0.0216724 -0.11589401 -0.052162476 0.034171894 -0.13655192 -0.043721758 -0.14017919
-0.009544377 -0.062098403 -0.031169068 0.012374134 -0.017250314 -0.038455777 -0.012395227 -0.10029227
0.020544173 0.05710065 -0.03283175 -0.16920492 0.066263266 -0.0119806705 -0.08861427 -0.09111433
0.014207994 0.027161038 -0.073011555 -0.10573849 0.115134776 -0.030910404 -0.0049187415 -0.0063744043
-0.055718623 -0.015137946 0.13897647 -0.14155184 -0.021758327 0.019219974 0.080825746 -0.07122144
0.04379219 0.0011237834 -0.0575998 0.052744757 -0.1361974 0.04287585 -0.10123636 0.06395086
-0.021106334 0.04413727 -0.04671485 -0.02197299 0.043994397 0.1492425 -0.016214252 -0.07651926
-0.020105347 0.0040406603 -0.11533245 0.02241251 0.038719736 0.057103686 0.024560673 0.08563718
0.04988999 -0.013911974 -0.11768274 -0.025244396 0.14100352 -0.13362142 -0.068471625 -0.11384461
-0.15377136 -0.06290404 0.040336933 0.057101954 -0.16715822 -0.16451201 0.069016725 -0.016004492
-0.049330965 -0.022467501 -0.08273814 -0.065777846 0.0012691956 -0.049305435 -0.049424984 -0.07253414
-0.068816386 -0.012888038 -0.065460004 0.13883452 0.0012983725 -0.12999377 0.050301794 -0.07077039
-0.0850618 -0.13804841 -0.056884248 -0.14404184 -0.027303653 -0.13424009 -0.093225636 -0.08504933

a2c_network.actor_mlp.2.bias f4 [128]
00000000: 13ea 1e3d cff7 2e3d c097 153e 4694 793c
00000010: 6278 f63d 1dba 8fbd cb40 8ebd 1669 f2bd
00000020: c1cf efbd fd7d ab3d 412e 4dbe 9e6c 1e3e
00000030: 840f e6bd 3522 4ebe 762b 0abe 1629 f43a
00000040: 0ace 853d 018d 1a3c 42c1 3b3d 97ce bdbd
00000050: 7d8b cc3d da92 2c3d d441 dfbd d45e 883e
00000060: ae59 a1bd 471c 2a3d dd7e abbd a947 3fbe
00000070: 1622 3cbd edea c23d 95bb f83c 3079 9ebe
00000080: 6bef aabd 9764 23be 75c4 84be f8cd 233e
00000090: 91f8 21be 97a1 8abe 52c7 27bd 54d8 83be
000000a0: 7bf5 f03d aec4 993d f82e 043d f71f 4fbe
000000b0: ed91 8d3b 4718 2a3d 20c7 0cbe cc2f aa3d
000000c0: 156b 9bbc f6c2 a23d 961b 23be 508b bb3d
000000d0: 9179 3f3d 6af5 2e3c 348f 0e3e cd89 08bc
000000e0: cf99 45bd a6c9 563c d828 4ebd 3040 e33b
000000f0: 2264 003e 5fdc a03d 2410 d4bd 32d7 0a3e
00000100: a2cd 88bc 76ac 953d 66ec bf3c 89b6 72be
00000110: 58b5 ca3d b73c d0bd fbcc 823d 213c be3c
00000120: 0877 39be de78 4fbe 08a2 a9bd c283 77ba
00000130: c1f8 ddbd b40d 0abe b7f7 7e3d f61d efbc
00000140: 7faf 8dbe 3834 1cbd e372 013e fbfd cc3d
00000150: 1cca 36be a37f 2dbe d681 fcbd 33be fcbd
00000160: 8146 65bd d55d 0d3d c784 19be 9858 2b3d
00000170: cdaf fabc 1a3d 85bb 801e 38be 76e4 763e
00000180: 4c2c 88bd d63f 7b3d 49b6 ebbc 28e1 26bd
00000190: 8b76 31be 15a6 8ebd 2a7d 043e b66a 443d
000001a0: 4b88 c6bc 4610 9dbd 7157 353d dc3c a83d
000001b0: e299 67bd e57e acbd f19a 163e 7ab7 883d
000001c0: 3cb8 543d 3882 e43c abf9 923d b82b 48be
000001d0: 8cf3 51bd 4b16 2fbe a681 d13d f814 7abd
000001e0: 0ea6 24be a788 e3bd d6ee df3c 5243 953d
000001f0: 5751 03be a3e5 973d 8197 debd db3d 163e
0.03879745 0.042716797 0.1460867 0.015233105 0.1203468 -0.0701792 -0.06945952 -0.1183645
-0.11709548 0.0837364 -0.20037176 0.15471122 -0.11233428 -0.20130236 -0.13493142 0.0018627967
0.065334395 0.009433032 0.045838602 -0.092679195 0.09987543 0.042132236 -0.109012276 0.26634848
-0.07878433 0.041530874 -0.083738066 -0.1867968 -0.045930944 0.09517465 0.030362884 -0.30951834
-0.083464466 -0.1595634 -0.25931135 0.1599654 -0.15817477 -0.27076408 -0.04096157 -0.25750983
0.11765572 0.07508217 0.032271355 -0.20227037 0.004320374 0.04152706 -0.13747835 0.08309898
-0.01897196 0.07947342 -0.15928492 0.09157431 0.046746794 0.010678628 0.13921815 -0.0083336355
-0.048242386 0.0131096 -0.05033192 0.006935142 0.12538198 0.078545325 -0.10354641 0.13558653
-0.016699616 0.07308285 0.023428153 -0.23702444 0.0989787 -0.101678304 0.06386753 0.023222031
-0.18111813 -0.20260951 -0.08282858 -0.00094419357 -0.10838462 -0.1348179 0.062247958 -0.029189091
-0.27672955 -0.038135737 0.12641482 0.100093804 -0.17850536 -0.16943221 -0.12329452 -0.12340965
-0.05597544 0.034513313 -0.14992057 0.041832536 -0.030601406 -0.0040661218 -0.17980385 0.24110588
-0.06649074 0.061340176 -0.028773444 -0.04074207 -0.17330377 -0.069652714 0.12938371 0.04795333
-0.024234911 -0.076691195 0.044272844 0.08214733 -0.05654324 -0.08422641 0.14707543 0.066756204
0.051933512 0.027894124 0.07176527 -0.19547927 -0.051257655 -0.17098348 0.102298066 -0.061055154
-0.1607897 -0.11110049 0.027335566 0.07288231 -0.12823997 0.074168466 -0.10868741 0.14672033

a2c_network.actor_mlp.4.weight f4 [64, 128]
00000000: e7c7 9abc 36c2 86bd d150 a73b 8bf5 68bd
00000010: 23cd 8ebe 8322 083e d886 a23d af0f ac3c
00000020: c305 843d 2807 943c 3b00 773b afd2 a83d
00000030: d2fa dcbd 425c b1bd 62aa b13d 48c4 2e3d
00000040: 35e9 de3d 32aa 64bc c0b2 163e a865 2bbd
00000050: eb74 45be 47ec 2bbd 020a 8d3c 078d 963c
00000060: 88c2 853d bd12 8dbc ec50 4bbd 5c42 8c3d
00000070: f733 58bd 9c5f 72bd e9cd 9ebd 6939 443d
00000080: 6a35 33bd c6c9 673d c917 55bd 3d2a 9bbd
00000090: 4f7f 32bd e062 b8bb 4059 5a3d ca80 983d
000000a0: 4a23 833d a08a 043e 9ed1 873d e75a babc
000000b0: 4c13 2bbe 585e e73d fd53 28bd cf01 62bd
000000c0: a3bf cb3d 4d8b 7bbd ce6b a1bd 0ab6 3ebe
000000d0: 6373 a63c 9f53 763d f3bb 30be c794 45be
000000e0: a7db 043e 2ded 383e 2382 493e 0a4c 283e
000000f0: 74be ca3d 09e8 173d dc22 d5ba f43a ae3d
00000100: 1525 22bb 82dc 03be eb81 583b a8f6 773d
00000110: 996c 81bd 51fc 24bc a5d2 bbbc b914 c0bc
00000120: f7c9 023e 6759 a63d cecb 0ebd 852b 71bd
00000130: f807 f33c 59a0 a03d 8629 edbc b32a c93c
00000140: cb43 0ebd a4d6 583d d57d e1bc 38bd a9bd
00000150: 7628 b43c d3ca 54bd 3a4e 02be 684a 1bbd
00000160: df39 be3d 9da5 3f3e 68b5 853c d897 78bd
00000170: a13b e93d 6a12 ca3d 0918 8e3c 4504 6c3d
00000180: 7fdd 813e 0483 b83d d60d b5bd 38c4 00be
00000190: 7ed5 893d d3e2 a93c fe67 9abc 2a18 0a3e
000001a0: f9a3 25be 74ed 013e d6ff 5c3c 1a11 f63d
000001b0: 6577 bf3d 422c 1f3a 4cc0 753d 810d 183d
000001c0: d582 4f3e 6a15 13bd 5aa5 9dbd 84d6 133d
000001d0: 19b8 e83d c713 fe3a fc93 c4bd 97d7 0c3c
000001e0: 5ae1 85bd 56f3 14bd da14 c63d 9fe6 37be
000001f0: 1436 a7bd 445c a6bd a1c2 3fbd 6eea fd3d
00000200: 04d4 543c dcdf b7bc 095b ecbd 1b3b 713d
00000210: c204 93bd 2df0 11be c303 583d 50a0 2b3d
00000220: 134d 103e 4b70 54bd e538 17bc 9dc3 dd3c
00000230: ebd5 e33d e8b6 f03c 8b8d f6bd 83e6 bcbc
00000240: 0f8e 30bd edcb fc3c 4482 0dbc a596 02bd
00000250: 3712 d2bd 6216 26bd ac4a b53d 1d9a ddbc
00000260: fd8b 11be 0913 493d 31c3 5ebd e5b2 bfbc
00000270: 9994 d93b 0611 fbbd 8159 8cbd 1150 133d
00000280: 6cb5 ad3d a115 053e fad8 0ebe cc9c d6bd
00000290: 6e57 a8bd eeaa c63c f903 1a3d 7326 323e
000002a0: 6838 593c 6746 403c b407 ae3d b594 c73d
000002b0: 84bf 6fbd da7b b63d 2e0f 1abd 7dff 0cbe
000002c0: 9130 4fbd 90e9 ebbd 8052 ad3c 9e98 a0bd
000002d0: 9bdf 01bd 25af 83bd 4c5b 4b3d 4512 7fbd
000002e0: 55c9 0c3d f665 3c3d 6f5a ee3d fcc3 063d
000002f0: 279c cebd 704a 15be a42f 39bd a52e 433c
00000300: 019e 333d f0f9 85bd d9ed dabc 468c f03d
00000310: 1c98 8a3d 31bf d5bc f77a 1f3d c142 6e3d
00000320: 9fc6 01be b166 173b c89a 9f3d 7644 a8bd
00000330: 77de ba3d 164d 133e d9fc 20bd f8c7 c23d
00000340: 7827 de3d 2eb7 3f3d 30b3 a63c 1bc8 f03c
00000350: 8c5a 1f3d 84c5 61bd 1013 6cbd 9b8e 193d
00000360: 17ae 34bd 8bdf 0abe 72ca d0bd 8c02 9abc
00000370: 2f8d 943a 796b 073c 49cd cabc fe6c 053c
00000380: 7dde 2c3c d922 933d ac17 753d c704 ad3d
00000390: 4fda 403d 7f98 bfbd 7a2b 97bc 622d c0bb
000003a0: 2f1c 703c fcf8 76bc 41ec 94bb 9c47 653d
000003b0: b1ee 393d 9c38 1abd b2fb 323d 214a 25bd
000003c0: c797 14be a20a 56be ee6b 2c3c 9f3d acbd
000003d0: 10bf 853c 30d4 9f3c 2f03 68be 757f 33bd
000003e0: 8f6d 9d3d 93a8 143c d21f 84bd 6de5 f9bc
000003f0: bad1 9e3d 87a8 bd38 6c4f 09bd d509 8f3d
-0.018894149 -0.065800115 0.0051060696 -0.056874793 -0.27890882 0.13294415 0.07935876 0.021003572
0.064464115 0.018069819 0.0037689346 0.0824331 -0.10790028 -0.08660175 0.08675076 0.042667657
0.108843245 -0.013956593 0.14716625 -0.041844994 -0.19282882 -0.04197338 0.017216686 0.018377794
0.065312445 -0.01722085 -0.04963772 0.068485945 -0.052783933 -0.05917321 -0.07754118 0.047906313
-0.04375211 0.05658891 -0.052024636 -0.07576416 -0.043578442 -0.005627021 0.05330777 0.074464396
0.06403215 0.12943506 0.06631778 -0.022748424 -0.1670658 0.112972915 -0.041095722 -0.055177506
0.09948661 -0.061412144 -0.0788189 -0.1862413 0.020318693 0.06013834 -0.17259197 -0.19295035
0.12974416 0.18059225 0.1967855 0.16435257 0.09899607 0.03708652 -0.0016260999 0.08507338
-0.002474134 -0.12877086 0.0033036422 0.060537964 -0.063195415 -0.010069923 -0.022927592 -0.023447381
0.12772356 0.08122521 -0.034862332 -0.058879394 0.029666886 0.07843084 -0.028950464 0.024556493
-0.03473262 0.052939072 -0.027525822 -0.08288044 0.02199195 -0.05195124 -0.12725154 -0.037912756
0.09288382 0.1871552 0.016321853 -0.060691684 0.113883264 0.098667935 0.017345445 0.05762126
0.253643 0.09009364 -0.088405296 -0.12574852 0.067301735 0.020738041 -0.018848415 0.1348578
-0.16175832 0.12688237 0.01348873 0.120149806 0.093489446 0.00060719636 0.05999784 0.037122253
0.20264752 -0.035909094 -0.07697554 0.03609325 0.11363239 0.0019384556 -0.09598538 0.0085963225
-0.06537123 -0.036364876 0.09671946 -0.17959069 -0.081646115 -0.08123067 -0.046816472 0.123982295
0.012990002 -0.022445612 -0.11540801 0.058894258 -0.07178642 -0.14251776 0.052737962 0.041900933
0.14091901 -0.051864903 -0.009229873 0.027070815 0.11124786 0.029384091 -0.12038716 -0.023059135
-0.043104228 0.030858958 -0.008637015 -0.031881947 -0.102573805 -0.04054869 0.08852133 -0.027051026
-0.14213558 0.04909042 -0.054385368 -0.023400733 0.0066400287 -0.12259106 -0.06853009 0.03596503
0.08481869 0.12996532 -0.13949957 -0.104791254 -0.08219801 0.024251428 0.037601445 0.1739748
0.013258077 0.011735535 0.08497563 0.097451605 -0.058532253 0.089103416 -0.037612133 -0.13769336
-0.050583426 -0.11519158 0.021157503 -0.078416094 -0.031707387 -0.064298905 0.049647614 -0.062273283
0.034371693 0.045995675 0.116383426 0.03290175 -0.100883774 -0.14579177 -0.04521145 0.011912976
0.043851856 -0.065418124 -0.026724743 0.11745505 0.06767294 -0.026092144 0.038935628 0.05816913
-0.12673424 0.002310198 0.07793194 -0.08216183 0.09124463 0.14384875 -0.039303634 0.09510797
0.10847372 0.046805553 0.020349115 0.029392293 0.03890471 -0.055120006 -0.057635367 0.037489515
-0.044111338 -0.13561837 -0.101948634 -0.018800043 0.001133358 0.00826537 -0.02475609 0.008143662
0.010551092 0.07184381 0.05983703 0.08448177 0.047083195 -0.09355258 -0.018453348 -0.005864785
0.014655157 -0.015074011 -0.004544765 0.055976495 0.04539365 -0.037651643 0.043697067 -0.040353898
-0.14511023 -0.20902494 0.010523779 -0.08410191 0.016326457 0.019510359 -0.22657464 -0.043822724
0.07686912 0.009073394 -0.06451382 -0.030504907 0.07754846 9.043613e-05 -0.03352301 0.06984297

a2c_network.actor_mlp.4.bias f4 [64]
00000000: 3670 83bd a9bc d5bc ff59 29bd 236e 4cbd
00000010: b5a9 58bd f91e 9ebb c8e1 15be a374 153c
00000020: 3b0f 19be bdde 61bd 722c a7bd 2850 9dbc
00000030: 7d2c c5bb 1052 f1bc 43ad b3bd f0e6 4bbe
00000040: ba43 d83b bd5b a2bd 1d4c 143d 8351 d0bd
00000050: ae31 87bd 5f5b 893d 9604 06bd f311 04be
00000060: 418e b2bd 08c3 afbd a69e 1abe b4a2 9b3d
00000070: 76ee 4cbd 784d 34be 82f7 c4bd d035 c23d
00000080: cfdf 79be 0616 c8bd be65 b5bb 592e 173c
00000090: f356 173e 707b 40bd 2d86 1ebe 6e30 b4bc
000000a0: e251 d3bc 3a39 d93d 796b 673d 597d f2bd
000000b0: 9f37 80bd 9efb 9f3d 1d58 a53d e4f4 e8bd
000000c0: ffd0 4bbe 91b3 6a3d dd63 2ebe fe41 e4bd
000000d0: cc00 00be dfbf 27be c711 723d 43bb 98bd
000000e0: 0fb5 f53c aa90 173d 5548 9a3c 91ed 07be
000000f0: 1d3d 873c 2382 28bd 8c5c 07be b31b a53c
-0.06417887 -0.026090937 -0.041345593 -0.049909722 -0.05289622 -0.0048254696 -0.1463691 0.009122047
-0.14947216 -0.05514406 -0.08162774 -0.01920326 -0.0060172663 -0.029458076 -0.087732814 -0.19912314
0.0065998705 -0.07927654 0.0362054 -0.10171797 -0.066012725 0.06706881 -0.032719217 -0.12897472
-0.08718539 -0.08582121 -0.15099582 0.075993925 -0.0500321 -0.17607677 -0.09617521 0.0948292
-0.24401782 -0.09769826 -0.0055358103 0.009227359 0.14779262 -0.04699272 -0.15480871 -0.02199575
-0.02579588 0.10606618 0.05649898 -0.118403144 -0.06260609 0.07811664 0.08073447 -0.11374834
-0.19903944 0.057300154 -0.17030282 -0.111453995 -0.12500304 -0.16381787 0.059098985 -0.07457592
0.029993562 0.037003197 0.018833319 -0.13274218 0.016508633 -0.041139733 -0.13218898 0.02015481

a2c_network.value.weight f4 [1, 64]
00000000: eeb8 9fbc e1bb 263b 3806 493b f18a 0ebd
00000010: a0db ac3d 1063 3abc dd91 a2bc 347c 8e3d
00000020: 50c6 0bbc 1ab9 353d 6dfb 1c3d eb70 55bd
00000030: 2b30 00be 8a00 de3c 4d99 1ebd 7e2b 87bd
00000040: 856d 79bd 0d3f 683c 8493 34bd a809 c1bd
00000050: f49a a5bc 02a9 753e d14f 073d ae3e 1cbe
00000060: 1c43 01be 770f a8bd 84cf 8d3d 2ae6 8bbd
00000070: 1f8d efbd 3cbf 60be 1b75 1d3e efe7 ea3c
00000080: ce0f c13c bc81 8c3c a5af 493c 0da4 d7bd
00000090: af47 443c 68a7 bfbd 57ae 2b3e 69fa 6e3d
000000a0: 6e59 863b 94f0 aa3e e8de f43b f886 2e3c
000000b0: f09d b83d 0cec e0bc 88ee 9d3d f2b2 323d
000000c0: 7f06 5f3d e2d3 d3bb 3902 c73c bc11 6dbe
000000d0: a103 9a3c dcbc f23d 9ba7 1abd 3582 ac3d
000000e0: 611e 60bc 7aa4 84bc d504 75ba 1f5d f83d
000000f0: 2317 5f3d c7dd 08be fb02 0b3e ff2e 10bd
-0.019497361 0.0025441574 0.0030673873 -0.034800474 0.08440328 -0.011376157 -0.019844944 0.069572836
-0.008531168 0.04436598 0.038325716 -0.05210964 -0.12518375 0.027099866 -0.038720418 -0.06600092
-0.06089546 0.014175189 -0.044085994 -0.0942567 -0.020215489 0.23990253 0.033035103 -0.15258285
-0.12623256 -0.08206075 0.06924346 -0.0683101 -0.116968386 -0.2194795 0.15376703 0.028675048
0.023567107 0.017151706 0.012309943 -0.10529337 0.011979981 -0.09358102 0.16765724 0.05834428
0.0041000163 0.33386672 0.0074728616 0.010652296 0.09014499 -0.027456306 0.07711512 0.043627687
0.054449555 -0.0064644674 0.024293052 -0.23151296 0.018800559 0.11852428 -0.037757497 0.084232725
-0.013679118 -0.01619171 -0.00093467283 0.121271364 0.054465424 -0.13365851 0.13575356 -0.03520107

a2c_network.mu.weight f4 [12, 64]
00000000: 8622 01bd 8f0d f8bd 9e90 14be afa7 be3c
00000010: 4d61 a63d 9fe2 863d 85b0 843d 7bf8 943d
00000020: 1dc1 c6bd 44db 173d 606b 463d e702 db3d
00000030: 7300 913d c648 54bd 58e6 203e ec9a 643d
00000040: cd50 e23c fc80 3bbd 33f4 6f3d a8a1 113d
00000050: d1ab 853d 85dc 17bc e04a 85bc 40ea 81bc
00000060: 4b15 b1bd 42e5 30be ca72 6cbc cc7a a93d
00000070: dd57 823d a994 88bd 41bc fe3c 0fcb bebd
00000080: 4850 b3bd 6904 4dbe ed9f 7abd ebd9 cd3d
00000090: 486b 3e3d bf3b 2a3c 5e36 1a3d e562 883d
000000a0: f86c b5bc 9058 543c 8787 443d 6d18 103d
000000b0: e5d6 37bb 1536 2abd 42c5 973d 0aa0 623d
000000c0: 8bd7 283d 7128 f23d 905e 023c a138 723d
000000d0: 5503 75bd 15e1 84bd 0b4a 263b eb04 c0bb
000000e0: 5091 d5bd c2fc db3d 0a14 b33c 509b ed3d
000000f0: c256 103d fca9 ac3c c592 c73c 251b 87bb
00000100: 139b 7bbd 0be7 0c3e 69f8 b23d ef66 953b
00000110: 51f5 b1bd ee6d 89bc 51cc 8abd 7639 a13d
00000120: 5575 c7bd 03f1 20bd f869 a1bd 655c 593d
00000130: 016c a0bd 8340 81bd bffa 8cbc 5504 d53d
00000140: 7e21 953d 09ad 89bc 9a69 923c 9393 6fbd
00000150: bbf9 f1bb 6c69 a73c 60b1 b5bc 3bc8 8d3d
00000160: 0558 21bd 4ff6 f63c ae98 7cbc e6de 05bd
00000170: f81f c7bc c0dd cf3c f931 8e3d a948 203e
00000180: 66ec 4fbd 065b cbbd c627 243d 6bc2 603d
00000190: 1f8b bdbd aee4 b43c 96a9 9cbc b845 a3bc
000001a0: f243 eebd 2f7c c93d 41be 913d 99f3 cc3d
000001b0: 6318 06be 5252 963d 1174 f6bc 8784 6dbd
000001c0: 6acb d0bd c9cf 863e a9ba 033e 0654 23bd
000001d0: ade5 1dbb e929 03be 23f5 88bb 3eba 833d
000001e0: db96 25ba e134 f93c f358 22bd 7e7e 4dbc
000001f0: f8f3 9a3c 5679 2a3d c3f4 e0bd 6e7a 663c
00000200: 102e b33b dc42 7ebc 1a17 f43c ccb6 a4bb
00000210: 9283 7ebb f674 a5bd 3195 ee3c 4e5e 35bd
00000220: c343 6f3d 76f5 863b 30d8 713c 7b62 893b
00000230: 8214 353c 0ed9 34bc 0856 a83c e271 053e
00000240: 6867 41bd 3722 7a3d 16cf 94bd eb83 0f3d
00000250: c7ea 143d 59f6 9abc f0ec 3a3c ba44 5e3d
00000260: 8f1f 273d f333 403d 2648 9b3d a2d3 0fbd
00000270: 354f 1fbc 10d6 dd3c 771c d03b a95a 0fbd
00000280: 71b6 f13d 626c 72bb 4525 a5ba 5806 97bc
00000290: 28ff 00be 97f6 e73c 0173 923c 6e3e b9bc
000002a0: c60c e1bb 2b61 27bd 4ed6 48bd b4f5 883d
000002b0: cafd 78bb 5d79 83bd 2f74 7fbd 6773 113d
000002c0: af0d af3d f940 d7bd 1f5d b83d 7bfb 983c
000002d0: 64c7 b03d d1b8 a83d 4aad 84bc dce8 4a3d
000002e0: 4457 84bd 0fde 40bb a37c 8d3b ebb4 023d
000002f0: 1bfc 893b e088 ba3c 5b32 1a3d b541 853b
00000300: d4b4 fe3d bfae 4cbd 9a36 653d 897d b83d
00000310: 5f02 23bd 209a 24bd 00df d5bc 4080 edbb
00000320: 0ed1 a63b eac0 4f3c 3398 c53c 4b6f 83bc
00000330: 7970 a13d 8732 9fbc 1f2c 4abc 260c fdbc
00000340: a4af a63d 569e 02bb 9a94 d53c a606 993d
00000350: f4c4 aabd 46fb 82bc 4151 803c 472e 983d
00000360: 6a6c d9bd bb79 2e3c 1aab 0e3d 68ba 9dbd
00000370: 2644 debd 29a5 063d 4037 3b3c 268a d3bb
00000380: c5f7 793b 705e 843b f941 dabd 9bc8 18bd
00000390: 7936 813d 5547 793d 8521 9cbd 432e 36bd
000003a0: 9989 b9bd 0583 943d f9d3 603d 6f28 b7bd
000003b0: 73e4 d13c 3408 febc 09a7 533d 0c6d 4fbd
000003c0: b698 97bc 0d56 633d 9bd3 173e 7d33 aa3d
000003d0: 485a 2ebc ec7b 913d 045b be3d 4dd2 bbbd
000003e0: 8e0e f73c 8d72 9dbd 3554 8ebd dc93 d4bd
000003f0: da97 a43b 227d babd 05b7 60bc bc5d 813c
-0.031527065 -0.12111961 -0.14508292 0.023273317 0.081240274 0.06586193 0.06478981 0.072739564
-0.09704802 0.037074342 0.048442245 0.10693913 0.07080164 -0.051827215 0.15712869 0.055811808
0.02762642 -0.045777306 0.058582496 0.035554558 0.06526912 -0.009268885 -0.016271055 -0.01585877
-0.086466394 -0.17274955 -0.014431665 0.08275375 0.06364415 -0.0666898 0.031095626 -0.09316074
-0.08755547 -0.20021214 -0.061187673 0.1005133 0.04648903 0.010390221 0.037649505 0.06659488
-0.022146687 0.012960568 0.04798081 0.035179544 -0.002805167 -0.041555483 0.07410671 0.055328406
0.041221183 0.1182412 0.007957116 0.059136037 -0.05981763 -0.064882435 0.0025373723 -0.0058599613
-0.10428107 0.10741569 0.021860141 0.11601889 0.03523899 0.021077149 0.024361977 -0.004123109
-0.061427187 0.13760011 0.08738787 0.00455939 -0.086893685 -0.016776051 -0.067772515 0.07872288
-0.09739176 -0.039292347 -0.0788154 0.05306663 -0.078331 -0.06311133 -0.017209409 0.10401217
0.07281779 -0.016806142 0.01787262 -0.058490347 -0.0073845065 0.020436011 -0.022179306 0.069229566
-0.039390583 0.030146746 -0.015417261 -0.032683276 -0.024307236 0.025374293 0.06943125 0.15652718
-0.050762556 -0.09929471 0.040076993 0.05487291 -0.09255051 0.0220817 -0.019123834 -0.019930705
-0.11634053 0.09838139 0.07116366 0.100074 -0.1309524 0.0733992 -0.030084642 -0.057987716
-0.10195048 0.26330402 0.12864174 -0.039875053 -0.0024093196 -0.12808956 -0.004179613 0.06432007
-0.00063167297 0.030420722 -0.03963561 -0.012542365 0.018915161 0.04161962 -0.109841846 0.014067275
0.0054681376 -0.01551887 0.029796172 -0.005026674 -0.0038835746 -0.08078949 0.029123874 -0.04427939
0.058414232 0.0041186167 0.014761016 0.004192648 0.011052253 -0.011038078 0.020548835 0.13031724
-0.047217757 0.061067786 -0.07266061 0.035037916 0.036356714 -0.018916296 0.011409029 0.05426476
0.04080158 0.046924543 0.075821206 -0.03511394 -0.009723474 0.027079612 0.0063510495 -0.03499857
0.11802376 -0.003699087 -0.0012599608 -0.018435642 -0.12597334 0.028315825 0.017877104 -0.022612777
-0.006867978 -0.04086415 -0.049032502 0.06687489 -0.0037993067 -0.064196326 -0.06236666 0.035510447
0.08547532 -0.105104394 0.090021364 0.018674603 0.08631781 0.08238376 -0.016195912 0.04953848
-0.06461957 -0.0029429232 0.0043178364 0.031910818 0.0042109615 0.022770345 0.03764568 0.004066671
0.12436834 -0.04997134 0.055960275 0.09008319 -0.039797183 -0.040186048 -0.026107311 -0.0072479546
0.005090839 0.012680272 0.024120426 -0.01604428 0.078827806 -0.019433273 -0.012339621 -0.030889582
0.081389695 -0.0019930801 0.026071835 0.07471971 -0.08338347 -0.015988957 0.015663745 0.07430702
-0.106163815 0.01064914 0.034831144 -0.0770157 -0.10852842 0.032872353 0.011426747 -0.0064556776
0.0038142067 0.004039578 -0.106571145 -0.037300687 0.06309218 0.060859043 -0.07623581 -0.044477712
-0.09059448 0.072515525 0.054889653 -0.08943259 0.025621628 -0.03100977 0.05167297 -0.050641105
-0.018505435 0.055501986 0.14826815 0.08310602 -0.010641642 0.07103714 0.092947036 -0.09170971
0.030158307 -0.076878645 -0.06949655 -0.103797644 0.005022985 -0.091058984 -0.01371551 0.015791766

a2c_network.mu.bias f4 [12]
00000000: 893d 3f3c 3d58 473d 6b0e 74be acd5 debc
00000010: 6fca 513d d138 ce3c 5251 bb3c c6b5 693d
00000020: 8970 7b3c 33f5 dabc 95f0 943c a4a7 6bbd
0.011672386 0.048668135 -0.23833625 -0.027201496 0.051218446 0.025173577 0.022865925 0.05705812
0.015346655 -0.026728248 0.018181125 -0.05753292

exp_avg f4 [12]
00000000: de9d beb9 d193 fab9 861b c33a f5e0 5aba
00000010: 8ab3 ce39 ecda 9f3a c1d0 bdba ce37 c439
00000020: 237a c5b9 9282 61ba f6c9 033b 9ce6 69b9
-0.00036357244 -0.00047793848 0.0014885522 -0.0008349561 0.0003942515 0.0012195981 -0.0014481769 0.0003742561
-0.00037665767 -0.00086025253 0.0020109392 -0.0002230652

exp_avg_sq f4 [12]
00000000: 3c0c 9e3a dd31 bb3a ff69 213a 7ace f53a
00000010: fbfb ac3a 2f30 313b 1789 0d3b 3e13 f63a
00000020: 0b33 4b3a d202 9a3a 573d 9c3a 2069 a33a
0.001205809 0.0014281828 0.0006157457 0.0018753551 0.0013197655 0.0027036776 0.0021596604 0.0018774045
0.00077514414 0.0011750108 0.0011920136 0.0012467243

exp_avg f4 [256, 32]
00000000: c954 6cba 9655 03b8 9bf8 0d38 e314 073a
00000010: d5d0 c439 ada5 57b9 a7ca 7838 71ae e1b8
00000020: 2815 54b8 c8b5 71b8 e502 7f36 909a b837
00000030: 5b6b 7cb7 d207 0c37 6f6c 4537 ae54 87b8
00000040: 5bc2 6339 cfbe bfb6 6fdd 5b37 6316 1038
00000050: 51e2 90b7 ddd9 d237 f00e 4cb3 c981 a4b7
00000060: a551 58b7 c9a0 52b6 0000 0000 0000 0000
00000070: 0000 0000 0000 0000 0000 0000 0000 0000
00000080: a82d 9b39 1243 21b8 9e22 26ba c8b0 bab8
00000090: 620c 01ba 0321 acb8 3760 1cba d3bb efb7
000000a0: d553 dfb8 d993 0038 b7f1 98b8 e4dc a837
000000b0: 5be1 b037 5f69 c837 4803 b037 4e4d 23b8
000000c0: 0651 7839 0c83 8ab7 df16 bb37 b66d bc39
000000d0: b4d6 54b9 b1d6 c8b8 d78e 2b38 2125 8338
000000e0: 6735 21b9 e634 b9b6 0000 0000 0000 0000
000000f0: 0000 0000 0000 0000 0000 0000 0000 0000
00000100: 7fb1 80b9 89bc 6f39 c9cc f839 60e9 fdb5
00000110: e46e cf39 c169 8238 1ec6 d539 db17 22b8
00000120: 154f 9b38 f334 20b6 09e7 ab38 cbf5 ff36
00000130: 53fe 1ab8 f37d 9338 7b54 9138 92df dfb6
00000140: 83fa a5b8 3642 93b8 8552 9838 60ae fdb9
00000150: 4cdd 04b7 e80c 62b7 0002 1fb7 2c66 5237
00000160: 38e8 acb6 5688 b0b6 0000 0000 0000 0000
00000170: 0000 0000 0000 0000 0000 0000 0000 0000
00000180: b1f0 2e3a b774 183a 8ea4 223a 2958 b3b9
00000190: 6ff0 be39 9e7b 5438 9982 213a 9501 4938
000001a0: 9458 f338 a5e1 6738 278a 7f38 5985 35b6
000001b0: cb45 ceb6 cc00 bfb8 0e66 cab8 848b f438
000001c0: 615f a6b7 cbdf b338 495d ceb8 d1b7 59ba
000001d0: 546e 6ab9 9e0f 0cb9 d31e 4138 481f d038
000001e0: e9a5 30b9 76e0 3ab6 0000 0000 0000 0000
000001f0: 0000 0000 0000 0000 0000 0000 0000 0000
00000200: b0d1 60b9 da96 9bb9 e7da a839 e5fd 9b38
00000210: 4b43 abb7 1eb4 1239 902b ccb8 143d dcb8
00000220: 6004 95b8 d6e4 03b7 e9d5 6438 11ef 8338
00000230: 7d6b 13b9 15f5 9138 7b89 8638 e71c 14b8
00000240: 555d ceb9 96be 98b8 a950 8e38 9f0e 73b9
00000250: 411a 1838 ac6e f437 105c 20b8 0fa0 bab7
00000260: ac44 ea37 e7c5 24b7 0000 0000 0000 0000
00000270: 0000 0000 0000 0000 0000 0000 0000 0000
00000280: e3a2 80b9 33d9 ae39 7fd5 263a 940a 4e39
00000290: 5808 273a 11d6 26b9 5e9d 273a e3e8 cdb8
000002a0: bfe8 2cb8 08c9 9ab6 a1e1 b736 f127 1338
000002b0: b004 1ab8 8144 8b37 97c9 5337 1890 17b8
000002c0: f484 8339 a826 a0b7 b522 5237 6675 16ba
000002d0: 3c72 0b37 ca2f 7bb6 0152 a2b6 ab6e c235
000002e0: 3461 b536 acf7 abb6 0000 0000 0000 0000
000002f0: 0000 0000 0000 0000 0000 0000 0000 0000
00000300: b095 06b9 e012 e239 9a00 ae37 2abe 84b8
00000310: f8d3 e239 2b1c 1039 e8f8 ef39 c73c 41b8
00000320: 8b90 8db7 bd07 ebb7 3093 21b8 4e19 ab37
00000330: 9d03 03b8 9aef 3cb7 0200 b6b6 b022 20b8
00000340: 9845 fd39 f3da 9c37 aed7 92b6 ccdd d0b8
00000350: eb17 9d38 c3e8 c037 3004 1437 99d0 4fb7
00000360: c719 6e38 96ed 2bb7 0000 0000 0000 0000
00000370: 0000 0000 0000 0000 0000 0000 0000 0000
00000380: 4258 e336 e3e5 0db9 7aac 7238 1c7b 1b39
00000390: 8725 7eb8 fc09 adb8 1fa6 09b9 adb2 9238
000003a0: 4d1c 1139 66c2 1838 4299 6938 9b6a 57b8
000003b0: cd12 8138 0e8b 48b9 e7c9 4bb9 a214 4039
000003c0: 47bf e2b8 9c5e 4639 0f35 4db9 5053 e3b8
000003d0: 0b64 b1b9 1deb 22b9 3bf4 9238 0ad7 ef38
000003e0: cd6c 87b9 2c85 0337 0000 0000 0000 0000
000003f0: 0000 0000 0000 0000 0000 0000 0000 0000
-0.00090153195 -3.1312542e-05 3.384855e-05 0.00051529537 0.00037539625 -0.00020565717 5.9316542e-05 -0.00010761328
-5.0564442e-05 -5.7628175e-05 3.7999646e-06 2.2006483e-05 -1.5045366e-05 8.346471e-06 1.1767362e-05 -6.4530745e-05
0.0002172081 -5.7144566e-06 1.3104974e-05 3.4353125e-05 -1.7271524e-05 2.5135401e-05 -4.7511037e-08 -1.961076e-05
-1.2893613e-05 -3.1386028e-06 0.0 0.0 0.0 0.0 0.0 0.0
0.0002959792 -3.8447855e-05 -0.0006337556 -8.902099e-05 -0.00049228047 -8.207748e-05 -0.0005965265 -2.8578483e-05
-0.000106490836 3.0655272e-05 -7.292948e-05 2.013002e-05 2.1085774e-05 2.3890925e-05 2.0982363e-05 -3.8934224e-05
0.00023681307 -1.6511905e-05 2.2302787e-05 0.00035939895 -0.00020297879 -9.5767326e-05 4.0902607e-05 6.2534826e-05
-0.0001537405 -5.519588e-06 0.0 0.0 0.0 0.0 0.0 0.0
-0.00024546307 0.00022863051 0.00047454823 -1.891789e-06 0.00039564737 6.218581e-05 0.00040774135 -3.8646027e-05
7.405706e-05 -2.3872678e-06 8.196949e-05 7.6282063e-06 -3.695332e-05 7.032966e-05 6.9298745e-05 -6.671945e-06
-7.9144746e-05 -7.021839e-05 7.263295e-05 -0.0004838584 -7.919338e-06 -1.3473655e-05 -9.477604e-06 1.2540764e-05
-5.1530333e-06 -5.2610803e-06 0.0 0.0 0.0 0.0 0.0 0.0
0.0006673439 0.0005815732 0.000620433 -0.00034207225 0.0003641876 5.0659866e-05 0.0006161123 4.7923608e-05
0.00011603642 5.528484e-05 6.0925402e-05 -2.704872e-06 -6.1474034e-06 -9.107738e-05 -9.65112e-05 0.000116608135
-1.9833156e-05 8.57707e-05 -9.840221e-05 -0.0008305284 -0.0002235708 -0.00013357258 4.6043493e-05 9.9240395e-05
-0.00016846474 -2.7846813e-06 0.0 0.0 0.0 0.0 0.0 0.0
-0.0002144042 -0.00029676297 0.00032206552 7.4382675e-05 -2.0416124e-05 0.00013990744 -9.735592e-05 -0.00010501794
-7.1056886e-05 -7.8614885e-06 5.4558655e-05 6.291096e-05 -0.00014059055 6.959789e-05 6.415226e-05 -3.5312867e-05
-0.0003936092 -7.283424e-05 6.786112e-05 -0.00023179733 3.6264075e-05 2.9138602e-05 -3.8232713e-05 -2.2247461e-05
2.7926952e-05 -9.8212395e-06 0.0 0.0 0.0 0.0 0.0 0.0
-0.00024535423 0.00033349692 0.0006364211 0.00019649632 0.0006371788 -0.0001591074 0.0006393994 -9.81854e-05
-4.1224757e-05 -4.6129608e-06 5.4800917e-06 3.508473e-05 -3.6720827e-05 1.660199e-05 1.2623516e-05 -3.6135403e-05
0.00025085325 -1.9091487e-05 1.2525056e-05 -0.00057395396 8.311643e-06 -3.7429731e-06 -4.8375227e-06 1.4486335e-06
5.4055363e-06 -5.12503e-06 0.0 0.0 0.0 0.0 0.0 0.0
-0.00012834999 0.00043120142 2.0742697e-05 -6.329671e-05 0.00043264008 0.00013743404 0.00045771082 -4.607139e-05
-1.6875818e-05 -2.8017786e-05 -3.852247e-05 2.0396572e-05 -3.12362e-05 -1.126146e-05 -5.4240236e-06 -3.8179278e-05
0.00048307772 1.8698605e-05 -4.3762475e-06 -9.959526e-05 7.4907985e-05 2.2996572e-05 8.822462e-06 -1.2386729e-05
5.676763e-05 -1.02477115e-05 0.0 0.0 0.0 0.0 0.0 0.0
6.7754017e-06 -0.00013532447 5.7857927e-05 0.00014827814 -6.059327e-05 -8.2511426e-05 -0.00013127223 6.9951035e-05
0.0001383882 3.642067e-05 5.569426e-05 -5.135928e-05 6.154701e-05 -0.00019125288 -0.00019434803 0.00018318233
-0.00010812148 0.00018917996 -0.0001957009 -0.00010839722 -0.0003383461 -0.0001553711 7.007314e-05 0.00011436462
-0.0002583027 7.839215e-06 0.0 0.0 0.0 0.0 0.0 0.0
