omniisaacgymenvs/runs/WEE/nn/last_WEE_ep_1300_rew_768.77936.pth (torch, 623514 bytes, 36 tensors)

value_mean_std.running_mean f8 [1]
-20.89235544789148
00000000: f119 1968 71e4 34c0

value_mean_std.running_var f8 [1]
1648.5055326597592
00000000: e782 5aaa 05c2 9940

value_mean_std.count f8 []
340787201.0
00000000: 0000 0001 0050 b441

running_mean_std.running_mean f8 [32]
0.011448843639769423 0.012071727458123616 0.469009294907305 -0.07646751341225488 0.01862050025993695 -0.007737937328080461 0.4335647753637958 0.046795181998607584
0.013123332189223083 0.04295563675060058 0.0039059685867040166 -0.0006210648187820888 0.08935981169871983 -9.931464051206246e-07 -2.206651856003425e-05 0.4285319760634065
0.5126212921032406 -0.0001064243769566238 2.39674438127548e-05 -0.12991985303135423 0.0008414679735463907 0.0024718606683060106 -0.003579163332793799 -0.17524583285115847
0.02453323678652414 -0.026209660539324997 0.0 0.0 0.0 0.0 0.0 0.0
00000000: 5320 14c8 7d72 873f da65 1cd5 0fb9 883f
00000010: b766 c98f 3f04 de3f 38e4 4ffd 5f93 b3bf
00000020: 113a 9b9e 4011 933f 6a9f 33bc d0b1 7fbf
00000030: 4ea5 b878 86bf db3f f5b9 96c0 89f5 a73f
00000040: 28be 89d4 67e0 8a3f 659d 0bfe 47fe a53f
00000050: 25e2 d9ea 68ff 6f3f 853f ed8a de59 44bf
00000060: c59d d2dc 48e0 b63f d468 4005 88a9 b0be
00000070: 9a55 dc9b 6f23 f7be afe2 9e61 116d db3f
00000080: 4122 9ac4 6467 e03f 3e3f c5df 04e6 1bbf
00000090: 5425 9032 b621 f93e 2476 efb7 36a1 c0bf
000000a0: da5d a8b6 be92 4b3f 786d 6117 de3f 643f
000000b0: 97b8 c3ae 0c52 6dbf ac91 6d98 746e c6bf
000000c0: 910f a7a6 3d1f 993f d032 6c8b b4d6 9abf
000000d0: 0000 0000 0000 0000 0000 0000 0000 0000
000000e0: 0000 0000 0000 0000 0000 0000 0000 0000
000000f0: 0000 0000 0000 0000 0000 0000 0000 0000

running_mean_std.running_var f8 [32]
0.002870741088725128 0.001450835038888326 0.0015962656219058917 0.6237377317885751 0.011897347178127389 0.035267725722166736 0.1354059360212131 0.759895781174082
0.7791896673244085 0.713818923528511 227.53024831341054 148.33774083697196 222.25356692926692 4.32686027839683e-06 5.385452369055565e-06 2.5806006719875056e-05
0.2709921721906201 0.0002465855297021818 0.00027440495388222826 0.4488523209646804 0.005783326659209315 0.005838277094756426 0.0036651437428690758 13.963084996970807
15.626167127209506 7.719783689293436 5.868764989596045e-09 5.868764989596045e-09 5.868764989596045e-09 5.868764989596045e-09 5.868764989596045e-09 5.868764989596045e-09
00000000: 5167 ec62 6184 673f 1986 cf42 3ec5 573f
00000010: d47e 1329 3927 5a3f 5205 ead4 a8f5 e33f
00000020: f74f 50e8 a25d 883f 5f79 2981 9c0e a23f
00000030: c49b 7251 fb54 c13f 8f5a 10f5 1051 e83f
00000040: 3643 512b 1fef e83f a544 7ac8 9ad7 e63f
00000050: 709b 4fcb f770 6c40 2f2a dfc5 ce8a 6240
00000060: 8e91 6438 1dc8 6b40 7fe3 054c ee25 d23e
00000070: 3400 0ae0 9596 d63e c18c 4747 3f0f fb3e
00000080: 38f7 418d ef57 d13f 3d1b 26c9 0429 303f
00000090: f149 834d c0fb 313f 54ba d115 ffb9 dc3f
000000a0: ed70 d0ed 41b0 773f bece fd92 e0e9 773f
000000b0: f328 5810 5d06 6e3f 0884 0a7a 19ed 2b40
000000c0: e463 4afa 9840 2f40 90d6 b6f9 0ee1 1e40
000000d0: 2fd3 1f7d c634 393e 2fd3 1f7d c634 393e
000000e0: 2fd3 1f7d c634 393e 2fd3 1f7d c634 393e
000000f0: 2fd3 1f7d c634 393e 2fd3 1f7d c634 393e

running_mean_std.count f8 []
170393601.0
00000000: 0000 0002 0050 a441

a2c_network.sigma f4 [12]
-1.339296 -1.0981607 -2.560581 -0.99680823 -1.0751998 -3.6652162 -1.0167223 -0.77283484
-0.9258472 -0.7468736 -0.98569965 -0.94404006
00000000: 0d6e abbf 8890 8cbf 8fe0 23c0 d32e 7fbf
00000010: 26a0 89bf e792 6ac0 f523 82bf 81d8 45bf
00000020: 5204 6dbf 1c33 3fbf d056 7cbf 9cac 71bf

a2c_network.actor_mlp.0.weight f4 [256, 32]
0.12998289 0.14445126 -0.35477647 0.0880744 0.687288 1.3486087 0.041563082 -0.05831583
-0.15525298 -0.16333497 0.1288069 0.48776472 0.01590543 -0.283593 -0.2501347 -0.13975948
0.11906416 -0.3009867 -0.21165305 -0.09644153 -0.15105347 0.15854894 0.029162949 0.122742
0.08553221 -0.007123847 0.1383469 -0.12560225 0.011130519 -0.1206572 0.054509446 -0.06087876
0.07944892 0.0041398783 0.28032547 -0.12502584 -0.77118313 -1.0263158 0.12854362 0.3274714
0.29967114 -0.2880537 -0.36145297 -0.4929138 0.15584366 0.29455167 0.5415657 0.25772655
-0.17639303 -0.027793689 0.13042457 -0.14386 0.14100927 -0.10808255 0.13782364 -0.050286908
-0.0525542 -0.012786793 0.037371926 -0.045070764 0.105371185 0.12017442 -0.12819375 -0.094375454
0.14242582 -0.13932294 -0.3102981 -0.4272086 -1.2567601 -0.5724433 -0.12939557 -0.43376723
0.10959591 -0.33442003 0.07091274 -0.7254011 -0.46496537 -0.23103835 0.79035854 0.059290685
0.0138797555 -0.1930867 -0.19942002 -0.08791924 -0.042270605 -0.09831048 -0.13409662 -0.13334034
0.0016836012 -0.039235614 -0.012249876 -0.11978914 -0.121338665 -0.10313184 -0.060510207 -0.13952647
0.09532033 0.2524614 -0.060747627 -0.0041895085 -0.45512977 -0.31788453 -0.24112163 -0.2948237
-0.24972185 -0.21475226 0.16735388 0.10142935 -0.08570399 -0.20087117 -0.17217347 -0.3022028
-0.07730609 -0.10563457 -0.15048829 0.052021164 0.18638559 -0.09888317 0.093026794 -0.12705937
-0.008359684 -0.11901291 0.16101858 -0.12974533 0.094478525 0.06212633 0.057444636 -0.09557365
0.29189304 0.010538208 -0.13238376 -0.16423461 0.89377946 0.10190232 -0.07360311 0.1847361
-0.026685005 0.013233981 0.09554387 -0.0009413678 -0.070817724 -0.1385661 -0.1718329 -0.16183409
0.029671082 -0.14980993 0.41112608 -0.07390102 -0.053086966 -0.002577947 -0.030918809 0.030385759
-0.0040320237 0.028088806 0.06610162 -0.031063449 -0.04681069 0.018911732 -0.031228328 -0.05267964
0.13451374 0.28219348 -0.65885293 0.0057352167 -0.024837987 -0.1967994 -0.050890435 -0.358452
-0.27527997 -0.032042984 0.12872745 0.0847865 -0.7022291 -0.394289 0.025357788 -0.32348442
0.06890122 0.15716736 0.05498044 0.13625425 -0.2744383 0.054721713 -0.2279475 0.12822345
0.011792499 -0.15920056 0.07313521 -0.06733098 -0.11441971 0.12902705 -0.08038068 -0.03543785
-0.18421774 0.30158186 0.024755228 0.092109784 0.31341547 -1.072327 -0.1076899 0.043254573
0.10034295 0.07409065 0.18536727 -0.33159217 -0.28504074 -0.3188883 -0.11436374 -0.14896387
0.17003635 -0.16962537 0.073134676 0.03948943 -0.054735035 -0.026112475 -0.23772764 0.019090956
-0.11843911 0.122810535 -0.056711514 -0.1296776 -0.03119029 -0.08569204 -0.05408334 -0.16829063
0.077002965 -0.23793907 0.1370355 0.084124885 0.30456907 0.31242952 0.16980644 -0.042705834
0.013764114 0.14904551 -0.18660402 -0.12993324 0.0048172446 -0.38203278 -0.21403386 -0.34135342
0.2027045 -0.010208704 0.17176743 -0.09696809 -0.16506954 0.03248054 -0.039920386 -0.1970035
0.033632345 -0.24497366 -0.01546155 -0.08701187 -0.07226058 -0.05611933 -0.16799161 0.1450466
00000000: 3c1a 053e 08eb 133e 43a5 b5be 5a60 b43d
00000010: 1bf2 2f3f 369f ac3f 0d3e 2a3d 94dc 6ebd
00000020: a3fa 1ebe 4841 27be f5e5 033e 4cbc f93e
00000030: 1b4c 823c 1a33 91be a811 80be 1c1d 0fbe
00000040: e9d7 f33d ee1a 9abe 94bb 58be 2383 c5bd
00000050: c3ad 1abe a75a 223e 23e7 ee3c 2860 fb3d
00000060: 832b af3d 296f e9bb cfaa 0d3e e09d 00be
00000070: c85c 363c 1f1b f7bd 4c45 5f3d 025c 79bd
00000080: 1eb6 a23d d1a7 873b d286 8f3e c606 00be
00000090: 426c 45bf 515e 83bf f0a0 033e 55aa a73e
000000a0: 7f6e 993e c67b 93be 5d10 b9be 335f fcbe
000000b0: 7b95 1f3e 7acf 963e 0da4 0a3f bcf4 833e
000000c0: 60a0 34be 97af e3bc 058e 053e 0950 13be
000000d0: bc64 103e 625a ddbd a421 0d3e a5f9 4dbd
000000e0: 1343 57bd b27f 51bc 4e13 193d 1f9c 38bd
000000f0: d9cc d73d 021e f63d 3945 03be eb47 c1bd
00000100: 13d8 113e acaa 0ebe 64df 9ebe 16bb dabe
00000110: 84dd a0bf a58b 12bf 4680 04be bd16 debe
00000120: d273 e03d 1a39 abbe b33a 913d e3b3 39bf
00000130: f10f eebe 5195 6cbe f054 4a3f cada 723d
00000140: ea67 633c 85b8 45be c334 4cbe 010f b4bd
00000150: f123 2dbd 0157 c9bd a050 09be 5f8a 08be
00000160: 48ac dc3a 86b5 20bd b4b3 48bc 0254 f5bd
00000170: 6880 f8bd c936 d3bd 8dd9 77bd 07e0 0ebe
00000180: 4e37 c33d 9f42 813e 81d2 78bd 2548 89bb
00000190: c506 e9be c3c1 a2be 97e8 76be 22f3 96be
000001a0: 16b7 7fbe 04e8 5bbe d15e 2b3e 31ba cf3d
000001b0: 9385 afbd 2cb1 4dbe 3e4e 30be 53ba 9abe
000001c0: a852 9ebd f056 d8bd 9a19 1abe 2514 553d
000001d0: dddb 3e3e 4283 cabd d584 be3d da1b 02be
000001e0: 0ef7 08bc 0abd f3bd 0ee2 243e f6db 04be
000001f0: f57d c13d 2e78 7e3d 114b 6b3d 1ebc c3bd
00000200: 0173 953e 73a8 2c3c 9c8f 07be 1e2d 28be
00000210: bbce 643f 2ab2 d03d 3abd 96bd 762b 3d3e
00000220: 839a dabc 57d3 583c 81ac c33d 20c6 76ba
00000230: e208 91bd 46e4 0dbe f7f4 2fbe d6b7 25be
00000240: c510 f33c c667 19be 1e7f d23e 6b59 97bd
00000250: b871 59bd c6f2 28bb 7149 fdbc 8eeb f83c
00000260: 111f 84bb 7f1a e63c 4960 873d c678 febc
00000270: 91bc 3fbd c7ec 9a3c 8dd2 ffbc 9bc6 57bd
00000280: f8bd 093e aa7b 903e 96aa 28bf 7cee bb3b
00000290: 0979 cbbc c885 49be 7d72 50bd 0587 b7be
000002a0: 7ff1 8cbe 813f 03bd 21d1 033e 8ba4 ad3d
000002b0: 49c5 33bf 3fe0 c9be 23bb cf3c c09f a5be
000002c0: 151c 8d3d 7bf0 203e 2b33 613d 3c86 0b3e
000002d0: 2d83 8cbe e023 603d 126b 69be 024d 033e
000002e0: 5335 413c 7905 23be eac7 953d d3e4 89bd
000002f0: e254 eabd ab1f 043e a09e a4bd 4727 11bd
00000300: 93a3 3cbe f068 9a3e 7acb ca3c 0ea4 bc3d
00000310: fe77 a03e 0342 89bf 868c dcbd b52b 313d
00000320: 9b80 cd3d d7bc 973d ebd0 3d3e 73c6 a9be
00000330: dcf0 91be 5445 a3be 8937 eabd fc89 18be
00000340: 021e 2e3e 46b2 2dbe a2c7 953d abbf 213d
00000350: d831 60bd d4e9 d5bc e06e 73be a364 9c3c
00000360: 3490 f2bd 1784 fb3d 554a 68bd 34ca 04be
00000370: c782 ffbc 4f7f afbd 7e86 5dbd 6154 2cbe
00000380: bbb3 9d3d 4da6 73be 0953 0c3e ab49 ac3d
00000390: 7af0 9b3e c3f6 9f3e bde1 2d3e 50ec 2ebd
000003a0: e182 613c 639f 183e 2015 3fbe 380d 05be
000003b0: fad9 9d3b cd99 c3be b12b 5bbe e0c5 aebe
000003c0: c591 4f3e 6842 27bc cde3 2f3e 3597 c6bd
000003d0: fd07 29be 510a 053d 8f83 23bd 49bb 49be
000003e0: 12c2 093d 60da 7abe 7152 7dbc 4833 b2bd
000003f0: 5bfd 93bd 62dd 65bd fe05 2cbe 1987 143e

a2c_network.actor_mlp.0.bias f4 [256]
0.15361589 0.3060798 0.14181443 -0.28689775 0.010505894 0.24757677 -0.18482879 -0.3098687
-0.010016044 -0.22114247 -0.11833976 0.0071252976 0.03645224 -0.07553334 0.11016939 -0.16278246
0.1664079 0.11126416 0.08021027 0.09098912 0.15202808 -0.22099692 -0.09045878 0.28287962
0.31344336 -0.10307935 -0.22691879 -0.3484588 -0.3457252 -0.1709744 -0.33086684 -0.074963845
-0.1375038 -0.17068692 -0.40075266 0.3165501 0.05137504 0.18846218 -0.16034345 -0.35884658
-0.018362291 -0.074887834 0.27951637 -0.15203455 -0.16761519 0.073145024 0.053845752 0.21321724
0.3068338 -0.12316175 -0.077302635 -0.15837926 -0.15298142 0.3473571 -0.13267295 0.2713298
-0.26475915 -0.022746272 0.20184429 0.34857872 0.19369882 0.1845867 0.31913552 -0.1335645
0.14023806 -0.57712936 -0.016139185 0.04987797 -0.050821207 0.1961449 -0.22921346 -0.08778603
0.384636 0.0029739016 0.11767753 0.09312037 0.11419353 0.18412884 0.49574277 -0.1707867
-0.26726064 0.20335764 0.09839547 -0.07419032 0.116371915 0.34096706 0.10564438 0.00837989
0.102859266 0.012429663 0.25572753 0.13931896 -0.104704216 -0.16592312 0.4782922 0.11185166
0.08569717 -0.0050829668 0.04460124 -0.042162023 -0.05847289 -0.20835252 -0.14662656 -0.20257394
-0.24323533 0.1940383 -0.06954096 -0.4527373 0.3308807 -0.007777388 -0.021567635 -0.1306852
-0.09547551 -0.18765844 0.29390052 -0.37383384 0.28622898 0.24943262 0.14972517 0.23243496
-0.22775401 -0.2227496 -0.16420162 -0.114954114 0.19524646 0.44762197 0.3535206 -0.030178078
-0.1657879 0.07895344 0.40215418 -0.06490053 0.28174195 0.04928988 -0.302352 -0.20549527
-0.32865906 0.37837285 0.10756781 -0.048763007 0.109992094 0.12560576 -0.25055346 -0.34049204
0.10476186 0.24357373 0.3963493 -0.0420782 -0.27642658 0.15042345 -0.18051226 0.09506872
0.35274547 0.30294856 0.0038780153 0.022000708 0.10782431 -0.2976745 0.26455402 0.057653703
-0.19358307 0.2621829 0.25993767 -0.25262433 -0.15895323 -0.12896816 -0.3830743 -0.3811818
-0.024094079 -0.08854998 -0.05225103 0.19856712 -0.41169125 0.2235186 0.34116942 0.39026332
0.051059436 0.17830989 -0.0707922 -0.23196521 0.20841257 -0.24209572 0.22833554 -0.113597564
0.08637735 0.21685205 -0.15832631 0.36788633 -0.1989978 -0.12937917 -0.21509373 -0.066137604
0.1408062 -0.011583564 -0.1381248 0.059305687 0.21791194 0.00032046819 0.1689091 -0.3895128
0.0019439127 -0.33597335 -0.15765882 0.201574 0.27622557 -0.12575403 -0.0058146524 0.23982848
-0.09130752 0.20852046 0.17984407 0.24140222 0.10746827 -0.10836368 0.20838644 0.0072023016
-0.10607155 -0.08359749 -0.02345097 0.16211976 -0.316472 0.17855635 -0.22959541 -0.17461714
-0.11157395 0.06900578 -0.00048773218 0.009042033 -0.2098073 -0.11130705 -0.21823347 0.32756913
0.11256888 -0.22113621 0.33866557 -0.01411321 -0.09048814 0.20938534 0.22557247 -0.20547916
-0.15875703 -0.24129982 0.11249673 -0.14824948 0.049953677 0.15847896 0.350564 -0.18591255
0.34771726 -0.04923351 -0.09394713 0.0598767 -0.21292979 0.11347733 -0.023351604 -0.2527483
00000000: 7c4d 1d3e 7eb6 9c3e cd37 113e 43e4 92be
00000010: ea20 2c3c c484 7d3e c243 3dbe 1ca7 9ebe
00000020: 551a 24bc 2c73 62be 1e5c f2bd 547b e93b
00000030: f24e 153d 39b1 9abd 7da0 e13d 72b0 26be
00000040: d566 2a3e 77de e33d 4845 a43d 8158 ba3d
00000050: 40ad 1b3e 044d 62be 7442 b9bd 99d5 903e
00000060: a67b a03e 441b d3bd 665d 68be 3169 b2be
00000070: e502 b1be ea13 2fbe 6167 a9be a586 99bd
00000080: cccd 0cbe 8dc8 2ebe 742f cdbe db12 a23e
00000090: a26e 523d 3bfc 403e 1331 24be bdba b7be
000000a0: 846c 96bc cb5e 99bd c51c 8f3e f2ae 1bbe
000000b0: 51a3 2bbe 0fcd 953d 5d8d 5c3d 9f55 5a3e
000000c0: 5219 9d3e 3a3c fcbd d850 9ebd 2c2e 22be
000000d0: 29a7 1cbe cad8 b13e 6bdb 07be bdeb 8a3e
000000e0: 838e 87be 6456 babc 45b0 4e3e e978 b23e
000000f0: fc58 463e 4c04 3d3e bb65 a33e 22c5 08be
00000100: 919a 0f3e c0be 13bf 5336 84bc d84c 4c3d
00000110: e629 50bd 35da 483e efb6 6abe 29c9 b3bd
00000120: 03ef c43e cae5 423b eb00 f13d e4b5 be3d
00000130: 4cde e93d 458c 3c3e ffd1 fd3e b5e2 2ebe
00000140: 63d6 88be fc3c 503e 9083 c93d 18f1 97bd
00000150: 6654 ee3d 3c93 ae3e 155c d83d ce4b 093c
00000160: e1a7 d23d c9a5 4b3c b8ee 823e a1a9 0e3e
00000170: 2a6f d6bd c0e7 29be b7e2 f43e 7c12 e53d
00000180: ff81 af3d 048f a6bb caaf 363d 16b2 2cbd
00000190: 4581 6fbd 5d5a 55be 4625 16be 8b6f 4fbe
000001a0: af12 79be fab1 463e 7e6b 8ebd 2fcd e7be
000001b0: 3269 a93e 76d9 febb 9cae b0bc 57d2 05be
000001c0: aa88 c3bd 8929 40be 217a 963e 2667 bfbe
000001d0: 9b8c 923e 446b 7f3e 8e51 193e 6e03 6e3e
000001e0: 5938 69be 7918 64be 7824 28be 106d ebbd
000001f0: b0ee 473e b52e e53e a700 b53e 0438 f7bc
00000200: 4ec4 29be 57b2 a13d 27e7 cd3e 92ea 84bd
00000210: 7b40 903e 2fe4 493d e2cd 9abe 5a6d 52be
00000220: 0046 a8be 16ba c13e 834c dc3d b8bb 47bd
00000230: 8943 e13d cc9e 003e 8b48 80be f954 aebe
00000240: 638d d63d 646b 793e 4cee ca3e 315a 2cbd
00000250: c987 8dbe 9b08 1a3e 35d8 38be 64b3 c23d
00000260: 0e9b b43e 131c 9b3e 4d26 7e3b d43a b43c
00000270: fed2 dc3d cb68 98be a073 873e 4a26 6c3d
00000280: a43a 46be d63c 863e 8d16 853e fa57 81be
00000290: a3c4 22be 3b10 04be 5122 c4be 432a c3be
000002a0: f260 c5bc b159 b5bd 2d05 56bd 2e55 4b3e
000002b0: 32c9 d2be 0fe2 643e c2ad ae3e 98d0 c73e
000002c0: b323 513d de96 363e 80fb 90bd 4a88 6dbe
000002d0: 1b6a 553e f1e7 77be cbd0 693e d7a5 e8bd
000002e0: 9ce6 b03d 770e 5e3e 4b20 22be 995b bc3e
000002f0: 14c6 4bbe f97b 04be 8841 5cbe 2773 87bd
00000300: 802f 103e fdc8 3dbc 9670 0dbe 85ea 723d
00000310: 4f24 5f3e 8304 a839 82f6 2c3e 396e c7be
00000320: e3ca fe3a b304 acbe 5071 21be 6a69 4e3e
00000330: 706d 8d3e aac5 00be d788 bebb 9995 753e
00000340: 70ff babd 6386 553e 0b29 383e 2532 773e
00000350: 5318 dc3d c7ed ddbd 4163 553e 4901 ec3b
00000360: 0a3c d9bd 2935 abbd 401c c0bc b902 263e
00000370: 9e08 a2be 7ad7 363e 0f1b 6bbe d6ce 32be
00000380: e280 e4bd e752 8d3d 4eb6 ffb9 0925 143c
00000390: bad7 56be f3f4 e3bd 9878 5fbe 24b7 a73e
000003a0: 838a e63d 8871 62be 9365 ad3e 183b 67bc
000003b0: d951 b9bd 1c69 563e 78fc 663e 2169 52be
000003c0: 3491 22be 4d17 77be b064 e63d b6ce 17be
000003d0: 3a9c 4c3d 4f48 223e 207d b33e dc5f 3ebe
000003e0: ff07 b23e 14a9 49bd 5a67 c0bd 4541 753d
000003f0: 440a 5abe cd66 e83d dd4b bfbc 3a68 81be

a2c_network.actor_mlp.2.weight f4 [128, 256]
-0.68986905 0.2658941 -0.048664454 -0.109820716 -0.14438038 -0.30204612 -0.09248557 -0.041260596
0.08159277 0.22621301 -0.31082943 -0.1173513 -0.1360413 0.011811509 -0.13412914 -0.39543843
-0.091048494 -0.07289644 0.0017974508 0.25596133 -0.16326573 0.16921765 -0.25810742 0.115024835
0.033546172 0.061246205 -0.08923666 -0.23134619 0.33540627 -0.063750625 0.18803608 0.11894567
-0.07205433 0.21960048 -0.22971438 -0.31857854 -0.23838128 0.15953417 0.007978006 0.20184745
0.01682851 0.08358587 -0.2136819 -0.17256013 0.39309537 -0.19677119 -0.27055505 -0.15529338
0.22569047 0.2987734 0.13563943 -0.18927535 0.33410975 -0.45522502 0.09389965 0.12150907
0.026935093 -0.24663468 0.18015696 -0.20316783 0.50533426 -0.32091027 -0.31716442 -0.15080306
-0.06864118 -0.061604805 -0.27600303 0.06856769 -0.2160757 0.0038449403 0.294755 -0.21021391
-0.3100489 0.18711871 -0.18732573 -0.18286055 -0.08633477 0.02363327 -0.17950787 0.015952334
0.009729294 -0.060911026 0.22852102 -0.15048248 0.06489122 -0.08501506 0.09290816 -0.38866922
-0.076732144 -0.069039635 0.041675884 -0.07292518 -0.31300732 -0.20689504 -0.070119165 0.09600686
-0.11221409 0.09742759 -0.37502253 0.2090974 -0.20934774 0.16329607 0.13270196 0.1831112
0.16990818 -0.36358285 -0.055289954 0.22754829 -0.17465213 0.08893777 0.049164068 -0.014303476
0.039334964 0.121101305 0.28651246 0.3652657 -0.0535045 -0.0055149673 0.08913952 0.012773704
-0.06707569 -0.120280065 0.09477257 0.108891234 -0.11231585 -0.102538526 -0.18041995 0.108131796
-0.031911027 -0.1668884 0.15826565 -0.1457087 -0.13806911 -0.27497622 0.13032873 0.16465002
-0.23895037 0.058769852 0.17737247 0.15340601 -0.060473494 0.19524163 0.24327293 -0.07232993
0.08300238 -0.22917445 0.08927383 -0.094939806 0.055822045 -0.35212493 -0.0059701265 0.24487059
0.26021713 -0.102283046 -0.1918261 -0.044716265 -0.123778224 -0.1406512 -0.10836718 -0.8545796
-0.09349822 -0.40468043 -0.5189062 -0.45875436 0.05644969 0.17088087 -0.34630576 -0.17797215
-0.2522548 0.090882085 -0.21749434 -1.1435956 0.17639391 -0.20466293 -0.24090862 -0.22987954
-0.30866176 0.090955615 -0.02086012 0.065119326 0.08164793 -0.055343907 0.078137055 0.037682567
-0.12135622 0.10848662 -0.2296871 0.02436283 0.2500505 0.15360755 0.21769243 0.017106287
0.19890128 -0.0697858 0.2287272 0.09931759 0.153686 0.12894765 -0.35654864 0.06586767
-0.08711551 0.24151559 -0.0032362184 -0.025162853 -0.15073511 0.17142874 -0.2574372 -0.2747629
0.5790366 0.20534639 -0.79317975 -0.1901043 0.03314076 0.15069836 0.023665242 -0.0036265156
-0.008381919 -0.1765046 -0.11927389 -0.3690809 0.22973275 -0.41349128 -0.2212426 0.03123986
0.075804286 -0.20084566 0.028384753 -0.24553707 -0.09547781 -0.64402324 0.0033694813 -0.376212
-0.0033078636 -0.38747925 -0.05061137 -0.113426924 0.2758195 0.04314362 -0.110137545 -0.15358877
0.07538842 0.100688785 -0.056547746 0.0068389536 -0.17284094 -0.22888996 -0.08034226 -0.14594738
-0.18346147 -0.13535547 0.0881177 -0.56535286 -0.33336484 -0.02551367 0.16928828 0.05296844
00000000: 429b 30bf 4523 883e 6154 47bd afe9 e0bd
00000010: 73d8 13be caa5 9abe 1369 bdbd df00 29bd
00000020: 1c1a a73d 62a4 673e 0925 9fbe e155 f0bd
00000030: 694e 0bbe 0f85 413c 2659 09be e876 cabe
00000040: a277 babd bb4a 95bd 7198 eb3a 5d0d 833e
00000050: 222f 27be 6447 2d3e a826 84be 2492 eb3d
00000060: b667 093d 4ddd 7a3d b6c1 b6bd 04e6 6cbe
00000070: 5fba ab3e b08f 82bd 888c 403e ca99 f33d
00000080: 3891 93bd f3de 603e 3f3a 6bbe ba1c a3be
00000090: 391a 74be ed5c 233e 2fb6 023c 19b1 4e3e
000000a0: f2db 893c 122f ab3d 6ecf 5abe 9ab3 30be
000000b0: cc43 c93e 637e 49be 3186 8abe 3a05 1fbe
000000c0: 671b 673e d4f8 983e 10e5 0a3e 66d1 41be
000000d0: 6f10 ab3e 4113 e9be 764e c03d bfd9 f83d
000000e0: fca6 dc3c cd8d 7cbe 117b 383e 3a0b 50be
000000f0: 965d 013f 5a4e a4be 6063 a2be 1e6c 1abe
00000100: bf93 8cbd 5255 7cbd 4550 8dbe 386d 8c3d
00000110: f342 5dbe 65fb 7b3b 21ea 963e 5142 57be
00000120: bbbe 9ebe 0c9c 3f3e 51d2 3fbe cc3f 3bbe
00000130: 49d0 b0bd 8f9a c13c e9d0 37be 78ae 823c
00000140: 9e67 1f3c d77d 79bd 6a01 6a3e 1418 1abe
00000150: b0e5 843d 601c aebd a246 be3d a7ff c6be
00000160: be25 9dbd a764 8dbd 55b4 2a3d cc59 95bd
00000170: 7f42 a0be 4bdc 53be a39a 8fbd 3f9f c43d
00000180: 80d0 e5bd 1e88 c73d f402 c0be a11d 563e
00000190: 415f 56be 1637 273e 06e3 073e 8181 3b3e
000001a0: 69fc 2d3e 8827 babe b877 62bd 6b02 693e
000001b0: 02d8 32be 0125 b63d 4360 493d 2059 6abc
000001c0: b31d 213d f603 f83d c3b1 923e 1b04 bb3e
000001d0: 8927 5bbd e6b6 b4bb c88e b63d cc48 513c
000001e0: fb5e 89bd 6555 f6bd 1f18 c23d 5e02 df3d
000001f0: da05 e6bd b8ff d1bd 02c0 38be 3474 dd3d
00000200: 23b5 02bd cbe4 2abe 6410 223e a934 15be
00000210: fd61 0dbe afc9 8cbe e574 053e 049a 283e
00000220: 68af 74be a8b8 703d 21a1 353e 7716 1d3e
00000230: 0eb3 77bd 6ced 473e 8a1c 793e b721 94bd
00000240: 27fd a93d b5ac 6abe 33d5 b63d cd6f c2bd
00000250: a8a5 643d b849 b4be 0da1 c3bb 5bbf 7a3e
00000260: 2e3b 853e c679 d1bd 106e 44be 6728 37bd
00000270: 707f fdbd de06 10be 9def ddbd bbc5 5abf
00000280: ff7b bfbd 4632 cfbe 09d7 04bf dae1 eabe
00000290: ca37 673d 65fb 2e3e fd4e b1be 553e 36be
000002a0: 8b27 81be 6320 ba3d d6b6 5ebe 5761 92bf
000002b0: 9ba0 343e 2993 51be c0b0 76be 8b65 6bbe
000002c0: ea08 9ebe f046 ba3d d8e2 aabc 485d 853d
000002d0: 0837 a73d 4bb0 62bd 5206 a03d 0959 1a3d
000002e0: 9c89 f8bd 3c2e de3d 1833 6bbe 8f94 c73c
000002f0: 9e06 803e 4c4b 1d3e c4ea 5e3e 7c22 8c3c
00000300: c7ac 4b3e dceb 8ebd 7737 6a3e 0567 cb3d
00000310: dd5f 1d3e da0a 043e 8b8d b6be a1e5 863d
00000320: 9e69 b2bd dd4f 773e bc16 54bb 5422 cebc
00000330: 4e5a 1abe 048b 2f3e cfce 83be b9ad 8cbe
00000340: be3b 143f 5346 523e d40d 4bbf b4aa 42be
00000350: 9bbe 073d ac50 1a3e 9cdd c13c d6aa 6dbb
00000360: 5154 09bc 9fbd 34be df45 f4bd 2cf8 bcbe
00000370: 103f 6b3e 21b5 d3be 6c8d 62be bcea ff3c
00000380: 473f 9b3d 7caa 4dbe 2487 e83c 126e 7bbe
00000390: df89 c3bd b5de 24bf 84d2 5c3b dc9e c0be
000003a0: bec8 58bb ae63 c6be de4d 4fbd 604c e8bd
000003b0: 3738 8d3e 5db7 303d cb8f e1bd 6046 1dbe
000003c0: 3e65 9a3d ec35 ce3d 9c9e 67bd 4d19 e03b
000003d0: 37fd 30be 2162 6abe 7c8a a4bd 3b73 15be
000003e0: 53dd 3bbe a09a 0abe 0d77 b43d f7ba 10bf
000003f0: ccae aabe 0b02 d1bc e859 2d3e 6ff5 583d

a2c_network.actor_mlp.2.bias f4 [128]
-0.09136703 0.056833833 0.21249317 -0.054015115 0.25789717 -0.3130566 -0.16955529 -0.23056564
-0.6443668 0.00066554465 -0.56621236 -0.007522359 -0.21710409 -0.34753835 -0.24389401 -0.16074961
-0.08001531 -0.027716713 -0.103335775 -0.4130197 -0.001122139 -0.08374778 -0.31504712 0.18474913
-0.15855065 -0.05114044 -0.23497477 -0.6650391 -0.21887395 0.039723672 0.013696897 -0.7056051
-0.2195211 -0.3608531 -0.33627233 0.16093096 -0.28794193 -0.6089378 -0.18607283 -0.62950855
0.061260186 -0.10145296 -0.02365591 -0.34596813 -0.030829888 0.06271962 -0.33915243 0.02881354
-0.16653392 -0.056906924 -0.24697405 -0.018967688 0.07863628 0.0058223037 0.16427122 -0.0727136
-0.30444953 -0.30807218 -0.23583476 -0.26473436 0.021544265 -0.19303419 -0.21191745 0.045775056
-0.16009101 0.09156454 -0.008106145 -0.5551891 0.0035794028 -0.26348123 0.1005578 -0.22883682
-0.59219587 -0.52729225 0.02230183 -0.07397111 -0.3219139 -0.3604783 -0.11432077 -0.2588233
-0.70614654 -0.24445747 0.045644324 0.012832132 -0.462459 -0.46524158 -0.39578357 -0.3515835
-0.15893753 -0.4389372 -0.32720876 -0.1118218 -0.1754812 -0.18467619 -0.26980633 0.16390675
-0.04017362 0.06780303 -0.10772301 0.033353645 -0.32587394 -0.29020318 0.09211859 -0.027953394
-0.22987641 -0.3417271 -0.2033308 -0.02804208 -0.45438898 -0.11565995 0.16866964 -0.03378176
-0.33674628 -0.18341255 0.09262027 -0.3633157 -0.13959743 -0.5073872 0.12590247 -0.18513662
-0.41411507 -0.27734488 -0.15377612 -0.006499766 -0.2512635 -0.014696394 -0.2866292 -0.03570852
00000000: a31e bbbd 98ca 683d cf97 593e f43e 5dbd
00000010: 190b 843e f448 a0be e79f 2dbe 6619 6cbe
00000020: 39f5 24bf f277 2e3a 4bf3 10bf 1f7e f6bb
00000030: 8950 5ebe 8cf0 b1be 5abf 79be 8c9b 24be
00000040: 11df a3bd 290e e3bc b5a1 d3bd 5177 d3be
00000050: bd14 93ba f583 abbd db4d a1be e02e 3d3e
00000060: 1a5b 22be a378 51bd 3a9d 70be 0140 2abf
00000070: 7e20 60be 4ab5 223d f368 603c 89a2 34bf
00000080: 24ca 60be bdc1 b8be e32b acbe 16cb 243e
00000090: 206d 93be 59e3 1bbf e089 3ebe 7927 21bf
000000a0: f6eb 7a3d 92c6 cfbd 0aca c1bc bc22 b1be
000000b0: f68e fcbc 2573 803d 63a5 adbe 5f0a ec3c
000000c0: de87 2abe 3c17 69bd c4e6 7cbe 2062 9bbc
000000d0: 0f0c a13d 06c9 be3b b736 283e deea 94bd
000000e0: cfe0 9bbe a3bb 9dbe ab7e 71be 438b 87be
000000f0: 997d b03c c1aa 45be e300 59be a07e 3b3d
00000100: e6ee 23be 3186 bb3d a3cf 04bc df20 0ebf
00000110: 6a94 6a3b 03e7 86be 3ff1 cd3d 3354 6abe
00000120: 269a 17bf a0fc 06bf 54b2 b63c 2a7e 97bd
00000130: e6d1 a4be 9d90 b8be 0221 eabd 7d84 84be
00000140: 05c6 34bf 0f53 7abe 8bf5 3a3d dd3d 523c
00000150: 6dc7 ecbe 2534 eebe 25a4 cabe c102 b4be
00000160: 85c0 22be 60bc e0be e887 a7be d402 e5bd
00000170: 58b1 33be c11b 3dbe 0e24 8abe 2cd7 273e
00000180: 188d 24bd 51dc 8a3d e29d dcbd d59d 083d
00000190: f3d8 a6be 8395 94be aca8 bc3d 84fe e4bc
000001a0: b964 6bbe dbf6 aebe f335 50be 81b8 e5bc
000001b0: aca5 e8be 20df ecbd bcb7 2c3e be5e 0abd
000001c0: 026a acbe 80d0 3bbe b2af bd3d 8404 babe
000001d0: a1f2 0ebe 21e4 01bf 94ec 003e 7494 3dbe
000001e0: e406 d4be 2600 8ebe 7d77 1dbe fdfb d4bb
000001f0: 9ca5 80be 25c9 70bc 10c1 92be 1943 12bd

a2c_network.actor_mlp.4.weight f4 [64, 128]
0.007946421 -0.2314259 -0.0064938962 -0.04860389 -0.58848506 0.061640743 0.1290252 -0.058663826
0.16639674 0.15192819 -0.013290283 0.06735618 -0.120937064 -0.17312206 -0.140939 0.04229923
0.06634773 -0.12893198 0.17377818 -0.043175023 -0.102141276 -0.069983035 0.021783961 0.059360802
0.17621462 -0.05691064 -0.052117474 0.11797409 -0.08227109 -0.07132331 -0.054875977 0.101445094
-0.012855538 -0.06932948 -0.14622325 -0.07982308 -0.06376067 0.039895847 -0.042245038 0.110018104
-0.084040724 0.0048696175 -0.09685675 -0.015032479 -0.16281503 0.12386548 -0.009833379 -0.07823271
0.12094977 -0.12477776 -0.10736187 -0.24551103 0.07662584 -0.111641616 -0.24054943 -0.35850567
0.14990738 0.11000444 0.19011432 0.19345705 -0.0466392 -0.021710893 0.0068044504 -0.022907471
0.029434953 -0.2000757 0.096329704 0.11277889 -0.23045884 0.04690361 -0.18390921 -0.16026191
0.21425608 -0.078350365 0.089882046 -0.08318064 0.020834172 0.09495667 -0.12398142 0.047547176
-0.00834872 0.061850563 -0.06624365 0.017590623 0.122167096 0.10238883 -0.0046472414 0.0682788
0.078854896 0.1281462 -0.063506596 0.010726048 -0.012024114 -0.044942483 -0.0151816625 0.07366345
0.051714167 0.14449184 0.018743774 -0.29980057 0.14915496 0.18552819 0.030123258 0.21977183
-0.14725932 0.1882172 -0.04583428 0.14799923 0.16400701 -0.058047004 0.11213211 0.073434606
0.100203045 -0.0070127286 -0.07265009 -0.07205952 0.059494194 0.09162748 -0.09670874 -0.014788125
-0.097026885 -0.07223762 0.06614995 -0.096859 -0.09302963 -0.26207048 -0.05888973 0.10292051
0.019198203 0.033073448 -0.103711456 0.063592546 -0.28182092 -0.2665309 -0.021338142 0.018111302
0.20037013 -0.04465775 -0.04667145 0.09139139 -0.023548186 -0.039661117 -0.18231133 0.018111143
-0.0064369696 -0.03650761 0.011497513 -0.11352032 -0.1323396 0.030035134 0.043444447 -0.08176974
-0.0098256925 -0.009142627 -0.09609918 -0.047381043 -0.06588099 -0.068532296 -0.11051443 0.093660615
-0.011431123 0.086876586 -0.46457285 -0.10815021 -0.1921533 0.015156984 0.069234826 0.24876727
0.046960797 -0.14792684 0.21530613 0.19892028 -0.06245529 0.08101329 -0.03461934 -0.35570794
-0.051546402 -0.10332113 0.07449039 -0.10967293 -0.021160357 -0.12592989 0.04920702 -0.2736968
0.07013087 0.02913193 0.15618932 0.19215682 -0.00905244 -0.11981227 -0.018059786 0.0089938585
0.07998565 -0.17161395 -0.07359135 0.17699789 -0.06978906 -0.1025945 0.0177024 -0.062882826
-0.13416211 -0.0023315828 -0.012919638 0.034742262 0.04225783 0.1936766 -0.084119685 0.080126114
0.21525425 0.18401021 0.07696276 -0.0071981098 0.047520366 0.14380527 -0.30914187 0.09290965
0.078927755 -0.11436371 -0.13922277 -0.18030994 0.036805812 -0.10692092 -0.07425557 -0.024522597
0.07315929 0.039679505 0.0742868 0.09567015 0.068439536 -0.04814704 -0.09043051 0.0051740278
0.021430345 -0.09109499 -0.001189368 0.09367919 0.092173815 -0.16466193 0.019935964 -0.05691256
-0.07805033 -0.03369669 -0.08911149 -0.11581047 0.04700296 0.033221588 -0.35390812 -0.051875766
0.037764218 0.08174387 -0.13611056 -0.14700577 0.10657113 0.07060054 0.051042713 0.06062504
00000000: b531 023c e9fa 6cbe c0ca d4bb df14 47bd
00000010: f5a6 16bf 017b 7c3d 2f1f 043e 7b49 70bd
00000020: e863 2a3e 1093 1b3e 7dbf 59bc 09f2 893d
00000030: daad f7bd e946 31be 5052 10be f541 2d3d
00000040: 52e1 873d bf06 04be e8f2 313e 4bd8 30bd
00000050: 722f d1bd 4453 8fbd 4774 b23c 5024 733d
00000060: 9b71 343e 221b 69bd 2279 55bd 669c f13d
00000070: bf7d a8bd f511 92bd a2c5 60bd 72c2 cf3d
00000080: 09a0 52bc 9dfc 8dbd 8cbb 15be 487a a3bd
00000090: f494 82bd d469 233d 2209 2dbd 2c51 e13d
000000a0: 8b1d acbd 5091 9f3b d55c c6bd c94a 76bc
000000b0: fcb8 26be 2fad fd3d 2e1c 21bc 7938 a0bd
000000c0: 83b4 f73d 7b8b ffbd 8ae0 dbbd 3e67 7bbe
000000d0: 02ee 9c3d 5ca4 e4bd 9752 76be 0e8e b7be
000000e0: 5281 193e 024a e13d 54ad 423e 9b19 463e
000000f0: bf08 3fbd 0bdb b1bc def7 de3b 73a8 bbbc
00000100: 9221 f13c a5e0 4cbe 8248 c53d 9ef8 e63d
00000110: 67fd 6bbe 001e 403d b252 3cbe b31b 24be
00000120: f265 5b3e 2876 a0bd 1414 b83d 9d5a aabd
00000130: 6dac aa3c a578 c23d f9e9 fdbd d4c0 423d
00000140: 12c9 08bc 0457 7d3d c0aa 87bd 361a 903c
00000150: be32 fa3d 3cb1 d13d e347 98bb c1d5 8b3d
00000160: ad7e a13d c238 033e bf0f 82bd 4ebc 2f3c
00000170: ca00 45bc 9c15 38bd 82bc 78bc dddc 963d
00000180: 3cd2 533d abf5 133e 8b8c 993c 767f 99be
00000190: 14bc 183e 1afb 3d3e 0dc5 f63c de0b 613e
000001a0: 26cb 16be 02bc 403e babc 3bbd 1c8d 173e
000001b0: 74f1 273e b2c2 6dbd 85a5 e53d e264 963d
000001c0: 4137 cd3d 08cb e5bb 92c9 94bd f193 93bd
000001d0: 2fb0 733d 30a7 bb3d 3b0f c6bd e449 72bc
000001e0: 08b6 c6bd 51f1 93bd a079 873d 035e c6bd
000001f0: 5286 bebd 1a2e 86be 5c36 71bd fdc7 d23d
00000200: 8d45 9d3c 0678 073d ac66 d4bd cf3c 823d
00000210: d54a 90be bd76 88be 54cd aebc 275e 943c
00000220: d42d 4d3e 0beb 36bd 902a 3fbd 692b bb3d
00000230: 20e8 c0bc b273 22bd d2af 3abe d25d 943c
00000240: 37ed d2bb 0189 15bd 1160 3c3c 577d e8bd
00000250: 0884 07be 3e0c f63c cef2 313d e576 a7bd
00000260: f1fb 20bc f5ca 15bc a6cf c4bd a012 42bd
00000270: 9dec 86bd a95a 8cbd 6455 e2bd 23d1 bf3d
00000280: 9b49 3bbc 5aec b13d 7edc edbe db7d ddbd
00000290: d6c3 44be 0055 783c fdca 8d3d d9bc 7e3e
000002a0: f759 403d 227a 17be 3679 5c3e c2b1 4b3e
000002b0: 1ed1 7fbd 4cea a53d 02cd 0dbd 5a1f b6be
000002c0: 5222 53bd 079a d3bd 6b8e 983d 339c e0bd
000002d0: 7c58 adbc c4f3 00be 4d8d 493d fd21 8cbe
000002e0: c6a0 8f3d 16a6 ee3c 18f0 1f3e c2c4 443e
000002f0: af50 14bc 2360 f5bd 1ef2 93bc fa5a 133c
00000300: 84cf a33d 91bb 2fbe 10b7 96bd ef3e 353e
00000310: 91ed 8ebd 111d d2bd a004 913c b6c8 80bd
00000320: cb61 09be 78cd 18bb e4ac 53bc e74d 0e3d
00000330: 8c16 2d3d 2953 463e f146 acbd 2919 a43d
00000340: 9c6b 5c3e 2c6d 3c3e a79e 9d3d 1fde ebbb
00000350: b7a4 423d b041 133e d847 9ebe 6a47 be3d
00000360: e0a4 a13d 8537 eabd 6a90 0ebe 2ba3 38be
00000370: b1c1 163d 5bf9 dabd 4e13 98bd 9de3 c8bc
00000380: 8ad4 953d fa86 223d ae23 983d b6ee c33d
00000390: 072a 8c3d d535 45bd a233 b9bd e48a a93b
000003a0: b18e af3c 0390 babd 91e4 9bba e0da bf3d
000003b0: a0c5 bc3d 239d 28be bf50 a33c 251d 69bd
000003c0: dad8 9fbd 8a05 0abd 1680 b6bd 0a2e edbd
000003d0: 2d86 403d 5c13 083d 7233 b5be af7b 54bd
000003e0: a7ae 1a3d 5569 a73d 9160 0bbe ae88 16be
000003f0: f741 da3d 0497 903d 2a12 513d f651 783d

a2c_network.actor_mlp.4.bias f4 [64]
-0.19803084 -0.050953243 -0.18094854 -0.3106122 -0.10373934 -0.043775614 -0.3865846 -0.035408393
-0.5107929 -0.11819341 -0.15751389 -0.07869264 0.00062736607 -0.07151973 -0.1940692 -0.5413623
-0.00634915 -0.1462081 -0.040269714 -0.31408018 -0.10829029 -0.07089279 -0.33164838 -0.1924896
-0.344164 -0.2688797 -0.12084767 0.028785702 -0.40450126 -0.4672733 -0.123435445 0.031500086
-0.36738864 -0.16668424 -0.056252155 -0.072584055 0.09363296 -0.39424792 -0.21283492 -0.030825317
-0.097769864 0.107419856 0.013539852 -0.31142342 -0.14865088 -0.25288922 0.027639853 -0.16002257
-0.27040064 -0.03795343 -0.27751315 -0.32988566 -0.41179058 -0.252761 0.008121836 -0.1933942
0.0576574 0.032520805 -0.26272112 -0.075694636 0.010548829 -0.13450652 -0.14699693 -0.019520478
00000000: 99c8 4abe 59b4 50bd 934a 39be 9008 9fbe
00000010: 4b75 d4bd 0f4e 33bd 6bee c5be 6408 11bd
00000020: 53c3 02bf 630f f2bd 524b 21be 9b29 a1bd
00000030: d375 243a f078 92bd 14ba 46be b896 0abf
00000040: 880c d0bb 93b7 15be dbf1 24bd 1ecf a0be
00000050: 4dc7 ddbd 3d30 91bd d1cd a9be fe1b 45be
00000060: 4436 b0be 9aaa 89be fc7e f7bd fecf eb3c
00000070: ca1a cfbe 723e efbe b9cb fcbd 3c06 013d
00000080: 5d1a bcbe 46af 2abe a968 66bd f3a6 94bd
00000090: a3c2 bf3d ddda c9be 66f1 59be 6085 fcbc
000000a0: 913b c8bd f1fe db3d 41d6 5d3c e472 9fbe
000000b0: f037 18be b27a 81be f96c e23c f5dc 23be
000000c0: f471 8abe 0e75 1bbd 3416 8ebe c6e6 a8be
000000d0: 37d6 d2be e469 81be 7311 053c 2109 46be
000000e0: 2a2a 6c3d 8934 053d 6283 86be ca05 9bbd
000000f0: ffd4 2c3c 14bc 09be 5d86 16be 69e9 9fbc

a2c_network.value.weight f4 [1, 64]
-0.031862292 -0.028291583 0.010119042 -0.054098345 -0.02561086 0.002695745 -0.026085988 -0.094342776
0.016007597 0.15759552 -0.10448051 0.0006501584 -0.056042504 0.015491541 0.0033781733 -0.070528276
0.007974882 0.03896844 -0.014261926 -0.016283972 0.07976546 0.68471223 -0.07579572 -0.00058248173
-0.16689166 -0.018409668 0.014589764 -0.0065286784 -0.22382545 -0.24215879 0.003646418 -0.033580914
-0.005251091 0.005697812 -0.058271598 -0.0058420766 -0.000111517234 -0.11763705 0.2730216 0.00015106925
-0.0075803143 0.7268952 -0.0073600593 -0.06230421 -0.034160454 -0.13321716 -0.02707369 -0.029305886
0.03974003 0.043417107 -0.0094761895 -0.11712929 -0.055752285 0.113104686 0.0076024104 0.022767657
0.0053974185 0.0057140766 -0.100118585 0.018676018 0.031627636 -0.06017451 -0.018138086 -0.020827308
00000000: 0982 02bd c0c3 e7bc 57ca 253c 3a96 5dbd
00000010: decd d1bc 19ab 303b 48b2 d5bc c936 c1bd
00000020: 5d22 833c b860 213e e1f9 d5bd 646f 2a3a
00000030: d38c 65bd 3bd0 7d3c 5864 5d3b 2171 90bd
00000040: 14a9 023c 5f9d 1f3d daaa 69bc f765 85bc
00000050: 135c a33d 4d49 2f3f c93a 9bbd b0b1 18ba
00000060: a6e5 2abe dfcf 96bc e809 6f3c 86ee d5bb
00000070: 8032 65be 79f8 77be bef8 6e3b 248c 09bd
00000080: 5811 acbb b6b4 ba3b 33ae 6ebd e46e bfbb
00000090: 5cde e9b8 b2eb f0bd 7dc9 8b3e 5868 1e39
000000a0: 4964 f8bb ce15 3a3f a72c f1bb b332 7fbd
000000b0: d5eb 0bbd 146a 08be a5c9 ddbc e612 f0bc
000000c0: 71c6 223d 23d6 313d 0542 1bbc 7be1 efbd
000000d0: 825c 64bd 6ea3 e73d a41d f93b 3d83 ba3c
000000e0: d4dc b03b 263d bb3b f90a cdbd 73fe 983c
000000f0: fb8b 013d 8c79 76bd 5396 94bc 089e aabc

a2c_network.mu.weight f4 [12, 64]
-0.08301947 -0.030853188 -0.106502 -0.104972355 0.028848983 0.021814346 -0.022614032 0.036353618
-0.1301883 -0.009814139 -0.015768686 -0.028894812 0.14464983 -0.0054596886 0.062467128 -0.054520134
0.031109912 -0.085444316 0.09778029 -0.009969895 0.096743844 0.024734579 -0.13123307 0.024692612
-0.18994775 -0.13184793 0.0045760344 0.02488356 -0.0033784793 -0.117187575 -0.01061628 0.030460648
-0.11202251 -0.073809475 -0.0549987 0.037488103 0.011425354 -0.13982798 -0.020563867 -0.006621
-0.013854045 -0.0121480385 -0.005019023 0.03957058 -0.07745013 -0.1546952 0.014622538 -0.08330524
-0.09148679 0.13210094 -0.030410256 -0.037011787 -0.17168945 -0.0029709535 -0.0010233807 0.08916439
-0.037264515 -0.010981289 -0.08905112 -0.01038965 0.02641844 -0.00578668 0.0061075822 0.018850382
-0.0021712375 0.1444423 0.10661081 0.06741256 0.014253695 0.044698633 -0.09370168 0.009103408
-0.08531137 -0.026467986 -0.016956624 0.045252994 0.05304189 -0.03837691 0.0018738757 0.077079006
-0.013490333 0.012974641 0.061969016 0.060659993 0.034415964 0.011699601 -0.02065687 -0.00043624893
0.008148361 -0.024285458 0.0151632 0.006455519 0.033955347 0.14534496 -0.008419236 0.016997855
-0.0022818453 -0.010787303 -0.05309024 0.02488676 -0.12198038 0.0011499041 -0.06338677 -0.024584131
-0.049775008 0.030264292 0.00062296947 0.04324285 -0.07818657 0.12794402 -0.11925768 0.013724808
-0.007709975 0.23131342 0.08676099 0.026150297 -0.018038142 -0.09620785 0.00862551 0.03638662
0.08467918 -0.007893656 0.04813422 0.004965473 0.030770382 0.029655207 0.039717432 -0.0010260642
0.045002036 -0.024767466 -0.0077574686 0.032898605 -0.0026286647 -0.0012685996 0.03292383 -0.0070281792
0.07131474 -0.006868578 -0.008849673 0.017047618 0.008645183 0.0053736325 0.007266641 0.1093585
0.0029500949 0.012668103 -0.031213516 0.03176421 -0.02431228 -0.010091965 0.03302854 0.017707095
0.035838436 0.022134023 0.0053577996 -0.0082545625 0.0017016344 0.03209097 0.017438453 0.006089977
0.023081707 -0.041487344 -0.0042668926 -0.0010817505 -0.018837405 0.0730558 0.005809176 0.007991209
2.4077412e-05 -0.0058964835 -0.004558529 0.0049924143 -0.016125536 0.03338153 0.011019266 -0.034962215
0.012895621 -0.0369612 0.033004053 0.008005423 0.08672893 0.027350858 0.003785119 0.036688216
-0.0066193254 -0.010157186 0.061794687 0.0008230502 -0.0015928342 0.010378316 0.0049081407 0.0007130705
0.125381 -0.0005769595 0.10324258 0.20419127 0.009690836 -0.008998383 0.06317083 0.00092776364
0.032860775 0.022256095 -0.025121879 -0.015925681 -0.07320417 -0.050360534 0.012116285 0.113168545
0.017160702 0.11636674 0.034423277 0.13551365 -0.00052323384 -0.030453455 0.09954705 -0.024485765
-0.07572152 0.029390113 0.018242106 -0.12912074 0.031849865 0.08472039 0.018583175 -0.042673085
-0.01993481 -0.048595473 -0.041708007 -0.09410742 0.004162882 0.13834862 -0.000420487 -0.02589945
-0.028829757 -0.024836518 -0.013107462 0.031195594 -0.0035276297 0.03306606 0.03270154 -0.016834764
0.054384068 0.057817355 0.14756793 0.021298323 0.16759744 0.09169436 0.01484173 -0.084735535
0.01625534 -0.02927176 -0.006798063 -0.001449555 -0.031478897 -0.06796306 0.014475085 0.002041155
00000000: 1d06 aabd d3bf fcbc b81d dabd bffb d6bd
00000010: b454 ec3c 00b4 b23c 1041 b9bc 88e7 143d
00000020: 1550 05be 7ccb 20bc 552d 81bc d0b4 ecbc
00000030: 161f 143e 30e7 b2bb 88dd 7f3d 8150 5fbd
00000040: 37da fe3c 6efd aebd 0841 c83d c558 23bc
00000050: a321 c63d 2ca0 ca3c f661 06be 2948 ca3c
00000060: aa81 42be 2503 07be 8ff2 953b 9cd8 cb3c
00000070: 7a69 5dbb 0a00 f0bd e8ef 2dbc 9c88 f93c
00000080: 0f6c e5bd 6c29 97bd 5146 61bd 208d 193d
00000090: 6831 3b3c 112f 0fbe 8e75 a8bc f9f4 d8bb
000000a0: 14fc 62bc 9108 47bc 9e76 a4bb c314 223d
000000b0: 2c9e 9ebd 6b68 1ebe 5f93 6f3c f09b aabd
000000c0: 6d5d bbbd 7845 073e ee1e f9bc ac99 17bd
000000d0: 5ccf 2fbe 54b4 42bb f522 86ba d29b b63d
000000e0: ada2 18bd ddea 33bc 6f60 b6bd 5a39 2abc
000000f0: 7c6b d83c 319e bdbb 1d22 c83b 1e6c 9a3c
00000100: 524b 0ebb afe8 133e c556 da3d 990f 8a3d
00000110: 5488 693c ea15 373d abe6 bfbd 7626 153c
00000120: bab7 aebd 64d3 d8bc 9ee8 8abc 345b 393d
00000130: 7442 593d 1b31 1dbd d69c f53a 99db 9d3d
00000140: 8f06 5dbc 9793 543c 39d3 7d3d 9d76 783d
00000150: c1f7 0c3d afaf 3f3c 9938 a9bc 57b8 e4b9
00000160: b480 053c 4cf2 c6bc 126f 783c d188 d33b
00000170: c314 0b3d 4fd5 143e d6f0 09bc 163f 8b3c
00000180: 038b 15bb 3abd 30bc 2775 59bd 52df cb3c
00000190: d9d0 f9bd 61b8 963a ecd0 81bd a964 c9bc
000001a0: e1e0 4bbd d2ec f73c c64e 233a 6a1f 313d
000001b0: 4820 a0bd c203 033e 5f3d f4bd 04de 603c
000001c0: f5a3 fcbb 6ddd 6c3e bfaf b13d 2639 d63c
000001d0: bac4 93bc 9f08 c5bd 0352 0d3c 230a 153d
000001e0: 476c ad3d 6554 01bc 6328 453d 68b5 a23b
000001f0: 2b12 fc3c 7aef f23c bfae 223d 007d 86ba
00000200: 0e54 383d 24e5 cabc 5d32 febb b0c0 063d
00000210: ad45 2cbb 2447 a6ba 23db 063d a44c e6bb
00000220: 760d 923d cf11 e1bb 38fe 10bc 72a7 8b3c
00000230: 87a4 0d3c 4c15 b03b 011d ee3b 59f7 df3d
00000240: 6156 413b e08d 4f3c 7db3 ffbc 301b 023d
00000250: 8c2a c7bc c558 25bc ef48 073d 780e 913c
00000260: 53cb 123d 6952 b53c 7b90 af3b 253e 07bc
00000270: 6009 df3a d271 033d 16db 8e3c 6e8e c73b
00000280: d915 bd3c a2ee 29bd 4ad1 8bbb 86c9 8dba
00000290: e750 9abc 479e 953d e65a be3b 8fed 023c
000002a0: d9f9 c937 4a37 c1bb b65f 95bb 6897 a33b
000002b0: b319 84bc 12bb 083d 278a 343c 8a34 0fbd
000002c0: 2848 533c a164 17bd 422f 073d 2d29 033c
000002d0: f09e b13d e80e e03c c20f 783b 6246 163d
000002e0: ede6 d8bb 536a 26bc 6d1c 7d3d f7c1 573a
000002f0: a6c6 d0ba d009 2a3c 78d4 a03b 5aed 3a3a
00000300: e063 003e 193f 17ba d970 d33d 8417 513e
00000310: 50c6 1e3c f46d 13bc b55f 813d 2a35 733a
00000320: 0599 063d 6a52 b63c 66cc cdbc 9376 82bc
00000330: 11ec 95bd d946 4ebd 6283 463c e9c4 e73d
00000340: 9a94 8c3c af51 ee3d 6cff 0c3d 17c4 0a3e
00000350: a129 09ba 8679 f9bc 53df cb3d 5f96 c8bc
00000360: e213 9bbd 89c3 f03c 7870 953c 3a38 04be
00000370: 0175 023d e281 ad3d be3b 983c f9c9 2ebd
00000380: 544e a3bc 0c0c 47bd 04d6 2abd 64bb c0bd
00000390: c968 883b 43ab 0d3e cf74 dcb9 152b d4bc
000003a0: 622c ecbc f475 cbbc aec0 56bc e78d ff3c
000003b0: ce2f 67bb 4770 073d 0df2 053d 0fe9 89bc
000003c0: d4c1 5e3d e4d1 6c3d 0c1c 173e d279 ae3c
000003d0: aa9e 2b3e 41ca bb3d ba2a 733c d389 adbd
000003e0: eb29 853c 54cb efbc 49c2 debb fffe bdba
000003f0: 04f0 00bd 3830 8bbd e828 6d3c e6c4 053b

a2c_network.mu.bias f4 [12]
0.17210847 0.08943795 -0.3049867 -0.14160703 0.08031512 -0.008345363 0.08514548 0.022732345
-0.06594644 0.07892891 0.081043005 -0.06150337
00000000: 343d 303e 3e2b b73d 3727 9cbe 6f01 11be
00000010: 417c a43d fdba 08bc c160 ae3d 2f39 ba3c
00000020: ed0e 87bd 7ba5 a13d e0f9 a53d f5ea 7bbd

exp_avg f4 [12]
0.0022928165 -0.011768272 0.0046312786 -0.011266645 -0.015954219 0.015941175 -0.014719982 -0.0047630924
-0.002958819 -0.020716993 -0.014282789 0.026518414
00000000: 1443 163b b6cf 40bc fbc1 973b bc97 38bc
00000010: 6cb2 82bc 1197 823c 142c 71bc b713 9cbb
00000020: bfe8 41bb afb6 a9bc 5c02 6abc 253d d93c

exp_avg_sq f4 [12]
0.0039490825 0.0041113524 0.0032222008 0.002938664 0.0027278194 0.005180561 0.0026191988 0.0033398387
0.0030974979 0.003213238 0.0035046206 0.0046730326
00000000: 4e67 813b 86b8 863b 8f2b 533b 9a96 403b
00000010: 37c5 323b b2c1 a93b dda6 2b3b 32e1 5a3b
00000020: 64ff 4a3b 3095 523b c7ad 653b 3d20 993b

exp_avg f4 [256, 32]
-0.0165862 -0.007301014 0.0016533129 -0.00094691257 -0.0023570652 0.0007932626 -0.014983493 -0.0008688404
-0.00017944476 -0.0006742843 1.7642906e-05 3.2882679e-06 -0.00011087787 -0.00012499417 8.448625e-06 -0.010716583
0.0028708219 -0.00024267792 0.0009444152 -0.012769901 0.0029518695 0.004763044 -0.0035988102 -0.0019089469
0.0068040187 0.006216864 0.0 0.0 0.0 0.0 0.0 0.0
0.024076972 0.011048012 -0.0025073858 0.0050277347 0.0029525547 -0.0013051849 0.019644361 0.0013476503
0.00033976638 0.0009799007 -1.3824266e-05 -4.0424497e-05 0.00026412334 0.00022274078 1.2152883e-05 0.014813419
-0.003421889 0.00039327017 -0.0013948897 0.017430315 -0.0013070601 -0.0057545756 0.0021459565 0.0022033053
-0.0038566005 -0.005304966 0.0 0.0 0.0 0.0 0.0 0.0
0.079115175 0.03269004 -0.009093873 -0.0019319013 0.0085612945 -0.0012954972 0.050601147 0.00404748
0.0011666566 0.0033268821 1.2293288e-05 -2.9224435e-05 0.00082393683 0.0011912835 -0.0001229614 0.04943327
-0.0063527776 0.0018069121 -0.003181911 0.061982196 -0.013966251 -0.009335065 0.013743058 0.008314126
-0.025524283 0.0018632212 0.0 0.0 0.0 0.0 0.0 0.0
0.0027128872 0.002873918 -0.00024954902 -0.00057609903 0.000738398 -4.0045743e-05 0.0016500443 0.00015784767
-1.4662353e-05 0.00010739423 2.3177895e-06 1.8174575e-05 2.587115e-05 -1.9544046e-05 -2.7023698e-06 0.0014845424
-0.0011651766 3.370754e-05 -1.970772e-05 0.001628332 0.00040484127 -0.0031027007 -0.0009957592 0.003062657
0.000366989 -0.00013448225 0.0 0.0 0.0 0.0 0.0 0.0
0.013373614 0.0018075628 -0.0016740012 0.0074055246 0.0006303987 -0.00036947872 0.007485282 0.0007319977
0.00022561612 0.00055787544 1.75276e-05 -4.023002e-05 0.00022748826 0.00029591226 -2.4763163e-05 0.008510258
0.0007018858 0.00053549814 -0.0006073739 0.011425234 -0.0029905376 0.004063022 0.004496304 -0.0054402025
-0.00641141 0.0027746023 0.0 0.0 0.0 0.0 0.0 0.0
0.03080698 0.015189019 -0.0040243766 0.010177267 0.0025998834 -0.00053375564 0.014702093 0.0018899745
0.00052411406 0.0014349052 5.4096727e-06 -7.987717e-06 0.00052991265 0.0005732527 -7.3081195e-05 0.0211541
-0.0037655982 0.0008016238 -0.00095385854 0.02530283 -0.008239607 -0.0020995415 0.007348925 -0.0005269287
-0.014684793 0.0012365377 0.0 0.0 0.0 0.0 0.0 0.0
0.013262306 0.009196258 -0.0014436662 -0.006609587 0.0028678738 -0.00014085879 0.008594455 0.0007658154
0.0001775116 0.000559179 8.196793e-06 -2.0308453e-05 0.00022217154 0.0001595495 -3.3876222e-05 0.0086485725
-0.0034912932 0.0001089062 -0.00046801782 0.009523653 -0.00025539877 -0.0031201355 0.001873879 0.003683125
-0.004068577 0.0006232357 0.0 0.0 0.0 0.0 0.0 0.0
-0.010080353 -0.009482912 0.0017716638 -0.0011658797 -0.0015986253 0.00020249137 -0.0035446156 -0.00096304674
-0.00017691808 -0.00057768455 6.0259686e-06 4.1637133e-05 -0.00050573505 -0.00014461193 2.7810765e-05 -0.00834151
0.0031390905 -3.7880043e-05 0.00020748605 -0.007820837 -0.0036126885 0.0036189372 0.0029711344 -0.0060566887
-0.005688423 -0.002114615 0.0 0.0 0.0 0.0 0.0 0.0
00000000: c8df 87bc 583d efbb fab3 d83a 3a3a 78ba
00000010: fe78 1abb f4f2 4f3a 537d 75bc e4c2 63ba
00000020: 5629 3cb9 74c2 30ba daff 9337 03ac 5c36
00000030: 1a87 e8b8 de10 03b9 91be 0d37 9b94 2fbc
00000040: 6624 3c3b 5c77 7eb9 a292 773a d938 51bc
00000050: 2774 413b 4f13 9c3b 04da 6bbb a135 faba
00000060: 3ff4 de3b d6b6 cb3b 0000 0000 0000 0000
00000070: 0000 0000 0000 0000 0000 0000 0000 0000
00000080: 123d c53c b902 353c f452 24bb b2bf a43b
00000090: a67f 413b bd12 abba 36ed a03c a4a3 b03a
000000a0: ac22 b239 0370 803a c5ee 67b7 798d 29b8
000000b0: 097a 8a39 868f 6939 3ce4 4b37 fcb3 723c
000000c0: c541 60bb d42f ce39 bbd4 b6ba 05ca 8e3c
000000d0: a951 abba e190 bcbb 2da3 0c3b 5465 103b
000000e0: 05bf 7cbb 48d5 adbb 0000 0000 0000 0000
000000f0: 0000 0000 0000 0000 0000 0000 0000 0000
00000100: 2307 a23d fee5 053d 78fe 14bc da37 fdba
00000110: ac44 0c3c accd a9ba 2643 4f3d b9a0 843b
00000120: 80ea 983a d207 5a3b 453f 4e37 ff26 f5b7
00000130: 77fd 573a d724 9c3a 33ef 00b9 8a7a 4a3d
00000140: f62a d0bb e9d5 ec3a 9c87 50bb 0be1 7d3d
00000150: b4d2 64bc 1af2 18bc 902a 613c f937 083c
00000160: 4d18 d1bc 5437 f43a 0000 0000 0000 0000
00000170: 0000 0000 0000 0000 0000 0000 0000 0000
00000180: b2ca 313b 5858 3c3b e7d5 82b9 5a05 17ba
00000190: 0d91 413a caf6 27b8 4d46 d83a e983 2539
000001a0: 54fe 75b7 d738 e138 528b 1b36 9a75 9837
000001b0: df05 d937 85f2 a3b7 5c5a 35b6 fa94 c23a
000001c0: d7b8 98ba 3261 0d38 0252 a5b7 c16d d53a
000001d0: e040 d439 ae56 4bbb 2284 82ba dcb6 483b
000001e0: 6e68 c039 ce03 0db9 0000 0000 0000 0000
000001f0: 0000 0000 0000 0000 0000 0000 0000 0000
00000200: 011d 5b3c beeb ec3a 296a dbba 0baa f23b
00000210: 5741 253a 98b6 c1b9 1947 f53b 89e3 3f3a
00000220: 5e93 6c39 633e 123a 3c08 9337 a8bc 28b8
00000230: ea89 6e39 ac24 9b39 7dba cfb7 9c6e 0b3c
00000240: c2fe 373a ac60 0c3a 2c38 1fba e830 3b3c
00000250: e5fc 43bb 1923 853b bb55 933b ba43 b2bb
00000260: ce16 d2bb 1ad6 353b 0000 0000 0000 0000
00000270: 0000 0000 0000 0000 0000 0000 0000 0000
00000280: eb5e fc3c 5ddb 783c ebde 83bb 8dbe 263c
00000290: ce62 2a3b bceb 0bba 0ce1 703c 05b9 f73a
000002a0: b364 093a 6e13 bc3a bc84 b536 fc02 06b7
000002b0: d6e9 0a3a 5646 163a 2b43 99b8 5d4b ad3c
000002c0: 41c8 76bb 1024 523a 5d0c 7aba e147 cf3c
000002d0: 6bff 06bc 7698 09bb 40cf f03b 9621 0aba
000002e0: 7c98 70bc 5213 a23a 0000 0000 0000 0000
000002f0: 0000 0000 0000 0000 0000 0000 0000 0000
00000300: 254a 593c e7ab 163c 6639 bdba 3c95 d8bb
00000310: f0f2 3b3b 7eb3 13b9 c2cf 0c3c 00c1 483a
00000320: 6822 3a39 de95 123a f584 0937 125c aab7
00000330: b8f6 6839 be4c 2739 5116 0eb8 beb2 0d3c
00000340: 2ece 64bb 9264 e438 4a60 f5b9 1909 1c3c
00000350: 0be7 85b9 307b 4cbb f29c f53a 9560 713b
00000360: b351 85bb a460 233a 0000 0000 0000 0000
00000370: 0000 0000 0000 0000 0000 0000 0000 0000
00000380: 1128 25bc 375e 1bbc 2c37 e83a 6ed0 98ba
00000390: f788 d1ba dd53 5439 c84c 68bb f974 7cba
000003a0: 1683 39b9 c16f 17ba ad32 ca36 88a3 2e38
000003b0: 4e93 04ba f8a2 17b9 2a4b e937 d4aa 08bc
000003c0: 33b9 4d3b 63e1 1eb8 9d90 5939 f822 00bc
000003d0: dbc2 6cbb b12b 6d3b 5db7 423b 3077 c6bb
000003e0: f365 babb 5a95 0abb 0000 0000 0000 0000
000003f0: 0000 0000 0000 0000 0000 0000 0000 0000
