omniisaacgymenvs/runs/WEE/nn/last_WEE_ep_1700_rew_489.3527.pth (torch, 623460 bytes, 36 tensors)

value_mean_std.running_mean f8 [1]
000000 30 bd 01 b1 6e b6 22 c0
       -9.356313258611948

value_mean_std.running_var f8 [1]
000000 7f a3 b8 e4 d3 8d ad 40
       3782.913854379614

value_mean_std.count f8 []
000000 00 00 00 01 00 90 ba 41
       445644801.0

running_mean_std.running_mean f8 [32]
000000 78 a1 09 e5 92 5e 37 3f e8 f4 a8 07 fd c7 86 3f
       0.00035658918662886214 0.011123635097755671
000010 43 7c 30 8d 09 29 de 3f c9 32 90 87 be 7d b3 bf
       0.4712547186663338 -0.07613745507860438
000020 83 33 4d 4a 00 61 90 3f cf 3a 57 d5 e3 d7 7d bf
       0.015995029959686057 -0.007285966848441474
000030 f4 3a d4 e5 39 26 da 3f 21 cd ad 71 b5 39 a2 3f
       0.40858313984146766 0.03559653294260046
000040 a8 22 ba 45 e9 61 84 3f 35 a7 fa 21 57 de a0 3f
       0.00995237583198734 0.03294632234367471
000050 32 36 c6 4a 9e fc 6b 3f d9 6e bb 10 6c 5f 4f bf
       0.003416356243355145 -0.0009574201262369755
000060 16 4e b7 0a 24 3d b0 3f d3 ff a5 f5 d7 5b dd be
       0.0634329343950458 -6.999674804553064e-06
000070 52 b9 06 f4 cd 2c f6 be 4b 4b a0 e6 d9 64 db 3f
       -2.114774474797885e-05 0.4280304672440038
000080 b1 df 19 ef b3 86 dd 3f 7a e5 4c 45 d4 c0 23 bf
       0.46134661054338283 -0.00015070525355457745
000090 b6 aa 46 28 4d 9b 19 3f 3a 91 60 c5 6e 6a ce bf
       9.76816027732735e-05 -0.23762306821402907
0000a0 fa 44 55 3f ac 47 66 3f 40 7e 99 6b 4d 46 6d 3f
       0.0027197231490069225 0.0035735618701407124
0000b0 2b ff 96 26 22 bb 77 bf f0 57 b3 b7 e7 1b cd bf
       -0.005793698693594067 -0.22741409749750074
0000c0 70 6f 73 1c 3b fe c4 3f 48 63 d5 e4 9f 1f 92 bf
       0.16400851144032513 -0.017698763219729657
0000d0 00 00 00 00 00 00 00 00 00 00 00 00 00 00 00 00
       0.0 0.0
0000e0 00 00 00 00 00 00 00 00 00 00 00 00 00 00 00 00
       0.0 0.0
0000f0 00 00 00 00 00 00 00 00 00 00 00 00 00 00 00 00
       0.0 0.0

running_mean_std.running_var f8 [32]
000000 5e 62 ff dd 7f f4 67 3f 1d 46 c3 b9 1d f5 56 3f
       0.0029242036252806044 0.0014012136735356347
000010 dc fd f2 b8 c3 a8 54 3f 0d 8e 84 be 4e 1a e5 3f
       0.0012609397270323319 0.6594613762903819
000020 64 33 7a 26 95 4e 83 3f e1 b7 76 49 7e c1 9b 3f
       0.00942722819970649 0.027105305894728707
000030 be aa f5 78 f3 d3 c0 3f 20 fe 0d 6c db 3c e4 3f
       0.13146823316795592 0.6324288473551327
000040 39 c2 d8 af fb f3 e4 3f dc c6 39 ab 58 5a e3 3f
       0.6547830996042371 0.6047786087276239
000050 d2 58 75 cd 4b e6 68 40 73 73 fd ea 48 45 5e 40
       199.19675324363067 121.08257555724212
000060 e9 88 ad a5 8c 87 66 40 d8 28 4b 40 87 be cd 3e
       180.23591884511487 3.5457910619640527e-06
000070 90 1e eb 9d 24 18 d2 3e d6 63 31 59 66 da f8 3e
       4.31401937701189e-06 2.370178624419905e-05
000080 b4 2e 0b c1 98 54 d1 3f aa 46 19 90 33 cf 29 3f
       0.2707883725349618 0.00019690994672543388
000090 9d 61 5e fe 1c 20 2d 3f 83 ba d5 b3 b0 68 dd 3f
       0.0002222094910251494 0.4595147854042027
0000a0 6a d1 a8 41 f2 b7 75 3f c9 c4 5c 53 10 e4 75 3f
       0.005302378000625255 0.005344451686867654
0000b0 d8 d9 b8 68 41 46 6a 3f eb 22 df 3a 90 f9 29 40
       0.0032073285599622907 12.987428512323694
0000c0 4f 73 cc e3 20 ce 2d 40 1e e2 9e d2 7a e3 1b 40
       14.902594679553344 6.9721482190584805
0000d0 73 89 6c ab 79 46 33 3e 73 89 6c ab 79 46 33 3e
       4.487879115888276e-09 4.487879115888276e-09
0000e0 73 89 6c ab 79 46 33 3e 73 89 6c ab 79 46 33 3e
       4.487879115888276e-09 4.487879115888276e-09
0000f0 73 89 6c ab 79 46 33 3e 73 89 6c ab 79 46 33 3e
       4.487879115888276e-09 4.487879115888276e-09

running_mean_std.count f8 []
000000 00 00 00 02 00 90 aa 41
       222822401.0

a2c_network.sigma f4 [12]
000000 35 df cd bf db 12 b1 bf cf 68 2e c0 60 1c 98 bf
       -1.6083742 -1.3833879 -2.725147 -1.1883659
000010 be 06 95 bf fc f2 6a c0 0c 62 9f bf e2 b6 6f bf
       -1.1642683 -3.6710806 -1.2451797 -0.9363843
000020 a0 c2 86 bf 50 29 5c bf 69 8a 99 bf 7e 9a 8c bf
       -1.0528145 -0.8600054 -1.1995364 -1.0984647

a2c_network.actor_mlp.0.weight f4 [256, 32]
000000 73 04 1a 3e 9c ae e3 3d ab 09 37 bf 9a f1 2f 3e
       0.1504076 0.111172885 -0.7149913 0.17182007
000010 23 aa 1c 3f 51 ad 0b 40 f3 6d 0c 3d d3 0a c2 bd
       0.6119711 2.1824534 0.034284543 -0.09474721
000020 ec 81 7c bd e7 bf 42 be e9 58 ad 3d cf 7d a7 3e
       -0.06164734 -0.19018517 0.08464224 0.32713172
000030 b7 28 64 be 09 e9 6d be 29 0f 86 bd 59 d8 17 be
       -0.22281156 -0.23233427 -0.0654586 -0.14828624
000040 9d f0 5a be 62 e0 5f be c6 98 85 be 0d 98 0f be
       -0.21380849 -0.21862939 -0.2609312 -0.14022847
000050 d9 61 12 be ad 4c 03 3e 06 a5 dc 3c ea b4 b6 3d
       -0.14295138 0.12822218 0.026934158 0.08921225
000060 17 b9 a2 3d d4 ef e2 bc cf aa 0d 3e e0 9d 00 be
       0.07945459 -0.02770225 0.1383469 -0.12560225
000070 c8 5c 36 3c 1f 1b f7 bd 4c 45 5f 3d 02 5c 79 bd
       0.011130519 -0.1206572 0.054509446 -0.06087876
000080 d8 61 83 3d 53 e8 52 3b 89 a6 04 3f 58 ad 4a be
       0.064151466 0.0032181933 0.5181661 -0.19792688
000090 4e 86 37 bf 10 ff ae bf 12 73 30 3e 12 9f c8 3e
       -0.7168931 -1.3671589 0.17231396 0.3918386
0000a0 3b bf b6 3e 24 fb 92 be 39 ef ee be ea e0 0f bf
       0.35692772 -0.2870723 -0.46666887 -0.56202567
0000b0 e4 1d ac 3e 86 51 c5 3e 27 72 6f 3c 9e 50 82 3e
       0.33616555 0.3853876 0.014614618 0.2545213
0000c0 b8 a8 b6 bd 20 e6 52 be 46 df e4 3c 01 8f 07 be
       -0.08918899 -0.20595598 0.027938496 -0.13238145
0000d0 0b 31 13 3e 12 24 c4 bd b5 af 02 3e f4 2a 7c bd
       0.14374177 -0.09577192 0.1276234 -0.0615644
0000e0 18 23 8e bd 06 5b 91 3c 4e 13 19 3d 1f 9c 38 bd
       -0.06940287 0.017743599 0.037371926 -0.045070764
0000f0 d9 cc d7 3d 02 1e f6 3d 39 45 03 be eb 47 c1 bd
       0.105371185 0.12017442 -0.12819375 -0.094375454
000100 57 fc 0e 3e ff 93 f2 bd e0 d9 b2 be db e0 cb be
       0.13963448 -0.11844634 -0.3493185 -0.3981999
000110 5a ee a9 bf c6 e1 58 bf 02 98 de bd e4 e5 01 bf
       -1.3275864 -0.847195 -0.10868837 -0.5074141
000120 1d 11 d4 3d aa 2e 9a be 7a f4 90 3e c1 c9 8e bf
       0.103548266 -0.30113727 0.2831152 -1.115532
000130 d1 d8 0b bf c3 9e 91 be 78 fe 5a 3f 78 cc 8b 3d
       -0.5462771 -0.28441438 0.8554454 0.06826109
000140 60 12 b9 bb 1c 10 2d be 7e 7e 7b be 13 65 83 bd
       -0.0056479424 -0.16900676 -0.24559972 -0.06415763
000150 0a 97 52 bd 6b 05 e7 bd a2 60 c8 bd fd 73 15 be
       -0.051413573 -0.1128033 -0.09784056 -0.14595027
000160 d0 99 81 3a bc 7d 38 bd b4 b3 48 bc 02 54 f5 bd
       0.0009887759 -0.045041785 -0.012249876 -0.11978914
000170 68 80 f8 bd c9 36 d3 bd 8d d9 77 bd 07 e0 0e be
       -0.121338665 -0.10313184 -0.060510207 -0.13952647
000180 f7 cd d5 3d 0e 29 a7 3e dc 80 92 be e0 c1 2b 3d
       0.10439675 0.3264851 -0.28613937 0.04193294
000190 f1 0f 0d bf 40 ce 00 3f 8e 00 9d be 5f bb 8a be
       -0.5510245 0.5031471 -0.30664486 -0.27096078
0001a0 fb a3 93 be bb 51 79 be ac 8c 98 3e 9d ad 5d be
       -0.28836045 -0.24347584 0.29794824 -0.2164826
0001b0 7f 39 81 bd 9e 7d 64 be 99 89 fe bd bf 87 96 be
       -0.06309795 -0.22313544 -0.124285884 -0.2940044
0001c0 f2 4e 07 bf 8f c8 3b bd 3e db ba bd 18 22 9f bc
       -0.52854836 -0.045845564 -0.091238484 -0.019425437
0001d0 47 ff 04 3e 78 09 15 be d3 84 b5 3d 3a 7f b8 bd
       0.12988006 -0.14554393 0.08863225 -0.090086415
0001e0 03 2a 96 3c a6 eb a0 bd 0e e2 24 3e f6 db 04 be
       0.01833058 -0.07857446 0.16101858 -0.12974533
0001f0 f5 7d c1 3d 2e 78 7e 3d 11 4b 6b 3d 1e bc c3 bd
       0.094478525 0.06212633 0.057444636 -0.09557365
000200 67 45 9b 3e 2b 07 0c be c5 80 71 be 55 56 57 3b
       0.30326387 -0.1367461 -0.23584278 0.0032857854
000210 91 bd 81 3f bf 2f 8a be 2c da a5 bd 6e 9c 04 3d
       1.0135976 -0.26989552 -0.080982536 0.032375745
000220 b3 e0 a9 bd 18 15 ee 3c 03 32 0b 3c 67 6c 61 3e
       -0.08294811 0.029062793 0.00849581 0.22014008
000230 b5 e6 81 be 76 e4 7d bd e4 c0 67 3d ae bf 5d be
       -0.25371328 -0.061985455 0.05658044 -0.21655151
000240 84 7c 91 3d 60 34 50 be 60 12 9d 3e b0 0b 15 be
       0.071038276 -0.2033248 0.30678082 -0.1455524
000250 da 5d 77 bd 31 dc 87 bd ea 72 57 bd 1c 52 c2 3c
       -0.06039224 -0.06633795 -0.052599825 0.023720793
000260 63 0b 92 bc 3b c5 a9 3b 49 60 87 3d c6 78 fe bc
       -0.017827695 0.0051809824 0.06610162 -0.031063449
000270 91 bc 3f bd c7 ec 9a 3c 8d d2 ff bc 9b c6 57 bd
       -0.04681069 0.018911732 -0.031228328 -0.05267964
000280 63 18 32 3e ab 09 89 3e 5e b0 6e bf e3 c5 a2 3d
       0.17392115 0.2676519 -0.93237865 0.079479
000290 a0 52 4b bd f5 dd 8d be e1 21 00 bd b2 e1 e2 be
       -0.049639344 -0.27708402 -0.03128231 -0.44312817
0002a0 2e c0 a4 be 4c 81 20 bd bf 6f 02 3e 81 b3 ad be
       -0.3217787 -0.039185807 0.1273794 -0.33926013
0002b0 10 5b 40 bf ba dd e8 be 92 46 cf 3e d6 23 9d be
       -0.7513895 -0.45481664 0.40483528 -0.30691403
0002c0 3c 50 16 be c1 10 b2 3e 6d 03 05 bd 19 1c 20 3e
       -0.14679044 0.34778407 -0.03247397 0.15635718
0002d0 f1 65 68 be a5 5c 0b 3d 25 5d 53 be 4b 72 f7 3d
       -0.22695138 0.0340239 -0.20641 0.120823465
0002e0 ab 93 12 3d 4e 2d 24 be ea c7 95 3d d3 e4 89 bd
       0.03578536 -0.16032907 0.07313521 -0.06733098
0002f0 e2 54 ea bd ab 1f 04 3e a0 9e a4 bd 47 27 11 bd
       -0.11441971 0.12902705 -0.08038068 -0.03543785
000300 0d e0 3e be 88 38 9b 3e 7f 38 20 3e cf d0 93 3d
       -0.18640156 0.30316567 0.15646552 0.072175615
000310 c1 fe f7 3e 7f a9 04 c0 61 59 d3 bd 45 83 2c 3d
       0.4843655 -2.0728452 -0.10319782 0.042117376
000320 64 8f 65 bd bb 25 a2 3d 1c a2 09 bc 3b a8 2d be
       -0.05604495 0.07917353 -0.008400466 -0.16958706
000330 d9 7b 2e be 8a 1c b7 be 75 38 d9 ba dc 74 0e be
       -0.17039432 -0.3576396 -0.0016572612 -0.13911766
000340 77 4e e9 3e a7 02 8f be b4 d1 7b 3c 1f d1 91 3d
       0.45567676 -0.2793171 0.015369821 0.07119965
000350 09 38 92 bc ce 42 01 bd 53 27 75 be d1 4a 77 bb
       -0.017848985 -0.03155785 -0.23940782 -0.0037733803
000360 e6 48 f1 bd 1e 82 b2 3d 55 4a 68 bd 34 ca 04 be
       -0.117814824 0.08716224 -0.056711514 -0.1296776
000370 c7 82 ff bc 4f 7f af bd 7e 86 5d bd 61 54 2c be
       -0.03119029 -0.08569204 -0.05408334 -0.16829063
000380 e3 49 b2 3d e6 ce 41 be 2b 86 4f 3e c0 30 de 3c
       0.08705499 -0.18926582 0.20266025 0.027122855
000390 8f 98 ba 3e ab 47 17 3e 82 c4 26 3e 98 33 11 3d
       0.36444518 0.14773433 0.162859 0.035449594
0003a0 da bc 65 3c e3 cd 09 3e c4 de 91 be 05 ac 91 3d
       0.0140220765 0.13457446 -0.2849027 0.07112888
0003b0 3c 4b b7 3d 4e d6 c2 be 5d 93 28 bd b6 87 af be
       0.08949897 -0.38054127 -0.04115616 -0.34283227
0003c0 d5 88 98 3e 0e af 49 be ce 08 7e 3e 2d ba 0d be
       0.29791895 -0.19695684 0.24808046 -0.13840552
0003d0 eb 4b 03 be 41 7f 52 3d 27 2a 2d bd 03 b1 36 be
       -0.12821929 0.05139089 -0.042276528 -0.17840962
0003e0 f7 a6 16 3d e3 54 33 be 71 52 7d bc 48 33 b2 bd
       0.036780324 -0.1751285 -0.01546155 -0.08701187
0003f0 5b fd 93 bd 62 dd 65 bd fe 05 2c be 19 87 14 3e
       -0.07226058 -0.05611933 -0.16799161 0.1450466

a2c_network.actor_mlp.0.bias f4 [256]
000000 f9 29 1a 3e db a4 a8 3e 5f fd f5 3d 6b fe a3 be
       0.15055074 0.32938275 0.12011217 -0.32030043
000010 f8 df 2c 3d eb a2 5c 3e e1 e2 48 be 02 c2 a7 be
       0.04220578 0.21546523 -0.19617797 -0.32765204
000020 05 17 d0 bc 34 59 78 be e5 7f f3 bd bb 22 ac bb
       -0.025401602 -0.24252778 -0.11889628 -0.0052531636
000030 d1 9d 73 3b d3 0c e4 bd ab 97 ec 3d 59 62 21 be
       0.0037172923 -0.111352585 0.11552366 -0.15760173
000040 c2 f1 05 3e cd 99 23 3e ff 0d 8a 3d 8c 3c f3 3d
       0.13080505 0.15976639 0.06740951 0.11876783
000050 ff be 1f 3e 5e e3 85 be 03 ef 06 be 33 30 9d 3e
       0.15600203 -0.2615003 -0.13177113 0.30700836
000060 56 b1 a6 3e b5 ce 13 be 68 6b 52 be 55 24 be be
       0.32557172 -0.14434321 -0.20548785 -0.37137094
000070 9a ea a8 be 37 7f 28 be c3 d1 ab be 1c 0e 7c bd
       -0.32991487 -0.16454779 -0.33558473 -0.061536893
000080 52 8a 17 be fc 89 49 be 06 f5 ca be 39 8a 8e 3e
       -0.14798859 -0.19681543 -0.39640063 0.2783983
000090 eb e6 e9 3c 0c c1 26 3e c5 8b 39 be f8 97 af be
       0.028552493 0.16284579 -0.18119724 -0.3429563
0000a0 16 45 16 3c dd b7 dc bd 36 d5 a4 3e 79 35 1b be
       0.009171745 -0.10777257 0.32193917 -0.15157117
0000b0 52 6f 39 be e2 9f 7e 3d 79 b4 ed bb 85 8b 34 3e
       -0.18108872 0.062164195 -0.00725418 0.17631347
0000c0 1d fe 9b 3e 12 0c 00 be 7b dc c8 bd e5 95 3d be
       0.3046731 -0.12504604 -0.09807678 -0.18514211
0000d0 1f 22 1d be f9 09 a7 3e b8 7e f9 bd 74 62 91 3e
       -0.15345047 0.32624796 -0.12182373 0.28395426
0000e0 ec 24 8b be 4c 17 fa bc bd 82 36 3e 7c 7d 8a 3e
       -0.27176607 -0.030528687 0.1782331 0.27048862
0000f0 cd 61 42 3e 38 07 49 3e 1d 55 af 3e 4a 43 23 be
       0.1898262 0.1963166 0.34244624 -0.15943637
000100 90 57 e0 3d 50 7f 16 bf 34 7c 38 3d cf f0 32 3d
       0.10954201 -0.58788013 0.045040324 0.043686684
000110 35 26 eb bd 5a eb 5b 3e 5e 16 5b be 46 c2 e0 bd
       -0.11481897 0.21476498 -0.21395251 -0.10974555
000120 01 1a c1 3e f0 95 d5 3b 71 a1 ea 3d a2 10 f2 3d
       0.37715152 0.006518118 0.11456574 0.11819579
000130 27 fe 14 3e 0c 2f 59 3e 2d d0 07 3f 73 9f 3a be
       0.14550076 0.21209353 0.53052026 -0.18224888
000140 de b6 6d be 14 ea 6a 3e 3f 7e ef 3d 60 fe a0 bd
       -0.2321429 0.22940856 0.116940014 -0.07861018
000150 95 21 12 3e 96 a8 d7 3e 3d 5c be 3d cd d9 80 bc
       0.14270623 0.42120808 0.09294937 -0.015728856
000160 23 90 fe 3d 6d 64 11 bd 68 35 49 3e 80 e9 21 3e
       0.12429836 -0.035496164 0.19649279 0.1581173
000170 f8 9c 1b be 4d e9 80 be 55 6d f2 3e 48 cc d6 3d
       -0.15196598 -0.25177994 0.4734904 0.10488182
000180 72 04 5c 3d 72 1b 58 bc 24 7b 06 3d ef 5e 6a bd
       0.053715177 -0.013190137 0.03283228 -0.057219442
000190 ef 4b 01 be e1 25 48 be 12 14 e4 bd 61 bf 56 be
       -0.12626623 -0.195457 -0.111366406 -0.20971443
0001a0 19 7e 90 be 41 85 2d 3e 5a 26 54 bd 1a c3 f2 be
       -0.28221205 0.16945364 -0.051794387 -0.47414476
0001b0 07 e7 be 3e b6 1b 63 3c 41 02 6c bd 32 e4 24 be
       0.37285635 0.013861587 -0.057619337 -0.16102675
0001c0 6c c4 fc bd 2a 55 09 be 48 88 9a 3e 59 1d b9 be
       -0.12342152 -0.13411394 0.301821 -0.36155203
0001d0 c5 79 8e 3e 68 e3 87 3e fc c5 1a 3e c5 ea 5c 3e
       0.27827278 0.26540685 0.15114588 0.21573932
0001e0 c0 9a 51 be 27 22 63 be 91 73 38 be 2a 95 fc bd
       -0.20469189 -0.22180997 -0.18012835 -0.12333138
0001f0 31 2a 49 3e 01 76 eb 3e e9 26 aa 3e df 93 d9 bc
       0.19645001 0.45988467 0.3323281 -0.026559768
000200 c3 1a 55 be 07 b6 d9 3d af 30 d5 3e 98 0c 7c bd
       -0.2081099 0.10630422 0.41638705 -0.061535448
000210 db 52 9c 3e 06 96 03 3d 54 d0 93 be 2c 2c 65 be
       0.30531964 0.032125495 -0.2886988 -0.22380131
000220 d0 72 b2 be 1f 25 c6 3e 16 7e dd 3d 50 53 7e bc
       -0.3485322 0.38700196 0.108150646 -0.015522793
000230 39 05 0b 3e 16 19 01 3e 76 44 47 be dd 11 ab be
       0.13576211 0.12607226 -0.1945971 -0.33412066
000240 e8 73 ba 3d e4 e9 86 3e f1 45 c6 3e 39 7d 98 3c
       0.091041386 0.2635032 0.38725236 0.018614398
000250 8c a7 85 be bd a5 05 3e 17 42 27 be a6 ad 87 3d
       -0.2610439 0.13051505 -0.16333805 0.06624918
000260 7d ff b7 3e 8a 82 87 3e a4 3f 97 bb e9 52 80 3b
       0.3593711 0.2646678 -0.004615741 0.0039161337
000270 33 4b ab 3d 26 4d 9e be ad 1c 78 3e 4d 3b 73 3d
       0.083639525 -0.30918235 0.24229689 0.059382726
000280 fb 24 2d be c6 89 71 3e 5f b1 7b 3e 87 ae 7f be
       -0.16908638 0.23587713 0.2457938 -0.2496892
000290 78 d0 13 be 2a b8 12 be f9 5a ca be 1d c8 ce be
       -0.14434993 -0.14328066 -0.39522532 -0.4038705
0002a0 a8 0b 28 39 11 e9 a5 bd 85 24 a7 bd f5 19 32 3e
       0.00016026071 -0.081010945 -0.081612624 0.17392714
0002b0 76 60 dd be a3 07 3a 3e 39 84 ac 3e f8 ee b7 3e
       -0.43237656 0.18166976 0.33694628 0.35924506
0002c0 70 98 72 3d 5e 02 2b 3e be 51 a1 bd 80 05 94 be
       0.059227407 0.16700122 -0.07876919 -0.28910446
0002d0 d0 86 73 3e 55 df 72 be 05 bd 66 3e 2f 40 fb bd
       0.23781896 -0.23718007 0.22533043 -0.122681014
0002e0 83 05 e3 3d 1e 78 47 3e b4 01 14 be f1 ad c1 3e
       0.11085036 0.19479415 -0.14453775 0.3782802
0002f0 89 39 43 be 47 e9 21 be b6 a1 62 be eb 5b 79 bd
       -0.19064917 -0.15811644 -0.22132 -0.060878675
000300 f7 43 26 3e b7 18 aa bc b7 2c 41 be 7e 2d 4b 3d
       0.16236864 -0.020763738 -0.18864714 0.04960393
000310 11 ef 42 3e a4 e3 0c 3d 0b ed 1b 3e 11 5e c8 be
       0.19036509 0.034396783 0.15227143 -0.39134267
000320 67 af 3e 3c 27 ab b1 be b6 47 40 be 26 da 62 3e
       0.011638499 -0.3470089 -0.18777356 0.2215353
000330 af bd a1 3e 96 e6 08 be 38 cb ae bc d0 6d 92 3e
       0.3159003 -0.13369212 -0.021337137 0.28599405
000340 e8 ef d0 bd 70 48 28 3e 1d d5 57 3e cd 16 70 3e
       -0.102020085 0.16433883 0.2107739 0.23446198
000350 ff 9c bd 3d 04 8f 8c bd 55 38 7e 3e 81 f8 c3 3c
       0.0925846 -0.068632156 0.24826176 0.023922207
000360 64 5c d7 bd fe 9e c0 bd 21 3f 53 bd ce b1 34 3e
       -0.10515669 -0.09405325 -0.051573876 0.17645952
000370 0f 16 98 be d9 4b 23 3e 15 24 86 be c1 1f 61 be
       -0.2970433 0.15946902 -0.26199403 -0.2198477
000380 7b 75 0a be a3 a6 b3 3d c0 3e 3d 3c e6 23 0d 3d
       -0.13521378 0.08772018 0.011550605 0.034458064
000390 73 b7 6d be 40 d9 22 be 8d 75 60 be 02 ba a3 3e
       -0.23214512 -0.15903187 -0.21919842 0.3197785
0003a0 96 d3 06 3e a9 41 79 be 38 4d ad 3e 7d 99 18 bd
       0.13166651 -0.24341454 0.33847976 -0.037255753
0003b0 e5 b1 e3 bd c8 12 3d 3e fe 0a 4d 3e 6a d5 91 be
       -0.11117915 0.18464196 0.20023724 -0.28483135
0003c0 8c 9f 20 be 6b fd 82 be 80 42 ac 3d 06 2e d7 bd
       -0.15685862 -0.25583968 0.08411121 -0.10506825
0003d0 87 68 84 3d 3b d4 ce 3d 33 ef ba 3e eb 87 76 be
       0.064652495 0.100990735 0.3651062 -0.24075286
0003e0 b7 f3 be 3e 5a 34 88 bc 3d f3 db bd c2 f7 97 3d
       0.37295315 -0.016626526 -0.107397534 0.07420303
0003f0 ae e6 81 be 1d db 07 3e 3e 06 63 bd e0 02 92 be
       -0.25371307 0.13267179 -0.055425875 -0.28517818

a2c_network.actor_mlp.2.weight f4 [128, 256]
000000 7a a0 15 bf 27 67 cb 3e 17 f2 82 3d 0c 4c 10 be
       -0.5844799 0.39727136 0.06393831 -0.1409151
000010 c6 a0 3c be 13 f7 de be cf a8 a1 be 04 d1 3a 3c
       -0.18420705 -0.43547878 -0.31574103 0.011402372
000020 59 7b b6 3d ca 4a 30 3e e9 bb d1 be 21 da 41 be
       0.089102454 0.1721603 -0.40963677 -0.18930866
000030 c1 92 c5 bd 50 65 a7 3d de cf 0f be cb a3 e4 be
       -0.09647132 0.08173621 -0.14044139 -0.44656214
000040 ef f4 17 be ad 52 b6 bd 39 0e a0 3d f3 7d 81 3e
       -0.14839529 -0.08902488 0.07815213 0.25291404
000050 e8 67 18 be 36 f7 49 3e ff fa 91 be 79 18 ba 3d
       -0.14883387 0.1972321 -0.28511807 0.09086699
000060 93 83 92 bd fb c3 36 3e d3 3c 27 be c9 55 4f be
       -0.07154002 0.17848198 -0.16331796 -0.20247568
000070 27 6c ac 3e ce ef bd 3e c4 f4 a8 3e c7 2b 06 3e
       0.33676264 0.3709702 0.3299924 0.13102637
000080 a8 5b 3e 3d 4c 30 c9 3e 0c d8 8c be 64 08 b4 be
       0.04647413 0.3929466 -0.2750858 -0.35162652
000090 3d ba 0b be fa a5 89 3e e1 d8 0a be 56 1f ae 3e
       -0.13645263 0.26884443 -0.13559295 0.34008282
0000a0 a2 64 ef 3c d6 c7 f4 3d 6f 07 f9 bd dd f7 21 be
       0.02922279 0.11952178 -0.12159621 -0.15817209
0000b0 7b 81 d7 3e c0 82 72 be 6f a3 9a be 1a 5c 4e be
       0.42090973 -0.2368269 -0.30202815 -0.20152321
0000c0 a4 af 8a 3e 86 bd ef 3e 14 4b e8 3d 2a 29 8e be
       0.27087128 0.46824282 0.11342445 -0.2776578
0000d0 1b db a2 3e 59 34 02 bf 94 a7 ce 3d ff 7a 3e 3e
       0.3180779 -0.50861126 0.10090557 0.18601607
0000e0 3b 6e bd bd d3 86 9c be 20 e4 8e 3e a7 49 4d be
       -0.092495404 -0.30571613 0.2790842 -0.20047627
0000f0 db 83 1e 3f cb c2 b0 be bb 08 99 be 31 47 5b be
       0.61919945 -0.34523615 -0.29889473 -0.21413876
000100 1a ce aa 3d e4 62 37 be 5e f0 8f be fd 1d 10 3e
       0.08340092 -0.17908818 -0.28113073 0.1407394
000110 2c 49 22 be 8c db 9d 3d ba 97 63 3e 58 f9 4c be
       -0.15848225 0.07707891 0.22225848 -0.20016992
000120 ed fa 94 be 37 53 08 3e f2 3c 8f be 5a 90 5c be
       -0.2909769 0.13312994 -0.27976185 -0.21539441
000130 20 5d d3 be 9a f8 5d 3d 1d 57 52 be 89 b6 91 bc
       -0.41281986 0.054192163 -0.20541044 -0.017787235
000140 79 ff dc 3b 58 02 e6 bd e0 9f d1 3e f1 23 ff bd
       0.006744322 -0.11230916 0.40942287 -0.12458027
000150 63 0e f3 3d cd 6b 2c bc d5 c6 71 bc 38 d3 e5 be
       0.118679784 -0.010523749 -0.014756878 -0.4488771
000160 0f 62 b7 bd 58 4b 39 ba cc 6f 03 3e f4 70 10 bd
       -0.0895425 -0.0007068417 0.12835616 -0.03526397
000170 b1 47 99 be d6 d8 0f be 90 c5 57 3d 99 b0 8e 3e
       -0.2993751 -0.1404756 0.052678645 0.27869108
000180 08 89 0c be e3 e4 02 bd 23 e9 c6 be e1 20 8e 3e
       -0.13724148 -0.031956565 -0.38849744 0.2775946
000190 1e 2c 5d be eb 46 15 3e 9f 72 04 3e 13 c0 1c 3e
       -0.2159886 0.14577834 0.1293435 0.15307645
0001a0 65 b1 95 3e 7e f2 b1 be 33 12 f5 bc bf 83 84 3e
       0.29236904 -0.3475532 -0.029915905 0.25881764
0001b0 72 93 28 be 39 98 b0 3d 88 08 06 3e 36 59 b5 3d
       -0.16462496 0.08622784 0.13089192 0.08854906
0001c0 13 ca 45 3d 6f 55 7e 3e e4 33 a8 3e ee be 01 3f
       0.048288416 0.24837278 0.3285209 0.5068196
0001d0 43 1b 2b bd a8 4e 21 3e 3c 01 73 3d 5e a8 6a 3d
       -0.041774046 0.15752661 0.05932735 0.057289474
0001e0 71 73 a8 3d de fc cc bd 12 36 a5 3e e7 c8 c2 3d
       0.08225144 -0.10009168 0.32267815 0.09510975
0001f0 98 91 23 bd 13 ab f3 bd df ab 00 be c7 e1 c9 3d
       -0.03993377 -0.11897864 -0.12565564 0.09857517
000200 4b f2 71 3e 8b 50 b9 bc 14 37 38 3e 06 13 bf be
       0.23627584 -0.022621414 0.1798976 -0.373192
000210 f3 0d 62 be 2c ba 9f be ba a3 76 3e d6 a7 88 3e
       -0.22075634 -0.31196725 0.24085894 0.2669055
000220 0f 16 16 be c0 95 5d 3d 86 5e 24 3e ff b0 8a 3e
       -0.14656852 0.05409789 0.16051683 0.27088162
000230 dc 93 8c bd 0d 8b 9a 3e 36 bf 95 3e 93 e6 57 bd
       -0.068641394 0.30184212 0.29247445 -0.052710127
000240 b7 f5 3f 3e d0 53 5e be 61 f9 5c 3b b2 40 eb bd
       0.18746077 -0.2171166 0.0033717977 -0.11486949
000250 e3 ad f2 3d 07 13 c8 be 24 47 24 3e 8d 55 93 3e
       0.118495725 -0.39077017 0.16042763 0.28776208
000260 2f 0e 8d 3e 13 06 bb bc 5a cf 11 be 41 f6 84 bc
       0.27549884 -0.022830045 -0.14239255 -0.016230704
000270 ed 9e b3 bd 6c a0 ad be 82 3e a9 bc b7 a0 7b bf
       -0.08770547 -0.33911455 -0.020659689 -0.98292106
000280 00 41 c2 bd 0e eb c0 be 73 0c 0a bf 77 d9 f8 be
       -0.09485054 -0.37679332 -0.53925246 -0.48603413
000290 bd 75 20 3d bc 6b 75 3e fa 07 bd be b4 93 c3 bd
       0.039174784 0.23966879 -0.36920148 -0.095496565
0002a0 95 6c 62 be ef 54 2a 3e 05 7c 91 be 32 82 9a bf
       -0.22111733 0.16633962 -0.28414932 -1.2070982
0002b0 a9 f2 6d 3e 44 be 31 be 49 03 4d be e4 5f 67 be
       0.23237099 -0.17357737 -0.20020784 -0.22595173
0002c0 24 a3 46 be 36 2e 22 3e fb cb 81 bd bd 6f a4 3d
       -0.1939817 0.1583794 -0.06337734 0.08029125
0002d0 d9 0f f3 3d 80 60 8f bd 19 85 da 3d 4a c5 17 3e
       0.11868257 -0.07000828 0.106699176 0.14821354
0002e0 08 19 ef bd 08 c8 67 3e ca 65 6d be 04 26 07 bd
       -0.11674696 0.226349 -0.2318336 -0.03299524
0002f0 71 56 50 3e 00 e4 11 3e 63 02 b8 3e 05 ba c2 b9
       0.20345475 0.14247131 0.3593932 -0.0003714116
000300 82 d3 46 3e ff 1c 25 bd 64 32 22 3e e3 16 b4 3d
       0.19416621 -0.040310856 0.15839535 0.08793428
000310 ef 81 94 3e bd a5 74 3e 34 97 d0 be 37 5a 05 3d
       0.2900538 0.23891349 -0.4074036 0.03255674
000320 d1 e7 b4 39 a2 90 1c 3e fa 2e 6b 3e 88 88 9a 3d
       0.00034504992 0.15289548 0.22967139 0.075455725
000330 a0 f4 e5 bd b3 21 7f 3e f9 68 18 be 31 b3 a4 be
       -0.11228299 0.24915199 -0.14883794 -0.32167962
000340 2d b4 28 3f a5 a1 8b 3e 05 38 88 bf 92 d0 9a be
       0.65899926 0.27271762 -1.0642096 -0.30237252
000350 19 b2 9d bd f0 a3 fa 3d bb d4 25 3d 88 63 a7 bd
       -0.07699985 0.122383 0.04048608 -0.08173281
000360 93 a0 1f 3d 00 e5 36 be 08 78 38 be 89 1e c0 be
       0.038971495 -0.17860794 -0.18014538 -0.37523296
000370 0c 92 6c 3e 04 d0 eb be 11 5e 4b be b8 0f 58 bd
       0.23102587 -0.4605714 -0.19860102 -0.052749366
000380 84 ee d2 3c 6f 91 8b be 68 ea e2 3d d9 4d be be
       0.025748499 -0.27259395 0.11079866 -0.37168768
000390 9e 71 fd bd 72 f3 2b bf d9 0b 64 3d 69 dc b7 be
       -0.123751864 -0.67168343 0.05567536 -0.35910347
0003a0 ef 65 90 3a cd 8d b5 be b9 8b 14 3e 56 d5 19 be
       0.0011016707 -0.35459748 0.14506425 -0.15022787
0003b0 4d 20 c3 3e bd f2 98 bd 60 36 de bd 5c 30 22 be
       0.3811058 -0.07468174 -0.10850215 -0.1583876
0003c0 f4 15 50 bc ac 2c 73 3d be 10 af bc 08 91 9e 3c
       -0.0127005465 0.059368774 -0.021370288 0.019356266
0003d0 4d 05 c7 bd a7 67 44 be cc 2d 01 be 99 b2 14 be
       -0.09717808 -0.19180165 -0.12615126 -0.14521255
0003e0 16 22 0e be 2e e6 98 be a3 03 8d 3d ac 4e 3a bf
       -0.1388019 -0.29863113 0.06885459 -0.72776294
0003f0 e5 62 89 be b1 d1 b1 3c 63 a6 c8 3d 2f a3 26 3d
       -0.26833263 0.021706434 0.09797361 0.040682968

a2c_network.actor_mlp.2.bias f4 [128]
000000 84 27 ab bd da 93 d4 3d 78 2f 80 3e 97 25 e7 bd
       -0.083571464 0.10379763 0.25036216 -0.112864666
000010 43 2e 67 3e 2c 37 8d be 08 e3 3c be ae 20 0e be
       0.22576241 -0.27581155 -0.1844598 -0.13879654
000020 4b ff 20 bf a7 0a 32 bc 40 3e 0d bf a4 ff 0b 3c
       -0.62889546 -0.0108667975 -0.5517311 0.008544836
000030 0f 00 86 be 10 52 c8 be b0 64 4c be be d8 4f be
       -0.2617192 -0.3912511 -0.19960284 -0.20297524
000040 9b 26 c7 bd 04 f8 f9 bc 22 37 06 be 37 5b ba be
       -0.0972416 -0.03051377 -0.13106969 -0.36397716
000050 17 fe c1 ba 27 ec f9 bd 1d 3b 9f be 4c 37 19 3e
       -0.0014800456 -0.122032456 -0.31099787 0.149625
000060 64 cb 33 be 3b 83 5c bd f7 9a 80 be 11 05 4f bf
       -0.17558056 -0.05383609 -0.2511823 -0.80867106
000070 94 2a 4c be 10 08 f9 ba ad b7 23 bc fc 54 3b bf
       -0.19938117 -0.0018999595 -0.009992522 -0.7317655
000080 59 00 49 be db 69 c1 be 5e 7c b7 be 36 5a 12 3e
       -0.19629039 -0.37776074 -0.35837072 0.14292225
000090 0d 85 bc be 93 fa 1d bf f6 af 55 be 24 a5 27 bf
       -0.3682026 -0.6171047 -0.20867905 -0.6548636
0000a0 e8 6a cd 3c a4 41 c7 bd 6f aa ed bb da 28 ca be
       0.025075391 -0.09729317 -0.0072529833 -0.39484292
0000b0 8a 78 27 bd 50 e3 84 3d 54 a3 ca be 4b 3e 52 3b
       -0.04088644 0.06488669 -0.39577734 0.0032080587
0000c0 c3 89 55 be 9d 84 e2 bc 98 fd 2a be 26 ed 2f 3c
       -0.20853333 -0.027651126 -0.16698301 0.010737693
0000d0 72 91 89 3d e4 48 c1 bd 51 a7 3a 3e 47 24 d9 bd
       0.067171946 -0.09437731 0.18227889 -0.106026225
0000e0 53 d0 b2 be 63 d7 a8 be a9 b0 8f be 2d 73 a5 be
       -0.34924564 -0.32976827 -0.28064469 -0.32314435
0000f0 74 0f 93 3d 59 be 4c be 40 89 6d be cc 9a dc 3c
       0.07180682 -0.19994487 -0.23196888 0.026929282
000100 66 46 04 be 44 dc 82 3d d7 76 cc bc 0d cc 2b bf
       -0.1291748 0.063896686 -0.024959011 -0.6710823
000110 06 aa 35 3d d3 56 93 be bf 84 46 3d a0 c0 89 be
       0.0443516 -0.2877718 0.04846644 -0.26904774
000120 1f 4a 27 bf b6 72 e9 be ed 7c 0a 3d 1d 2b a0 bd
       -0.65347475 -0.4559533 0.033810545 -0.07820723
000130 6d d5 b1 be 78 57 c5 be be 52 21 be ce 34 8d be
       -0.34733143 -0.38543296 -0.1575422 -0.2757935
000140 e6 c3 50 bf 8a 0d a7 be 43 b9 c1 3d 2e 4c a9 3c
       -0.8154892 -0.32627517 0.09459164 0.020666208
000150 b1 55 ff be c1 d2 f9 be 57 b2 cd be 70 ed f2 be
       -0.49870065 -0.48793605 -0.40175125 -0.47446775
000160 1b 10 fd bd ab c4 e5 be 99 73 b2 be 09 d8 17 be
       -0.123565875 -0.44876608 -0.3485382 -0.14828505
000170 d6 0a 58 be c7 ef 40 be db 22 ba be 9d a4 18 3e
       -0.21097884 -0.18841468 -0.36354718 0.14906545
000180 84 b1 08 3d 08 58 d8 3d b4 f8 de bd 7e 44 44 3d
       0.033372417 0.10563666 -0.1088728 0.04791688
000190 03 01 9e be 0e d6 af be f9 ce b9 3d 15 a1 3f bd
       -0.30860147 -0.34342998 0.0907268 -0.04678448
0001a0 84 d0 8a be 72 7c c3 be 60 e1 3f be 00 aa 9c 3c
       -0.2711221 -0.38180882 -0.18738317 0.019124031
0001b0 35 4f 19 bf 61 36 92 bd 83 41 4e 3e 0d 7d 91 bc
       -0.59886485 -0.07139278 0.20142178 -0.017759824
0001c0 83 e8 f5 be 58 93 43 be 87 8a e7 3d d1 0d b5 be
       -0.48028955 -0.19099176 0.11305719 -0.35362104
0001d0 52 8e 9e bd 84 48 1a bf 0b 40 10 3e 53 cc 2a be
       -0.07741989 -0.602669 0.1408693 -0.16679506
0001e0 a2 94 d4 be fd c6 8d be a2 21 67 be a0 6b b6 bc
       -0.41519648 -0.2769088 -0.22571424 -0.022268116
0001f0 f9 de 8b be 97 0b 42 3c 25 03 b9 be 08 45 8a bd
       -0.27318552 0.011843584 -0.36135212 -0.06751448

a2c_network.actor_mlp.4.weight f4 [64, 128]
000000 98 fa e1 3c 2a 24 8e be 26 51 b8 3b 52 65 94 3d
       0.027585313 -0.27761966 0.005624908 0.07245888
000010 b8 b6 24 bf 35 68 c4 3c 89 bf 0f 3e bc 1d 5f bc
       -0.64341307 0.023975471 0.14037909 -0.013617929
000020 84 32 36 3e b8 d5 55 3e ed 68 76 bc 40 6a d8 3d
       0.17792708 0.20882308 -0.015039665 0.105671406
000030 e3 57 c8 bd bb 5e 3f be f1 c9 52 be 69 82 29 3c
       -0.09782388 -0.1868848 -0.20584847 0.010346034
000040 4c 73 a9 3d 77 9b d3 bd 4c 91 c7 3d ea f3 22 bd
       0.08273944 -0.10332387 0.0974451 -0.039783396
000050 b0 25 13 bb d3 d7 bb bd 56 5a 44 3b 73 31 99 3d
       -0.0022452883 -0.091720246 0.002996107 0.07480135
000060 f9 cc ff 3d 50 41 26 be 42 23 8b bd c6 e1 1a 3e
       0.12490267 -0.16235852 -0.06793834 0.15125188
000070 40 ee a9 bd 2d 62 49 bd 7d 75 04 3c 59 86 fc 3d
       -0.08297396 -0.049165893 0.008084652 0.12330312
000080 5a 7e 34 3c 3c 00 7e bd 2a 73 df bd c8 ed 9f bd
       0.011016453 -0.062011942 -0.10910638 -0.07809025
000090 69 9a 85 3d c4 39 9f 3c 8e 00 67 bd 1e ea 1c 3e
       0.06523592 0.019436724 -0.056397013 0.15323684
0000a0 32 da c2 bd 3e f4 7e 3c 42 3d 17 be 54 76 02 bd
       -0.09514274 0.015561162 -0.14769462 -0.031851128
0000b0 a4 70 17 be ef 54 0f 3e 61 16 92 bb 33 d5 05 be
       -0.14789063 0.13997243 -0.004458234 -0.1306961
0000c0 0c 4e 16 3e ca d1 07 be 3e 8c 0f be a2 a7 01 be
       0.1467821 -0.13263622 -0.14018342 -0.12661603
0000d0 f9 7b 43 3d f4 ae 70 bd 0a cc 55 be 3e 55 c4 be
       0.04772565 -0.0587606 -0.20878616 -0.38346285
0000e0 f8 57 29 3e 42 b2 23 3e 71 d7 39 3e 13 a4 e7 3d
       0.16537464 0.15985969 0.1814859 0.113105915
0000f0 89 1e 07 3d c1 65 a6 bd 24 8d 78 bd 5f 4f 1f 3d
       0.032988105 -0.08124877 -0.060681477 0.038894054
000100 e1 47 31 bb 7c ec 31 be db 5d 95 3d 3d a4 0e 3e
       -0.00270509 -0.17375368 0.07293292 0.1392984
000110 fe 81 6d be e3 d4 71 3d af 53 74 be 6f 2f 57 be
       -0.2319412 0.059040915 -0.23860048 -0.21014188
000120 f0 b9 7c 3e cd a0 6e bd bd a8 84 3d 8c 64 ef bd
       0.24680305 -0.05825882 0.06477497 -0.116891
000130 5a b9 17 3d fa 2f 04 3e 73 2f 33 be 35 72 91 3d
       0.037042 0.12908927 -0.17498569 0.071018614
000140 7e de c3 3c 6a cb 84 3d 27 bd b9 bd c5 e4 c8 bc
       0.023909803 0.06484111 -0.09069281 -0.024523148
000150 0f 3a f5 3d d8 84 ed 3d 0f 49 e4 3d 68 4d 69 3d
       0.119739644 0.115976036 0.11146747 0.056958586
000160 88 ce a3 3d 6c 54 2f 3e 34 2e e3 bc f8 07 b8 3c
       0.07998377 0.17122048 -0.027731992 0.022464737
000170 bb 04 85 bd cf 1c 77 bd 50 17 6b 3b 61 a7 a5 3d
       -0.06495043 -0.06033021 0.003587205 0.080885656
000180 c7 0e 35 3d a7 e2 b4 3d 27 ba a0 3a 4a 1a 41 be
       0.044203546 0.08832293 0.0012262509 -0.18857685
000190 e9 12 14 3e 95 a7 26 3e 11 ef 66 3c 4d 4c 72 3e
       0.14460339 0.16274865 0.014095084 0.23661919
0001a0 6d 3f 41 be 8e 3c 3f 3e 55 a8 02 bb 1e f3 16 3e
       -0.18871851 0.18675444 -0.001993676 0.1474118
0001b0 66 af 49 3e 0b 3d 77 bd 04 a4 8e 3d e7 ff 89 3c
       0.19695815 -0.06036095 0.06964877 0.016845657
0001c0 62 41 26 3e 02 5e 64 bc bb 0b 76 bd c9 a6 05 bc
       0.16235879 -0.013938429 -0.06006978 -0.00815744
0001d0 ce a9 70 3d 31 0a ec 3d 4a 76 b9 bd e2 83 75 3d
       0.05875569 0.11525381 -0.09055765 0.059940226
0001e0 53 6f 00 be e0 f2 6f bd 2b cf 36 3b 72 f4 39 bd
       -0.12542467 -0.058581233 0.0027894478 -0.045399137
0001f0 a9 f4 b9 bd ca ad 75 be 07 0e 3a bd 11 81 ed 3d
       -0.09079868 -0.23992077 -0.045423534 0.11596883
000200 86 3e 16 3c 65 1e bb 3c 08 ee 44 be be 2c 1d 3e
       0.00917018 0.022841642 -0.19231427 0.15349099
000210 2b 3b 92 be 12 d9 6b be 59 5a 01 be c0 f4 45 3d
       -0.28560767 -0.23032025 -0.12632121 0.048329115
000220 f1 9e 48 3e 9a 08 52 bd 99 26 9d bd 2f 06 2a 3e
       0.19591881 -0.051277734 -0.076733775 0.16603921
000230 41 f4 31 bd c7 3f c2 bd e2 eb 68 be a6 64 6c bc
       -0.04344583 -0.09484821 -0.22746232 -0.014428293
000240 9b db 99 bc 5e ec 60 bd 8b fb b6 3d c1 b0 0e bd
       -0.018781474 -0.054912917 0.08934697 -0.034836534
000250 36 50 c0 bd ef 16 20 bd d5 05 10 3d 83 d8 33 bd
       -0.09390299 -0.03908437 0.03516181 -0.043907654
000260 45 9e a0 3d ec e2 c2 bc 58 b4 ce bc ca 4d 1c bd
       0.078426875 -0.023789845 -0.025232479 -0.038160123
000270 f8 3c 33 bd c7 15 d4 3c db fd 20 be b4 36 af 3d
       -0.043759316 0.02588929 -0.15721838 0.08555356
000280 5f d1 87 3d ee 18 c5 3d 5e a7 f7 be f9 d4 32 be
       0.06631731 0.096238956 -0.4836988 -0.17464055
000290 49 fc 8c be 9a a6 96 3c 72 5a c2 3d 68 2b 89 3e
       -0.27536228 0.018389989 0.09489907 0.2679093
0002a0 b9 bb c3 3d 7d bd 5e be 45 ee 46 3e e5 8f 3c 3e
       0.0955729 -0.21751972 0.1942683 0.18414266
0002b0 65 d3 90 bd f1 80 a2 3d 14 83 f3 bc cc 49 c1 be
       -0.0707157 0.0793475 -0.029725589 -0.37751615
0002c0 d8 4f 71 bd 64 f0 1b be f8 90 72 3d f7 90 3e bd
       -0.058914036 -0.1522842 0.059220284 -0.046524968
0002d0 09 7d 97 bd 6d 38 76 bd 13 b8 4c 3d 60 f6 8b be
       -0.073968954 -0.060112406 0.049980234 -0.27336407
0002e0 24 2b bd 3c 7e b7 7a 3d 0c 91 8d 3e 05 31 0f 3e
       0.02309186 0.061210148 0.27649724 0.13983543
0002f0 b4 25 c1 bd 71 66 c8 bd 99 aa 14 bd ce f6 5a 3c
       -0.094310194 -0.09785164 -0.036295507 0.013364507
000300 b7 54 08 bd 71 c4 dd bd 8f b2 e0 3b 16 b0 39 3e
       -0.033283915 -0.10828484 0.0068572233 0.18133578
000310 86 3e 84 3c 7f 6a 84 bd 6d f3 01 bc 8d 59 d7 bd
       0.016143095 -0.06465625 -0.007931572 -0.10515127
000320 bf ea f2 bd 28 96 a1 3a d0 91 27 3d 8e 26 69 3d
       -0.118611805 0.0012328075 0.040910542 0.056921534
000330 0d 7f 02 3d 69 a8 63 3e a2 0c 1c bd f3 23 24 3e
       0.031859446 0.22232212 -0.038097985 0.16029339
000340 bf 96 68 3e 0b 6f 58 3e 44 4e 08 3e c1 c6 d0 bd
       0.22713755 0.2113611 0.13311106 -0.10194159
000350 00 33 5f 3c d1 3a d9 3d ac 1b 3c be 0c db 92 3c
       0.013622999 0.106069215 -0.18369931 0.017926715
000360 8c 5f c8 3d 39 81 03 be be a9 29 be 69 3f 5a be
       0.09783849 -0.12842263 -0.16568658 -0.21313252
000370 6b 7d 49 bd de b2 72 bd 25 58 aa bd 78 dc f1 bd
       -0.049191874 -0.059252612 -0.083175935 -0.11809629
000380 87 90 72 3d 49 8f a2 3d 66 14 1c 3d 04 a6 e7 3d
       0.059219863 0.07937486 0.03810539 0.11310962
000390 3f ed 03 3d ba df 39 bb 49 79 9b bd c6 80 9b 3d
       0.032208677 -0.0028362111 -0.07591493 0.07592921
0003a0 0e 83 93 3d df 3d 84 bd 58 8f 2c bd 95 62 aa 3d
       0.07202731 -0.064571135 -0.04212889 0.08319584
0003b0 74 56 f3 3d b2 64 cf bd e6 ea b1 3d b2 cc 42 bd
       0.11881724 -0.10126628 0.086873814 -0.047558494
0003c0 61 e6 32 be 34 22 7d 3d f4 92 0e be 47 74 22 bc
       -0.17470695 0.061800197 -0.13923246 -0.009915418
0003d0 ea ce c1 3d 31 63 07 3d c0 78 a4 be 3e 63 e0 bd
       0.09463294 0.03305358 -0.32123375 -0.10956429
0003e0 a9 f9 66 3d 69 20 0e 3e 2b 6f 03 be 34 7e 0a bc
       0.05639044 0.13879551 -0.12835376 -0.008452941
0003f0 02 ba 1e be f8 43 6d 3d 94 ec 9b 3b fe 4d d6 3d
       -0.15500644 0.05792615 0.004758427 0.104640946

a2c_network.actor_mlp.4.bias f4 [64]
000000 fe 6e 73 be 6e 0f 8c bd 01 c6 52 be b8 10 ad be
       -0.23772809 -0.068388805 -0.20583345 -0.33801818
000010 5a 7f 8a bd 81 9e 28 bd e6 94 be be a5 66 63 bd
       -0.06762572 -0.041166786 -0.37222975 -0.05551781
000020 1e 45 0f bf 80 35 2a be b7 01 0d be e6 31 c0 bd
       -0.5596484 -0.16621971 -0.13770185 -0.09384517
000030 ec e3 4b bc 3c fd a5 bd d6 2d 54 be 1a 25 24 bf
       -0.0124444775 -0.08104941 -0.2072061 -0.6411911
000040 4b 4d c0 3a 54 d9 2f be d0 35 66 bd 87 aa bc be
       0.0014671473 -0.17172748 -0.056203663 -0.36848852
000050 2b 1e ca bd 90 7f ea bd 0f f9 ca be 3c d9 5e be
       -0.09869035 -0.11450112 -0.39643142 -0.21762556
000060 94 17 c4 be 28 9a 86 be 1f a0 f7 bd 8f ab 82 3d
       -0.3829924 -0.26289487 -0.120910875 0.063803785
000070 08 11 e1 be 53 2a 0a bf fa a4 00 be 96 30 a4 3c
       -0.43958306 -0.5397083 -0.12562934 0.020042699
000080 4d 6e b0 be ed fa 0b be a2 ad 94 bd 6b 9a bd bd
       -0.34459153 -0.1366994 -0.0725968 -0.092579685
000090 12 5e 9a 3d e3 ee 12 bf f3 59 68 be 91 bf 10 bc
       0.07537474 -0.5739576 -0.22690563 -0.0088347355
0000a0 0c 13 c5 bd 2f b2 1c 3d e6 e4 4e 3c 27 f2 b5 be
       -0.096227735 0.038255867 0.012627816 -0.3553631
0000b0 c8 89 f6 bd 52 f3 93 be 2b bb e3 3c 8a 86 39 be
       -0.120379984 -0.28896576 0.02779921 -0.18117729
0000c0 77 ba 91 be 60 57 74 bd 09 99 9f be 2e 68 92 be
       -0.28462574 -0.05965364 -0.31171444 -0.28595108
0000d0 e0 a8 f3 be c9 ad 8c be fe af 15 3b 06 93 47 be
       -0.4758978 -0.27476338 0.0022840495 -0.19489679
0000e0 eb 5b 88 3d fc 46 65 3d a5 63 b1 be ef d2 b4 bd
       0.06658157 0.0559759 -0.34646335 -0.08829295
0000f0 8b da 94 bc b7 e6 1c be c5 b1 1b be 56 db 09 bd
       -0.018170616 -0.15322386 -0.15204532 -0.03365644

a2c_network.value.weight f4 [1, 64]
000000 cd 34 81 39 45 ba 00 bd 44 50 8d bb 80 79 ec bc
       0.00024644137 -0.03142764 -0.004312547 -0.02886653
000010 12 67 2b bd dd 54 9f bc c7 26 e1 3b 6f 9d 8d be
       -0.041846342 -0.019449646 0.0068710777 -0.27659175
000020 09 73 c6 3b ce a6 7a 3e ea fe 94 bc 0f 98 79 3c
       0.0060561937 0.24477693 -0.018187959 0.0152340075
000030 a3 97 9f 3b 77 24 49 3d a5 5d ca 3c 9c 9d ee bd
       0.0048703714 0.04910704 0.024702856 -0.11651155
000040 df e8 31 3d 10 87 4e bb bc 78 10 3b a3 87 a0 3b
       0.043434974 -0.003151361 0.002204462 0.0048989817
000050 73 d9 0e 3d c6 dd 35 3f d9 d2 ce bc 2c 3c 17 3d
       0.034875344 0.71041524 -0.025247024 0.03692262
000060 ba 39 36 bd 42 4f 95 bc 87 d8 53 3c 16 5f f6 3b
       -0.044488646 -0.01822627 0.012930042 0.0075186593
000070 b6 eb 9a be d4 f8 b3 be b4 99 04 bd 2c b3 9f bc
       -0.30257958 -0.35150778 -0.032373145 -0.019494615
000080 81 56 c5 bb 92 ff bf bb 33 a9 0b bd 84 1b 5c 3b
       -0.006022275 -0.005859324 -0.034096908 0.0033585737
000090 32 f8 56 bb 12 07 2a be 56 12 b8 3e a2 92 38 3b
       -0.0032801745 -0.1660426 0.3595149 0.0028163572
0000a0 1b ec 12 3d a5 67 52 3f 96 74 81 3c 6c 9e f0 bc
       0.0358697 0.821894 0.015802663 -0.029372416
0000b0 7d a5 4d bc c9 36 4d be 72 7e 99 bb 7f 3a c1 bb
       -0.0125516625 -0.2004043 -0.004684263 -0.005896866
0000c0 dc 6a dd 3d 43 2c e3 3c d2 d2 9b b9 d4 27 6e bd
       0.108113974 0.027731067 -0.00029720977 -0.05814345
0000d0 d6 fb b3 bd 49 98 c3 3c 06 82 15 bb ef a4 8a bc
       -0.08788268 0.023876326 -0.0022813096 -0.01692435
0000e0 f6 fe 28 3c ea c8 23 3c 39 9b 1d be 15 c0 83 3d
       0.010314694 0.009996632 -0.15391244 0.06433121
0000f0 05 21 8c 3d fe a0 aa bd 80 5c 21 bd 7c 73 79 38
       0.068422355 -0.08331488 -0.039394855 5.947378e-05

a2c_network.mu.weight f4 [12, 64]
000000 df d8 21 bd 5f ba e0 bb 61 7a 87 bd 5c 17 94 bd
       -0.039513465 -0.0068581547 -0.06615139 -0.07231018
000010 8d fc 8a 3c 7c 88 51 ba 9e 94 2c bd 00 fb 1c 3d
       0.016966129 -0.0007993055 -0.04213392 0.03832531
000020 fc 73 f7 bd bb 67 16 bc e5 f0 db 3c cd bf d2 bc
       -0.12082669 -0.009180005 0.026848266 -0.025726223
000030 de 0b 94 3d 37 b6 5f bc d3 8f 82 3d 68 4b 8d bd
       0.07228826 -0.013654283 0.063750885 -0.06899148
000040 79 3d 1e bc 62 0a 52 bd 9e 91 fb 3c 32 74 e0 bc
       -0.009658211 -0.051279433 0.030709084 -0.027399156
000050 a1 5d 51 3d 86 b0 af bc 85 08 22 be 70 40 80 bc
       0.051114682 -0.021446478 -0.15823562 -0.015655726
000060 76 ed 63 be fb 8c 20 bd db 35 6d ba a5 f8 6c bc
       -0.22258553 -0.03919695 -0.00090488576 -0.014463578
000070 bd 88 d5 bc 28 f0 11 be 48 8d a2 ba cb 77 71 3c
       -0.026066178 -0.14251769 -0.0012401724 0.0147380335
000080 39 96 75 bd 9c e7 76 3c a6 4c 39 3b 5a fc fd 3b
       -0.059957717 0.015069868 0.0028274446 0.00775103
000090 02 e6 fb 3b 6d c8 29 be 0b 8a 96 3b cb f3 14 3c
       0.007687331 -0.16580363 0.0045940927 0.009091328
0000a0 ac 98 cd 3b 1c bc ca 3c 3d fa 81 bc 47 3f 35 3d
       0.0062743034 0.0247479 -0.015866393 0.0442498
0000b0 ad 6a 5d bd 9c 13 3b be 84 58 ac 3c 93 ed 14 bd
       -0.054056812 -0.18269199 0.021038301 -0.03635938
0000c0 bc 5f 01 be 77 19 1e 3e 46 61 d3 bc 29 bd d1 bc
       -0.12634176 0.15439402 -0.02580322 -0.025602894
0000d0 9f 0e 48 be 88 ab 2c bd e8 f9 c9 3b 97 bf 82 3d
       -0.19536828 -0.042155772 0.0061638243 0.06384199
0000e0 5e 63 f9 bc 49 91 cb bb 13 7e df bd 38 f9 c9 ba
       -0.03044289 -0.0062123877 -0.109127186 -0.0015409356
0000f0 51 f8 0d bc d8 f7 17 3d 9c 91 50 bc 84 c3 d5 3c
       -0.00866516 0.037101597 -0.0127300285 0.026094206
000100 4b 28 cb bc 56 9d e0 3d bf 42 b7 3d 13 6e 39 3d
       -0.024799487 0.109675094 0.08948278 0.04527099
000110 fb cc 03 bc 1e 2e ab bc e8 55 74 bc 05 35 a5 bd
       -0.008044477 -0.020896014 -0.01491306 -0.08066753
000120 78 c2 d3 bd 10 51 b6 39 ce b9 c0 bb 2e c3 fa 3c
       -0.10339826 0.0003477414 -0.0058815246 0.030610647
000130 f0 42 95 3d 2a e8 37 bc 1b d5 be 3d cc 96 86 3d
       0.07288158 -0.011224786 0.093179904 0.06571731
000140 de 54 02 bd c4 a1 3a 3b 41 4c 85 3d d8 73 de 3c
       -0.031819217 0.0028477767 0.06508685 0.027154848
000150 6d 67 be 3b 43 21 a1 bb ba bf ea bc 39 02 5a bb
       0.005810669 -0.004917295 -0.028655875 -0.0033265485
000160 65 72 0b 3c 16 00 1e bd 9d e8 65 3c 0a 97 aa bb
       0.0085111605 -0.0385743 0.01403251 -0.0052059935
000170 8a fb 4d 3d 8d a7 f9 3d 78 47 2d ba 2a 09 e5 3c
       0.050288714 0.12190161 -0.0006610076 0.027958471
000180 22 d2 48 3d 6e 2f 19 bd 15 d5 34 3c 82 a2 7b 3d
       0.049028523 -0.037398748 0.011037131 0.061434276
000190 87 76 da bc 74 f7 38 bc 08 5e 0d bd 5e 9e f8 3a
       -0.026667846 -0.011289466 -0.034513503 0.0018968096
0001a0 06 51 41 bb a8 33 df 3c cf 5b 78 3c af 69 38 bb
       -0.0029497757 0.027246311 0.015158608 -0.0028139164
0001b0 01 83 68 bd 2a 17 fb 3d 41 c9 27 bd ba 39 20 bc
       -0.05676556 0.122602776 -0.040963415 -0.009779388
0001c0 b8 8d e8 3c c8 3f 42 3e 53 5d c0 3d 64 a7 65 3c
       0.02838789 0.18969643 0.093928 0.01401696
0001d0 8d 5a 6b bd 95 8c 83 bd 58 7e 9a 3b d4 f1 c5 3b
       -0.057459403 -0.06423298 0.0047147684 0.006040791
0001e0 5f 18 48 3c 0c 4c 5e ba ae 31 05 3d 78 fd bf 3c
       0.012212842 -0.000847996 0.03251808 0.023436293
0001f0 42 d1 f9 3c c2 91 0e 3d ec 89 cb 3b 45 ad c1 bc
       0.03049529 0.034806974 0.00621151 -0.023642192
000200 ad e5 fa 3c 67 61 c4 bc 90 e5 12 bb 50 9f ba bc
       0.030627096 -0.023972226 -0.0022414662 -0.022781044
000210 73 cd 84 3b 68 0c 06 bc 9c d3 3a 3c 7a 2b 04 bc
       0.004052812 -0.008181669 0.011402991 -0.008067006
000220 52 f8 86 3d 10 9d 56 3b fe 75 8d bb 96 fd 08 ba
       0.06590332 0.0032747425 -0.0043170443 -0.00052257755
000230 f2 b5 9a 3c f1 73 d9 3a 5f 84 87 3c 49 a3 d6 3d
       0.018885586 0.0016590339 0.016542612 0.10480363
000240 ca 83 70 3b a0 90 e4 3b 60 eb b0 bc 57 bf be 3c
       0.0036699646 0.0069752485 -0.02159661 0.023284597
000250 a0 8c 8f 3c d2 37 e6 3b 58 1a 4c 3d 5f cb ac 3c
       0.01752311 0.0070256973 0.04982981 0.021093069
000260 f9 dc 49 3d fd 7b 04 3d 9a d8 c2 3b 37 4b 09 3b
       0.049283 0.032344807 0.005946231 0.0020949373
000270 33 05 32 bc fc b1 d6 3c 5b 1b 33 3c 41 18 53 bc
       -0.010865497 0.026207916 0.010931815 -0.012884201
000280 b8 f6 a6 bc 72 10 f7 ba 5e 4b 0d 3c 69 9b 8e 3b
       -0.020381317 -0.0018849506 0.008623926 0.0043520224
000290 47 ee 5a bc ff 60 ca 3d 2d bc 0d bc 57 e2 69 bb
       -0.013362474 0.09881782 -0.008650822 -0.0035687888
0002a0 36 83 8f ba ab 0e ae bc e0 e2 1c bb ce b7 83 3c
       -0.0010949138 -0.021247229 -0.002393894 0.016078856
0002b0 31 4e 49 bc 1d da 40 3d 33 3f e3 3b 4a 89 8d bc
       -0.012286709 0.04708301 0.006935024 -0.017277379
0002c0 45 5d e0 3c 83 4c 2e bc 5a fc fa 3b 4f 80 17 bc
       0.027388224 -0.010638359 0.007659477 -0.0092469
0002d0 73 6f bc 3d 8e dd c8 3c 5e b3 e1 b9 51 e7 0b 3d
       0.09200945 0.024519708 -0.00043048983 0.034156147
0002e0 2f 3f 84 bc 77 8c 0a bb 00 c9 85 3d f2 a7 74 3b
       -0.01614341 -0.0021140852 0.06532478 0.0037331549
0002f0 44 fe 9f bb a1 a9 a3 3a d0 83 9e 3a 79 69 24 bc
       -0.0048826057 0.0012486466 0.0012093727 -0.010034912
000300 ef 15 ec 3d 52 d9 1b bd fd 98 a1 3d 6b 87 1e 3e
       0.11527621 -0.03804905 0.07890508 0.15481345
000310 b3 76 e2 3c 18 55 81 bd 3a 6e 2b 3d d0 ef dd 3c
       0.02764449 -0.063150585 0.041853167 0.02709189
000320 34 d7 9f 3d f1 13 00 3d 5f d6 49 3c fa 51 d5 bb
       0.078047186 0.031269018 0.012319176 -0.0065100165
000330 43 40 58 bd 41 47 86 bc 4a 58 96 3d 2c a2 0e 3e
       -0.05279566 -0.016391398 0.073410586 0.13929051
000340 49 42 cd bb f0 88 fd 3d 24 f5 12 3d e5 31 a1 3d
       -0.0062640053 0.123796344 0.035878316 0.07870845
000350 c9 7a 00 bc 1b c0 7b 3b 5a 37 fe 3d 0e 12 7a 3d
       -0.007841774 0.0038414064 0.12412901 0.061052375
000360 92 a4 1d bd ea b9 f3 3c 4a 44 49 bc 5d 9e 56 bd
       -0.038487025 0.029751737 -0.012284348 -0.05239712
000370 c6 0a b1 3c 4c e1 fb 3d 42 c2 f8 bc 81 24 50 bd
       0.021611582 0.12298831 -0.030366067 -0.050816063
000380 bc 07 0c bc 3c 16 23 bc be 08 22 bd 3d b9 84 bd
       -0.008546766 -0.009954032 -0.03955912 -0.06480644
000390 69 5f 50 bc 64 85 35 3e aa 14 27 bd 62 5b ad 3c
       -0.01271806 0.17726666 -0.04079119 0.021161739
0003a0 29 8c a6 3c 2a ac 08 bd 60 66 aa bb 14 22 36 3d
       0.020330505 -0.033367313 -0.0052001923 0.044466093
0003b0 6a 5b d7 3c b9 fd 81 3d 5c 73 3e 3d 80 18 94 3c
       0.026288707 0.06347222 0.046496734 0.018078089
0003c0 39 58 88 3d 73 ca 85 3d 74 6d 1f 3e 56 5c 88 3d
       0.06657452 0.06532755 0.15569097 0.06658237
0003d0 86 7b 32 3e 6a 46 ba 3d 52 05 66 bd 21 70 a7 bd
       0.17429933 0.09095462 -0.056157418 -0.08175684
0003e0 ba c6 1f bc e5 f5 a8 bc 21 e3 06 3d 09 df e5 3c
       -0.00975197 -0.020625064 0.03293145 0.028060453
0003f0 a0 26 3f bc 5c 35 3c bd ce 93 8d bc 04 5d 1e 3c
       -0.011666924 -0.045949325 -0.017282393 0.009665731

a2c_network.mu.bias f4 [12]
000000 60 9e 4e 3e c3 85 db 3d 83 5b a6 be 1b de 43 be
       0.20177603 0.107188724 -0.32491693 -0.19127695
000010 6a 64 b6 3d ae 57 05 bc 9d 26 ec 3d a4 6f 3d 3d
       0.08905871 -0.00813858 0.115308024 0.046249047
000020 8d 28 a8 bd 49 2f 29 3e 90 e4 6e 3d b7 b2 9d bd
       -0.082108594 0.16521944 0.058323443 -0.07700103

exp_avg f4 [12]
000000 13 7f a7 3c f6 8d 5b 3c 7e bd df ba 88 d1 f3 bb
       0.020446336 0.013400545 -0.0017070023 -0.0074407496
000010 5a 14 3c 3c ea f1 e0 ba 87 c3 ec bb d1 34 19 bb
       0.011479462 -0.001716194 -0.007225457 -0.0023377428
000020 7e 34 31 ba f4 03 b2 3b eb d8 6b bb 0a 45 d5 bb
       -0.0006759836 0.0054326 -0.0035987447 -0.0065084742

exp_avg_sq f4 [12]
000000 b3 cb 41 3b c7 40 81 3b 70 ed 34 3b 3a 3e 64 3b
       0.0029570877 0.0039444896 0.0027607344 0.003482713
000010 b7 13 40 3b 34 f4 c6 3b 1a b5 54 3b 55 97 71 3b
       0.0029308626 0.0060715917 0.0032456578 0.0036863883
000020 ac e5 40 3b dc ee 1a 3b 75 08 2f 3b ca 22 40 3b
       0.002943377 0.0023640906 0.0026707922 0.002931761
