omniisaacgymenvs/runs/WEE/nn/last_WEE_ep_1000_rew_-679.77216.pth (torch, 623568 bytes, 36 tensors)

value_mean_std.running_mean f8 [1]
00000000: 8fc6 1b17 518e 3cc0
-28.555924839287908

value_mean_std.running_var f8 [1]
00000000: 5618 84ca 1422 8040
516.2601518936087

value_mean_std.count f8 []
00000000: 0000 0002 0040 af41
262144001.0

running_mean_std.running_mean f8 [32]
00000000: 9198 eefe 55c4 993f b3fd f17a 215b 823f
00000010: c001 923c 4dd2 dd3f d9a1 67de 2a71 953f
00000020: f4b1 4f1e f465 933f 5d21 7db6 8645 83bf
00000030: 01e6 a16c 7260 dd3f 0daf 943a c3eb ae3f
00000040: d3de 0ad8 d196 903f 99f3 3ddb eced ab3f
00000050: be8c 507a ae0d 753f 1aec 160f 7075 5f3f
00000060: af9a df3b 663c bf3f 2efc 5f96 32bf d53e
00000070: e20a 8a15 a909 f9be be72 0a99 a071 db3f
00000080: 182d 53e4 c3cf e23f a1a2 9236 0a46 0fbf
00000090: de1d 4e2a c620 fabe 090f 9d69 b1d8 6abf
000000a0: a388 4de5 bf9e eabe 391d 70ad cd7c 4f3f
000000b0: e3f2 75dc b6f5 5fbf b15f 6a0f 0dcf b5bf
000000c0: c4aa bbe2 64ae 9bbf 9cb5 6f09 0646 7bbf
000000d0: 0000 0000 0000 0000 0000 0000 0000 0000
000000e0: 0000 0000 0000 0000 0000 0000 0000 0000
000000f0: 0000 0000 0000 0000 0000 0000 0000 0000
0.02516302460176029 0.008962880672924145 0.46596079745361507 0.020939512085449728 0.018943609571509826 -0.009409954494586864 0.4590116558898388 0.06039247598741158
0.016200331507859666 0.05454960037511753 0.005140000871537596 0.001920089180528667 0.12201537095789193 5.184856808781173e-06 -2.3877846020879392e-05 0.42881026215927054
0.5878619632216298 -5.964964550148511e-05 -2.4917625200097475e-05 -0.003277155407802716 -1.2693460271943484e-05 0.0009609226498249807 -0.0019506726983699533 -0.08519059778552564
-0.02703244813794005 -0.00665857656620741 0.0 0.0 0.0 0.0 0.0 0.0

running_mean_std.running_var f8 [32]
00000000: 6132 7675 9680 633f e332 d72e a9cf 563f
00000010: 5541 7e16 b52f 5e3f 8473 1b23 7acb e23f
00000020: ae2a c529 c875 8a3f 14c1 299e 64c5 a53f
00000030: 1040 cf8d bdb7 c23f 927a bc20 5ebc ee3f
00000040: 5db2 aae9 650e f03f 8838 8ea2 a609 ed3f
00000050: b4bb 8681 7868 7240 012b c3f5 c5de 6640
00000060: 17dc b6c5 09cf 7140 7748 7610 7146 d63e
00000070: 275d 4880 612e dc3e 9de7 4943 c140 fc3e
00000080: 3450 91fe 45c1 d03f 4185 568d 173c 333f
00000090: fc93 ff19 4577 353f 8b0c a718 be16 d93f
000000a0: 0980 6b97 1ec0 753f 6cdc 24a2 68ae 753f
000000b0: f3e2 d62d 5c7e 6d3f de0a 3b2b 0cb7 2840
000000c0: 4614 9341 1c8a 2a40 d233 eb93 f777 1d40
000000d0: b3ca d8d0 4d62 403e b3ca d8d0 4d62 403e
000000e0: b3ca d8d0 4d62 403e b3ca d8d0 4d62 403e
000000f0: b3ca d8d0 4d62 403e b3ca d8d0 4d62 403e
0.0023806513451687804 0.0013922836472943171 0.001842429011933507 0.587338512963115 0.012919963621830757 0.042521614367503485 0.1462323133878276 0.9604941024188796
1.003515160332561 0.9074280905640686 294.52942040090716 182.96166504019496 284.9398858206709 5.3108126460023645e-06 6.7189157602267555e-06 2.694411178303485e-05
0.26179647312278864 0.00029349875452496307 0.00032754361200054683 0.3920130959269918 0.005310172555908829 0.005293282245751301 0.003600292241312858 12.357514716107683
13.269746827320102 7.367155371885888 7.629394473042199e-09 7.629394473042199e-09 7.629394473042199e-09 7.629394473042199e-09 7.629394473042199e-09 7.629394473042199e-09

running_mean_std.count f8 []
00000000: 0000 0004 0040 9f41
131072001.0

a2c_network.sigma f4 [12]
00000000: 5d15 7cbf eb3c 52bf 97d4 0cc0 99e1 61bf
00000010: 9507 44bf 3267 66c0 8620 3fbf 88af 07bf
00000020: 5c9c 1dbf 1d6a 06bf f926 4abf 7dc5 09bf
-0.984701 -0.82124203 -2.2004755 -0.8823486 -0.7657407 -3.6000485 -0.74659 -0.53002214
-0.6156671 -0.52505666 -0.7896572 -0.5381697

a2c_network.actor_mlp.0.weight f4 [256, 32]
00000000: 61af 003e 23c4 2f3e 0ca4 b1be 7747 b23c
00000010: 500c 2e3f d3fd 443f 4c57 f13c e0a1 353c
00000020: 7c41 bd3c 6b41 42be 1d10 113e e9af 3d3e
00000030: e1f4 2c3d 9c92 a0be 164d 14be 3b25 fdbd
00000040: 5a1e 7c3d e69d 68be f9f1 88be 69ca b0bd
00000050: f8fc 1bbe 5bcc 0e3e 6a85 283d 442d ef3d
00000060: c65b c33d 83a8 803c cfaa 0d3e e09d 00be
00000070: c85c 363c 1f1b f7bd 4c45 5f3d 025c 79bd
00000080: 936b ac3d 1c4a fab9 2620 963e e2a7 eebd
00000090: bf58 38bf 9860 d6be f337 213e 6a0f 973e
000000a0: 96b8 a13e 3a2c 84be ab34 39be 0306 1cbe
000000b0: 0005 82bb 1267 9e3e ce90 db3e f323 873e
000000c0: fefe f5bd e920 d5bd dfb6 033e c1fe febd
000000d0: ff0e 043e a3eb e6bd 8701 133e 26de 21bd
000000e0: ce58 25bd d3c3 78bd 4e13 193d 1f9c 38bd
000000f0: d9cc d73d 021e f63d 3945 03be eb47 c1bd
00000100: adce 283e 25c7 cbbd 40ad 26be c339 c7be
00000110: fa97 88bf bff2 73bc 4f35 bebd 09cf b2be
00000120: 66c1 cb3d b921 97be 37b0 2ebd 641d 4cbe
00000130: ce80 8fbe 20ff 53be 7476 053f 5926 d13d
00000140: 6c0a 43bd e779 2bbe 23eb 2abe fff3 86bd
00000150: 91e7 33bd 6066 efbd a72c 15be 5131 05be
00000160: 165f 0aba 508b 17bd b4b3 48bc 0254 f5bd
00000170: 6880 f8bd c936 d3bd 8dd9 77bd 07e0 0ebe
00000180: ffc2 093e b4ff 853e b4ed 553d c351 993d
00000190: 11f1 d8be 39d4 49bd 9600 19be bb1b a3be
000001a0: 80a8 82bd b3ee 5abe eb1f 333e f8b4 fc3c
000001b0: 951c cebd 045c 45be b5bc b13d 15f1 7ebe
000001c0: e400 0fbd 4f99 b93d 969f 8ebd a3eb af3d
000001d0: ae31 233e ee09 b6bd 7b5b ba3d a105 02be
000001e0: 3ad6 5ebc a38d 09be 0ee2 243e f6db 04be
000001f0: f57d c13d 2e78 7e3d 114b 6b3d 1ebc c3bd
00000200: 8221 8d3e 2d93 083e b18c dabd 220e 93be
00000210: 9442 4e3f 4c3b 7f3e 9fc9 92bd c463 8a3e
00000220: c9c0 f43c 2483 22bc e1ce 48bd 1587 263d
00000230: 7908 83bd 733a 25be d26d 75be 8f78 14be
00000240: 8888 8fbd 4952 0bbe ae89 5e3e ab5f c3bd
00000250: 2d08 a0bd ab0a 4a3d ef48 303b 10ed b33b
00000260: 8395 943c ecaf 1b3d 4960 873d c678 febc
00000270: 91bc 3fbd c7ec 9a3c 8dd2 ffbc 9bc6 57bd
00000280: 894a fd3d 0cc6 8e3e 8025 efbe 791d ac3b
00000290: 5add 223d 45d5 b23d 3af6 70b8 8186 5abe
000002a0: 4ec4 69be acef 89bc 571a dc3d 996c 4a3e
000002b0: ccb1 d8be 46b2 cbbe 6b62 08be 4b03 93be
000002c0: 3b6d c73c 1a82 0a3e 7f75 303e 5409 fa3d
000002d0: aa5a adbe a4f6 11bd 7024 7ebe 0813 363e
000002e0: 574f 30bb 64b0 85be eac7 953d d3e4 89bd
000002f0: e254 eabd ab1f 043e a09e a4bd 4727 11bd
00000300: b8f3 45be 3be4 6b3e 214f 8e3c eeef e73d
00000310: 4d0c 6a3e ee9a cfbe 19c8 9ebd 7772 583d
00000320: 6ae4 b33d 1621 c13d ef68 bf3d 8203 413c
00000330: 4c27 88be 85ca 93be 90ce a5be ea79 14be
00000340: b0f1 3d3e 09f0 aebd 90ec 253d 6cf0 ad3c
00000350: 2b36 95bd 38c5 253c 4164 91be 82b9 ce3c
00000360: cfba c8bd 50e9 203e 554a 68bd 34ca 04be
00000370: c782 ffbc 4f7f afbd 7e86 5dbd 6154 2cbe
00000380: a94d dd3d a72f febd 353e 053e 980d 9e3d
00000390: 48fe c93e 025d 6bbd a70f 333e 73d7 a4bd
000003a0: eb6b e23d 69f7 283e 5aa3 74be 13d3 72be
000003b0: f6b6 2abd 170a c1be dc23 7cbd 450f a0be
000003c0: 6622 133e b7d2 253d 97a3 1a3e 8fa0 92bd
000003d0: 248a 1cbe 5de1 523d 529a 9ebb d67c 5bbe
000003e0: 1d72 0c3c 0a00 8dbe 7152 7dbc 4833 b2bd
000003f0: 5bfd 93bd 62dd 65bd fe05 2cbe 1987 143e
0.12566902 0.17164664 -0.3469547 0.021762593 0.6798754 0.76949805 0.029460572 0.011085957
0.023102514 -0.18970267 0.14166303 0.18524136 0.042225722 -0.31361854 -0.14482531 -0.12360617
0.061552383 -0.22716483 -0.2674711 -0.08632357 -0.15233219 0.13945143 0.04114286 0.116785556
0.09538989 0.015705353 0.1383469 -0.12560225 0.011130519 -0.1206572 0.054509446 -0.06087876
0.08418956 -0.00047738932 0.29321402 -0.11653115 -0.72010416 -0.4187057 0.15743999 0.29503947
0.3158614 -0.25814992 -0.18086497 -0.15236668 -0.003967881 0.3093801 0.42883915 0.26394615
-0.120115265 -0.10406668 0.12862729 -0.12450934 0.12896346 -0.11275413 0.14356051 -0.039518498
-0.040367894 -0.060733628 0.037371926 -0.045070764 0.105371185 0.12017442 -0.12819375 -0.094375454
0.1648509 -0.09950093 -0.16277027 -0.38911256 -1.067138 -0.014889418 -0.092875116 -0.3492358
0.09948997 -0.29517916 -0.04264852 -0.19933087 -0.28027958 -0.20702791 0.5213387 0.10212392
-0.04761736 -0.16745721 -0.1669126 -0.06589507 -0.04392201 -0.11689448 -0.14567815 -0.13007094
-0.0005278451 -0.036998093 -0.012249876 -0.11978914 -0.121338665 -0.10313184 -0.060510207 -0.13952647
0.13453291 0.26171649 0.052228644 0.07486298 -0.4237142 -0.049274657 -0.1494163 -0.31857094
-0.06379795 -0.21380119 0.17492644 0.030848011 -0.10064045 -0.19273382 0.08678571 -0.24896653
-0.03491296 0.090624444 -0.06964032 0.08589866 0.1593692 -0.08888613 0.0909948 -0.1269746
-0.01360088 -0.13432936 0.16101858 -0.12974533 0.094478525 0.06212633 0.057444636 -0.09557365
0.27564627 0.13337393 -0.10671366 -0.2872172 0.8057034 0.24924964 -0.071673624 0.2702924
0.029877083 -0.009918962 -0.04902542 0.040656168 -0.063981004 -0.16135578 -0.23967674 -0.14499114
-0.07008463 -0.13605608 0.21732208 -0.095397316 -0.078140594 0.04932658 0.002689894 0.0054909065
0.018137699 0.03800957 0.06610162 -0.031063449 -0.04681069 0.018911732 -0.031228328 -0.05267964
0.12367732 0.27885473 -0.46708298 0.005252537 0.03976188 0.08732084 -5.7449775e-05 -0.21340372
-0.2282879 -0.016837917 0.107472114 0.19767989 -0.42323148 -0.3978445 -0.13318793 -0.2871345
0.024344077 0.13526192 0.17232321 0.122088104 -0.33858234 -0.035635605 -0.24818587 0.17780697
-0.002690276 -0.26111138 0.07313521 -0.06733098 -0.11441971 0.12902705 -0.08038068 -0.03543785
-0.19331253 0.23036282 0.017371716 0.1132506 0.22856255 -0.4054789 -0.07753009 0.052843537
0.08783801 0.09430139 0.09346186 0.0117806215 -0.2659248 -0.28865448 -0.32384157 -0.14499632
0.18549228 -0.08541877 0.040508807 0.021232806 -0.07285722 0.010117821 -0.283968 0.025234941
-0.09801256 0.15714002 -0.056711514 -0.1296776 -0.03119029 -0.08569204 -0.05408334 -0.16829063
0.10805828 -0.12411433 0.13012011 0.077174366 0.39451814 -0.057461746 0.1748644 -0.08048906
0.1105574 0.1650063 -0.23890439 -0.23713331 -0.04167839 -0.3770301 -0.061557636 -0.3126165
0.1436859 0.040484156 0.15101467 -0.0715953 -0.15287071 0.051484454 -0.0048401738 -0.2143434
0.008572129 -0.27539092 -0.01546155 -0.08701187 -0.07226058 -0.05611933 -0.16799161 0.1450466

a2c_network.actor_mlp.0.bias f4 [256]
00000000: 913c 0a3e de73 943e 9602 d73d 5e7d 99be
00000010: 6fb8 a8ba aca2 603e 1a0a 2cbe fb42 9abe
00000020: 7290 aabb cfdd 67be 9817 fdbd 2353 65bc
00000030: bb5c bf3c 0c4f 9ebd 0fa4 cd3d fb8c 17be
00000040: 8096 2b3e c796 b73d 0f48 813d a039 bb3d
00000050: 3ae3 153e cdee 5ebe 29b3 b6bd e0b6 7a3e
00000060: 33eb 8d3e 8a0c cfbd 5f14 80be e669 a6be
00000070: e079 bbbe 3ee1 3fbe c115 a4be 3bd5 a6bd
00000080: d648 1bbe e167 30be 3fbb bebe ce0f ab3e
00000090: de33 823d 7e3e 4c3e 4cdc 1bbe bc69 c6be
000000a0: 8c8a b2bc 8f21 79bd b21d 7d3e 6b4c e7bd
000000b0: 5ea8 45be 7409 fa3c cb1b d93d 2cbd 5d3e
000000c0: 9f88 993e a898 0cbe 55f0 98bd d2a1 06be
000000d0: 83ef 25be d73c c03e f194 b3bd 8cd3 6d3e
000000e0: 9774 73be f680 8abc b219 4d3e dfa8 be3e
000000f0: 4d75 2f3e 40bc 2f3e 7825 a23e 77ea c9bd
00000100: c261 2b3e a65b 10bf 31fa 43bd 7ff4 aa3d
00000110: 7e99 6ebd 1e5c 503e 5f20 7bbe b74b babd
00000120: 922b cb3e 8edd 473b 1ed1 1b3e f4ca 813d
00000130: 523b 0e3e c1a4 283e d3af d43e 7505 36be
00000140: 91f9 7abe c996 1f3e a14c d23d a5c5 91bd
00000150: 44d8 d83d 4bdb 8b3e 56e9 e63d a0f7 033d
00000160: cea7 a73d 99fa 66bb d0bf 893e deb7 023e
00000170: 92d9 90bd b0c1 0bbe 7ba9 ea3e cf56 ea3d
00000180: d9cd b63d 1a3a 953a 5f46 b23d ed00 8cbd
00000190: c11f 26bd ffb8 6abe 7440 21be c43b 31be
000001a0: a53a 6bbe ffba 563e 0444 81bd be75 e7be
000001b0: f9dd af3e d729 e9bc dbd6 f8bc 17b1 fdbd
000001c0: a07c a1bd d9de 4bbe c987 893e 66f2 d2be
000001d0: dcb6 8b3e 9c45 683e e732 0b3e a144 5f3e
000001e0: a300 8cbe 4ec6 70be aef8 20be 2241 6bbd
000001f0: 731e 2e3e c766 e13e 6365 c13e fc03 7bbd
00000200: 9906 36be c0b1 c43c 97d4 ba3e 168b 16bc
00000210: 33b4 833e 8088 fa3c 8d54 8cbe 97e2 55be
00000220: dd66 9dbe a165 c53e 5b4d f83d ac0e 1bbd
00000230: 4113 cd3d 9cf6 fa3d fe66 8cbe 15d4 a9be
00000240: a3cc 663d 33b3 6b3e 9f42 c23e 7378 aabd
00000250: 4cad 92be 0a5f bb3d fa2c 38be 6fcb b73d
00000260: 6566 a93e b253 8b3e 0a0c 11bd 171a ff3b
00000270: 39e3 a73d 2861 9abe 3d36 8e3e 5f06 cf3d
00000280: a65f 56be 25bc 8c3e 87b0 843e f0f8 7bbe
00000290: 8140 2bbe b5df 0bbe d4e4 bfbe daa1 bebe
000002a0: 9bcd 63bd d0fa 81bd d8b5 72bd 618a 5b3e
000002b0: 6f76 d4be 3c03 683e a322 a43e 866d bd3e
000002c0: acea 433d 7d04 103e 15d6 92bd 89bd 5cbe
000002d0: 0021 573e ba2d 85be bc30 6f3e 8958 e1bd
000002e0: cebc 473d 867a 273e 2048 2abe 5633 bb3e
000002f0: 8c46 2fbe c27e f2bd 44d7 5fbe c01d abbd
00000300: ff9f ea3d 7f34 c2bc 81ff 20be 1499 633d
00000310: 38f7 613e c7a6 b5bc 1948 1f3e 2ea9 b6be
00000320: 7094 d9bc 2199 adbe a491 09be 1c74 663e
00000330: 193c 763e d467 ecbd ddef 42bd 8cb3 523e
00000340: 727c eebd 0efc 703e 1411 1f3e 2b5b 6c3e
00000350: ed81 063e 168c 0bbe e402 4a3e dd34 113a
00000360: 1ef1 09be 2f2b 59bd e8de 03bd 9372 d13d
00000370: 44cd 9dbe 393f 343e 1568 5abe 5f6f 37be
00000380: 2eeb ccbd 2aa4 813d b382 c2bb aa7e 933c
00000390: 4c6f 30be bb24 c2bd ed4d 52be 874a 8a3e
000003a0: 74af 863d 4154 54be 4dee a63e 26be afbc
000003b0: 11fb efbd 855b 523e c582 5c3e 9399 38be
000003c0: 9c8e 0dbe c0d4 62be 11b7 4e3e 344b 24be
000003d0: 7cc1 533d 2ce5 3b3e cd9b a73e 1428 35be
000003e0: b492 a33e 9141 2fbd 6345 adbd 1aed b03d
000003f0: 33d5 40be cb06 a93d 014a 453c 681a 55be
0.13499667 0.2899465 0.1049854 -0.2997846 -0.0012872348 0.21937054 -0.16800728 -0.30129227
-0.0052052075 -0.22643207 -0.12358016 -0.013996872 0.023359647 -0.07729921 0.10041057 -0.14799874
0.1675663 0.08964305 0.06312572 0.091418505 0.14637461 -0.21770783 -0.08920891 0.24483824
0.27718505 -0.101098135 -0.25015542 -0.3250267 -0.3661642 -0.18738267 -0.32047847 -0.08146139
-0.15164503 -0.17227127 -0.37252232 0.33410496 0.06357549 0.19945714 -0.15220755 -0.38752544
-0.02179458 -0.06082302 0.24718359 -0.112938724 -0.19302508 0.030522086 0.10601004 0.21654195
0.29987046 -0.13730109 -0.07467715 -0.13147667 -0.16204648 0.37546417 -0.08768643 0.2322523
-0.23774944 -0.016907196 0.20029333 0.37238213 0.1713459 0.17161655 0.3166921 -0.09859174
0.1673651 -0.56389844 -0.047846023 0.08347415 -0.05825185 0.2034764 -0.24524067 -0.09096473
0.3968168 0.0030497047 0.1521649 0.06337538 0.13889816 0.16469099 0.41540393 -0.17775519
-0.24509265 0.15584864 0.10268522 -0.07117776 0.105881244 0.27315745 0.11274974 0.032218575
0.08186303 -0.0035244583 0.26904154 0.12765452 -0.07072748 -0.13648105 0.45832428 0.11442339
0.08925981 0.0011385113 0.087048285 -0.06836114 -0.040557627 -0.22922133 -0.15747243 -0.17307955
-0.2297159 0.20969771 -0.06311801 -0.45207018 0.3434904 -0.028462334 -0.030375889 -0.12387293
-0.078850985 -0.19909228 0.26861408 -0.4120056 0.27287948 0.22682804 0.13593636 0.21803524
-0.27344236 -0.23513147 -0.15719864 -0.057435162 0.17003803 0.44023725 0.37772664 -0.061283097
-0.17775954 0.024010539 0.36490318 -0.009188434 0.2572342 0.030582666 -0.27408257 -0.20887218
-0.3074254 0.385541 0.121241294 -0.03785579 0.10013438 0.12254068 -0.27422327 -0.33169618
0.0563475 0.23017578 0.37941453 -0.08323755 -0.2864784 0.09148987 -0.17985907 0.08974349
0.33085933 0.27212292 -0.035411872 0.0077850926 0.08197636 -0.3015225 0.27775756 0.10108637
-0.20934924 0.27487293 0.2591593 -0.24606681 -0.16723825 -0.13659556 -0.3747927 -0.37232858
-0.055616003 -0.06346667 -0.05925545 0.21439506 -0.41496608 0.22657484 0.32057676 0.36997622
0.047831222 0.14064212 -0.07169739 -0.21556677 0.21008682 -0.2601145 0.23358434 -0.11003215
0.048764043 0.16355333 -0.16629076 0.36562604 -0.17116755 -0.118405834 -0.21859461 -0.08355284
0.11456298 -0.023706673 -0.15722467 0.05556591 0.22066963 -0.022174252 0.15554847 -0.3567595
-0.026560038 -0.3390589 -0.13434464 0.2250523 0.24046363 -0.11543241 -0.047592033 0.20576304
-0.1164483 0.23533651 0.15533859 0.23081653 0.131355 -0.13627657 0.19727665 0.0005539188
-0.13470885 -0.0530197 -0.032195 0.102269314 -0.30820668 0.17602243 -0.21328767 -0.17913578
-0.100057945 0.0633014 -0.0059359907 0.018004734 -0.17229956 -0.09479662 -0.20537539 0.27009985
0.06576434 -0.20735265 0.32603684 -0.021452975 -0.11717809 0.20542724 0.2153426 -0.18027334
-0.13823932 -0.2215147 0.20187022 -0.16044313 0.051698193 0.18349141 0.32736054 -0.1769107
0.31947863 -0.04278714 -0.084605 0.086389735 -0.18831329 0.08253249 0.01204157 -0.20810854

a2c_network.actor_mlp.2.weight f4 [128, 256]
00000000: fc9b bebe 2543 923e 4c0b 763c 4cf4 0bbe
00000010: 65e6 69bd bcc5 9ebe b238 2abe 17b8 e9bc
00000020: 6ec3 2e3d 7895 803d e6a4 65be 2c19 39bd
00000030: e272 d6bd bbdc 323b ec9e 01be 4641 83be
00000040: 2c80 87bd 8218 17bc ea10 b0bd 6642 d43d
00000050: 67c6 0ebe d667 f03b d88d 8cbe c612 2a3d
00000060: 8af8 be39 01f7 083d 16fc 52bd 845a 26be
00000070: 7b8e 813e 6dc2 1fbe 8188 b03d a74f 65bd
00000080: df9f b3bd 0f26 053d f784 ffbd 6a78 5bbe
00000090: 59ce 9ebd 8f59 c73d 0434 51bd ba19 903d
000000a0: a32d e43d d74f 693d db8c c5bd a39b 1ebe
000000b0: 6d70 ee3d a602 1bbe 560d 70be 9f29 2ebe
000000c0: 6a87 203e 7bda 823c af23 b83c c14b 47be
000000d0: 5023 823d e6e3 d5be b9b1 473d 9e33 d83d
000000e0: 54a0 88bd 2591 75be c8ae 063e 370d 19be
000000f0: f147 5d3e 0d1e 71be 22c3 d0bd c664 85bd
00000100: b261 8fbc 1e19 f5bd 3021 52be 9068 dabb
00000110: 2fa2 86be b798 673d 6a6a 2a3e 0a25 1dbe
00000120: 7ba2 a2bd 906d 163d f593 3dbe 49f2 f7bd
00000130: ba69 90bc 143c eb3d fea8 87bd b611 15bd
00000140: 1cc3 41bc 1c54 22bd a501 1f3e 0e2c d1bd
00000150: 8a80 173e cba5 03bc 53c0 96bc fc63 bbbe
00000160: c8e8 d8bd 97dc f0bc 3a30 afbc 9f87 85bd
00000170: eb64 96be 95c2 50be 5abe cebd c9d2 e33d
00000180: e808 1cbe ae2a d43d cecf 6dbe be51 973d
00000190: 7dcb 5cbe b9cf 2d3e 6cb7 c53d 162c 3c3e
000001a0: 6166 f13d e768 a5be c742 3abc c1ff 623d
000001b0: 649b 933d ac09 923d 54ed 4ebb db8a 20bd
000001c0: 6c38 53bd 91d2 e83d c9ce 493e e694 493e
000001d0: aee7 aebb c300 133d a9e6 af3d d29f a53b
000001e0: d5cd f7bd 2815 bfbd 404d f63b 0e4c 833b
000001f0: e287 dbbd 9d49 a3bd deeb 6abd fb1c 9f3d
00000200: e51e b1bd a288 5dbd c1cd 153e d234 8dbd
00000210: 1d01 6abd f06f 3abe 6643 4d3d 86b0 5abb
00000220: b2a0 2ebe 01d8 403d 9433 083e f26e 9a3d
00000230: aa35 d23b 296b 3f3e 4d9c 903e 06b3 6bbd
00000240: 0833 573d 2a71 5c3c c4fc 0a3d 130b 18bd
00000250: 7204 2b3d a3c9 5ebe 4677 e03c 73f0 d93d
00000260: 6c88 363e 5e50 7fbd ed98 2ebe 3e05 68bd
00000270: ca67 b4bd f9c5 f5bd d68d 1fbd d89e 22bf
00000280: 91db ebbd cd4e 98be 65d9 b1be e9ab 86be
00000290: 27f2 0dbe 02a0 053e c292 3ebe ac55 53be
000002a0: 1cf9 0ebe b86e adbc 4852 08be fc86 3cbf
000002b0: afc9 3f3d f8ce fabd 93a5 1dbe 4961 15be
000002c0: e50a 53be 5a71 3cbd c901 9dbc d714 d63b
000002d0: 94f3 7f3d 6184 1dbe 2926 e4bb 7b2c dabc
000002e0: 241f e1bd 4362 42bc de35 03be 1e3c 85bb
000002f0: 92b4 35bc cc2f 933d 5987 383e fef9 c9bd
00000300: b206 053e 8928 9abd 5d73 b63d b793 733b
00000310: 3eae d1bc 71af 363d 399d 76be 9dfa 8b3c
00000320: fda4 01be c97a 97ba f1c9 4dbc 455d cfbd
00000330: 1e9c 3abd c32c 1f3e 955e 62be b949 33be
00000340: 46be 4f3e 2cb8 2c3e 62c5 e0be b949 5abd
00000350: 6c56 843d 8df4 063e 4654 f13c a170 f8bc
00000360: 6005 843d 4d63 03be 704b 37be e106 86be
00000370: bd1b fa3d 9354 a8be 3da5 34be 762f 00bd
00000380: 9a2c 35bc acee 5ebe f847 d43c fbf8 33bd
00000390: 6cb5 9cbd 1947 22bf 101c 623d 9bf3 5bbe
000003a0: 8899 dcbc 24ae 5ebe 1c35 93bd 608f 22be
000003b0: afee 603e a33c 5cbd 90b7 15be 2a81 11be
000003c0: a47f 333d b168 c03c 0b35 eebc 148d 8e3d
000003d0: d035 09be 6c6f 23be 8979 d6bd 09df 10be
000003e0: f90d 13be 64bb bdbd d648 cf3c 7069 91be
000003f0: b0bf 19be 2948 86bc d4f9 52bc 0d2b eabd
-0.37228382 0.28566852 0.015017342 -0.1366741 -0.057104487 -0.31010234 -0.1662319 -0.028530164
0.042666845 0.06278509 -0.22426185 -0.04519002 -0.10471131 0.002729221 -0.1265828 -0.25635737
-0.06616244 -0.009222152 -0.08596976 0.10364227 -0.13942872 0.007336597 -0.27451968 0.04152181
0.000364248 0.033438686 -0.05150994 -0.16245466 0.25304016 -0.15601511 0.08619786 -0.055984166
-0.08770727 0.032507 -0.12476533 -0.21432653 -0.077542014 0.09733879 -0.051074997 0.07036157
0.11141517 0.056960907 -0.09646007 -0.15489058 0.11642537 -0.15137729 -0.23442587 -0.17008065
0.15676656 0.01597332 0.022477953 -0.19462492 0.063543916 -0.41775435 0.048753474 0.1055672
-0.06671205 -0.2398115 0.13152611 -0.14946447 0.21609475 -0.2354662 -0.10193469 -0.06513362
-0.01750264 -0.11967681 -0.20520473 -0.006665297 -0.2629561 0.056542125 0.16642156 -0.1534616
-0.07941147 0.03672558 -0.18513472 -0.12106759 -0.01762854 0.11486068 -0.066240296 -0.036393844
-0.011826303 -0.039630994 0.15527971 -0.10213481 0.14795128 -0.008035134 -0.018402254 -0.3659972
-0.105912745 -0.02940206 -0.0213853 -0.06520008 -0.2937387 -0.20386727 -0.100949004 0.111241885
-0.15237772 0.10359703 -0.23223802 0.07388638 -0.21562 0.16973771 0.096541256 0.18376192
0.11787105 -0.32306597 -0.01136846 0.055419687 0.07207373 0.07130751 -0.0031574564 -0.039194923
-0.05156748 0.11368287 0.19707789 0.19685706 -0.005337677 0.0358894 0.08588917 0.0050544525
-0.12099806 -0.09330207 0.007516533 0.004006869 -0.10719277 -0.07973025 -0.057353847 0.077691995
-0.08648471 -0.05408538 0.1462927 -0.0689484 -0.057129968 -0.18206763 0.050113104 -0.0033369376
-0.17053488 0.047080997 0.13300925 0.075406924 0.0064150887 0.18693222 0.28244248 -0.057543777
0.0525389 0.013454715 0.033932462 -0.037119936 0.041752286 -0.21756606 0.027400624 0.10641565
0.17825478 -0.062332503 -0.17050524 -0.056645624 -0.08808859 -0.12000651 -0.038953625 -0.63523626
-0.11516488 -0.2974762 -0.3473617 -0.26303032 -0.13861905 0.1304932 -0.18610671 -0.2063815
-0.13962215 -0.021170959 -0.13312638 -0.7364347 0.0468232 -0.122465074 -0.15395193 -0.14587893
-0.20609625 -0.046006538 -0.01916589 0.006533246 0.062488154 -0.1538253 -0.006962557 -0.026632538
-0.10992268 -0.011864248 -0.12813517 -0.0040660044 -0.011090415 0.07186851 0.18020381 -0.09862135
0.12990835 -0.07527263 0.089087225 0.0037166902 -0.02559578 0.044600908 -0.24083413 0.017087275
-0.12660594 -0.0011556979 -0.012560354 -0.101252116 -0.04555904 0.15544419 -0.22106393 -0.17508592
0.20287427 0.16867131 -0.4390059 -0.053292964 0.06461796 0.13179226 0.02945913 -0.030327143
0.06446338 -0.12830849 -0.17899871 -0.26177123 0.12212322 -0.32877025 -0.17641158 -0.031295262
-0.011057997 -0.21770734 0.025913224 -0.04393862 -0.07651791 -0.63389736 0.055202544 -0.21479647
-0.026928678 -0.21746117 -0.07187864 -0.15875006 0.2196605 -0.053768765 -0.14620805 -0.14209428
0.0438229 0.02348742 -0.029078027 0.06960502 -0.13399434 -0.15960473 -0.104724 -0.14147581
-0.14360799 -0.092642576 0.025303286 -0.28400755 -0.15014529 -0.01639183 -0.0128769465 -0.114339925

a2c_network.actor_mlp.2.bias f4 [128]
00000000: db2e 0fbd dddc 903a a53c 653e c2c0 163d
00000010: 35d9 773e dbd4 a5be 5719 26be 5d56 81be
00000020: 6d73 fcbe 9cc6 c23c f289 0bbf bf13 f93c
00000030: ab5f 3cbe 804d a0be 151c 77be 8417 0ebe
00000040: d557 b7bc 384d 43bd 2d8d 08be b422 aebe
00000050: 6b0b 2c3c 1fb3 86bd 0e3d 7bbe 583e 6e3e
00000060: bf8f 3ebe a121 50bd e96d 48be 2cab 11bf
00000070: d87f 44be 0ff9 a03c f0eb 573d fb79 2dbf
00000080: 1868 65be f287 bbbe af3e a4be 5be0 1a3e
00000090: 0345 90be 94a7 31bf 2576 3ebe fd29 07bf
000000a0: 5646 ab3d e94c e4bd f3ff 5bbd 8897 b1be
000000b0: b048 b8bc 8301 7a3d 4762 a0be 3697 84bc
000000c0: 17b4 f8bd 8f61 743c da76 94be deba 4bbb
000000d0: 44ab 933d c5e0 1dbd 67dc f63d 1fff 8fbd
000000e0: 18e3 81be 9f9e 86be c439 5ebe 8adb 87be
000000f0: a2db 1b3d 07cb 25be 0a74 4ebe e744 933d
00000100: a59b 04be bb74 dc3d e664 6dbc e3c1 02bf
00000110: f304 9ebc 5a3f 82be 86db b43d 0e82 71be
00000120: a248 06bf 6060 f1be 3ed3 51bb 137f c4bd
00000130: adde a5be af4c 94be fcc5 aebd 9f3d 78be
00000140: 9199 1dbf e92b 7bbe 3602 953d a828 b13c
00000150: 6eb0 edbe 0e81 f2be b9a7 b0be 69dd 99be
00000160: db00 3dbe 5eb6 bfbe 7b04 a2be a130 b9bd
00000170: c86b 2ebe 7f14 2abe 1789 85be 0a95 7a3e
00000180: b2d3 73bd 75c3 5f3c 24f2 06be 9c2d b83d
00000190: 7f06 adbe 9a8f 94be 54e6 d63d d296 37bd
000001a0: e3d4 3bbe dc59 8fbe 683e 13be e4df 01bd
000001b0: 8e37 babe 4bbc 05be 3ca6 523e 9dd9 e13c
000001c0: e76f 4cbe 10c6 01be d171 793d bdd2 adbe
000001d0: dc4c 3dbe 8030 00bf 3629 c73d 29c4 28be
000001e0: f396 bbbe 5300 59be 7a83 e3bd b737 593a
000001f0: 1be6 52be ef15 ba3c 5202 9bbe 4f8a 7ebb
-0.034956794 0.001105215 0.22386415 0.036804922 0.24203952 -0.32388958 -0.16220604 -0.25261202
-0.49306813 0.023776345 -0.5450736 0.030404923 -0.1839587 -0.31309128 -0.24131806 -0.13876158
-0.022380749 -0.047681063 -0.13335104 -0.3401085 0.010500769 -0.065771334 -0.2453501 0.2326597
-0.18609522 -0.05081332 -0.19573177 -0.5690181 -0.19189394 0.01965001 0.052715242 -0.6776425
-0.2240299 -0.36627156 -0.32079074 0.15124647 -0.28177652 -0.6939633 -0.18599756 -0.52798444
0.08363025 -0.11147482 -0.05371089 -0.34685922 -0.022495598 0.061036598 -0.3132498 -0.016185384
-0.121437244 0.014915838 -0.28996927 -0.0031086723 0.07210401 -0.038544435 0.12053757 -0.07031082
-0.2536857 -0.26292893 -0.21701723 -0.26534683 0.038051255 -0.1619073 -0.20161453 0.071908765
-0.12949999 0.10764452 -0.014489388 -0.510771 -0.01928947 -0.25438958 0.08830933 -0.23584768
-0.5245458 -0.4714384 -0.003201678 -0.0959455 -0.3239645 -0.28964755 -0.08533856 -0.24242257
-0.6156245 -0.24528469 0.07275812 0.021625832 -0.46423668 -0.47364086 -0.34502962 -0.30051735
-0.18457358 -0.37443823 -0.31644043 -0.09042478 -0.17033303 -0.16609381 -0.26081154 0.24470916
-0.05952806 0.01365744 -0.13178307 0.08993074 -0.3379402 -0.2901581 0.1049315 -0.044821568
-0.18342929 -0.27998245 -0.14379275 -0.03170766 -0.3637051 -0.1306011 0.20571226 0.027569586
-0.19964562 -0.12673211 0.06089956 -0.33949843 -0.18486351 -0.50074005 0.09724657 -0.16481079
-0.36638603 -0.2119153 -0.111090615 0.0008286195 -0.20595591 0.022715537 -0.30275208 -0.0038839763

a2c_network.actor_mlp.4.weight f4 [64, 128]
00000000: 187d 33b9 06b7 65be ed23 e8bb 2c8c d6bd
00000010: f12b 09bf d14d ef3d 0a00 bf3d 416f f4bc
00000020: ef2a 2e3e 99ae a63d 5ff3 843d d1b2 f03d
00000030: 8fcd b2bd 65d1 20be 2c75 b3bd bb06 213e
00000040: b7cf 0e3e c610 07be f856 ea3d 35c6 20bd
00000050: 3f07 2ebe 9673 e6bd 46b7 5e3d 1f1c 003d
00000060: 04cb ec3d a9d4 71bd a511 0abd 338f ea3d
00000070: 1c63 4bbd a7d2 193d 5e8a c6bd a1ab cc3d
00000080: ed4c 463d 177f 1dbd 511e ecbd b9aa 76bd
00000090: 0221 803b 9a97 3c3d 967f 55bb cf31 023e
000000a0: a012 8fbd ce92 7c3c 7757 903c bc29 5d3d
000000b0: 670f 15be e5cf e43d e16b 4bbd 0ebd a6bd
000000c0: 4e47 1a3e 771e 91bd 1fab a2bd 47e4 82be
000000d0: 6ab9 6d3d 3789 2e3d 204b 66be bfc5 88be
000000e0: 3ffd 043e 136c fc3d e124 233e d1a7 273e
000000f0: b0cb 803d 9c5a 0f3d b5b4 d33c 9a1a b9bc
00000100: 42c4 1c3d 2333 32be a52a 8b3d f700 053e
00000110: f1c0 35be 40e3 833c 0d43 3fbe d1ff fabd
00000120: 7270 663e d760 d83b e8d2 913d ebc4 91bd
00000130: 644d 2d3d 1f69 d33d 838a 9dbd 6194 4f3d
00000140: 34d3 fc3c d38f aa3d 0728 0dbd 7065 5fbd
00000150: 926c c33d 7b45 c93d 3fd6 423b 49bd f23d
00000160: c033 d13d 5f0d e83d 9900 69bc bae1 ad3c
00000170: 7a2c 8c3d b219 b4bc b859 363c 21e0 493d
00000180: 6eb1 113d 045b f13d 7948 013d 45e8 8cbe
00000190: 95b5 2b3e 1dba 473e 3605 833a 39c7 c23d
000001a0: 34a7 dfbd 8ccb 043e db42 20bd 8f98 c13d
000001b0: 94b2 3c3e 2fe0 21bb 9b8b 093e fabe 0f3d
000001c0: a298 0a3e 569c 04bc 0b90 46bd aead 6fbd
000001d0: 35dd 753d d96d c63d c508 43bd ccf6 003c
000001e0: 0752 a6bc e6ac 51bd bd71 af3d bb53 afbd
000001f0: edad 29be bf3b 29be 99c3 1dbd a520 7d3d
00000200: e5e4 e43d 1b86 6a3d cd3f e3bd 8e0b 8e3d
00000210: c0e4 84be f0e5 71be 1c79 3ebc a83f e9ba
00000220: 4709 343e 733a 79bd 622a 36bd 7162 e73d
00000230: 0da7 b13c 09d3 593c 9399 5dbe 7414 2b3d
00000240: 07ad 3ebd 1a22 203c f675 bfbc 6214 aebd
00000250: 9521 0dbe 88a9 4e3d e4ed 0b3d 748c 29bc
00000260: 4f50 9abd 0401 643d 253c 9cbd f79e 87bd
00000270: df52 abbd e147 05bd 8d20 79bd dd2e 6b3d
00000280: f408 b639 df17 a43d 51fe d9be 5247 debc
00000290: 6c1e 19be 315f 8b3c 88da a63c 907d 833e
000002a0: 1266 dd3d 2719 20be cacb 523e f84c 473e
000002b0: dc1b b7bd deee 4e3d 58ef 2fbd ab02 bfbe
000002c0: 5a92 8fbd 452b c6bd b358 953d 937f cfbd
000002d0: d489 89bd 8b5f 6fbd ee32 e63d 0dfe 67be
000002e0: 0e93 e63d cd30 3d3d 2233 b23d d445 343e
000002f0: 1320 32bd d758 cebd 5e17 2f3d 4a19 dd3b
00000300: 373f a33d f8df 0fbe e9ca e4bc c1ab 203e
00000310: a0ea 6bbd 97af 2bbe 6535 3c3d 146d bf3c
00000320: dcbf 1ebe 35cd 983c 28d1 8d3a 3725 a83c
00000330: df3e a33d c20e 3b3e d429 6ebd 4aca a03d
00000340: b47d 823e b554 143e c9e4 263d 5f30 03bd
00000350: 844f d43c 0a52 023e 70d7 92be b1de fe3d
00000360: 44bf 893d 7c82 04be 58d2 31be 67ac 29be
00000370: 3a60 293c 9ead b5bd d63e 9fbd 0a56 33bd
00000380: 0aee b13d a3d2 fa3d 50a7 b53d 14de cf3d
00000390: caef fa3d 9d2c 0b3d 2d2d e9bd 2cca 153d
000003a0: 8424 063e 161a b3bd 2625 8eb9 c602 233d
000003b0: fd27 8e3d b022 eebd 1dd3 163d a2a2 29bd
000003c0: b23d 59bd d4b1 29bd 488b ebbd b920 15be
000003d0: bb91 11bd 8596 5b3b 6b10 a9be d9d7 81bd
000003e0: cf4d 913d 8b42 913d 3cf4 7ebd c0d0 37be
000003f0: 07ec 283e 8d1a 1d3d a98c 33bc 2b00 c93d
-0.00017117371 -0.22433099 -0.007084361 -0.104759544 -0.53582674 0.11684764 0.09326179 -0.029838206
0.17008565 0.081387706 0.06491732 0.117528565 -0.087306134 -0.15704878 -0.08762583 0.15725224
0.13946424 -0.13189992 0.11442369 -0.039251525 -0.16994952 -0.11252515 0.054374002 0.03127682
0.1156216 -0.0590407 -0.033708233 0.11453094 -0.049655065 0.03755441 -0.0969436 0.09993673
0.048413206 -0.03845128 -0.1152922 -0.060221408 0.003910185 0.046043016 -0.0032577268 0.12714313
-0.06985974 0.01541586 0.017619831 0.05399488 -0.14556657 0.11172465 -0.04966343 -0.08141528
0.15066263 -0.07085889 -0.07942795 -0.25564787 0.058038153 0.042611327 -0.22489595 -0.26713368
0.1298723 0.12325301 0.15932037 0.1637261 0.0628885 0.03499852 0.025843004 -0.022595692
0.038273104 -0.1740232 0.06795243 0.1298865 -0.17749383 0.016099572 -0.18677922 -0.12255824
0.22503832 0.006603341 0.07120305 -0.07117637 0.042310134 0.10322785 -0.07692435 0.050678615
0.030862428 0.083282135 -0.034462 -0.054540098 0.095421925 0.098277055 0.0029729751 0.118525095
0.10214949 0.11330675 -0.014221334 0.021225799 0.06844421 -0.021984909 0.011129789 0.04928601
0.0355696 0.11784938 0.031563256 -0.27520958 0.16768487 0.1950459 0.000999606 0.09510655
-0.10920563 0.12968272 -0.03912626 0.09452926 0.18427497 -0.0024700274 0.13432162 0.03509424
0.13534787 -0.008093914 -0.048477214 -0.058515243 0.060025413 0.096889205 -0.047615785 0.007871341
-0.020302786 -0.05119028 0.08566616 -0.08560892 -0.16570254 -0.16526698 -0.038516615 0.06179871
0.11176471 0.0572568 -0.110961534 0.06935798 -0.25955772 -0.2362287 -0.011625554 -0.001779546
0.17581664 -0.060846757 -0.044474013 0.11298073 0.021686101 0.013294944 -0.21640615 0.041767552
-0.04655173 0.009773755 -0.023371678 -0.084999815 -0.13782342 0.050454646 0.034162417 -0.010348428
-0.07534849 0.05566503 -0.07628659 -0.06622117 -0.08365416 -0.032539252 -0.06082206 0.05741774
0.00034720416 0.080123655 -0.4257684 -0.027133618 -0.14953011 0.017013164 0.020367876 0.25681734
0.10810484 -0.15634595 0.20585552 0.19462955 -0.08940861 0.05052077 -0.042952865 -0.37306723
-0.07010336 -0.09676222 0.07292309 -0.10131755 -0.06715742 -0.058440726 0.11240183 -0.22655506
0.11258517 0.04618912 0.08701159 0.17604762 -0.04348762 -0.100755386 0.042746894 0.0067473995
0.07971042 -0.14050281 -0.027928786 0.15690519 -0.057596803 -0.16766201 0.04594936 0.023367442
-0.15502876 0.018652538 0.001081978 0.020525558 0.07970976 0.18267348 -0.05814536 0.078510836
0.2548653 0.14485438 0.04074553 -0.032028552 0.025916822 0.12726608 -0.2867999 0.12444819
0.06725934 -0.12940401 -0.17365396 -0.16569673 0.010337884 -0.088710055 -0.07775657 -0.043783225
0.086879805 0.12247207 0.08869803 0.1014978 0.122527674 0.033978093 -0.1138557 0.03656976
0.13099867 -0.0874521 -0.00027112028 0.039797567 0.06941221 -0.1162771 0.036822427 -0.041414864
-0.053037353 -0.041429356 -0.11501175 -0.14563264 -0.03553937 0.0033506465 -0.33020338 -0.06339998
0.07094919 0.0709277 -0.06224464 -0.17950726 0.16496287 0.0383554 -0.010958829 0.09814485

a2c_network.actor_mlp.4.bias f4 [64]
00000000: 062d 4cbe e520 d3bc ca6d 30be 6e59 7abe
00000010: be51 d6bd 92ef 5abd 1b13 9cbe 0e12 45bd
00000020: eea6 d7be db0d d4bd 0826 22be d13e 45bd
00000030: 4128 843c 91ff bbbd d105 46be 4b50 eabe
00000040: baa5 7ebc 786f c5bd a4fe 0fbc 35e7 66be
00000050: b57b debd 0b48 1cbd 713d 9ebe 83ee 33be
00000060: 1fa0 8abe 832a 85be 4897 05be 68c7 a63c
00000070: 200e 9abe 89ef ccbe ed7a 07be 235c f23c
00000080: 0c08 c3be 6b78 31be 8f1c 3abd 3b50 6fbd
00000090: f732 e53d d319 8ebe da7a 3ebe 6416 33bd
000000a0: 026c e3bd 55b4 093e 6116 4c3c 6a1f 9dbe
000000b0: fa8a 20be ee18 13be ee82 d63c 0abc 10be
000000c0: ab6f 81be dc48 8bbc abe6 8cbe fbb5 9dbe
000000d0: 1c50 a2be ed19 60be 2dc4 7c3b 4277 41be
000000e0: 5cdd a23d 5dfd 533d 08a7 44be c847 9dbd
000000f0: 430c aa3c 1d3d 1bbe 2e91 25be f31f 44bd
-0.1993905 -0.025772521 -0.17229381 -0.24448177 -0.1046481 -0.05345113 -0.30483326 -0.04811292
-0.42119545 -0.10354205 -0.1583482 -0.04815561 0.016132476 -0.09179605 -0.19338156 -0.45764384
-0.015542442 -0.096404016 -0.008788738 -0.22549136 -0.10863439 -0.038154643 -0.3090625 -0.17571454
-0.27075288 -0.26008996 -0.1304599 0.020358756 -0.30088902 -0.400265 -0.13230486 0.02958495
-0.38092077 -0.17331092 -0.04543739 -0.058426123 0.111913614 -0.27754077 -0.18601552 -0.043722525
-0.11104585 0.13447697 0.012456507 -0.3068803 -0.15678015 -0.14364979 0.026185479 -0.14134231
-0.25280508 -0.017002515 -0.27519736 -0.30802903 -0.31701744 -0.2188489 0.0038569078 -0.1889315
0.07952377 0.051755298 -0.19204342 -0.07679707 0.0207578 -0.15160032 -0.16168663 -0.04788203

a2c_network.value.weight f4 [1, 64]
00000000: 375e afbc 4fb3 e4bb 57d7 0a3d 58e4 41bd
00000010: e94e 50bd 063f 113d dbec 18bc 0a4b 91bd
00000020: 879a 12bd 9620 8f3c 93f5 3cbe 5573 253b
00000030: 6de0 3fbd a564 b8bb b5da 103d a4cb 04bd
00000040: 068f 9cbc 7711 6f3d 1796 913c 416c dbbc
00000050: adfe ca3d c82b 003f 0867 6cbd 8de7 5a3c
00000060: 4949 debd 5ac7 a6bc f648 aabc d76a 42bc
00000070: c6e4 79be c84f 40be 98a6 8d3c 9c56 19bd
00000080: fb13 c63c 4b71 04bd 4ede f3bc 7fd7 d2ba
00000090: d3e8 2fbd 5677 89bd 5b79 183e 200d d1bc
000000a0: b1d9 983b e63d 233f 09db 913b c65f cebc
000000b0: 08e0 21bd 9d7e a0bd 9022 94bc 2b17 34bd
000000c0: 5bd6 803c df26 dc3c 56fa 3fbb 6c85 57be
000000d0: afd1 44bd 876b 0c3e cf2e f7bb f965 c13c
000000e0: 7d3c 353d e9a3 13bc e0c9 33bd 8feb a4bc
000000f0: 252c 053d 1a30 a9bd 11b1 bebb f4a0 b4bd
-0.02140723 -0.006979383 0.03389677 -0.047336906 -0.050856505 0.035460494 -0.0093338145 -0.07094391
-0.0357919 0.017471593 -0.18453054 0.0025245745 -0.04684489 -0.005627232 0.035364825 -0.03242077
-0.019111168 0.058366265 0.017771764 -0.026785018 0.09911857 0.50066805 -0.057715446 0.01336087
-0.10853822 -0.02035873 -0.020786744 -0.011866293 -0.24403676 -0.18780434 0.017291352 -0.037436113
0.02417945 -0.032334607 -0.02976909 -0.0016085951 -0.042946648 -0.06712215 0.14890043 -0.025518954
0.0046646227 0.63766325 0.00445116 -0.025192153 -0.039520293 -0.078366496 -0.018082887 -0.043967407
0.015727213 0.026874004 -0.00292935 -0.2104699 -0.048051532 0.13712893 -0.007543422 0.023608195
0.04424714 -0.009011247 -0.043893695 -0.020131854 0.032512803 -0.08261128 -0.005819448 -0.08819762

a2c_network.mu.weight f4 [12, 64]
00000000: 18c0 e9bd fcba ccbd 2004 4abe 9f2b 01be
00000010: c22d 283d 38b7 bc3d c921 4039 2e56 153d
00000020: 1286 d3bd 980b 563d 0165 0bbd 8e3a 603c
00000030: 5aaa 143e 23a8 1d3b 0c85 173e ab08 bbbc
00000040: 9662 543c 3159 bebd bc46 333e 9004 c33b
00000050: 054e 633d 54d2 493c 6c85 dabd 0432 813d
00000060: 64df 37be ef54 15be 0a5d 473c 63b6 a53c
00000070: 0da4 303d e50e 02be 9064 f3bc 4b32 df3a
00000080: dff1 fdbd 68fc 07be f5e8 cdbd db26 9f3d
00000090: 7141 a63b f313 ecbd e400 093d 1a92 0f3d
000000a0: 56ce 8cbc a078 84bd 64f2 38bd 948d 3abc
000000b0: cffd 1dbd 80a1 06be 8e69 0c3a 38df 02be
000000c0: eed9 f8bd e780 083e 14bd 4bbd acc2 ea3c
000000d0: b819 16be 4022 8abc 1840 d0bc 07ad a43d
000000e0: 60cd f4bd 0c58 053d ca3a 6ebd adc8 203d
000000f0: a14f 4f3d 05d9 71bd c015 d83a 173a 383c
00000100: 321b c9bc 58fa 413e ffe9 a23d 4ed1 9f3d
00000110: 7117 45bc 277a 723d dd9d cabd 4eec 823d
00000120: f683 b2bd 80fb dfbc 7517 093d 73f3 9b3d
00000130: 960b 703d 6222 79bd e836 09bb 35dc 9c3d
00000140: 7b38 ea3c 4057 153d 0dab 5a3d 6bb2 6a3d
00000150: 76ae 653d 1bf5 ecba 3e08 c7bc d266 e43b
00000160: f827 383a dbad 9c3c a970 79bc 5987 dabb
00000170: f046 8b3c 4537 fb3d 5c93 41bd 5de0 243c
00000180: 8a86 7bbd 6d2c cabd 125a c9bc b087 d53c
00000190: a3e8 c9bd 3d65 98bb de30 bbbc 2658 2b3d
000001a0: 1cb2 a6bd 8d55 403c 024f e8bc 47f0 8d3d
000001b0: 82d1 e9bd 75d1 fc3d 7822 04be 2780 923c
000001c0: 3cd4 553b eec7 903e 7210 ce3d 4d95 273d
000001d0: 31dc 34bd 067d f3bd bf92 39bc 93a8 313d
000001e0: 4d4e 963d d82e e73b c68b 2e3d bb33 debb
000001f0: a1a7 703d 5423 e63d 7677 503c 27e2 03bc
00000200: bd17 3b3d b53c 16bd ad75 833c 852b 083d
00000210: d107 4ebc 6413 403b a6c4 593d 7686 82bc
00000220: edb9 7f3d 48ec 173c 91ef a5bb 1412 723c
00000230: d8eb 183c a732 cb3b 0321 ba3c a86d cf3d
00000240: 4fe3 f9bb ad22 6e3c 3abc abbc 4cad c03c
00000250: c4c0 d33b f94c 1dbb 3fc9 0a3d baa5 1f3d
00000260: 08bc ea3c 3eec ab3c 4e97 3b3b ae3a fdbc
00000270: 2db6 023c 59e7 c13c bcfd 213b 186a 92bb
00000280: 566b 353d c86d 103b 0af9 df3b b7b1 073c
00000290: 9d45 22bd cdca 7f3d 4c59 9439 7d96 b83b
000002a0: 7a06 683b 58c8 99bc 0edf a33a e849 d83b
000002b0: 54f0 dcbc e974 b13c 00da 053c 2829 12bd
000002c0: 65ae cd3c 3304 81bc 9db5 3a3c 9097 883c
000002d0: 5816 a63d ffd0 bc3c f20f 8a3c a75f 7d3d
000002e0: 4839 55bc 4c18 fcbb f1e5 753d d67b a7ba
000002f0: 12ed 9dbb 4457 4c3a 7277 08bb 6215 2cba
00000300: 7fac 373e 4ecb 423b b2a0 e03d b665 543e
00000310: 7c5d 4f3d 035f 613d 82ad 663d 7415 303d
00000320: 4d25 9a3c e61a 293d f268 28bd 32fc 523d
00000330: 265a 80bd 4003 303c db7b 5ebc 3650 9b3d
00000340: 60f4 3f3d f389 fe3d fbc2 eebc da93 3f3e
00000350: 7b17 e0bd c8fe a7bc 85aa ac3d f73c 7fbb
00000360: ec00 d7bd 940f 0c3d 90b3 30bb 8678 2fbe
00000370: f9aa 5cbc 5a3e 9c3d bdec 9fbb 678a 86bc
00000380: ee3a 7f3c 4999 9bbd c671 50bd a316 e9bc
00000390: b2c3 ea3c e9d0 da3d b440 32bd 14c7 b5bd
000003a0: 607b 8cbd cff5 70bc 52b0 a8ba bcdf 4cbb
000003b0: 358e 283b e776 593b 155f df3c 1cdd 223c
000003c0: 45f6 8e3d 5e5f c03d bc30 493e 9e93 87b8
000003d0: 4537 1c3e dc9c db3d 31b3 f63d ab6d c3bd
000003e0: 24a7 853d dc67 8cbc 1e70 12bd eaf4 14bc
000003f0: 0b2e febb 07a2 8cbd 17ed 82bc c807 7a3d
-0.11413592 -0.09996602 -0.19728136 -0.12614296 0.041059263 0.09214634 0.00018323133 0.03645914
-0.10328306 0.05225715 -0.03403187 0.0136858355 0.14518109 0.0024056516 0.14796847 -0.022831282
0.012962958 -0.09294356 0.17507452 0.0059514716 0.055494327 0.012318213 -0.106699795 0.06308368
-0.1795631 -0.14583181 0.012168178 0.02022857 0.0431252 -0.12700994 -0.029711038 0.0017028538
-0.12399649 -0.13279879 -0.10054199 0.07771083 0.005073719 -0.115272425 0.033448115 0.035051443
-0.017188232 -0.0646832 -0.045153037 -0.011386294 -0.03857213 -0.13147545 0.0005356305 -0.12780464
-0.12150942 0.13330422 -0.049740866 0.02865728 -0.14658248 -0.016862035 -0.025421187 0.08040815
-0.11953235 0.03255467 -0.058161534 0.03925388 0.05061305 -0.059044857 0.0016485974 0.011244318
-0.0245491 0.18943155 0.079547875 0.078035936 -0.012029515 0.059198525 -0.09893391 0.06392728
-0.08716576 -0.027341604 0.033469636 0.07614794 0.0586048 -0.060823806 -0.0020937268 0.07659189
0.028591385 0.03646016 0.053385783 0.05729906 0.056074582 -0.0018078418 -0.024295922 0.006970265
0.0007024999 0.01912587 -0.015224614 -0.0066689667 0.0170016 0.12266401 -0.047259673 0.010063258
-0.061407603 -0.09871755 -0.024579082 0.026065677 -0.09858825 -0.0046507404 -0.02285045 0.04183211
-0.081394404 0.011739147 -0.028357986 0.06930595 -0.114169136 0.12344638 -0.12903774 0.017883373
0.0032627722 0.28277534 0.100617304 0.04091387 -0.044155303 -0.11889081 -0.011326491 0.043373656
0.073391534 0.0070551448 0.042613767 -0.006781069 0.058753613 0.11237207 0.012723794 -0.008049524
0.045676935 -0.03667899 0.016047323 0.03324463 -0.012575106 0.0029308433 0.053166054 -0.015933257
0.062433172 0.009272642 -0.005063959 0.014774818 0.009333573 0.0062011066 0.02272082 0.10128337
-0.0076259742 0.014534635 -0.020963777 0.023520134 0.0064621884 -0.0024002178 0.03388333 0.03897641
0.028654113 0.020986672 0.002862412 -0.03091177 0.007978004 0.023669885 0.0024717888 -0.0044682138
0.044291817 0.002203809 0.0068351077 0.008282117 -0.03961717 0.062449265 0.0002829529 0.005633174
0.003540425 -0.01877229 0.0012502389 0.006600607 -0.026970066 0.021662192 0.008169651 -0.03568378
0.025107572 -0.015749073 0.011395839 0.016673833 0.081097305 0.023048876 0.016853306 0.0618588
-0.013014145 -0.007693326 0.060033742 -0.0012777995 -0.0048195207 0.0007794986 -0.0020823148 -0.00065644656
0.17936896 0.002972323 0.1096815 0.20741925 0.050626263 0.05502225 0.056317814 0.04298921
0.018816615 0.041285418 -0.04111571 0.051510043 -0.062671944 0.010742962 -0.013579334 0.075836584
0.046863914 0.124286555 -0.029145708 0.18708745 -0.109419785 -0.020507231 0.084309615 -0.003894625
-0.10498223 0.034194544 -0.0026962496 -0.1713582 -0.013468497 0.0762908 -0.0048805163 -0.016423417
0.015578015 -0.07597596 -0.050889753 -0.028453177 0.028657768 0.10684378 -0.043518737 -0.08875862
-0.068594694 -0.014707043 -0.001286993 -0.0031261286 0.0025719528 0.0033182444 0.027267018 0.009940412
0.06980566 0.0939319 0.19647497 -6.4647975e-05 0.15255459 0.10723278 0.12045897 -0.09542402
0.0652602 -0.017139368 -0.035751455 -0.009091595 -0.0077569536 -0.06866842 -0.015982194 0.061042577

a2c_network.mu.bias f4 [12]
00000000: 662f 153e efae c43d f822 96be 5878 e0bd
00000010: 42f2 8c3d db8c a8bb 1241 543d e769 123d
00000020: 8f5e 09bd bede 173d 07a6 933d 5dc4 65bd
0.14568862 0.096036784 -0.29323554 -0.10960454 0.068821445 -0.0051437444 0.05181987 0.035745528
-0.033537444 0.037077658 0.072094016 -0.05609547

exp_avg f4 [12]
00000000: a3f8 0ebc f9df a4bb 5bd6 39bc 1c06 2ebc
00000010: 5764 1a3c ce8f ee3b 02d3 c73b 07a1 60bb
00000020: e08e d03b d2a1 1f3b e148 d73b 696b c0bc
-0.008726272 -0.0050315824 -0.01134261 -0.010621574 0.009423337 0.0072803264 0.006098152 -0.0034275667
0.0063646883 0.0024357927 0.006569967 -0.023488717

exp_avg_sq f4 [12]
00000000: ac2f f33a 3c87 193b dca3 463b 2f7d 0b3b
00000010: 37f0 423b a23c 603b 4e77 e23a fafe 9f3a
00000020: 754b 0e3b 8173 033b 4a13 8c3a 6da6 c33a
0.0018553636 0.0023426553 0.003031007 0.0021284332 0.002974523 0.0034215827 0.0017277987 0.0012206726
0.0021712456 0.002005786 0.0010686901 0.0014926918

exp_avg f4 [256, 32]
00000000: 1d27 65bd 5d4b 273b 212f e33b 8504 25bd
00000010: 7815 22bb 779f ec3a 85a0 f1bc 7b32 fbba
00000020: 5f94 26ba 0211 fdba 4f46 6cb8 d09b 93b8
00000030: 529d 13b9 b8dd 63ba 0f53 2bb7 8b69 debc
00000040: 00a2 26bc 0660 b0ba 1547 cd3a a52f 3ebd
00000050: 5f46 2cbb 4f7e 2e3c 84fa 773b dab8 4dbc
00000060: 4286 d0bb d54f e9ba 0000 0000 0000 0000
00000070: 0000 0000 0000 0000 0000 0000 0000 0000
00000080: 4087 2b3d 4b7a adbb d793 b3bb bb67 203d
00000090: d858 a33a 37f1 b2ba 78de b83c d88e ac3a
000000a0: 6981 153a f113 c03a 561e 8738 36a3 b038
000000b0: 776f d2b6 35e1 383a 065e 2138 a55a 9f3c
000000c0: 8d1a 233c 503f f33a 1e85 0bbb 15d7 103d
000000d0: c012 05bb dd32 cebb 37d6 823b 191a f83b
000000e0: 37d9 c3ba 0c4e f9b9 0000 0000 0000 0000
000000f0: 0000 0000 0000 0000 0000 0000 0000 0000
00000100: 1324 8e3d df38 80ba de6f 09bc 26ea 223d
00000110: af69 803b fd96 05bb 02cf 133d 7447 213b
00000120: 07ec 333a 59f5 183b 2c72 8b37 c6aa d737
00000130: 21b5 aa39 5cf4 853a 1e8b cb37 beb0 063d
00000140: 56a4 2e3c 15b5 033b f3f8 18bb bfe8 633d
00000150: adc6 b8bb 4e2f 05bc 26a7 d23b b21f 1d3c
00000160: 096b 9fbb 7eae 933a 0000 0000 0000 0000
00000170: 0000 0000 0000 0000 0000 0000 0000 0000
00000180: 77cf d33c 036c 883a e8c0 39bb 7985 193c
00000190: 0261 1e3b 96ef 80ba 6d26 563c 725d 873a
000001a0: c5a3 3738 a8b1 4b3a 67be e2b8 e794 0cb9
000001b0: 36a6 a739 713a b639 396e 72b7 a56f 423c
000001c0: 0e1b 493b 6445 b839 525c f0b9 2f1c a83c
000001d0: de5b b13a 9dc9 12bb 5745 01bb d06b 9a3b
000001e0: edb6 3c3b 3b07 d03b 0000 0000 0000 0000
000001f0: 0000 0000 0000 0000 0000 0000 0000 0000
00000200: cc2e f7bc e963 2a3b 0151 723b b808 d2bc
00000210: 81be 4cba 984f 803a f23f 7fbc f454 85ba
00000220: f96a bfb9 fcfd 87ba 2896 28b8 9f19 30b8
00000230: c363 5ab8 0e37 eeb9 9f2c d9b7 bd39 6bbc
00000240: 051a bcbb 2ec2 49ba a79f 653a 8013 cbbc
00000250: 8455 fc38 4cfa fc3b 57dc e13a 77d4 2ebc
00000260: bfaa cfba 1fbc 05bb 0000 0000 0000 0000
00000270: 0000 0000 0000 0000 0000 0000 0000 0000
00000280: 71ee db3c 10d8 8e3b e1b4 47bb 3954 943b
00000290: 727a 323b 339d 27ba 6260 5e3c cd51 923a
000002a0: 7c23 fa38 b437 683a 88e8 32b8 db8d 35b8
000002b0: 958a af39 57d3 b639 d8a7 5eb8 f57b 4d3c
000002c0: 9b1a b93a 3913 f339 e085 63ba 94ab a83c
000002d0: abad 2cbb e9de d93a e51d bf3b ce26 71bb
000002e0: 54bf e6bb 20a4 4ab9 0000 0000 0000 0000
000002f0: 0000 0000 0000 0000 0000 0000 0000 0000
00000300: 430b 243c 0c9b 8a3b d317 a2ba bb56 cbbb
00000310: 2ed8 cb3a bcc6 9c38 1037 ab3b 5a45 f139
00000320: cc97 7638 a7a7 bd39 1544 0735 2273 0737
00000330: f07f 1039 f158 0439 3512 14b8 6bbb a73b
00000340: d640 dfb8 b7d3 b537 d4e9 deb8 44e7 033c
00000350: 17b3 4e3b a70a 313b 9e46 8c3a d9cf 35bb
00000360: 3407 3e3b 5ffa 113b 0000 0000 0000 0000
00000370: 0000 0000 0000 0000 0000 0000 0000 0000
00000380: ec09 11bc 7e82 7d3b 5644 933a 17e9 93bc
00000390: f529 193a 9bd9 223a d46a 98bb 78b5 88b9
000003a0: 3c15 20b9 5ee0 a0b9 1125 0935 3ed4 e0b5
000003b0: 876c 2838 f9ad 30b9 a7ba 9db8 b3ae 84bb
000003c0: b953 52bb dbfc 7bba 3525 5f3a b5f5 01bc
000003d0: bdbd 5d3b c7b5 a13b b458 87bb 8416 f4bb
000003e0: 3864 3e3b cc59 273a 0000 0000 0000 0000
000003f0: 0000 0000 0000 0000 0000 0000 0000 0000
-0.055945504 0.0025527098 0.0069331084 -0.040287513 -0.0024732035 0.0018052895 -0.029495487 -0.0019164825
-0.00063545065 -0.0019307437 -5.6332265e-05 -7.0385286e-05 -0.00014077619 -0.00086924015 -1.0211733e-05 -0.027149936
-0.01017046 -0.0013456352 0.0015661443 -0.046432156 -0.0026287062 0.0106502315 0.0037838528 -0.012556279
-0.006363661 -0.0017800281 0.0 0.0 0.0 0.0 0.0 0.0
0.04187703 -0.0052941195 -0.0054802704 0.039161425 0.0012462391 -0.001365221 0.022567019 0.0013165129
0.00057031825 0.001465438 6.442952e-05 8.4227344e-05 -6.271464e-06 0.00070526014 3.8472957e-05 0.019452402
0.009955061 0.0018558297 -0.002128906 0.03536137 -0.0020305365 -0.0062926845 0.0039928216 0.0075714705
-0.0014942054 -0.0004755113 0.0 0.0 0.0 0.0 0.0 0.0
0.06940474 -0.0009782574 -0.008388488 0.039774083 0.0039188485 -0.0020384185 0.03608609 0.002460924
0.0006863479 0.0023339598 1.6623257e-05 2.570952e-05 0.00032559878 0.001021992 2.4264267e-05 0.0328834
0.010659298 0.0020096947 -0.0023341745 0.055641886 -0.0056389184 -0.008128954 0.006428617 0.009590076
-0.0048650545 0.0011267213 0.0 0.0 0.0 0.0 0.0 0.0
0.025855763 0.0010408167 -0.002834374 0.009370201 0.0024166708 -0.0009837027 0.013070685 0.0010327531
4.3783122e-05 0.00077703083 -0.00010811985 -0.00013406911 0.0003197656 0.00034757287 -1.4449987e-05 0.011867438
0.0030686292 0.00035146915 -0.0004584515 0.020521251 0.0013531407 -0.0022398003 -0.0019725168 0.0047125593
0.0028795556 0.006348518 0.0 0.0 0.0 0.0 0.0 0.0
-0.030173682 0.0025999492 0.0036974552 -0.025638923 -0.000781037 0.0009789346 -0.015579211 -0.0010172413
-0.0003651006 -0.0010375376 -4.0194165e-05 -4.198553e-05 -5.206816e-05 -0.00045435916 -2.5889194e-05 -0.014357028
-0.0057404065 -0.00076964765 0.0008759447 -0.024789572 0.00012032225 0.0077202674 0.0017231804 -0.010670773
-0.0015843733 -0.0020406318 0.0 0.0 0.0 0.0 0.0 0.0
0.026847096 0.0043592528 -0.0030472802 0.0045266417 0.0027233628 -0.0006393969 0.013572784 0.0011163295
0.000119275384 0.0008858398 -4.265507e-05 -4.3285876e-05 0.00033481853 0.00034871206 -5.308524e-05 0.012541761
0.0014122309 0.00046362894 -0.0008679312 0.020589627 -0.0026348631 0.0016622219 0.005832421 -0.003679681
-0.007041851 -0.00019325363 0.0 0.0 0.0 0.0 0.0 0.0
0.010012451 0.004229909 -0.0012366719 -0.0062054074 0.0015552097 7.475677e-05 0.00522507 0.00046018773
5.8792342e-05 0.000361738 5.039049e-07 8.0734335e-06 0.0001378057 0.00012621634 -3.5302906e-05 0.0051187775
-0.00010645545 2.1675469e-05 -0.00010629339 0.0080507435 0.0031539851 0.0027014406 0.0010702198 -0.0027742295
0.0028995993 0.0022274477 0.0 0.0 0.0 0.0 0.0 0.0
-0.008852463 0.0038682516 0.0011235576 -0.018055482 0.0005842739 0.00062122353 -0.004651407 -0.00026075146
-0.000152667 -0.00030684745 5.1090416e-07 -1.6751071e-06 4.0155395e-05 -0.00016849478 -7.52111e-05 -0.004049146
-0.003209336 -0.00096125685 0.0008512319 -0.007932116 0.0033835017 0.0049349996 -0.0041304473 -0.007448973
0.0029051434 0.0006383925 0.0 0.0 0.0 0.0 0.0 0.0
