omniisaacgymenvs/runs/WEE/nn/last_WEE_ep_600_rew_-27716.701.pth (torch, 623514 bytes, 36 tensors)

value_mean_std.running_mean f8 [1]
0	0xc04042dd0fdd93ef	-32.5223712760852

value_mean_std.running_var f8 [1]
0	0x406a8eb7d2ebe939	212.45993944240925

value_mean_std.count f8 []
0	0x41a2c00002000000	157286401.0

running_mean_std.running_mean f8 [32]
0	0x3fa4209619867ce6	0.03931111394489921
1	0x3f7016fb5199daf4	0.003928167070276645
2	0x3fdddb38e519c37e	0.46650526402577686
3	0x3fcf353dd707dc07	0.24381230353876068
4	0x3f9d180658cd9c77	0.028411959810366896
5	0xbfa30855e8a7698b	-0.03717297043813791
6	0x3fde82a9668f5ff0	0.4767249585688651
7	0x3fb7a424d5317816	0.09234838681138088
8	0x3f9bc5cb34f0a633	0.02712171087856614
9	0x3fb4f3cb49055181	0.08184500248655092
10	0x3f801f0c6de0d82f	0.007871720412463727
11	0x3f7fd592bb6b771b	0.007772038624094947
12	0x3fcb5e92a4258de2	0.21382363333678628
13	0x3ee7fdcf7bb30d43	1.1440013500402447e-05
14	0xbf01fb3ca85ce0f7	-3.429678785810298e-05
15	0x3fdb681318fedd4d	0.4282272094819362
16	0x3fe6ea2358b7856d	0.7160813076736027
17	0xbf0bd5aea9db6844	-5.309047013009373e-05
18	0xbf1826d812da7f56	-9.213155564191436e-05
19	0x3fcd25b9385c39b4	0.22771373035398101
20	0x3f226237305783c5	0.00014025615398252484
21	0xbf2ad86d118f1d78	-0.0002048142567032498
22	0xbf535718335972a5	-0.001180432923681676
23	0x3f5629f3c2e98835	0.0013527756197153744
24	0x3f802bb786bdec25	0.007895883368965137
25	0x3f9c0b4cae1821bb	0.027386854291792533
26	0x0000000000000000	0.0
27	0x0000000000000000	0.0
28	0x0000000000000000	0.0
29	0x0000000000000000	0.0
30	0x0000000000000000	0.0
31	0x0000000000000000	0.0

running_mean_std.running_var f8 [32]
0	0x3f5c374caaffcc0d	0.001722168799457749
1	0x3f503ee5abf129aa	0.0009915583502953886
2	0x3f62efa1ce7b0be2	0.002311531094024031
3	0x3fdffb5b8b1fc60b	0.4997166498788778
4	0x3f89aeed8fb7542e	0.012540679882400676
5	0x3fa7ab75d46e2cc8	0.046230013066713094
6	0x3fc39ec011fa3de1	0.15328217389877266
7	0x3ff8b5e0634a9b85	1.5444034460612965
8	0x3ff9adf6ee569b06	1.6049718198862037
9	0x3ff780dc31a07456	1.4689599932237534
10	0x407df4f6aee9145e	479.3102254013701
11	0x4071f1f2e125ac18	287.1217967483112
12	0x407c8f5a46df6da7	456.95954024578754
13	0x3ee1c2acfc77023c	8.46884348859697e-06
14	0x3ee66a611ea19845	1.0688564504767717e-05
15	0x3efa8783f51b3a6f	2.5300366650433283e-05
16	0x3fc5e779dd970562	0.1711265880567608
17	0x3f3ce2d2b027dbe8	0.00044076579811708075
18	0x3f40d297b8ba0913	0.0005133858516759591
19	0x3fd0da4797373226	0.26332273261212646
20	0x3f78ed9efd4437a4	0.006085988094367698
21	0x3f78cca00b2d7b84	0.006054520769651076
22	0x3f72617596bbf001	0.0044874757111266214
23	0x402af7a23112bc1f	13.483659299408883
24	0x402b8bdc583b36d9	13.773165471294691
25	0x4021f8e695b762ab	8.986134222637096
26	0x3e4b4e81af14cc5f	1.2715657390395359e-08
27	0x3e4b4e81af14cc5f	1.2715657390395359e-08
28	0x3e4b4e81af14cc5f	1.2715657390395359e-08
29	0x3e4b4e81af14cc5f	1.2715657390395359e-08
30	0x3e4b4e81af14cc5f	1.2715657390395359e-08
31	0x3e4b4e81af14cc5f	1.2715657390395359e-08

running_mean_std.count f8 []
0	0x4192c00004000000	78643201.0

a2c_network.sigma f4 [12]
0	0xbf06403e	-0.52441776
1	0xbeeca1e7	-0.46217272
2	0xbff1596b	-1.8855413
3	0xbedf5df0	-0.43626356
4	0xbedc51a9	-0.43031052
5	0xc04f1eb6	-3.2362494
6	0xbee45aaa	-0.4460042
7	0xbe993d23	-0.29929456
8	0xbec09bcb	-0.3761886
9	0xbebf8690	-0.3740735
10	0xbf07c757	-0.53038543
11	0xbe380898	-0.17972028

a2c_network.actor_mlp.0.weight f4 [256, 32]
0	0x3e4d1373	0.2002695
1	0x3df720dc	0.12066814
2	0xbead7aea	-0.33882838
3	0x3d242133	0.040070724
4	0x3deec778	0.116591394
5	0x3ec12930	0.37726736
6	0x3d9ebf73	0.0775136
7	0x3de4f9c5	0.11180452
8	0x3d653eb0	0.055967987
9	0xbe0939f2	-0.1340101
10	0xbc37e8b6	-0.011224916
11	0xbb1e3853	-0.0024142459
12	0x3e4786a7	0.1948496
13	0xbd80f0fc	-0.06295964
14	0x3dc8310b	0.09774979
15	0x3d811c5b	0.063042365
16	0x3d38e5a7	0.04514089
17	0xbe332b7d	-0.17497058
18	0xbe9f1c5b	-0.3107632
19	0xbd05a89c	-0.0326315
20	0xbdfad86f	-0.12248313
21	0x3dc32680	0.09528828
22	0x3c3fd83e	0.011709271
23	0x3debc797	0.11512678
24	0x3dce2c47	0.10067039
25	0x3d0294b8	0.03188011
26	0x3e0daacf	0.1383469
27	0xbe009de0	-0.12560225
28	0x3c365cc8	0.011130519
29	0xbdf71b1f	-0.1206572
30	0x3d5f454c	0.054509446
31	0xbd795c02	-0.06087876
32	0x3dd38300	0.10327721
33	0x3cca3a11	0.024685891
34	0x3e76011a	0.24023858
35	0xbdad5692	-0.084637776
36	0xbdbec59e	-0.09315036
37	0xbe295244	-0.16535288
38	0x3e439b5b	0.19102232
39	0x3dbb6202	0.09149553
40	0x3e9ce37e	0.30642313
41	0xbe591b70	-0.21201873
42	0xbe52be21	-0.20580341
43	0xbc7a4df7	-0.015277377
44	0xbe5d0178	-0.21582592
45	0x3df2180e	0.11820994
46	0x3e258fa5	0.16168077
47	0x3db6c5dc	0.089244574
48	0xbd28d03f	-0.041214224
49	0xbe33d190	-0.1756041
50	0x3e24693e	0.16055772
51	0xbdd8e124	-0.10589817
52	0x3d48f351	0.04906017
53	0xbdda54fe	-0.10660742
54	0x3e2c36b4	0.16817743
55	0xbd3174f5	-0.04332443
56	0xbd654ed6	-0.055983387
57	0xbdd576c4	-0.10423043
58	0x3d19134e	0.037371926
59	0xbd389c1f	-0.045070764
60	0x3dd7ccd9	0.105371185
61	0x3df61e02	0.12017442
62	0xbe034539	-0.12819375
63	0xbdc147eb	-0.094375454
64	0x3e297ce7	0.16551553
65	0xbdac48f7	-0.084123544
66	0xbdc3e44c	-0.095650285
67	0xbeb6d778	-0.35711265
68	0xbeace3d1	-0.3376756
69	0x3e321bf3	0.17393474
70	0xbdc03507	-0.09385114
71	0xbea60d72	-0.32432133
72	0x3dd8f29e	0.105931506
73	0xbe422e2b	-0.18962924
74	0xbe8f325c	-0.2796811
75	0xbdfb9ded	-0.12285981
76	0xbe1fcec6	-0.15606222
77	0xbe11650f	-0.14198707
78	0x3e18fdc4	0.14940554
79	0x3dcb3fc0	0.09924269
80	0x3c27f011	0.010250107
81	0xbe5b094c	-0.21390265
82	0xbdef6303	-0.11688807
83	0xbd59ea7c	-0.053202137
84	0xbd3eb512	-0.0465594
85	0xbdddc5e5	-0.10828761
86	0xbe618357	-0.22022758
87	0xbe05dec6	-0.13073263
88	0xbc6d506d	-0.014484507
89	0xbd4fb697	-0.05071124
90	0xbc48b3b4	-0.012249876
91	0xbdf55402	-0.11978914
92	0xbdf88068	-0.121338665
93	0xbdd336c9	-0.10313184
94	0xbd77d98d	-0.060510207
95	0xbe0ee007	-0.13952647
96	0x3e021680	0.12703896
97	0x3d827ef0	0.06371868
98	0x3e37dae7	0.17954598
99	0x3e6efa33	0.23337631
100	0xbe94e969	-0.29084328
101	0xbaa801bc	-0.00128179
102	0xbdfbf514	-0.12302604
103	0xbe19e0cc	-0.1502716
104	0xbe0980d9	-0.13428058
105	0xbe779924	-0.24179512
106	0x3d94c39a	0.072638705
107	0xbd4fc5e6	-0.05072584
108	0x3d0750fb	0.033036213
109	0xbe105e9b	-0.14098589
110	0x3d456c1b	0.0481988
111	0xbe3c1b5c	-0.18369812
112	0x3da26c76	0.079308435
113	0x3d812194	0.06305233
114	0xbc5fea55	-0.013666709
115	0x3d8cc97d	0.06874368
116	0x3e353ce1	0.17699005
117	0xbde706a9	-0.11280567
118	0x3dc27c92	0.09496416
119	0xbdb1d79c	-0.08683702
120	0xbcb84c5d	-0.02249735
121	0xbe15bf06	-0.14623651
122	0x3e24e20e	0.16101858
123	0xbe04dbf6	-0.12974533
124	0x3dc17df5	0.094478525
125	0x3d7e782e	0.06212633
126	0x3d6b4b11	0.057444636
127	0xbdc3bc1e	-0.09557365
128	0x3e856062	0.26050097
129	0x3e214e6f	0.15752576
130	0xbdc82176	-0.09772007
131	0xbea48975	-0.3213612
132	0x3e295b89	0.16538824
133	0xbd688006	-0.056762718
134	0xbdc6c9c2	-0.09706451
135	0x3e2ab591	0.16670825
136	0x3dc00704	0.09376338
137	0xbd9766fa	-0.07392688
138	0xbe4cba89	-0.19993033
139	0xbd707f70	-0.058715284
140	0xbd96f992	-0.073718205
141	0xbd676169	-0.056489382
142	0xbd6d568a	-0.05794386
143	0xbd7d1cb3	-0.061794948
144	0xbda7d9ee	-0.08195864
145	0xbce81f18	-0.02833514
146	0x3dc6464a	0.09681375
147	0xbdd15293	-0.10220828
148	0xbd7c38d7	-0.061577644
149	0x3dd676f7	0.104719095
150	0xbd67ed97	-0.056623068
151	0xbd281cf2	-0.04104323
152	0x3c7e7ec3	0.015533152
153	0x3bea8951	0.0071574827
154	0x3d876049	0.06610162
155	0xbcfe78c6	-0.031063449
156	0xbd3fbc91	-0.04681069
157	0x3c9aecc7	0.018911732
158	0xbcffd28d	-0.031228328
159	0xbd57c69b	-0.05267964
160	0x3e2f5a78	0.17124355
161	0x3e4b7471	0.19868638
162	0xbe88b64d	-0.26701584
163	0x3c838684	0.016055353
164	0xbdea0764	-0.11427191
165	0x3beafb40	0.0071710646
166	0x3d252d4c	0.0403264
167	0xbc35711e	-0.0110743325
168	0xbe5187cd	-0.2046196
169	0xbd186f29	-0.037215386
170	0x3dda1bfc	0.10649869
171	0x3e5c1040	0.21490574
172	0xbdae8f5b	-0.08523437
173	0xbdaa9936	-0.08330004
174	0xbdb108fd	-0.086442925
175	0xbddd9493	-0.10819354
176	0x3c800f82	0.015632395
177	0x3dfe2aa9	0.124104805
178	0x3e089c75	0.13340934
179	0x3e05b901	0.13058855
180	0xbeb03558	-0.34415698
181	0xbde89ec2	-0.11358406
182	0xbe22ea32	-0.15909651
183	0x3e6c0b08	0.23051083
184	0xbcadf615	-0.021235505
185	0xbe6d3e63	-0.2316833
186	0x3d95c7ea	0.07313521
187	0xbd89e4d3	-0.06733098
188	0xbdea54e2	-0.11441971
189	0x3e041fab	0.12902705
190	0xbda49ea0	-0.08038068
191	0xbd112747	-0.03543785
192	0xbe7aba5e	-0.24485156
193	0x3e3753f2	0.17903116
194	0x3ddfdef2	0.10931195
195	0x3e1fe91a	0.15616265
196	0xbe39cd6e	-0.18144771
197	0xbe94cb1c	-0.2906121
198	0xbe1fe859	-0.15615977
199	0x3e7c2a4a	0.24625507
200	0xbcc41abc	-0.02393853
201	0x3d5d546b	0.054035585
202	0x3d588bb1	0.052867595
203	0xbdf1990a	-0.11796768
204	0xbcf39bf7	-0.029737456
205	0xbe691011	-0.22760035
206	0xbe312aa3	-0.17301421
207	0xbda9eb83	-0.082968734
208	0x3d8d2b23	0.06892993
209	0xbda925c0	-0.08259153
210	0x3cd3e3d7	0.025865478
211	0xbd04c973	-0.03241868
212	0x3be37e61	0.006942556
213	0xbda4affc	-0.08041379
214	0xbeb488b0	-0.35260534
215	0x3db44eec	0.08804116
216	0xbd30362a	-0.043020405
217	0x3e59dcef	0.21275686
218	0xbd684a55	-0.056711514
219	0xbe04ca34	-0.1296776
220	0xbcff82c7	-0.03119029
221	0xbdaf7f4f	-0.08569204
222	0xbd5d867e	-0.05408334
223	0xbe2c5461	-0.16829063
224	0x3dfb9c6b	0.12285694
225	0xbdf15069	-0.11782915
226	0x3d729b77	0.059230294
227	0x3d6a8d52	0.05726368
228	0x3e30ee3a	0.17278376
229	0xbe4cd488	-0.20002949
230	0x3e112225	0.14173181
231	0xbdc7465f	-0.09730219
232	0x3e28ce0b	0.16484849
233	0x3e09aafe	0.13444135
234	0xbdd4ef16	-0.103971645
235	0xbdffbdd1	-0.124873765
236	0xba2b96ba	-0.00065455923
237	0xbe6aa6d5	-0.22915204
238	0x3bf7c763	0.0075616105
239	0xbe8a7c1b	-0.2704781
240	0x3dc593fc	0.096473664
241	0x3e3d5799	0.18490447
242	0x3d99db25	0.075125016
243	0x3cf94e94	0.030432977
244	0xbe3d5a23	-0.18491416
245	0x3d4e2262	0.05032576
246	0x3dd99f15	0.106260456
247	0xbe74f6c3	-0.23922257
248	0xbd6ee09e	-0.05831968
249	0xbe9257dc	-0.28582656
250	0xbc7d5271	-0.01546155
251	0xbdb23348	-0.08701187
252	0xbd93fd5b	-0.07226058
253	0xbd65dd62	-0.05611933
254	0xbe2c05fe	-0.16799161
255	0x3e148719	0.1450466

a2c_network.actor_mlp.0.bias f4 [256]
0	0x3d249eed	0.040190626
1	0x3e8df906	0.27729052
2	0x3dd07490	0.101784825
3	0xbe8abfb7	-0.27099392
4	0xbbf302c0	-0.0074160993
5	0x3dd0510f	0.10171711
6	0xbdb660a1	-0.08905149
7	0xbe973148	-0.29529786
8	0xbd0cb155	-0.034348805
9	0xbddd5a36	-0.10808222
10	0xbdd79e9c	-0.10528299
11	0x3cd6424b	0.026154658
12	0x3d8d234d	0.06891499
13	0xbdae21e3	-0.08502557
14	0xbdbaef4d	-0.09127674
15	0xbe6ae850	-0.22940183
16	0x3c8c58af	0.017132131
17	0x3d980e1b	0.074245654
18	0xbc164fd7	-0.009174309
19	0x3dd03dbf	0.10168027
20	0x3d062af5	0.03275581
21	0xbe2f778e	-0.1713545
22	0xbda59646	-0.08085303
23	0x3e84cb7a	0.2593649
24	0x3e8b901b	0.2725838
25	0x3a076a3d	0.0005165672
26	0xbe354bad	-0.1770465
27	0xbead64b0	-0.3386588
28	0xbe9f2552	-0.3108316
29	0xbdf158ff	-0.11784553
30	0xbe3e12f6	-0.1856192
31	0xbc343668	-0.0109993
32	0xbe0bad24	-0.13640267
33	0xbe265ba2	-0.16245893
34	0xbebc72fb	-0.36806473
35	0x3e8d8538	0.276407
36	0x3dbb12e6	0.09134464
37	0x3e44ff03	0.19237904
38	0xbc9dbd5e	-0.019255336
39	0xbeac1716	-0.33611363
40	0xbd5dca03	-0.05414773
41	0x3c8603ec	0.016359292
42	0x3d88d481	0.06681157
43	0xbd944bfa	-0.07241054
44	0xbe3754a0	-0.17903376
45	0x3c04c0a4	0.00810257
46	0x3e05de9f	0.13073204
47	0x3e0a3e75	0.13500388
48	0x3e835143	0.25647935
49	0xbcc0fee6	-0.023559045
50	0x3b4db5a0	0.0031388775
51	0xbd973b60	-0.07384372
52	0xbe58a800	-0.21157837
53	0x3eaa4585	0.33256164
54	0xbc5f4e93	-0.013629573
55	0x3e7c62aa	0.24647012
56	0xbe44f8df	-0.19235562
57	0xbe0aabf5	-0.13542159
58	0x3e4b20e0	0.1983676
59	0x3ec13d6a	0.37742168
60	0x3d9bd65b	0.076092444
61	0x3db8c55e	0.0902202
62	0x3e3a1535	0.18172152
63	0xbd5d0a9f	-0.053965207
64	0x3e750cd9	0.23930682
65	0xbef7c949	-0.48395756
66	0xbcad59e9	-0.021161037
67	0x3e2fed6d	0.17180414
68	0xbcd8313a	-0.02639066
69	0x3e623499	0.22090377
70	0xbe95dbb7	-0.29269192
71	0xbd1aaa22	-0.037759908
72	0x3ebc66eb	0.3679727
73	0x3d85d424	0.06534603
74	0x3e0d9f95	0.13830407
75	0x3db89243	0.09012272
76	0x3e53afd1	0.20672537
77	0x3e3e484d	0.18582268
78	0x3ea7020b	0.32618746
79	0xbdac3505	-0.0840855
80	0xbe83962b	-0.25700507
81	0x3e272bd1	0.16325308
82	0x3e2a10fe	0.16608045
83	0xbdb27634	-0.08713952
84	0x3d952dd0	0.07284129
85	0x3e33bb29	0.17551865
86	0x3e36acfd	0.17839427
87	0xbd0ac011	-0.033874575
88	0xbc5663b6	-0.013085296
89	0x3d880a32	0.066425696
90	0x3e4d5e76	0.20055565
91	0xbc0d2525	-0.008614813
92	0xbe07ced1	-0.13262488
93	0xbd802723	-0.06257465
94	0x3ec2b897	0.38031456
95	0x3e168fe8	0.14703333
96	0x3d1618e6	0.03664484
97	0x3ddfab92	0.10921396
98	0x3d3a355f	0.045461055
99	0x3c5e2e9a	0.013560915
100	0x3d5218c1	0.05129314
101	0xbe36119d	-0.17780156
102	0xbe353df8	-0.1769942
103	0xbe1ab1ea	-0.15106931
104	0xbe20ff16	-0.15722308
105	0x3e4f50e9	0.20245709
106	0xbdc9b88d	-0.098496534
107	0xbecd4594	-0.40092146
108	0x3eb8f8ed	0.36127415
109	0xbd5c5b29	-0.053797875
110	0xbc9360c7	-0.017990483
111	0xbc303c0b	-0.010756503
112	0xbdbf1a7f	-0.093312256
113	0xbe47b950	-0.19504285
114	0x3e3cf4da	0.18452778
115	0xbecfae52	-0.40562683
116	0x3e891b11	0.26778463
117	0x3e718cea	0.2358891
118	0x3e0d6837	0.13809286
119	0x3ea6b9bf	0.32563588
120	0xbe6ce192	-0.23132923
121	0xbe19f08f	-0.15033172
122	0xbda0a8a1	-0.078446634
123	0x3cf93c1b	0.030424168
124	0xbd914ca1	-0.07094694
125	0x3e94c8fc	0.2905959
126	0x3e77322c	0.24140233
127	0x3cd630a7	0.026146246
128	0xbdf97d98	-0.12182158
129	0x3ca4f085	0.02013422
130	0x3e9b4ab7	0.3033044
131	0x3c16c2ab	0.009201686
132	0x3e2ee7bd	0.17080589
133	0xbcd4b251	-0.025963934
134	0xbe2b1eae	-0.16710922
135	0xbe067885	-0.13131912
136	0xbe565db8	-0.20934188
137	0x3ea0392e	0.31293625
138	0x3e2db350	0.16962934
139	0xbd4e5812	-0.05037696
140	0x3e0662fb	0.13123696
141	0x3e0fd67a	0.1404666
142	0xbe788720	-0.24270296
143	0xbec2f618	-0.3807838
144	0x3d9f84b7	0.07788985
145	0x3e3214fd	0.17390819
146	0x3e87d0da	0.2652653
147	0xbe312a53	-0.17301302
148	0xbe8a1f43	-0.26976976
149	0xbc4236e4	-0.011853907
150	0xbdcf748d	-0.10129652
151	0x3dcbcd95	0.09951321
152	0x3e8e2529	0.27762726
153	0x3e8de935	0.27716985
154	0xbd5f61a1	-0.054536466
155	0xbd933d3f	-0.07189416
156	0x3ce16de5	0.027518222
157	0xbe5b4785	-0.21414001
158	0x3e71e20c	0.23621386
159	0x3d8783f0	0.06616962
160	0xbe2f7547	-0.17134582
161	0x3e297b68	0.16550982
162	0x3e44d38b	0.19221322
163	0xbe8e0933	-0.27741393
164	0xbe76ee5a	-0.24114361
165	0xbdc72e21	-0.09725595
166	0xbeabf5fe	-0.33586115
167	0xbe9dd62c	-0.30827463
168	0xbd1e8039	-0.0386965
169	0x3cf35af9	0.029706465
170	0xbdc0668c	-0.09394559
171	0x3e253cc1	0.16136457
172	0xbe86a925	-0.26300922
173	0x3e44ba79	0.19211759
174	0x3e432b4a	0.19059482
175	0x3e94a3b8	0.29031157
176	0x3df785aa	0.12086041
177	0x3e0fb17e	0.14032552
178	0xbd747b64	-0.059687987
179	0xbde16f52	-0.11007561
180	0x3e848daa	0.2588933
181	0xbe4e2393	-0.20130758
182	0x3e82a321	0.25515082
183	0x3d021c01	0.031764988
184	0xbdcffdb4	-0.10155812
185	0x3e1bebae	0.15226623
186	0xbdfe5976	-0.12419407
187	0x3e981d98	0.29710078
188	0xbd66c185	-0.0563369
189	0x3c2fb1e1	0.010723562
190	0xbde9800f	-0.11401378
191	0xbdef4e8e	-0.11684905
192	0x3e044325	0.12916239
193	0x3d6fd6a6	0.058554314
194	0xbd9b5a24	-0.07585552
195	0x3ca9bba8	0.020719364
196	0x3e4e9982	0.20175746
197	0xbca7faa2	-0.020505253
198	0x3e0f1635	0.13973315
199	0xbeb2b0c6	-0.34900492
200	0x3daa5d09	0.08318526
201	0xbebf2bd8	-0.37338138
202	0xbe42e328	-0.19031966
203	0x3e65cabb	0.22440617
204	0x3e5a513a	0.21320048
205	0xbe0a438c	-0.1350233
206	0xbd72a0d4	-0.05923541
207	0x3e22f6ab	0.15914409
208	0xbe2e0ccc	-0.16997069
209	0x3e42b94a	0.19015995
210	0x3daa36c5	0.08311228
211	0x3e8149ac	0.2525152
212	0x3e1de53b	0.15419476
213	0xbe1222eb	-0.14271133
214	0x3e08cb21	0.13358738
215	0x3c9fc794	0.019504346
216	0xbd81f055	-0.06344668
217	0x3cc9927f	0.024605988
218	0xbc98cd53	-0.018652594
219	0x3d34ff39	0.04418871
220	0xbe5891ea	-0.21149412
221	0x3d762b81	0.060100082
222	0xbe3caba6	-0.18424854
223	0xbdaaddab	-0.08343061
224	0xbce3096e	-0.027714457
225	0xbd165acb	-0.03670768
226	0x3c93c3e3	0.018037742
227	0xbcb21389	-0.02173783
228	0xbdddddbb	-0.10833307
229	0xbd170b70	-0.036876142
230	0xbe984eea	-0.29747707
231	0x3e124be8	0.14286768
232	0x3b55a39a	0.0032598735
233	0xbe4a8c7b	-0.19780152
234	0x3e88fdf9	0.26756266
235	0xbd22b257	-0.03972086
236	0xbcf05e37	-0.0293418
237	0x3df702bb	0.12061068
238	0x3e31fdff	0.17382048
239	0xbe04e587	-0.12978183
240	0xbe2278d3	-0.15866403
241	0xbe03b432	-0.12861708
242	0x3e86a3ef	0.26296946
243	0xbe05e0f8	-0.130741
244	0xbca45da2	-0.020064179
245	0x3e53b2f1	0.2067373
246	0x3eb5d78e	0.35516018
247	0xbe19385c	-0.14962906
248	0x3e93c2db	0.288596
249	0x3d2cc92f	0.04218405
250	0xbe062108	-0.13098538
251	0x3de3120d	0.11087427
252	0xbe1267fb	-0.14297478
253	0xbaa19821	-0.0012328663
254	0x3de660c8	0.11248928
255	0xbdb68bcb	-0.08913382

a2c_network.actor_mlp.2.weight f4 [128, 256]
0	0xbe145e2c	-0.14489049
1	0x3ddccc5e	0.107811674
2	0xbd8bd153	-0.06827035
3	0xbdd3db3b	-0.10344549
4	0xbc8a1b57	-0.01685874
5	0xbe3ca0e8	-0.18420756
6	0xbe44bac1	-0.19211866
7	0xbb0b7465	-0.0021279093
8	0xbc4e1717	-0.012578747
9	0x3cf94575	0.030428628
10	0xbe0aec0b	-0.13566606
11	0xbb050cee	-0.0020301896
12	0xbe185a7e	-0.1487827
13	0xbdac6513	-0.08417716
14	0xbde765c2	-0.11298706
15	0xbe588781	-0.2114544
16	0x3d1a9c7b	0.037746888
17	0xbdb78433	-0.08960762
18	0xbd8f6d77	-0.07003301
19	0x3d70c094	0.058777407
20	0xbdd78a54	-0.10524431
21	0x3c48f852	0.012266235
22	0x3cda51e6	0.02665038
23	0x3d20d9b2	0.03927011
24	0xbd3c92e3	-0.04603852
25	0xbbcab49e	-0.006186082
26	0xbd9b96df	-0.07597136
27	0xbd0b0d1f	-0.03394806
28	0x3d840abf	0.06447362
29	0xbcc61e41	-0.024184348
30	0x3cf5507d	0.029945606
31	0xbd866aa9	-0.065633126
32	0xbd802b50	-0.06258261
33	0xbd622c4a	-0.05521802
34	0xbda92e19	-0.082607456
35	0xbe3386a2	-0.17531827
36	0x3b53d54e	0.0032323184
37	0x3d8e4f3d	0.06948707
38	0xbdfdc3da	-0.12390871
39	0x3d66ef1b	0.056380372
40	0x3c62a7bf	0.013833939
41	0xbc396ad8	-0.011316977
42	0xbd5f1b3d	-0.054469336
43	0xbe025a2c	-0.1272971
44	0xbcf29256	-0.029610794
45	0xbe1bbea2	-0.1520944
46	0xbe175927	-0.14780103
47	0xbe17d3a2	-0.14826825
48	0x3d52a054	0.051422432
49	0x3c7b5e84	0.0153423585
50	0xbce389de	-0.027775701
51	0xbe2fbb3f	-0.17161272
52	0x3cca84d2	0.024721537
53	0xbe1b6a51	-0.15177275
54	0xbd140af1	-0.036143247
55	0x3db7bc65	0.0897148
56	0xbd4c782d	-0.049919296
57	0xbe695655	-0.2278684
58	0x3da6afa8	0.081389725
59	0xbe0ceb61	-0.13761665
60	0xbdccef68	-0.100066006
61	0xbe755d67	-0.23961411
62	0xbd8f1c3c	-0.06987807
63	0xbdea05c6	-0.114268824
64	0x3c4bcdd7	0.012439213
65	0xbcc64e4e	-0.02420726
66	0xbd50e169	-0.050996218
67	0xbc1d8ff8	-0.009616844
68	0xbe4932a8	-0.1964823
69	0x3ba465e3	0.0050170287
70	0xbda83a98	-0.08214301
71	0xbe16135e	-0.14655825
72	0xbd33eb8c	-0.043925807
73	0xbd8d1e4a	-0.06890543
74	0xbd877819	-0.06614704
75	0xbc999a7c	-0.018750422
76	0xbd476104	-0.048676506
77	0x3da904e6	0.082528874
78	0x3c92af58	0.017905876
79	0x3cc6e2c9	0.024278061
80	0x3c6885f1	0.01419209
81	0x3be47c20	0.0069728047
82	0x3cd85276	0.026406508
83	0x3d81c806	0.063369796
84	0x3d413e3d	0.047178496
85	0x3d1292d2	0.03578455
86	0xbd306799	-0.04306755
87	0xbe4bdeb4	-0.19909173
88	0xbdcb840f	-0.099372976
89	0xbd07c357	-0.033145275
90	0xbdb0612c	-0.08612284
91	0xbc19670b	-0.009362946
92	0xbdbd6f47	-0.0924974
93	0xbe0b2ac4	-0.13590533
94	0xbdb05919	-0.08610744
95	0x3db2afa6	0.087249085
96	0xbdd61406	-0.10453038
97	0x3c5426c3	0.012948695
98	0xbdb76f05	-0.08956722
99	0x3cca609a	0.024704266
100	0xbda2b2a5	-0.0794423
101	0xb9a6344a	-0.00031700946
102	0xbd2c6053	-0.04208405
103	0xbbdbee62	-0.006711767
104	0x3c9cdbce	0.01914778
105	0xbd73326b	-0.059374254
106	0xbd18e4f7	-0.037327733
107	0x3deee07e	0.11663912
108	0x3d436ff3	0.047714185
109	0xbdbd5548	-0.09244782
110	0xbdb2d7e4	-0.08732584
111	0xbd0aa805	-0.033851642
112	0xbc790d5b	-0.015200938
113	0x3d6c3c05	0.057674427
114	0x3d80b239	0.06283993
115	0x3dba5617	0.090984516
116	0x3d98edc6	0.07467227
117	0xbc0bdfdb	-0.008537258
118	0x3cb8d4ed	0.022562468
119	0x3cc1f0b8	0.023674354
120	0xbd15678e	-0.03647571
121	0xbe2198f5	-0.15781005
122	0x3d099259	0.033586834
123	0xbc5e1b41	-0.0135563025
124	0xbdeb172d	-0.1147903
125	0xbda69cda	-0.08135386
126	0xbe099093	-0.13434057
127	0x3d512912	0.05106456
128	0xbd9a57ff	-0.07536315
129	0x3d227a7a	0.039667584
130	0x3d994538	0.074839056
131	0xbd49a78b	-0.049232047
132	0xbe04f37f	-0.12983511
133	0xbd475785	-0.04866745
134	0x3cf53f4a	0.029937405
135	0x3d4ec31b	0.050479036
136	0xbdeb67a6	-0.11494379
137	0xbe185c6c	-0.14879006
138	0xbd4018fd	-0.04689883
139	0x3d4fbd2d	0.05071752
140	0xbdaee388	-0.08539492
141	0x3e05ecdd	0.13078637
142	0x3dd3e6d3	0.103467606
143	0xbd8f613c	-0.07000968
144	0x3d427944	0.04747893
145	0x3ce6144e	0.028085854
146	0x3bf177ed	0.0073690326
147	0x3d026061	0.031830195
148	0xbc31cb17	-0.010851643
149	0xbde36edd	-0.1110513
150	0x3d145da8	0.03622213
151	0x3cb5b169	0.022179322
152	0x3d5545fc	0.052068695
153	0xbdee287f	-0.11628818
154	0xbe0a6514	-0.1351512
155	0xbd8a0e9d	-0.067410685
156	0xbc91ca69	-0.017796712
157	0xbda8015f	-0.082033865
158	0xbe025418	-0.12727392
159	0xbea7a081	-0.32739642
160	0xbda92395	-0.0825874
161	0xbd5a7e35	-0.053343017
162	0xbdccf8f7	-0.10008424
163	0x3bb5f4f5	0.005552883
164	0xbdf4fb58	-0.119620025
165	0xbce4298a	-0.027851839
166	0x3d467754	0.048453644
167	0xbda3b7c3	-0.07994034
168	0xbd24057c	-0.040044293
169	0xbd2b0c43	-0.04175974
170	0xbd49a33c	-0.049227938
171	0xbe20bb9e	-0.1569657
172	0x3d8b05e2	0.067882314
173	0xbd288abf	-0.041147944
174	0xbd5cae1d	-0.053876985
175	0xbcdc9984	-0.02692867
176	0xbd80aa95	-0.06282536
177	0xbc97924a	-0.018502373
178	0xbe01017a	-0.1259822
179	0xbcb901b9	-0.02258383
180	0x3d94777d	0.07249353
181	0xbcef3128	-0.029198244
182	0xbc3b46d4	-0.011430461
183	0xbccb77c2	-0.024837378
184	0xbdc4812b	-0.09594949
185	0xbd18982c	-0.037254497
186	0xbd5c7f64	-0.053832427
187	0xbd9efcd6	-0.077630684
188	0xbc891b48	-0.016736642
189	0x3bdfede5	0.006833779
190	0x3d8cc81c	0.06874105
191	0xbd623c53	-0.05523331
192	0x3d020c5f	0.03175008
193	0xbdfcf955	-0.12352244
194	0xbd98ea7e	-0.07466601
195	0x3d05b0bb	0.032639246
196	0xbdd73423	-0.10507991
197	0x3d8a10fb	0.0674152
198	0xbe1fa460	-0.15590048
199	0xbc52812d	-0.012848181
200	0xbd7edd56	-0.0622228
201	0x3d1247aa	0.035712875
202	0x3b98e6a3	0.004666166
203	0xbd666811	-0.05625159
204	0xbc584adc	-0.013201442
205	0x3d9edded	0.07757173
206	0xbdb89382	-0.0901251
207	0xbdb5e281	-0.08881093
208	0x3c013a59	0.007887446
209	0x3d5523c9	0.05203608
210	0xbe499bab	-0.19688289
211	0xbc025d73	-0.00795685
212	0x3c80b2cc	0.015710257
213	0x3be82ef7	0.007085677
214	0xbda8de72	-0.08245553
215	0xbcc55e0e	-0.0240927
216	0xbb83eae8	-0.0040258057
217	0xbe389172	-0.18024233
218	0xbe2000b1	-0.15625264
219	0xbdff3229	-0.12460739
220	0x3de7b6c1	0.113141544
221	0xbd937dc1	-0.0720172
222	0xbe406814	-0.18789703
223	0xbd044938	-0.03229639
224	0xbdd16b77	-0.102255754
225	0xbc679ff0	-0.014137253
226	0xbdb60480	-0.08887577
227	0xbd5a9ffa	-0.05337522
228	0xbdf7b295	-0.12094609
229	0xbe7f94c6	-0.24959096
230	0x3cf7a1a4	0.030228443
231	0xbde54f8d	-0.11196814
232	0xbc3f7896	-0.011686465
233	0xbd4c03cc	-0.04980831
234	0xbdae8ba5	-0.08522729
235	0xbc448568	-0.011994697
236	0xbb345788	-0.0027517993
237	0xbdc974e5	-0.09836749
238	0xbb28622f	-0.0025693288
239	0xbd8b3bea	-0.06798537
240	0xbd1230b3	-0.035690974
241	0xbc9465c0	-0.018114924
242	0xbcda0960	-0.026615798
243	0xbcf5b88f	-0.029995231
244	0x3bde9053	0.006792107
245	0xbdd4cdbd	-0.10390804
246	0x3c6f1aa3	0.014593753
247	0xbd1d8974	-0.038461164
248	0xbe381ce8	-0.17979777
249	0xbd7e0ab9	-0.062021945
250	0xb714fb20	-8.879957e-06
251	0xbe4c092d	-0.19925375
252	0xbdd5ed50	-0.104456544
253	0xbdc30dc7	-0.09524112
254	0xbdb91a69	-0.090382405
255	0xbdd3f9cd	-0.1035038

a2c_network.actor_mlp.2.bias f4 [128]
0	0xbc1a4e69	-0.0094181085
1	0x3c80f890	0.015743524
2	0x3e2007e9	0.15628017
3	0x3caa54d3	0.0207924
4	0x3e7c59ff	0.24643706
5	0xbe51cc1f	-0.20488022
6	0xbddf53a2	-0.109046236
7	0xbe5dbfd9	-0.21655215
8	0xbea22ea5	-0.31676212
9	0x3d78d2d3	0.060747933
10	0xbedbba92	-0.4291578
11	0x3dc015b7	0.09379142
12	0xbe0a2547	-0.13490783
13	0xbeae17dd	-0.3400258
14	0xbe21d319	-0.15803184
15	0xbda5ad6f	-0.080897205
16	0xbc8705ec	-0.016482316
17	0xbcf36695	-0.029712
18	0xbda87e96	-0.08227269
19	0xbe8baafd	-0.2727889
20	0x3d926b85	0.07149414
21	0xbb38afdb	-0.002818099
22	0xbe08eaeb	-0.13370864
23	0x3e97e598	0.29667354
24	0xbe3dbef2	-0.18529871
25	0xbd1bbe9e	-0.038023584
26	0xbe2c099d	-0.16800542
27	0xbed4740b	-0.41494784
28	0xbe3a2211	-0.18177058
29	0x3dad64e9	0.08466513
30	0x3d63b5c5	0.05559327
31	0xbf04afac	-0.51830554
32	0xbe47e0b8	-0.19519317
33	0xbea92926	-0.33039206
34	0xbead840f	-0.33889815
35	0x3e3cc90f	0.18436073
36	0xbe8a1a41	-0.26973155
37	0xbf0d0254	-0.5508168
38	0xbe089b82	-0.13340572
39	0xbeb95388	-0.36196542
40	0x3defefb1	0.117156394
41	0xbd8ad8d7	-0.0677964
42	0x3c8569d8	0.016285822
43	0xbea94392	-0.33059365
44	0xbca7ca8e	-0.020482328
45	0x3d89faaa	0.067372635
46	0xbe5aad97	-0.21355282
47	0x3cc5dc45	0.024152884
48	0xbdf58d7f	-0.11989879
49	0x3db70099	0.08935661
50	0xbe7bb4aa	-0.24580637
51	0x3c525982	0.012838723
52	0x3d7406a5	0.05957665
53	0xbd21b986	-0.03948357
54	0x3e2dfc6f	0.16990827
55	0x3d32f12f	0.04368704
56	0xbe1a6398	-0.15077055
57	0xbdfce459	-0.12348241
58	0xbe0fb9d0	-0.14035726
59	0xbe4b986d	-0.19882365
60	0x3dfe0456	0.12403171
61	0xbd586cc9	-0.05283812
62	0xbe593a58	-0.21213663
63	0x3dfbb709	0.122907706
64	0xbd8b90bf	-0.068147175
65	0x3e207de5	0.15673025
66	0x3cefdb0e	0.029279258
67	0xbedb3e68	-0.4282105
68	0x3d822c58	0.06356114
69	0xbe348be7	-0.17631494
70	0x3e06ddbd	0.13170524
71	0xbe2544a6	-0.16139469
72	0xbebcb4af	-0.368566
73	0xbec1aeb7	-0.3782861
74	0xbd255336	-0.04036256
75	0xbcb34958	-0.021885559
76	0xbe80bc5c	-0.25143707
77	0xbe695ab9	-0.22788514
78	0xbd4a9212	-0.04945571
79	0xbe4ba0cb	-0.19885556
80	0xbef3a313	-0.47585353
81	0xbe4ebc2e	-0.20188972
82	0x3e1ea4e1	0.15492584
83	0x3d52505d	0.05134617
84	0xbeb8cfaf	-0.3609595
85	0xbeb0c0bd	-0.34522048
86	0xbe8d30b4	-0.2757622
87	0xbe4aaadc	-0.1979174
88	0xbdf0296b	-0.1172665
89	0xbe4762cc	-0.19471282
90	0xbe83e1fe	-0.25758356
91	0xbd8b0b46	-0.067892596
92	0xbe279c2a	-0.16368166
93	0xbe0d367d	-0.13790317
94	0xbeacec91	-0.33774236
95	0x3e732426	0.23744258
96	0xbd621dee	-0.055204324
97	0x3d0c7229	0.03428856
98	0xbdb6aa66	-0.0891922
99	0x3d8c1588	0.06840044
100	0xbe85bbb7	-0.26119778
101	0xbe3fe9c2	-0.18741515
102	0x3db91062	0.09036328
103	0xbb70781d	-0.0036692687
104	0xbdadc7d0	-0.08485377
105	0xbe6ccd6d	-0.23125239
106	0xbd5d3bff	-0.054012295
107	0x3d08030f	0.033206042
108	0xbe50054b	-0.20314519
109	0xbe360932	-0.17776945
110	0x3e717467	0.2357956
111	0x3d7f8b17	0.062388506
112	0xbda8d6d1	-0.08244098
113	0xbc871dd1	-0.01649371
114	0x3da25a66	0.079273984
115	0xbea4b5ef	-0.32170054
116	0xbe26bff5	-0.16284163
117	0xbecb5e11	-0.39720204
118	0x3da473d9	0.08029909
119	0xbdf54692	-0.11976351
120	0xbea3f9de	-0.3202657
121	0xbe37aa08	-0.17935956
122	0xbdd3c13d	-0.10339592
123	0x3d46d424	0.048542157
124	0xbe3b1372	-0.18269137
125	0x3d27859a	0.040898897
126	0xbe7e0f01	-0.24810411
127	0x3cb4108d	0.021980548

a2c_network.actor_mlp.4.weight f4 [64, 128]
0	0x3d67b2c1	0.056566957
1	0xbe050b0b	-0.12992494
2	0x3cddf78a	0.027095575
3	0xbe037e5d	-0.12841173
4	0xbeeba521	-0.4602442
5	0x3df872de	0.12131284
6	0x3d9953a8	0.07486659
7	0xbd639e3f	-0.055570837
8	0x3de30f64	0.1108692
9	0x3d543547	0.05180862
10	0x3da67a2d	0.08128772
11	0x3dcab058	0.09896916
12	0xbe065492	-0.13118199
13	0xbd63733f	-0.05552983
14	0xbb48de08	-0.003064992
15	0x3d932276	0.07184307
16	0x3e048558	0.12941492
17	0xbdd7a804	-0.10530093
18	0x3dc7853f	0.097422116
19	0xbceb7250	-0.028741032
20	0xbe60c60f	-0.21950553
21	0xbde25fd8	-0.11053437
22	0xbc078580	-0.008271575
23	0x3ce6c271	0.028168889
24	0x3df0bd59	0.11754865
25	0x3b5d4ac6	0.0033766492
26	0xbd4da7cd	-0.050208855
27	0x3d4fd2c3	0.050738107
28	0xbdaad6bf	-0.08341741
29	0xbdd13747	-0.102156214
30	0xbdb81b92	-0.089896336
31	0x3d3627d5	0.04447158
32	0x3c154f74	0.009113181
33	0xbd379071	-0.044815484
34	0xbe3333ce	-0.1750023
35	0xbd84c381	-0.06482602
36	0xbc0bd84c	-0.008535456
37	0x3b967a20	0.004592195
38	0x3be92ba6	0.007115799
39	0x3dbc579d	0.091963984
40	0x3db37ec4	0.08764413
41	0x3c97f130	0.018547624
42	0x3b175fc0	0.0023097843
43	0x3d18a8bd	0.037270296
44	0xbdebd410	-0.11515057
45	0x3df9aa6f	0.12190711
46	0xbcd7f03e	-0.026359674
47	0xbe0992c1	-0.13434888
48	0x3e13e896	0.14444193
49	0xbda13234	-0.078709036
50	0xbd7e52df	-0.06209075
51	0xbe81ce1e	-0.25352567
52	0x3d2c450f	0.042058047
53	0x3cd0ef09	0.025504606
54	0xbe419e00	-0.18907928
55	0xbe9afc47	-0.30270597
56	0x3de19f61	0.11016727
57	0x3e51e733	0.20498352
58	0x3e43b021	0.19110157
59	0x3df8edba	0.12154718
60	0x3df0bf0e	0.11755191
61	0x3ba48adb	0.0050214357
62	0x3b27584a	0.0025534802
63	0x3da07636	0.07835047
64	0xbd3f6be3	-0.04673375
65	0xbe5d8b7e	-0.21635243
66	0x3b8101ff	0.0039370055
67	0x3db6d43a	0.08927198
68	0xbe2f2a04	-0.17105871
69	0xbd3d71ee	-0.04625123
70	0xbd7c72a3	-0.061632764
71	0xbdbc92f7	-0.09207719
72	0x3dc48e94	0.09597507
73	0x3cc684ce	0.024233248
74	0xbc87d1ee	-0.016579594
75	0xbde57c35	-0.11205331
76	0x3bddafd5	0.0067653456
77	0x3da7aa5c	0.0818679
78	0x3c7b0e3a	0.015323216
79	0xbc1eb481	-0.00968659
80	0xbcbe544d	-0.023233557
81	0x3d2b05bd	0.04175352
82	0xbbaf60f5	-0.0053521344
83	0xbcd2b505	-0.025721082
84	0x3d045500	0.032307625
85	0x3d1a5eb7	0.037687983
86	0xbdb3aab1	-0.08772791
87	0x3d4dac90	0.050213397
88	0x3ddf4b0d	0.10902987
89	0x3dc20201	0.094730385
90	0x3d1a1fe5	0.037628073
91	0xbd94625a	-0.072453216
92	0x3c161ca0	0.009162098
93	0xbbd91b69	-0.006625582
94	0x3bbac42a	0.005699654
95	0x3d9ac12d	0.075563766
96	0x3e211cea	0.15733686
97	0x3e0b4150	0.13599133
98	0xbd742a03	-0.059610378
99	0xbe690230	-0.2275474
100	0x3d8ee25e	0.0697677
101	0x3cd2b24e	0.025719788
102	0xbd1fabeb	-0.038982313
103	0x3e0c6b4f	0.1371281
104	0xbe022625	-0.12709863
105	0x3e1653e4	0.14680439
106	0xbbf5b67d	-0.007498561
107	0x3dd98298	0.10620612
108	0x3e06b03e	0.13153169
109	0x3c1d8da6	0.009616291
110	0x3cacb842	0.021083955
111	0x3d7ea410	0.06216818
112	0x3e69e96c	0.2284295
113	0xbd43597c	-0.04769276
114	0xbd80a6be	-0.062818035
115	0xbd645c28	-0.05575195
116	0x3ddb273c	0.10700843
117	0x3cba0a4e	0.022709992
118	0xbdb6c7cf	-0.08924829
119	0xbd519f1c	-0.05117713
120	0x3d289f37	0.041167464
121	0xbc9aba01	-0.018887522
122	0x3dd1ffc2	0.1025386
123	0xbe05a23b	-0.13050167
124	0xbdcc11a5	-0.09964303
125	0xbc868f5e	-0.016425785
126	0xbda22753	-0.07917657
127	0x3df45748	0.1193071
128	0xbcb67af6	-0.02227543
129	0xbbf53b3c	-0.007483868
130	0xbd884ab5	-0.06654874
131	0x3db50a62	0.08839871
132	0xbe3f1b2c	-0.18662709
133	0xbe719c97	-0.2359489
134	0xbbdee4ac	-0.006802162
135	0xbd009438	-0.031391352
136	0x3e10a716	0.14126238
137	0xbce56c05	-0.02800561
138	0xbd379a1a	-0.044824697
139	0x3dcadba8	0.09905177
140	0x3d8bbdb6	0.06823294
141	0xbb67c806	-0.0035367026
142	0xbe6074e4	-0.2191959
143	0x3c991b54	0.018689789
144	0xbcf08989	-0.029362457
145	0x3d4c7f76	0.049926244
146	0xbb595ade	-0.0033165733
147	0xbdfa2245	-0.12213568
148	0xbdbdfad3	-0.092763565
149	0xbd277dcd	-0.040891457
150	0x3dad0912	0.08448996
151	0x3d2351ff	0.03987312
152	0xbe265d3e	-0.16246507
153	0x3c4eb865	0.012617205
154	0xbde9bc5c	-0.1141288
155	0xbde80d87	-0.11330705
156	0xbdb8f763	-0.0903156
157	0xbdfef6d1	-0.1244942
158	0xbd51bd5d	-0.05120598
159	0x3c1fb27d	0.009747145
160	0xbd2d2b70	-0.042277753
161	0x3d9c49de	0.076312765
162	0xbeab7894	-0.3349043
163	0xbdf181b4	-0.11792317
164	0xbe18497d	-0.14871784
165	0xbd5a4be5	-0.053295035
166	0xbd54d220	-0.051958203
167	0x3e8385b4	0.25687945
168	0x3d10e988	0.035378963
169	0xbd6d58cf	-0.057946023
170	0x3e533139	0.20624246
171	0x3db5574d	0.08854542
172	0xbd962ab4	-0.07332364
173	0x3d9a7104	0.07541087
174	0xbd2b8a6b	-0.041880053
175	0xbe61025a	-0.21973553
176	0xbe10565a	-0.1409544
177	0xbdf37a80	-0.118885994
178	0xbdfa4564	-0.122202665
179	0xbd9d8301	-0.07691003
180	0xbd1dcb12	-0.03852374
181	0xbdcbb34a	-0.09946306
182	0x3dfc6add	0.1232507
183	0xbdc9b613	-0.09849181
184	0x3d8bebcb	0.06832083
185	0x3d8c03b5	0.068366446
186	0x3dec918d	0.11551199
187	0x3d7cae2b	0.061689537
188	0xbd840477	-0.06446164
189	0xbe172cc2	-0.14763168
190	0x3c559f69	0.013038495
191	0x3bb66b3d	0.005566983
192	0x3d539b07	0.051661517
193	0xbe47adeb	-0.19499938
194	0xbd74ccfa	-0.059765793
195	0x3dc95213	0.098301075
196	0x3c76a54f	0.015054061
197	0xbe16198a	-0.1465818
198	0x3d0a5866	0.03377571
199	0x3e0eef9b	0.1395859
200	0xbe3e51fc	-0.18585962
201	0x3d0ab187	0.03386071
202	0x3d5c9fea	0.053863443
203	0xbdd09c13	-0.10186019
204	0x3d1c3032	0.0381319
205	0x3dcf84a2	0.101327196
206	0xbe08c937	-0.13358007
207	0x3d41f852	0.047355957
208	0x3df07b0f	0.117422216
209	0x3da7d17b	0.08194252
210	0x3d01fd21	0.031735543
211	0x3c18b7c3	0.009321156
212	0x3d153e37	0.036436286
213	0xbd043f64	-0.032287017
214	0xbe36e7ff	-0.17861937
215	0x3cd529f8	0.026020989
216	0xbc8d4de9	-0.017249065
217	0xbe47686d	-0.19473429
218	0xbdc7e211	-0.097599156
219	0xbdb519ae	-0.08842789
220	0x3d0ca3db	0.034335952
221	0x3c17273d	0.009225664
222	0xbdea4ed8	-0.114408195
223	0xbcdcaae1	-0.02693695
224	0x3d707270	0.058702886
225	0x3da1040e	0.078621015
226	0x3da71ed8	0.0816018
227	0x3d7cc85d	0.06171452
228	0x3e1997e3	0.14999346
229	0xbcd91c26	-0.02650268
230	0xbd012e1f	-0.031538125
231	0xb9ef8195	-0.00045682178
232	0x3cf4911f	0.029854355
233	0xbda1ab31	-0.0789398
234	0xbcb8ad6a	-0.022543628
235	0x3d59e827	0.053199913
236	0x3ca229f0	0.019795388
237	0xbdb2bf33	-0.087278746
238	0x3d760fbf	0.06007361
239	0xbd121c6c	-0.035671636
240	0xbd904dd0	-0.070460916
241	0xbdc1f5a8	-0.09470683
242	0xbdf1ea08	-0.11812216
243	0xbe4241bd	-0.1897039
244	0xbd595f83	-0.053069603
245	0xbcf77f8c	-0.030212186
246	0xbea2804c	-0.31738508
247	0xbdbcc02a	-0.0921634
248	0x3d232c4a	0.03983716
249	0x3d2dd33c	0.042437777
250	0xbdbf95cd	-0.09354744
251	0xbdb920cd	-0.090394594
252	0x3dabdc93	0.083916806
253	0x3cf6fe7c	0.030150644
254	0xbdead5db	-0.11466571
255	0x3e03e5b1	0.12880589

a2c_network.actor_mlp.4.bias f4 [64]
0	0xbe00fd01	-0.12596513
1	0x3c3bac6f	0.011454686
2	0xbe257c3f	-0.16160677
3	0xbdfe8ac4	-0.12428811
4	0xbdf549d7	-0.119769745
5	0xbd3a77d0	-0.04552442
6	0xbe6211ce	-0.22077104
7	0xbc0a3ee1	-0.008437843
8	0xbe83c4a3	-0.2573596
9	0xbdc3a145	-0.09552244
10	0xbde96f1a	-0.11398144
11	0xbd691e83	-0.056913864
12	0x3d1bb7d8	0.038017124
13	0xbdc1e21c	-0.09466955
14	0xbe206412	-0.15663174
15	0xbea77baf	-0.3271155
16	0x3cbfd604	0.02341748
17	0xbdc8edb3	-0.098109625
18	0x3cc6fdde	0.024290975
19	0xbe2cf2fe	-0.16889569
20	0xbdacc530	-0.08436048
21	0x3b2edc74	0.0026681693
22	0xbe12ae4b	-0.143243
23	0xbe2e44c4	-0.1701842
24	0xbe1574d1	-0.14595343
25	0xbe21979e	-0.15780494
26	0xbe0dee96	-0.13860545
27	0x3d73e82e	0.059547596
28	0xbdf69203	-0.12039568
29	0xbe8714f9	-0.26383188
30	0xbdef4609	-0.1168328
31	0x3d323960	0.04351175
32	0xbea321bf	-0.31861684
33	0xbdd35327	-0.103185944
34	0xbd253dc9	-0.040342126
35	0xbcc6e8b2	-0.02428088
36	0x3e0e6383	0.13905148
37	0xbe1d0c98	-0.15336835
38	0xbe342118	-0.1759075
39	0xbdea7018	-0.114471614
40	0xbdcabea0	-0.0989964
41	0x3e10cef6	0.1414145
42	0x3b502e83	0.0031766004
43	0xbe808aa4	-0.25105774
44	0xbe12a9cb	-0.14322583
45	0xbd0116e6	-0.03151598
46	0x3ca7f284	0.020501383
47	0xbe073390	-0.13203263
48	0xbe7d9e49	-0.24767412
49	0x3aad304d	0.0013213247
50	0xbe63efb2	-0.22259405
51	0xbe6cf33c	-0.23139662
52	0xbe6e9cca	-0.23301998
53	0xbe4b58d2	-0.19858101
54	0x3d459ac4	0.0482433
55	0xbe198d67	-0.14995347
56	0x3d4817a8	0.048850685
57	0x3cbe153b	0.023203483
58	0xbdb5ec3c	-0.08882949
59	0xbdf6fe0a	-0.12060173
60	0x3c56c78c	0.013109099
61	0xbdb80cfa	-0.0898685
62	0xbe317cc5	-0.17332752
63	0xbd2e51b2	-0.04255838

a2c_network.value.weight f4 [1, 64]
0	0x3be15d2c	0.006877562
1	0x3c295db6	0.010337284
2	0xbc133bc0	-0.0089864135
3	0xbdb1c551	-0.08680213
4	0x3c842715	0.016131917
5	0xbcd64325	-0.026155064
6	0xbcf562d8	-0.029954359
7	0xbcdeb0c4	-0.027183898
8	0x3bb18223	0.005417125
9	0x3c0040b0	0.007827923
10	0xbe0c1758	-0.1368078
11	0x3cc061a2	0.023484055
12	0xbe07026e	-0.1318452
13	0xbcc7f62b	-0.024409374
14	0x3d184098	0.037170976
15	0x3cc25785	0.023723373
16	0xbcc06dd7	-0.023489876
17	0x3d68dd23	0.056851517
18	0xbc5d78d6	-0.013517579
19	0xbd79cdf9	-0.060987446
20	0x3cbd06f7	0.02307461
21	0x3e6852e3	0.22687869
22	0xbb12775b	-0.0022348973
23	0x3b9321c7	0.0044901106
24	0xbd0ddd5c	-0.034634933
25	0xbc003fdb	-0.007827724
26	0x3dea3081	0.11435033
27	0xbd621cc6	-0.05520322
28	0xbe02175b	-0.12704222
29	0xbe4b4812	-0.19851711
30	0x3e61e35a	0.22059384
31	0x3cc31dc6	0.023817908
32	0x3c13d737	0.009023479
33	0xbc4c3d8d	-0.012465847
34	0x3d7b4fa4	0.061355248
35	0xbdc8881c	-0.09791586
36	0x3c302b61	0.01075253
37	0xbd168afe	-0.036753647
38	0x3e02a0a9	0.127566
39	0x3d761699	0.060080145
40	0x3d276c39	0.040874694
41	0x3edc7219	0.430558
42	0xbd419c42	-0.04726816
43	0x3d08bcdb	0.03338323
44	0xbb05a5c1	-0.0020392986
45	0xbcae37dd	-0.021266872
46	0xbac5f3a4	-0.0015102518
47	0xbb6661c2	-0.0035153483
48	0x3dcf22b5	0.10114042
49	0x3984283c	0.0002520698
50	0x3d0a8241	0.033815626
51	0xbe5ec10c	-0.21753329
52	0xbc8b867a	-0.017031897
53	0x3dc598f6	0.096483156
54	0xbc94379c	-0.018092923
55	0x3d291c65	0.041286845
56	0x3d137ea6	0.036009453
57	0x3b438316	0.0029832772
58	0xbd01193a	-0.0315182
59	0x3d23d8ba	0.04000161
60	0x3d6af179	0.057359193
61	0xbd912f98	-0.07089156
62	0x3dac4c33	0.08412971
63	0xbd1797a8	-0.037009865

a2c_network.mu.weight f4 [12, 64]
0	0xbca39087	-0.019966377
1	0xbe0ff7ee	-0.14059421
2	0xbe38ac83	-0.18034558
3	0xbd302cd6	-0.04301151
4	0x3df4055f	0.11915087
5	0x3d85cde3	0.065334104
6	0x3bd0f3d9	0.006376725
7	0x3d21d5fe	0.03951072
8	0xbd18ea62	-0.0373329
9	0x3d40b87b	0.047050934
10	0xbd82544f	-0.06363737
11	0x3da35028	0.07974273
12	0x3db08ef0	0.08621013
13	0xbc786634	-0.015161086
14	0x3e286f05	0.164486
15	0x3da839b7	0.08214133
16	0x3d7ba53f	0.061436888
17	0xbe0ed952	-0.13950089
18	0x3e2f74f7	0.17134462
19	0xbc360f74	-0.011112083
20	0x3db4e54f	0.088328
21	0xbc802759	-0.015643762
22	0xbc37287f	-0.011179089
23	0x3d9c1b6a	0.07622416
24	0xbdbafb33	-0.09129944
25	0xbe225a59	-0.15854777
26	0x3d08ba64	0.03338088
27	0x3e0df04c	0.13861197
28	0x3d1fe254	0.039034203
29	0xbdf95fb7	-0.12176459
30	0x3d699e4f	0.05703574
31	0x3d082f7b	0.033248406
32	0xbd877f4a	-0.06616075
33	0xbe67826c	-0.22608346
34	0xbd3bf112	-0.0458842
35	0x3e2526d7	0.16128097
36	0x3e3e3786	0.18575868
37	0xbc2e0339	-0.0106208855
38	0xbc2f789a	-0.010709906
39	0x3d13351d	0.035939325
40	0xbda5ea45	-0.08101324
41	0xbd380387	-0.04492524
42	0x3da1157c	0.07865426
43	0x3b1282fb	0.0022355902
44	0x3c8bdd4e	0.0170733
45	0xbd0aadba	-0.033857085
46	0xbd6806d1	-0.056647126
47	0xbd74ead9	-0.05979428
48	0xbc913cdc	-0.017729215
49	0x3e4a7a09	0.19773115
50	0x3a964323	0.00114641
51	0x3daed8a2	0.08537413
52	0xbd39764f	-0.045278843
53	0xbd990460	-0.074715376
54	0x3c391138	0.011295609
55	0x3ab3ac2c	0.0013707927
56	0xbdfaa1db	-0.12237903
57	0x3d6fcdcc	0.058545873
58	0x3b81661a	0.003948939
59	0x3dcc1d4f	0.09966528
60	0x3d228d5a	0.039685585
61	0xbd653495	-0.05595835
62	0x3d492280	0.049105167
63	0xbbd8c0b2	-0.006614768
64	0xbd9ca3cf	-0.076484315
65	0x3e5e2db1	0.21697117
66	0x3d8beaf4	0.06831923
67	0x3d992106	0.07477002
68	0xbd66398e	-0.056207232
69	0x3d2292fe	0.039690964
70	0xbdbf65bd	-0.09345577
71	0x3dcd4fd9	0.10024995
72	0xbdd24d14	-0.10268608
73	0xbd879586	-0.06620316
74	0xbb45c949	-0.003017979
75	0x3d56536d	0.052325655
76	0xbd50a63c	-0.050939783
77	0xbdfcbe55	-0.123409905
78	0xbcac3702	-0.021022324
79	0x3d89cf6b	0.06729015
80	0x3c8725e9	0.01649757
81	0x3c1c9dec	0.009559136
82	0x3d90e7d3	0.07075467
83	0x3b819ecc	0.0039556976
84	0xbc8b5cde	-0.017012056
85	0xbd3e468d	-0.046454
86	0xbca8db5a	-0.020612407
87	0x3c567a2c	0.0130906515
88	0xbc92c97f	-0.017918346
89	0x3d258b62	0.04041613
90	0xbca713a9	-0.020395117
91	0xbce8acce	-0.028402712
92	0xbd006321	-0.031344537
93	0x3d86d8a9	0.065842934
94	0xbd031186	-0.031999134
95	0x3e471907	0.19443141
96	0xbd667fbb	-0.056274157
97	0xbe3e0974	-0.18558294
98	0x3d5bf33b	0.05369876
99	0x3d68c004	0.056823745
100	0xbd131455	-0.035908062
101	0xbc87ccba	-0.016577113
102	0x3c839d80	0.016066313
103	0xbcdf7553	-0.027277624
104	0xbe239b1f	-0.15977143
105	0x3d3b594d	0.04573946
106	0x3d37e155	0.044892628
107	0x3d5d1668	0.053976446
108	0xbe2e520a	-0.17023483
109	0x3dbf5960	0.09343219
110	0xbd8829e8	-0.06648618
111	0x3ce99070	0.028511256
112	0xbb5448fe	-0.003239214
113	0x3e9802de	0.29689687
114	0x3dc6aff8	0.09701532
115	0x3d4df6ee	0.05028432
116	0xbd343b00	-0.04400158
117	0xbe31882f	-0.17337106
118	0x3b43fcd7	0.0029905343
119	0x3d739845	0.059471387
120	0x3d6c399c	0.057672128
121	0x3dee9a0b	0.11650475
122	0x3d3cefa6	0.046126984
123	0xbe079a0b	-0.13242356
124	0x3d44479c	0.047919855
125	0x3dcbbde9	0.09948332
126	0xbd6a5e14	-0.057218626
127	0x3cd2bec4	0.02572573
128	0x3d8d6053	0.06903138
129	0xbced00c9	-0.028931038
130	0x3cd62573	0.026140904
131	0x3cb8606a	0.022506911
132	0xba4fdc38	-0.00079292385
133	0x3bb635ae	0.0055605983
134	0x3d202206	0.039094947
135	0xbc06d34e	-0.00822909
136	0x3d4f22dd	0.050570358
137	0x3c014d61	0.007891984
138	0xbcaa589e	-0.02079421
139	0x3d17f67f	0.03710031
140	0xbcb7e870	-0.022449702
141	0x3ceb0206	0.028687488
142	0x3b0dcc0d	0.0021636516
143	0x3db76183	0.08954146
144	0xbb7513d4	-0.0037395852
145	0x3d5339c7	0.051568773
146	0xbd314f59	-0.043288562
147	0x3d1ad7ef	0.037803587
148	0x3b44159e	0.0029920111
149	0x3d2abe2c	0.04168527
150	0x3a8b58f8	0.0010631373
151	0x3d5a08f6	0.053231202
152	0x3cfdae14	0.030966796
153	0x3d2005ef	0.03906816
154	0x3ba10e65	0.004915046
155	0xbd0811ca	-0.03322009
156	0x3cc73f4c	0.024322174
157	0x3d14c0e3	0.036316764
158	0x3b524145	0.003208236
159	0x3bfcbad3	0.007712701
160	0x3d5abfbd	0.053405512
161	0xbcd71076	-0.026252966
162	0x38b2d32a	8.527034e-05
163	0x3c748426	0.014924085
164	0xbd855740	-0.06510782
165	0x3d1d0ec9	0.03834418
166	0x3c433394	0.011914153
167	0xbcacedea	-0.02110954
168	0xbb1b719d	-0.0023718842
169	0xbd3b24d8	-0.045689434
170	0xbd0e4d6f	-0.034741815
171	0x39e7e590	0.0004423079
172	0x3bbbb868	0.00572877
173	0x39f2dc57	0.00046322003
174	0xbd0f599f	-0.03499758
175	0xbce015ee	-0.027354207
176	0x3d9e43e0	0.0772779
177	0x3c195824	0.009359393
178	0x3ce61647	0.028086795
179	0x3c610ad2	0.01373549
180	0x3d64fcd0	0.055905163
181	0x3d219e1c	0.039457425
182	0x3c6448aa	0.01393334
183	0x3d825d16	0.06365411
184	0xbd107c5b	-0.035274845
185	0xbcc9b6ec	-0.024623357
186	0x3d808a29	0.06276352
187	0x3c703a63	0.014662358
188	0x3c3277dc	0.0108928345
189	0xbd19c225	-0.037538666
190	0x3bfc64e3	0.0077024563
191	0x3c9b3259	0.018944906
192	0x3e31fe7e	0.17382237
193	0x3c1d36c1	0.009595574
194	0x3d294f74	0.041335538
195	0x3e580b1a	0.21097985
196	0x3d1bdc62	0.03805197
197	0xbd03bf0c	-0.03216462
198	0xbcfc94dc	-0.0308327
199	0xbb764303	-0.0037576563
200	0xbd0736d6	-0.03301128
201	0xbd74f4de	-0.059803836
202	0xbb797b8a	-0.003806802
203	0x3ca1e86a	0.019764144
204	0x3da6088e	0.081071004
205	0xbd7a7958	-0.06115088
206	0x3c9f28c0	0.01942861
207	0x3cfe6544	0.031054147
208	0x3dd95f35	0.106138624
209	0x3e00b122	0.12567571
210	0xbc132556	-0.00898107
211	0x3e1e9613	0.15486936
212	0xbe0f28dc	-0.1398043
213	0xb9b82314	-0.0003512135
214	0x3cf9bbcb	0.030485054
215	0x3d112003	0.03543092
216	0xbe233d9f	-0.15941475
217	0xbc3dacd7	-0.011576853
218	0xbc9c4a70	-0.019078463
219	0xbe4381a1	-0.19092418
220	0xbdd4950c	-0.10379991
221	0x3d3662af	0.044527706
222	0x3b13ba84	0.0022541592
223	0xbcfb4223	-0.030671185
224	0xbc15942f	-0.009129568
225	0xbe096d83	-0.13420682
226	0xbe16484b	-0.14676015
227	0xbd88855c	-0.06666061
228	0x3cc88811	0.024478944
229	0x3d7ae971	0.061257783
230	0xbd2a7b86	-0.041621707
231	0xbdd8728f	-0.10568725
232	0xbd9ff0b2	-0.07809581
233	0x3d3fa155	0.046784718
234	0xbd3d7182	-0.046250828
235	0xbd145a98	-0.03621921
236	0x3c5d382e	0.013502164
237	0xbd7ffd25	-0.062497277
238	0x3daa0904	0.08302501
239	0x3ce0a513	0.027422464
240	0xbb552619	-0.0032523929
241	0x3db4e658	0.08832997
242	0x3e5f9304	0.21833426
243	0xbc567215	-0.013088723
244	0x3dbd0df1	0.09231175
245	0x3dc41cb4	0.09575787
246	0x3ddc35bb	0.10752436
247	0xbdb14967	-0.086565785
248	0x3d069961	0.032861117
249	0xbdedfe67	-0.11620789
250	0xbda9f990	-0.082995534
251	0xbd71c0be	-0.059021704
252	0xbd4d4413	-0.05011375
253	0xbdfc82ef	-0.12329661
254	0xbccbad9c	-0.024863057
255	0x3ce84c5e	0.028356727

a2c_network.mu.bias f4 [12]
0	0x3d17788b	0.036980193
1	0x3dcfefb6	0.10153143
2	0xbe859546	-0.2609045
3	0xbd36d126	-0.044633053
4	0x3d6ad5f2	0.05733294
5	0x3c03d481	0.00804627
6	0x3d33968b	0.04384474
7	0x3d80a7b9	0.062819906
8	0x3d0bbf3a	0.034117915
9	0xbc86fb97	-0.01647739
10	0x3cf79076	0.030220252
11	0xbd63fc89	-0.05566076

exp_avg f4 [12]
0	0x397a2b7c	0.00023858057
1	0xbba4c2b3	-0.005028093
2	0xbc4193d1	-0.011815027
3	0x3bb0d928	0.005396981
4	0xbcbf4662	-0.02334899
5	0xba84a0a4	-0.0010118675
6	0xbce8630f	-0.028367547
7	0xbc55ba40	-0.013044894
8	0xbc89a59b	-0.0168026
9	0xba8a6e5c	-0.0010561454
10	0x3b75a2c4	0.003748105
11	0x3c43e83f	0.011957227

exp_avg_sq f4 [12]
0	0x3b33afab	0.0027417939
1	0x3b20f734	0.0024561407
2	0x3b4c4674	0.0031169923
3	0x3b28005b	0.0025634978
4	0x3b65b24b	0.0035048898
5	0x3b954892	0.00455577
6	0x3b465aaf	0.0030266454
7	0x3b391409	0.0028240702
8	0x3b6063b1	0.0034239108
9	0x3b26af26	0.0025433986
10	0x3b3afd72	0.0028532413
11	0x3b1697f8	0.0022978764
