omniisaacgymenvs/runs/WEE/nn/last_WEE_ep_400_rew_-13452.285.pth (torch, 623514 bytes, 36 tensors)

value_mean_std.running_mean f8 [1]
000000 4f 08 ad 15 b4 86 40 c0
       -33.0523707480321

value_mean_std.running_var f8 [1]
000000 8f c0 32 4a 5e ac 6c 40
       229.386509989858

value_mean_std.count f8 []
000000 00 00 00 04 00 00 99 41
       104857601.0

running_mean_std.running_mean f8 [32]
000000 5b d9 01 ef e9 06 a3 3f 97 f8 8b 66 78 92 6a 3f
       0.0371621231324066 0.0032436706136414572
000010 3b 8a 60 45 cf 32 de 3f bb 3c a4 04 f5 5f d4 3f
       0.471851175070842 0.31835675671841174
000020 e8 b7 e0 7c 05 5e a1 3f 00 ea 40 0b c5 1e ad bf
       0.033920451635239435 -0.056875379203535914
000030 f4 95 c9 26 55 fc db 3f 5e ed 61 dd a9 47 be 3f
       0.43727616107784617 0.11828099875304107
000040 d3 21 a4 46 ea a0 a3 3f d0 a3 95 cc a2 2c b9 3f
       0.0383370600921499 0.09833734030475161
000050 a7 d0 7c 24 d5 8f 72 bf ea 99 d7 1e 26 d8 a0 3f
       -0.004531700695043528 0.032899085297504474
000060 fd 8e 82 7c ef 18 d3 3f 30 d8 8e 6f 7c e9 ef 3e
       0.29839694174937376 1.5216853613480517e-05
000070 f6 99 5f 18 4e c2 0b bf 33 c4 16 39 1a 51 db 3f
       -5.294609859145601e-05 0.4268250997075171
000080 4d e1 66 26 a2 1b e7 3f 00 ad 2d cd e3 5b 0e bf
       0.7221232175861957 -5.79050917142946e-05
000090 c4 47 03 e5 c2 f0 23 bf a5 d7 08 06 6f 02 d3 3f
       -0.0001521337421822017 0.29702354039488404
0000a0 ea f9 bb e2 3e 2f 13 3f 2e f7 20 3d e6 bd 29 bf
       7.318326305136955e-05 -0.00019639430553469159
0000b0 6a 0a 0e 9a 24 0b 55 bf eb ff 94 4e 02 65 2e bf
       -0.0012843949736810697 -0.00023189213906427085
0000c0 6c 42 d0 66 c7 38 6b 3f 52 d3 54 70 a9 30 a0 3f
       0.0033229727328108385 0.03162126060707372
0000d0 00 00 00 00 00 00 00 00 00 00 00 00 00 00 00 00
       0.0 0.0
0000e0 00 00 00 00 00 00 00 00 00 00 00 00 00 00 00 00
       0.0 0.0
0000f0 00 00 00 00 00 00 00 00 00 00 00 00 00 00 00 00
       0.0 0.0

running_mean_std.running_var f8 [32]
000000 93 37 c2 44 28 c5 5a 3f 5a 6f 71 32 1d ed 46 3f
       0.0016339200256285421 0.0006996529163063412
000010 31 3f 73 55 f2 a6 64 3f 9d 14 40 0c 56 67 e0 3f
       0.002521012600119742 0.5126142730010944
000020 28 f1 3a 13 c7 4c 83 3f c8 e6 5e 63 d7 fb a3 3f
       0.009423785471306248 0.039030772094930166
000030 a5 9f d4 99 05 44 c2 3f de f9 09 d0 ea 54 01 40
       0.1427008629918848 2.1664634945911834
000040 19 5a 75 5a 76 12 02 40 13 1a cc d4 71 d7 00 40
       2.2590148036063167 2.10519758460874
000050 62 74 2c 3e 48 ae 85 40 95 01 95 d1 52 ed 77 40
       693.785274836828 382.8327194042734
000060 17 39 03 35 20 17 84 40 ca 7c 1d 0d d4 41 e9 3e
       642.8907261134908 1.2043543765548332e-05
000070 0d 3a fa 30 a6 72 f0 3e 57 e1 5e 3d fd ab f2 3e
       1.5685890558498175e-05 1.780684745941846e-05
000080 39 d7 22 9b b2 20 c3 3f 52 0b 7f 62 60 c6 44 3f
       0.14943535399441446 0.0006339998844783013
000090 a0 37 c6 64 73 1f 47 3f c7 73 10 e5 5f aa ce 3f
       0.0007056535192064735 0.2395744198301186
0000a0 1f 1a 5d 3c 57 11 81 3f b6 ca ba 08 30 fa 80 3f
       0.008333856134084048 0.008289695040138195
0000b0 8a ad 61 2d 3a eb 78 3f fe 36 15 97 e4 37 32 40
       0.00608370519158131 18.21833175914707
0000c0 22 77 d6 7c 87 93 32 40 e1 9c 00 76 a4 76 28 40
       18.576286127433498 12.231723487448507
0000d0 8b 5b 20 41 e1 7a 54 3e 8b 5b 20 41 e1 7a 54 3e
       1.9073485964326944e-08 1.9073485964326944e-08
0000e0 8b 5b 20 41 e1 7a 54 3e 8b 5b 20 41 e1 7a 54 3e
       1.9073485964326944e-08 1.9073485964326944e-08
0000f0 8b 5b 20 41 e1 7a 54 3e 8b 5b 20 41 e1 7a 54 3e
       1.9073485964326944e-08 1.9073485964326944e-08

running_mean_std.count f8 []
000000 00 00 00 08 00 00 89 41
       52428801.0

a2c_network.sigma f4 [12]
000000 25 3c dc be 8d 01 9d be c2 9e ca bf aa ff 9a be
       -0.43014637 -0.30665246 -1.5829699 -0.3027318
000010 8b 8b b0 be 47 c3 34 c0 31 26 9b be bd 3e 38 be
       -0.34481463 -2.8244188 -0.30302575 -0.17992683
000020 f1 0d 88 be 25 c7 9a be d7 bd ef be 89 f5 39 be
       -0.26573136 -0.3023006 -0.46824524 -0.1816007

a2c_network.actor_mlp.0.weight f4 [256, 32]
000000 8f b2 3e 3e 13 b8 e3 3d fb 73 a8 be 17 25 a0 3d
       0.18622802 0.11119094 -0.32900986 0.07819574
000010 9c d4 7e 3d b4 40 b0 3e 70 d2 23 3d 9a 10 bc 3d
       0.06221448 0.34424365 0.03999561 0.09182854
000020 30 4b 0a 3d 90 27 dc bd c1 55 85 bc fa 41 67 3c
       0.03376311 -0.107497334 -0.016276242 0.014114851
000030 4d 09 2a 3e ca fa 39 bd 0c a3 2d 3d dd 2c a0 3d
       0.1660511 -0.045405187 0.04239182 0.07821057
000040 53 e2 16 3d 64 fc 2a be e7 3d 85 be 89 8a af bc
       0.036836933 -0.16697842 -0.2602379 -0.021428363
000050 3f 10 0e be bb 8b ce 3d 14 de 82 3b 94 10 10 3e
       -0.13873385 0.10085245 0.003993759 0.14068824
000060 64 05 bd 3d 16 0e f6 3b cf aa 0d 3e e0 9d 00 be
       0.09229544 0.0075090034 0.1383469 -0.12560225
000070 c8 5c 36 3c 1f 1b f7 bd 4c 45 5f 3d 02 5c 79 bd
       0.011130519 -0.1206572 0.054509446 -0.06087876
000080 2f 35 11 3e 14 0d b7 3c 27 1e 6e 3e a6 d1 6d bd
       0.14180444 0.022345103 0.2325369 -0.058061264
000090 d3 65 17 be 23 e1 0f be 73 c6 44 3e 01 47 58 3d
       -0.14784937 -0.14050727 0.19216327 0.05280209
0000a0 d7 b2 8b 3e b7 cf 8f be 70 0c 83 be e9 97 c2 bc
       0.2728488 -0.2808816 -0.25595427 -0.023754077
0000b0 6f 40 4a be 1c 8a ea 3d b8 a0 be 3d 02 31 dd 3d
       -0.19751142 0.114521235 0.093079984 0.10800363
0000c0 68 e4 e0 bd cb 82 f5 bd 06 45 08 3e 0b 80 91 bd
       -0.10981065 -0.119878374 0.1330758 -0.071045004
0000d0 db f4 82 3d 1e d3 09 be 12 ac 4d 3e f8 18 8b bc
       0.06394359 -0.13459441 0.20085171 -0.01697968
0000e0 4f 38 01 bd 38 c8 9e bd 4e 13 19 3d 1f 9c 38 bd
       -0.03154784 -0.077530324 0.037371926 -0.045070764
0000f0 d9 cc d7 3d 02 1e f6 3d 39 45 03 be eb 47 c1 bd
       0.105371185 0.12017442 -0.12819375 -0.094375454
000100 f1 b1 c6 3d e5 e8 7b bd 93 bc d5 bd 98 8d ab be
       0.097019084 -0.061501402 -0.10436358 -0.33506465
000110 1e a7 97 be 73 ae 0e 3e c9 2a a5 bd cf 2f 8f be
       -0.29619688 0.13933735 -0.08064801 -0.27966163
000120 da 53 99 3d 32 96 36 be 23 2a 8f be f1 2d 35 be
       0.074866965 -0.17830732 -0.27961835 -0.17693307
000130 58 1e 02 be a3 00 96 bd 75 0a c4 3d c5 e1 b6 3d
       -0.12706888 -0.0732434 0.09572307 0.08929781
000140 22 4a 24 3c e1 d0 94 be 62 24 d3 bd 27 13 e2 bc
       0.01002744 -0.29065612 -0.10309674 -0.027597023
000150 95 b7 a8 bd 6e e1 0a be 27 93 4c be 84 d2 2b be
       -0.082381405 -0.13562557 -0.19978009 -0.16779524
000160 23 09 58 bd f4 4c 27 bd b4 b3 48 bc 02 54 f5 bd
       -0.05274309 -0.040844873 -0.012249876 -0.11978914
000170 68 80 f8 bd c9 36 d3 bd 8d d9 77 bd 07 e0 0e be
       -0.121338665 -0.10313184 -0.060510207 -0.13952647
000180 69 6f f5 3d ab 01 27 3d 61 a2 49 3e 4b c6 4a 3e
       0.119841404 0.040773075 0.19690849 0.19802205
000190 51 c1 8e be 29 a7 0d 3b 1b 5e 0a be ee 92 d4 bd
       -0.27881864 0.0021614528 -0.13512461 -0.10379587
0001a0 4b 92 30 be 64 f0 87 be 84 6d 1b 3d 58 48 9c bd
       -0.17243306 -0.2655059 0.03794624 -0.07630986
0001b0 b7 fb 39 3d e1 53 14 be 8e b9 c5 3d 0d af f6 bd
       0.04540607 -0.14485122 0.096545324 -0.12045107
0001c0 cb f8 c8 3c a1 71 f4 3c f7 2a ac 3d c4 72 9b 3d
       0.024532696 0.029839339 0.084066324 0.07590249
0001d0 4e db 54 3e cb f3 bf bd 86 c9 7a 3d 32 a1 0c be
       0.20786783 -0.09372672 0.061227344 -0.13733366
0001e0 99 01 9a bc c1 71 25 be 0e e2 24 3e f6 db 04 be
       -0.01879959 -0.16156675 0.16101858 -0.12974533
0001f0 f5 7d c1 3d 2e 78 7e 3d 11 4b 6b 3d 1e bc c3 bd
       0.094478525 0.06212633 0.057444636 -0.09557365
000200 71 d3 7c 3e 5f 7f 20 3e 9c 88 ce bd 30 d8 8a be
       0.24690033 0.15673588 -0.1008465 -0.27118063
000210 26 1d 10 3e 29 81 af bd 43 ab 03 be 31 d2 24 3e
       0.14073619 -0.08569557 -0.128583 0.16095807
000220 6c a9 43 3d 19 28 d8 bd 77 ec 79 be 2e ad 4f bc
       0.047768995 -0.10554523 -0.2440661 -0.012675567
000230 72 74 9c bc 95 18 3e bd 7c 80 c3 bd 5b 80 04 bd
       -0.019098494 -0.046410162 -0.09545991 -0.03234897
000240 42 72 5f bd 82 ba ff 3b 9c 91 47 3d b2 17 e7 bd
       -0.054552324 0.007804216 0.04872285 -0.112838164
000250 11 89 fc bc 96 4f 9c 3d eb 8f 07 bd 0a ea 0b bd
       -0.030827077 0.07632367 -0.033096235 -0.034158744
000260 b1 66 17 3d 78 32 86 bc 49 60 87 3d c6 78 fe bc
       0.03696317 -0.016381487 0.06610162 -0.031063449
000270 91 bc 3f bd c7 ec 9a 3c 8d d2 ff bc 9b c6 57 bd
       -0.04681069 0.018911732 -0.031228328 -0.05267964
000280 65 62 22 3e 30 07 2a 3e e8 37 8f be a9 a1 63 3d
       0.15857847 0.16604304 -0.2797234 0.055574093
000290 7a 67 c4 bd da 8a 94 bc eb a8 5c 3c 88 88 f5 3c
       -0.09590049 -0.018132616 0.013468008 0.02997233
0002a0 46 1b 7c be 51 bb b5 bd 36 d9 c1 3d 26 56 40 3e
       -0.24619779 -0.088736184 0.09465258 0.18782863
0002b0 c9 ca 8c bd f1 80 5d bd d1 14 e7 bd dc dc fd bd
       -0.06874616 -0.054078046 -0.11283267 -0.12395641
0002c0 c1 43 0d 3d 80 78 b5 3d 58 ef 5c 3d 8f e0 bd 3d
       0.034488443 0.08860874 0.053939193 0.09271347
0002d0 04 0e b7 be 56 fc db bd 2c 0d 48 be 81 69 80 3e
       -0.3575288 -0.10741489 -0.19536275 0.25080493
0002e0 83 56 4d bd 11 ab 77 be ea c7 95 3d d3 e4 89 bd
       -0.050131332 -0.2418635 0.07313521 -0.06733098
0002f0 e2 54 ea bd ab 1f 04 3e a0 9e a4 bd 47 27 11 bd
       -0.11441971 0.12902705 -0.08038068 -0.03543785
000300 00 e0 61 be 21 be 32 3e 40 14 da 3d 87 26 eb 3d
       -0.22058105 0.17455341 0.10648394 0.11481958
000310 82 12 39 be 32 96 92 be d6 55 30 be c9 3f 9d 3e
       -0.18073466 -0.28630215 -0.17220244 0.30712727
000320 19 b2 29 bb 11 cd 18 3e 5d 4c a2 3d 82 b9 05 bd
       -0.0025893508 0.14921977 0.079247214 -0.032647617
000330 f1 da a9 bc 57 7e 72 be 5c 2a 07 be c0 26 60 bd
       -0.020734282 -0.23681007 -0.13199753 -0.054724455
000340 1b f3 5a 3d 60 75 cc bd ed 5c 02 be 6c e8 85 bd
       0.0534545 -0.09983325 -0.12730761 -0.065384716
000350 4c 2e 95 bd 88 0b 84 bd 7a 67 8f be ce d0 50 3d
       -0.07284221 -0.06447512 -0.28008634 0.05098038
000360 8f 1b 0c be fe 32 d8 3d 55 4a 68 bd 34 ca 04 be
       -0.13682388 0.10556601 -0.056711514 -0.1296776
000370 c7 82 ff bc 4f 7f af bd 7e 86 5d bd 61 54 2c be
       -0.03119029 -0.08569204 -0.05408334 -0.16829063
000380 4c 9e 99 3d 76 9f 06 be 5c 82 10 3e 2d f9 ef 3c
       0.07500896 -0.13146767 0.14112228 0.029293621
000390 6a 08 18 3e 81 33 f1 bd 89 eb 28 3e 25 32 51 bd
       0.1484696 -0.11777402 0.164961 -0.051073212
0003a0 53 82 4a 3e d7 58 3c 3e 9a 90 a2 bd 60 c7 10 be
       0.19776277 0.18393265 -0.07937737 -0.14138556
0003b0 76 2b 72 bd 21 97 2e be 40 78 b5 3d 95 cb 88 be
       -0.05912348 -0.17049839 0.088608265 -0.2671782
0003c0 5a 73 bc 3d 40 ef 60 3e fc 9a 2c 3e 27 52 eb 3c
       0.09201689 0.21966267 0.16855997 0.028725697
0003d0 ef 0b 0a be 44 28 52 3d bf ee 79 3d d5 65 87 be
       -0.13481115 0.05130793 0.0610187 -0.2644488
0003e0 6b 5c 02 bd 75 e7 8e be 71 52 7d bc 48 33 b2 bd
       -0.031826418 -0.27910963 -0.01546155 -0.08701187
0003f0 5b fd 93 bd 62 dd 65 bd fe 05 2c be 19 87 14 3e
       -0.07226058 -0.05611933 -0.16799161 0.1450466

a2c_network.actor_mlp.0.bias f4 [256]
000000 bd 66 49 bc 4b 5b 61 3e 44 4a 76 3d 89 d3 2b be
       -0.012292561 0.22007482 0.06012942 -0.16779913
000010 ee 0a 35 bd b1 f2 68 3d 9f b1 95 bd 94 bb 49 be
       -0.044199876 0.056872074 -0.07309269 -0.19700462
000020 b3 08 ad 3b 90 3b 88 bd d5 7b f3 bd 33 60 01 bd
       0.005280578 -0.06651986 -0.118888535 -0.031585883
000030 57 85 5b 3d b2 50 a4 bd d8 76 d8 bd 38 c6 4e be
       0.05359396 -0.08023204 -0.10569543 -0.20192802
000040 04 da 0c 3d 8f 20 56 bc eb 41 47 bd 49 9d fd 3d
       0.034387603 -0.013069286 -0.04864685 0.123835154
000050 c5 79 8d bc ec 96 fd bd 45 1d 20 3c 55 c2 4c 3e
       -0.017269978 -0.12382302 0.009772603 0.19996007
000060 08 f1 55 3e f2 e3 86 3d ec aa fd bd fb 96 6c be
       0.20892727 0.06586446 -0.123861164 -0.2310447
000070 51 11 71 be 3e f8 c5 bd a5 50 0c be 27 9f 93 bb
       -0.23541762 -0.09666489 -0.13702638 -0.0045050564
000080 74 15 de bd 45 2f c4 bd 44 1f 98 be d7 2a 3b 3e
       -0.108439356 -0.095793284 -0.29711354 0.18278061
000090 bf 84 ca 3d 6a fe 23 3e d0 41 89 3c 25 11 95 be
       0.098886006 0.1601502 0.016755015 -0.29114643
0000a0 f6 51 24 bc 7c 7e 9a 3c fc 68 67 3d 6a a8 e0 bc
       -0.010029307 0.01885914 0.056496605 -0.027424056
0000b0 6b 51 2c be 91 02 44 bd 19 ae 11 3e 4d 95 d5 3d
       -0.16827933 -0.04785401 0.14226569 0.104288675
0000c0 94 04 51 3e 8b ac ef bc 8a 10 27 bc 10 c1 69 bd
       0.20411903 -0.02925708 -0.010196814 -0.057068884
0000d0 13 7c 36 be 26 9a 89 3e 11 ad 00 bc 23 13 3a 3e
       -0.17820768 0.26875418 -0.007853762 0.18171363
0000e0 fa f9 07 be ea c0 eb bd 2c 78 46 3e 28 9d ab 3e
       -0.13278952 -0.11511405 0.1938178 0.33518338
0000f0 6d 1a e0 3c fe 46 b4 3c 5c b8 d3 3d e6 97 8c bd
       0.02735635 0.022006508 0.10337898 -0.0686491
000100 bc 40 35 3e c7 c8 af be 14 12 46 bd c1 1e c0 3d
       0.17700475 -0.34332868 -0.048357084 0.09380866
000110 f0 21 cf bc a7 39 37 3e e3 e0 7c be 65 24 6e bd
       -0.025284737 0.17893086 -0.24695162 -0.058140177
000120 20 0b 9f 3e 6a 93 7c 3d 11 12 1b 3e f6 b7 d4 3d
       0.31063175 0.061664023 0.1514361 0.1038665
000130 fd 9e 15 3e 1f 8c 10 3e 31 f9 83 3e 8f ad 70 bd
       0.1461143 0.14115952 0.25776055 -0.05875927
000140 d8 03 39 be 2b 3f 01 3e ca 55 08 3e a0 44 d4 bc
       -0.18067873 0.12621753 0.13313976 -0.02591163
000150 57 8d a7 3d 54 48 ef 3d 45 43 0a 3e cc 23 e7 ba
       0.08181255 0.11683717 0.13502224 -0.001763457
000160 86 e2 3f bd de 70 9e 3d 69 86 33 3e b6 1a 3d bc
       -0.04684689 0.077363715 0.17531742 -0.011542013
000170 b2 9a b6 bd a1 98 e8 bc cd 80 8f 3e 7e d6 01 3e
       -0.089162245 -0.028393092 0.28027955 0.12679479
000180 41 6a 77 3c 76 9a de 3d 3a 03 d1 3d 7d 65 80 3d
       0.0151010165 0.10869305 0.102056935 0.06269357
000190 dd 63 44 3d 35 3f a1 bd f8 f2 e9 bd bd b1 e6 bd
       0.0479468 -0.07873384 -0.11423296 -0.1126437
0001a0 7f 48 ad bd 78 13 13 3e df 7f 97 bd 8a d8 ac be
       -0.08461093 0.14362895 -0.07397436 -0.33758956
0001b0 e0 86 85 3e 42 9d ca bd 78 1b 59 bd 02 24 df bc
       0.26079464 -0.09893276 -0.053004712 -0.02723885
0001c0 3c bd 94 bd a8 d6 3e be cf bc fc 3d 94 b7 a1 be
       -0.07262656 -0.18636572 0.123407 -0.31585371
0001d0 68 e3 62 3e 7d 96 2a 3e 49 d9 0d 3e 4d 7b 8d 3e
       0.22157061 0.16658969 0.13852419 0.27633134
0001e0 4a dd 43 be 35 82 f1 bd b1 e5 15 bd 0c ee 22 37
       -0.19127384 -0.11792413 -0.036596004 9.711377e-06
0001f0 29 1e f8 bd 15 8d 56 3e ea 2a 46 3e e7 ac 40 3d
       -0.121151276 0.20952256 0.19352308 0.047039893
000200 5e 91 b1 bd cb 2d 00 3d 2e e7 69 3e 2b 1d 14 3d
       -0.08670305 0.03129367 0.22842094 0.03616063
000210 d1 d6 e2 3d 71 60 70 bd 5d 46 c0 bd 67 f2 f7 bd
       0.11076129 -0.058685724 -0.09388421 -0.121067815
000220 01 d4 22 be fd 84 6b 3e 87 98 ce 3d 7e 0a 8f 3c
       -0.15901186 0.2299995 0.10087686 0.017461058
000230 52 08 f6 3d 77 82 e2 3d 33 0b 79 be f3 19 9b be
       0.12013306 0.110600404 -0.24320678 -0.30293235
000240 2e 03 ce 3d 8f 33 ee 3d af 08 62 3e 22 50 21 be
       0.100592 0.11630928 0.22073625 -0.15753224
000250 d1 64 7e be 9c 88 d7 bc 3d 7a 83 bd c0 e6 2e 3d
       -0.24843146 -0.026310258 -0.064197995 0.04270053
000260 5e ff 5b 3e 40 45 68 3e 9e d3 43 bd f5 c7 b8 bd
       0.21484134 0.22682667 -0.047809236 -0.09022514
000270 ed fb 56 3d 57 72 25 be 39 0e 39 3e 7a c4 cb 3d
       0.05248635 -0.16156898 0.18071832 0.09949584
000280 f7 b2 e2 bd de 64 ba 3d 57 91 ef 3d 85 b7 44 be
       -0.11069291 0.0910127 0.11697643 -0.19210632
000290 02 f9 62 be 84 79 71 bd 40 56 67 be ac d3 62 be
       -0.22165301 -0.058953777 -0.22591496 -0.22151059
0002a0 c8 1c 0e bd 7a a3 5f 3c 98 bf ab bd 7c c6 c8 3d
       -0.034695417 0.013649816 -0.08386153 0.09803483
0002b0 05 cb 2c be a6 7e 40 3e 31 ce eb 3d 0c 28 4d 3e
       -0.16874321 0.18798313 0.11513937 0.20034808
0002c0 4c 9d f4 3d e7 1f 0e 3e 10 98 8d bd 86 b8 9b bd
       0.119440645 0.13879357 -0.06913769 -0.076035544
0002d0 60 4f 52 3e 6d eb 2f be 9e f3 59 3e 5f 94 33 3d
       0.20538092 -0.17179652 0.21284339 0.04384267
0002e0 da 7d d8 bd 4b 9c 0a 3e 77 51 db bd 9f 82 60 3e
       -0.10570879 0.13536184 -0.107088976 0.21924828
0002f0 b1 c0 35 bd b7 52 4d 3b 6b 4a c3 bd 71 ba cb bd
       -0.044373218 0.003132982 -0.095356785 -0.0994767
000300 29 60 ed 3d 0d c6 7b 3d 90 e9 82 bd 4e 79 4b 3d
       0.11590607 0.061468173 -0.06392205 0.049676232
000310 02 46 27 3e 8a 1f f8 bb 6c 81 c2 3d 60 b5 85 be
       0.163353 -0.007572119 0.094973415 -0.2611494
000320 0a e3 90 3d 3a cf 94 be 65 14 13 be d8 8e 3d 3e
       0.07074554 -0.2906435 -0.14363249 0.18511522
000330 8b 80 28 3e d8 6b c3 bd 38 87 85 bd dc d1 ef 3d
       0.16455285 -0.09542054 -0.065199316 0.117099494
000340 5f ce f2 bd 71 cf 16 3e 07 57 ff ba 6d 7b 54 3e
       -0.118557684 0.1472757 -0.0019480892 0.20750208
000350 6b 4f 09 3e 8c 84 1d be ab 63 86 3d 1f e7 b7 3c
       0.13409202 -0.15382594 0.06561979 0.022449074
000360 50 8d 9d bd d3 b3 4a 3d ea 23 61 bd 47 b7 87 bc
       -0.07692969 0.0494879 -0.05496589 -0.016566886
000370 3f 4a 2a be bb db 3c 3c e6 1f 12 be 33 da b4 bd
       -0.16629885 0.011526997 -0.14269981 -0.08830681
000380 99 e0 90 bd 8f 54 70 bd c3 45 05 3d 8e 5a 19 bd
       -0.070740886 -0.05867439 0.032537233 -0.037439875
000390 b7 50 dd bd 77 e5 05 3d 78 3c 41 be 6f dd e7 3d
       -0.10806411 0.032689538 -0.18870723 0.11321532
0003a0 ae a9 96 3c 73 5c 1d be bf 44 43 3e 57 d4 48 bd
       0.018391456 -0.15367298 0.19069193 -0.049030628
0003b0 8c 12 a4 bc 48 9b dd 3d 60 c8 f6 3d f2 c1 53 bd
       -0.020028375 0.10820633 0.12049937 -0.051698633
0003c0 5c bc 0e be 7e c7 ac bd df 55 59 3e c3 8f be bd
       -0.13939041 -0.084364876 0.21224163 -0.09304764
0003d0 c6 69 ab 3a df 2c 0a 3e a9 21 9b 3e 53 85 80 bd
       0.0013077788 0.1349368 0.30299118 -0.062754296
0003e0 93 f3 42 3e ca 4b 47 3d 89 5b f5 bd 2b 43 fe 3c
       0.19038229 0.048656262 -0.119803496 0.031037888
0003f0 1b c6 ac bd d4 e2 9c bd cb 98 e8 3d db 70 ab bc
       -0.08436223 -0.076604515 0.11357268 -0.020927837

a2c_network.actor_mlp.2.weight f4 [128, 256]
000000 fb 14 42 be 55 5a 0b 3e 37 df 43 bd b3 19 e5 bd
       -0.18953316 0.13608678 -0.047820296 -0.11186542
000010 1e d5 15 bd 4f 42 44 be bc 4c 33 be b1 89 6b 3d
       -0.036580198 -0.1916592 -0.1750974 0.05750436
000020 a2 a7 30 3c 7d 44 9a 3c c7 d0 3b be ff 31 75 3b
       0.010782154 0.018831486 -0.18341361 0.0037413833
000030 e2 df 1f be 5f 14 67 bd 0d b3 b2 bd c1 21 cb bd
       -0.15612748 -0.05641591 -0.087255575 -0.099185474
000040 ef d6 56 3d 8d 60 bd bd ca d4 c3 bd 0f 56 7a 3d
       0.05245107 -0.09246931 -0.09562071 0.061117228
000050 6a 9f 16 be 43 ef 67 3c a4 76 22 3d 29 73 af bb
       -0.14709249 0.0141561655 0.039663926 -0.0053543043
000060 46 89 79 bb e1 38 13 3d e5 42 0b bd c7 02 26 3d
       -0.0038076206 0.035942916 -0.033999342 0.040529992
000070 ac 21 4e 3d c2 bd a6 bb 78 ea 11 3d 51 e2 bc bc
       0.05032508 -0.005088539 0.035623997 -0.023057135
000080 64 91 e6 ba 01 f3 9c bc 37 40 22 3c a6 06 75 be
       -0.0017590937 -0.019158842 0.009903005 -0.23928317
000090 58 8a 33 3d 14 65 4d 3d e0 61 70 bd 2f 98 a0 3d
       0.043833107 0.050145224 -0.05868709 0.07841527
0000a0 46 89 04 bd c9 91 b2 bc 5b dc e4 bc a3 77 1a be
       -0.032357477 -0.021798031 -0.027937105 -0.150847
0000b0 fb 28 82 3d 7b f6 48 be 9b e5 f2 bd 62 18 d3 bd
       0.06355473 -0.19625275 -0.118602 -0.10307385
0000c0 f0 65 fa 3c 45 be 51 bc cc 4c 00 3c e7 45 63 be
       0.030566186 -0.012801711 0.00783081 -0.22194634
0000d0 bc 79 4e bc 1a 96 09 be 62 4e be 3b ac c8 d2 3d
       -0.012602266 -0.13436165 0.005807684 0.102921814
0000e0 74 b1 41 bc 9b 5d 4b be 9a 36 b4 3d 05 02 9d bd
       -0.011822093 -0.19859926 0.08799477 -0.07666401
0000f0 8e 9c 02 be f4 31 41 be e0 59 5c bd d3 c0 02 be
       -0.12755033 -0.18866712 -0.05379665 -0.12768869
000100 dd 5a 5a 3b dd 60 45 bd c0 11 0f bd 30 9e f8 bd
       0.003331832 -0.04818808 -0.034929037 -0.12139547
000110 62 4a 6d be 53 7d 23 3d ea f8 b6 bd 26 82 56 bd
       -0.23172906 0.03991444 -0.08934195 -0.052370213
000120 3b 84 6a bd fd a8 a3 bd 8b b0 6a bd 07 26 49 bb
       -0.05725501 -0.07991216 -0.05729727 -0.0030692832
000130 f2 e1 11 bd 09 8d 8f 3d 1e 2c 6a 3d fe 28 70 3d
       -0.03561587 0.07009322 0.05717098 0.058632843
000140 14 bd fc 3c fd e8 c2 3c 7d 98 91 bc ab 55 d6 3d
       0.030851878 0.023792738 -0.017772907 0.104655586
000150 3f 01 f5 3d d8 65 39 3d c3 4e ca bd 00 14 47 be
       0.11963128 0.04526314 -0.09878304 -0.19441223
000160 a8 cf 3b be aa 64 76 3c 8d 95 bf bd 78 fe cf b7
       -0.18340933 0.015038649 -0.093546964 -2.479482e-05
000170 91 a6 0e be 8e 32 01 be 2c a3 c2 bd c0 10 01 3e
       -0.13930728 -0.12616941 -0.09503779 0.12604046
000180 39 ec 35 be 3c f2 34 3c 43 2a eb bc a0 a6 10 3d
       -0.17765893 0.011044081 -0.028706675 0.035315156
000190 93 b6 06 be f2 49 0a bd 3d 3a 3a bd 5a ff bc bb
       -0.13155584 -0.033761926 -0.045465697 -0.005767745
0001a0 24 f1 5b ba 8e ee 34 3c 3e 09 08 bb 11 54 a7 3d
       -0.000839012 0.011043204 -0.0020757462 0.08170331
0001b0 e2 9a 50 3d 0d de c1 bd 20 28 d4 bd fd 89 1d 3b
       0.050928958 -0.09466181 -0.10359216 0.0024038546
0001c0 b4 3c 08 ba 37 e9 93 3d fa e0 73 3d fb ec 06 3d
       -0.0005197034 0.072222166 0.059540726 0.032940846
0001d0 58 14 92 3d 23 e1 8a bc ad 61 95 bd 6f b0 26 3d
       0.071327865 -0.016953057 -0.07294021 0.040695604
0001e0 f6 20 66 bb d2 d9 b6 bd 94 ae 9d 3d 9b 66 a0 bd
       -0.003511486 -0.08928265 0.07699314 -0.078320704
0001f0 d6 e2 03 be e8 a4 af bd 8d 1a dd bd a4 ce 61 3c
       -0.128795 -0.08576375 -0.1079608 0.013782177
000200 d6 46 a2 bd 1b 02 8a 3d 5b f7 9d bc ed 2f e7 3c
       -0.07923667 0.06738683 -0.019282987 0.028221095
000210 73 e2 6c be 88 a1 06 be af e9 e8 ba 93 ae 49 3c
       -0.23133259 -0.13147557 -0.0017769838 0.012309688
000220 44 d6 7b bd 1c e6 37 be be b4 d4 bd 3d 71 7f 3d
       -0.061483636 -0.17958874 -0.10386036 0.06236385
000230 4f eb 1c bd 2d f3 f1 3d f0 a4 f0 3d 7f ca ce 3a
       -0.038310345 0.1181396 0.11750209 0.0015776901
000240 7f 13 96 3d e5 f3 97 bd 61 c9 07 bc ec 2b a7 3d
       0.07327937 -0.07419566 -0.008287759 0.08162674
000250 b2 8e 09 bc f0 31 3f bd 34 2b 88 3c 92 a7 db 3c
       -0.008395838 -0.046678483 0.016622163 0.026813302
000260 4c 1e a5 3c 31 d3 b5 bd 4f b2 15 be 61 c1 1f be
       0.020156048 -0.08878172 -0.146188 -0.15601112
000270 c7 c3 e7 bc af 15 fb bd 5c be 59 bd 77 c4 41 be
       -0.028291596 -0.12259995 -0.053160056 -0.18922602
000280 ae 09 4e bd 59 24 a6 bd ab 65 2c bd f7 a8 5a bb
       -0.0503022 -0.081124015 -0.042089146 -0.003336487
000290 62 f5 fc bd ec 18 1c bd 8e 81 c1 3c c6 fa bc bd
       -0.123514906 -0.038109705 0.023621347 -0.09227519
0002a0 c1 72 51 3a 74 3e 7e bd 6a 0f 7a bd de c6 f7 bd
       0.0007989817 -0.06207128 -0.061049856 -0.12098478
0002b0 47 88 1f 3d 9c 36 b4 bc 14 9f 0e be 3d f2 f3 bd
       0.038948324 -0.021998696 -0.13927871 -0.11911438
0002c0 53 ec 97 bd 03 b4 fe bc 77 c8 0c be 6b 34 7d bd
       -0.07418122 -0.031091696 -0.13748346 -0.061817568
0002d0 5c a8 e4 3d fb fb 1e bd f5 05 12 bd 6d 1a 49 bd
       0.111649245 -0.038814526 -0.035650212 -0.049097467
0002e0 31 69 bc bd 57 0a 62 bc 24 01 1c 3d de 35 df bd
       -0.09199751 -0.0137964105 0.038087025 -0.10898946
0002f0 6b 43 1a bd 25 ef 1e bb c1 c7 95 3d 87 bc c5 bd
       -0.03766195 -0.0024251428 0.07313491 -0.09655099
000300 75 c9 46 bd 2d 21 79 bd 8b c2 94 bd ef 39 c6 3c
       -0.04853197 -0.060822655 -0.072636686 0.024197547
000310 e7 02 03 be 11 a7 11 3d 06 6b 1f be 87 1d 3d 3d
       -0.12794076 0.035559718 -0.1556817 0.046170738
000320 b0 1c e8 bd 14 a0 49 3d 4f bb 6a bd 19 83 cb bd
       -0.11333597 0.049224928 -0.057307538 -0.09937114
000330 83 7f 2d 3d bd 56 e2 3d 70 0a 21 bd 68 b9 eb bd
       0.042357933 0.110517 -0.039316595 -0.11509973
000340 99 43 36 3c c9 fd 53 3c 3c ee 1f be 7c c2 c7 bd
       0.011124515 0.012938925 -0.15618223 -0.09753892
000350 0a b7 92 bc ae 1a 3c bb ef 64 24 bd 5e 87 0b bd
       -0.017909545 -0.0028702426 -0.04013532 -0.034064643
000360 9a b3 77 3c d3 08 fb bd e7 78 37 be 50 d8 0a bd
       0.015118504 -0.122575425 -0.17917214 -0.033897698
000370 7a 7c e8 3d de 70 e7 bd cd f1 88 bd 4e a6 c2 bd
       0.11351867 -0.113008246 -0.06686745 -0.09504376
000380 da f4 24 be 67 d0 9a bd 00 57 c4 bd d4 5e 84 bd
       -0.16109028 -0.07559281 -0.095869064 -0.064633995
000390 4c 81 14 be 9a 88 61 be 7e e4 f1 3d 78 85 80 bd
       -0.14502448 -0.22024766 0.118111596 -0.06275457
0003a0 65 8b 2d bd 4e db 05 bd 3a 5d aa bd e6 8b e2 bc
       -0.042369265 -0.03267985 -0.08318563 -0.0276546
0003b0 83 fd 4f 3d e1 08 c3 bd 11 e2 9a bd c3 a9 10 bd
       0.050778877 -0.09523178 -0.0756265 -0.035318147
0003c0 89 89 83 bd f2 79 38 bd 1b 20 48 bd 12 ab 34 3d
       -0.06422717 -0.04503817 -0.048858743 0.044108458
0003d0 d7 86 7f bd df 7d 08 be 7a 00 90 3c 98 d8 df bc
       -0.062384453 -0.13329266 0.017578352 -0.02732496
0003e0 0d ec 3b be ec 34 f8 bd 3d 19 b4 bc b4 18 39 be
       -0.18351765 -0.12119469 -0.02198469 -0.1807583
0003f0 b9 3d 45 bd d0 14 41 be 4a c6 14 be 2c f6 dd bd
       -0.048154566 -0.18855596 -0.14528766 -0.10837969

a2c_network.actor_mlp.2.bias f4 [128]
000000 cc 24 23 3d e0 97 4c 3d 1f 47 21 3e 48 01 0b 3d
       0.039830014 0.049949527 0.15749787 0.03393677
000010 8e 38 3c 3e 7b a0 07 be f7 a6 c1 bd 49 04 1b be
       0.18380949 -0.13244812 -0.09455674 -0.15138353
000020 54 33 51 be 4b 36 8b 3d ec f4 a7 be d2 2f 1f 3e
       -0.20429736 0.06797465 -0.32804048 0.15545586
000030 94 e2 d1 bd a3 ff 84 be d2 d8 08 be aa c0 b0 bd
       -0.102482945 -0.25976285 -0.1336396 -0.08630498
000040 b2 69 09 bc 1d 0c b8 3c b9 2c 47 3c 92 ff 50 be
       -0.008387016 0.022466714 0.012156659 -0.20409992
000050 22 3e bd 3d 46 46 15 3d d6 62 17 be be 68 90 3e
       0.092403665 0.03644397 -0.14783797 0.28204912
000060 d7 b6 07 be 12 5a 8e bc e6 61 0e be 5b 38 a2 be
       -0.13253342 -0.017376933 -0.13904533 -0.3168362
000070 02 9b dd bd b7 96 9c 3d 6d 1e f2 3c 4a 09 c2 be
       -0.10820581 0.07645934 0.029555524 -0.37897712
000080 f5 d3 05 be 94 3b 94 be 6d 4d ac be 71 cb 29 3e
       -0.13069136 -0.28951705 -0.3365282 0.16581513
000090 31 10 83 be 59 73 d4 be 82 5a 9f bd e1 e6 9b be
       -0.2559829 -0.41494253 -0.07780935 -0.30449584
0000a0 17 9e 09 3e ff 9b c3 bc 32 d1 da 3c 21 c7 82 be
       0.13439213 -0.023878096 0.02671108 -0.25542548
0000b0 18 cb 15 3c ec 24 29 3d ed d3 30 be 92 f8 86 3d
       0.00914266 0.041294977 -0.17268343 0.0659038
0000c0 a9 42 ca bd b5 cb 8c 3d 70 f4 60 be 2b 6c 1e 3d
       -0.09875996 0.068747915 -0.21968246 0.038677376
0000d0 af 0a 79 3d e8 97 55 3c 1e ca 30 3e c4 6d 14 bc
       0.060801204 0.013036706 0.17264602 -0.009059373
0000e0 ec a8 a4 bd 8a b4 25 bd 43 aa c8 bd 34 32 be bd
       -0.08040032 -0.04045538 -0.097981 -0.09286919
0000f0 7f bb 03 3e 7e 7a a4 3b 89 4b 31 be f5 f2 10 3e
       0.12864493 0.005019485 -0.1731397 0.14155181
000100 ae 21 81 bc ce 44 f1 3d 83 c7 bc 3c 0d 11 97 be
       -0.01576313 0.117807016 0.023044353 -0.29505196
000110 da 9e 8c 3d 9d bf 14 be f5 9f 07 3e a0 24 63 bd
       0.06866236 -0.1452622 0.13244613 -0.05545485
000120 5b 91 81 be 4a 41 97 be da 7f 31 bd b3 f2 cb bb
       -0.2530621 -0.29542 -0.04333482 -0.0062240004
000130 f5 17 37 be d1 ad 42 be b1 f1 6f bb 01 1a 9c bd
       -0.17880233 -0.19011618 -0.0036612565 -0.07622147
000140 ff d4 ba be 17 79 e0 bd 7f b7 09 3e 0f 96 6b 3d
       -0.36490628 -0.10960596 0.13448904 0.057516154
000150 ae cc 93 be bc 00 84 be e8 65 46 be bc 0a 3f be
       -0.28867096 -0.2578181 -0.19374812 -0.18656439
000160 07 bd e1 bd 39 aa 8b bd b5 62 4f be 96 61 6b bb
       -0.11022382 -0.06819577 -0.20252497 -0.003591632
000170 65 82 a8 bd 1e 9f 6f bd 48 5a 86 be bc ae 7b 3e
       -0.08227996 -0.058501355 -0.26240754 0.24578375
000180 7b 6b 78 bd ce 0a c3 3c a2 47 b7 bd 4b 5f 05 3d
       -0.060649376 0.023808863 -0.0894921 0.03256158
000190 be 8c 40 be e3 c0 12 be a5 28 bb 3d c1 47 fd 3b
       -0.18803689 -0.14331393 0.09138612 0.007729501
0001a0 72 68 17 bd 72 ed 1d be 4a 89 a4 ba c2 f0 5c 3d
       -0.03696484 -0.1542261 -0.0012553122 0.053940542
0001b0 a9 28 04 be ba 9f 0b be 7c d3 55 3e a5 f6 83 3d
       -0.12906136 -0.1363515 0.20881456 0.06443528
0001c0 0b cf 51 bd 52 ac ab bc 50 e4 91 3d c2 70 82 be
       -0.051222842 -0.020956192 0.07123625 -0.25476652
0001d0 0f 26 e9 bd 50 4e 95 be ad 87 03 3e 12 50 b7 bd
       -0.11384212 -0.2916131 0.12844725 -0.08950819
0001e0 9a 5f 8a be 91 5d 12 be 23 df 62 bd 2c 1c 72 3d
       -0.27026063 -0.14293505 -0.05538858 0.059108898
0001f0 67 db 3d be 52 3d 74 3d df 85 17 be db 35 de 3d
       -0.18540727 0.059628792 -0.14797162 0.10850116

a2c_network.actor_mlp.4.weight f4 [64, 128]
000000 19 c3 23 bd b4 54 bb bd d3 18 c7 3c ad d5 bf bd
       -0.03998098 -0.09147015 0.02430383 -0.09366927
000010 82 86 a6 be 09 b7 fa 3d b4 4c 71 3d cf a3 ea bc
       -0.32524496 0.122419424 0.05891104 -0.028642563
000020 71 72 a9 3d f3 57 8a 3d da 7c 8f 3d ac a3 3b 3d
       0.08273781 0.06755056 0.070062354 0.045810387
000030 b0 06 e1 bd d2 f3 7f bd 55 64 22 3d 17 10 5c 3d
       -0.10987604 -0.062488385 0.039646465 0.053726282
000040 1c 11 ed 3d f5 31 50 bd a3 58 c6 3d 55 ba a3 bd
       0.11575529 -0.050828893 0.09684875 -0.079945244
000050 03 b9 3d be ee 33 92 bd 65 ee 6e bd a0 f4 1f 3d
       -0.18527608 -0.07138811 -0.05833282 0.039051652
000060 e4 3b 9f 3d 5f 61 40 bc a5 a4 54 bd d9 3b a5 3d
       0.07775095 -0.011741965 -0.05191483 0.08068056
000070 9d 8e 4d bd 4a 40 dc bd b8 48 a3 bd 1d ff 1a 3d
       -0.050184835 -0.1075445 -0.079728544 0.03784095
000080 89 92 71 3a ff 26 82 3c 02 d6 50 bd ab 9f 7d bd
       0.0009215256 0.015887735 -0.050985344 -0.06191985
000090 ef 7a 98 bc 27 6b 21 3b 94 f3 2c 3d a1 0f b7 3d
       -0.018613307 0.0024630518 0.04222448 0.08938528
0000a0 c1 ac b3 3d b5 d2 87 3d 04 53 25 bc e7 16 0f 3d
       0.087731846 0.06631986 -0.010090593 0.03493395
0000b0 02 e0 ec bd 45 f8 b5 3d d7 52 b2 bd 2c bd d4 bd
       -0.115661636 0.08885244 -0.08707207 -0.10387644
0000c0 c9 0c e0 3d 86 29 92 bd b1 b9 22 bd 19 42 56 be
       0.109399386 -0.07136826 -0.03972787 -0.20923652
0000d0 df 6a 3e 3d 77 65 56 3d 2d 7a 27 be 11 42 50 be
       0.04648864 0.05234286 -0.163552 -0.20337702
0000e0 6c d1 26 3e 02 b1 25 3e 3a bf 45 3e 16 64 17 3e
       0.16290826 0.16180804 0.19311228 0.14784274
0000f0 b7 ad ce 3d bb a1 55 3d 9a 21 d6 bc 36 9b 8f 3d
       0.10091727 0.05215619 -0.02613907 0.07012026
000100 f8 0e 42 bd 49 85 1f be 4a 46 8b bc a3 2e e2 3d
       -0.047377557 -0.15578188 -0.01700129 0.110440515
000110 6a 79 01 be 67 4d 97 bc 79 37 87 bd 80 6c a2 bd
       -0.12643972 -0.018469526 -0.066023774 -0.07930851
000120 e1 64 d1 3d 95 d2 6a 3d 70 a3 33 bd 7f 91 5d bd
       0.10224319 0.057329733 -0.043857038 -0.054093834
000130 94 c1 75 3d 14 91 c8 3d 53 1c 9a bc 0e 39 45 bc
       0.059999064 0.097932965 -0.018812334 -0.012037529
000140 49 56 91 bc 97 bf 1a 3d 94 60 ba 3a 9d 5a a8 bd
       -0.01774134 0.03778037 0.0014219456 -0.08220408
000150 b3 fb 5b 3d 28 c0 5e bb c2 7c d7 bd 7e db 17 bc
       0.053706836 -0.0033989046 -0.105218425 -0.00926864
000160 21 0d 9a 3d c9 fd fe 3d ca 31 01 3d 73 31 5d bd
       0.075220354 0.124507494 0.031541623 -0.054002237
000170 f9 f5 43 3d fb fd 83 3d 43 97 2e 3d 9f 9f 5c 3d
       0.047842 0.06444927 0.042624723 0.053863164
000180 0a 23 35 3e e6 8a bc 3d dd ad 92 bd 12 bc 1b be
       0.17689148 0.0920618 -0.07162068 -0.15208462
000190 58 90 b0 3d 62 63 70 3d 39 36 13 bd 81 ee 12 3e
       0.086212814 0.05868853 -0.035940383 0.14348795
0001a0 0b a0 fa bd 8f 97 ff 3d 5d a1 40 bb 18 72 01 3e
       -0.12237557 0.124800794 -0.0029393055 0.1264118
0001b0 38 cf f9 3d e9 73 ad 3b b2 12 4a 3d 7f 18 3d 3d
       0.12197727 0.0052933586 0.049334235 0.04616594
0001c0 f0 5d 32 3e b9 eb 9a bb c9 f8 68 bd 2c 61 c2 39
       0.17418647 -0.0047278074 -0.056877885 0.00037074962
0001d0 3e bf 03 3e 56 02 14 3c 00 4c da bd 03 af 02 bd
       0.12865922 0.00903376 -0.10659027 -0.031905185
0001e0 b5 b2 83 3c 7b dd 20 bd 0e e8 c0 3d 93 9c 11 be
       0.016076425 -0.03927372 0.09419261 -0.14219885
0001f0 9b ca 35 bd d6 cc 7c bd de 11 97 bd 48 a2 a5 3d
       -0.044382673 -0.061718784 -0.07376455 0.08087593
000200 c8 31 5b 3c 18 aa 64 bd c9 60 2a bd ba df b5 3d
       0.013378568 -0.055826277 -0.041596208 0.08880563
000210 cf c3 ec bd e0 7b 54 be d4 98 9c 3c 91 1f 68 3c
       -0.11560785 -0.2075038 0.019115843 0.014167682
000220 4d 0d 04 3e 5e 2e 94 3b 52 ae 56 ba a4 36 83 3d
       0.12895699 0.004522129 -0.0008189428 0.06406906
000230 75 95 03 3e a7 4d a3 3c 04 8d 14 be 87 3a 48 3d
       0.12849982 0.019934488 -0.14506918 0.04888394
000240 fb 72 a1 3c 9b 58 9b 3d ce 97 99 bd 89 d8 97 bd
       0.019708147 0.075852595 -0.074996576 -0.07414348
000250 f7 41 a3 bd 36 a1 ad bd 97 d8 e5 3d 01 d9 6e 3c
       -0.07971566 -0.08478014 0.11222952 0.014578105
000260 f3 00 0a be 63 a3 8f 3d 34 4e da bd d8 a2 d4 bd
       -0.13476925 0.070135854 -0.10659447 -0.103826225
000270 1e 4d 62 bd 57 3f d3 bd 23 71 0a bd bf d0 be 3c
       -0.055249326 -0.103148155 -0.0337993 0.023292897
000280 b1 03 bd 3c cf ab a1 3d a9 28 8a be ec 26 37 be
       0.02307305 0.07894098 -0.26984146 -0.17885941
000290 f4 31 1f be 8e 09 21 bd bb 38 3d 3d 88 8e 4f 3e
       -0.155464 -0.039315753 0.04619668 0.20269215
0002a0 f4 65 e7 3c f0 15 17 bd d8 65 02 3e 17 6e d8 3d
       0.028246857 -0.036886156 0.12734163 0.10567873
0002b0 f1 f9 19 bd 73 b3 e2 3d e5 3c 17 bd a5 81 06 be
       -0.03759188 0.110693835 -0.036923308 -0.13135393
0002c0 4e ac bf bd 2c 49 a7 bd 35 fe d3 bd 9c d1 b5 bd
       -0.093590364 -0.08168253 -0.103512205 -0.088778704
0002d0 75 69 0a 3d cd 9a 85 bc 1a dd a5 3d d4 40 b5 bd
       0.033791978 -0.016309166 0.080988124 -0.088502556
0002e0 1d ec 76 3d d5 47 3a 3d 5c 09 0b 3e a7 3d 19 3d
       0.06028377 0.04547866 0.13577789 0.037412312
0002f0 7e b3 83 bd 71 56 05 be 54 b9 b2 bc 14 0d b0 3c
       -0.0643072 -0.13021256 -0.021816887 0.021490611
000300 5c c7 c2 3c 38 f3 b3 bd ba 92 e8 bc f5 16 af 3d
       0.023776703 -0.08786625 -0.028390277 0.085493006
000310 93 8d 35 3d 3a 9c e1 bd 6d 7a d0 3c fb 6f 9b 3d
       0.04432447 -0.11016126 0.025449002 0.07589718
000320 8a ee 55 be 3b 03 69 3c c2 4e 0f 3d a9 07 83 bd
       -0.20891777 0.014221962 0.03498722 -0.063979454
000330 29 15 94 3d 05 60 f2 3d 3a df e3 bd ee 6e 02 3d
       0.072305985 0.118347205 -0.111265615 0.031844072
000340 5e bf be 3d f7 66 7e 3d 80 40 ec 3c cb dd 2f 3d
       0.09313844 0.062109914 0.02883935 0.042936128
000350 ba ac af bc b9 c9 7f bd ad ba 27 be 21 3c 8e 3d
       -0.021444667 -0.062448237 -0.16379805 0.069450624
000360 2d 4c 6b 3c 85 73 38 be da ec 01 be 11 4a bf bd
       0.014361423 -0.18012817 -0.12688008 -0.09340299
000370 48 4c b5 bc d4 f5 b8 3c 4c 8d c6 bd c8 c3 f0 3c
       -0.0221311 0.022578157 -0.09694919 0.02939023
000380 6b 02 41 3d 16 03 1b 3e f1 6d b4 3d 9a fd c4 3d
       0.047121447 0.15137896 0.08810032 0.09618683
000390 46 9a e7 3d 43 a0 17 bd 8c 05 30 bd 51 91 d7 3c
       0.11308722 -0.03701807 -0.04297404 0.02631441
0003a0 c5 e8 4e 3c 20 94 7f bd 53 ac d0 3b f8 28 a7 3d
       0.012628739 -0.062397122 0.006368199 0.08162111
0003b0 93 b6 0e 3d 2a a6 f2 bc 7f d8 c3 3d 08 3b a9 bb
       0.034842085 -0.029620249 0.09562778 -0.005164508
0003c0 03 a8 02 be 9f 9a dc bd 4e fb 91 bd ea 36 ec bd
       -0.12759404 -0.10771679 -0.07128011 -0.115339115
0003d0 11 0a e8 bb 4e ee a2 bd 04 d7 89 be 68 50 0f bd
       -0.007081278 -0.07955609 -0.26921856 -0.03498879
0003e0 53 5e 54 3d ea f9 94 3a 35 9b f8 bd 04 b7 f9 bc
       0.051847767 0.0011365984 -0.121389784 -0.030482776
0003f0 0a 30 bc 3d b2 c3 70 3d d4 11 b5 bd 0b 99 88 3d
       0.0918885 0.05878038 -0.08841291 0.06669816

a2c_network.actor_mlp.4.bias f4 [64]
000000 d3 b1 c6 bd 99 fa 10 3b 14 bf 00 be 17 a1 ae bd
       -0.09701886 0.0022122024 -0.1257289 -0.08526819
000010 a6 df c9 bd 72 0d 7f bc 60 4c 63 be a1 0a 31 3c
       -0.09857111 -0.01556717 -0.22197104 0.010805757
000020 bc 34 49 be 36 c5 7f bd 7a 0c c5 bd 64 ea 3c bd
       -0.19649023 -0.062443934 -0.0962152 -0.04612197
000030 b3 fe 98 36 17 19 44 bd 70 06 11 be b7 df 98 be
       4.559604e-06 -0.04787549 -0.14162612 -0.2985818
000040 f5 7d 24 3d 14 9d 90 bd 72 c8 f9 3c f5 5f 0e be
       0.040159184 -0.0706121 0.030491088 -0.13903792
000050 e7 41 86 bd 6c 32 76 ba 9c f0 94 bd c6 f6 16 be
       -0.065555386 -0.0009391669 -0.07272455 -0.14742574
000060 58 8a fe bd d4 4f fa bd 1b 6f 2c be 1e 1e 29 3d
       -0.12428731 -0.12222257 -0.16839258 0.041288488
000070 33 c8 e6 bd c9 f3 64 be 50 2b f2 bd e3 9e 89 3d
       -0.11268654 -0.22358622 -0.118246675 0.06719758
000080 93 a2 96 be ab 13 c3 bd c4 59 c6 bc 63 e8 ef bc
       -0.2942091 -0.09525236 -0.024212725 -0.029285615
000090 f1 90 03 3e d9 8e fa bd df 11 2c be 1f cf ac bd
       0.1284826 -0.12234277 -0.16803692 -0.08437943
0000a0 b4 63 5b bd c7 6f ed 3d b2 22 0d 3d bc 0a 5d be
       -0.05356188 0.115935855 0.034456916 -0.21586126
0000b0 9f 4a f4 bd 51 29 1f 3c 92 c1 43 3d 45 da 08 be
       -0.11928295 0.00971444 0.047792025 -0.13364513
0000c0 c9 d7 63 be dc ea 29 3d 35 9f 59 be cf e4 30 be
       -0.22250284 0.041483745 -0.21252139 -0.17274784
0000d0 7a db 25 be 42 12 28 be 07 da 66 3d ae 51 fc bd
       -0.16197005 -0.16413215 0.05636027 -0.12320267
0000e0 08 75 09 3d 32 10 92 bb cb bd 2d bd 20 bd dc bd
       0.033558875 -0.004457497 -0.04241733 -0.1077826
0000f0 e2 f2 73 3c ac c5 9c bd 7c 45 1c be 2d c6 91 3a
       0.014889451 -0.076548904 -0.15260881 0.0011121683

a2c_network.value.weight f4 [1, 64]
000000 8d d3 0e bc 05 f1 1a 3c f1 84 9c bc b2 c3 c5 bd
       -0.00871743 0.009456878 -0.01910636 -0.096564665
000010 e3 44 4b 3c 56 06 b0 bc 85 fe 44 bd 47 45 87 3d
       0.012406561 -0.021487396 -0.04809429 0.066050105
000020 86 95 e3 3b 70 0e 90 3d b2 96 47 bd 2a 60 63 3d
       0.006945315 0.07034004 -0.0487277 0.05551163
000030 b9 99 0e be f4 2c 85 bc 24 b8 92 3c 57 83 ee bc
       -0.13925828 -0.016256787 0.01791007 -0.029115362
000040 b1 55 48 bd 4a a8 87 3b 9a 81 3f bd aa 62 02 be
       -0.048909847 0.0041399347 -0.046754457 -0.1273295
000050 de eb 37 3c 08 0c 96 3e df 4d a6 3c 99 69 31 be
       0.011225669 0.29306054 0.020300804 -0.17325439
000060 f7 c7 cf bd 30 9b 78 bd b6 c1 d6 3d 32 91 6f bd
       -0.10145562 -0.060694873 0.10486166 -0.05848808
000070 cf 3b 13 be fa ce 63 be a0 c3 0f 3e c6 01 0c 3d
       -0.14378284 -0.22246924 0.14039469 0.03418138
000080 1c 82 74 3c 98 cd 1e 3d e4 e0 4c 3d fd f8 e6 bc
       0.014923599 0.03877029 0.05001916 -0.028194899
000090 cb 1d 87 3c 7b 5d 82 bd 69 ed 01 3e 21 a8 97 3d
       0.016493699 -0.06365486 0.12688221 0.07405115
0000a0 18 12 93 bd 47 d6 c2 3e 0a 09 d4 bc 5e 9b 83 3c
       -0.071811855 0.38054106 -0.025883216 0.016065296
0000b0 f9 08 a6 3d 0b f6 a1 bc 16 87 50 3d c4 23 0c 3d
       0.0810718 -0.019770643 0.050910078 0.034213796
0000c0 84 eb 8e 3d 5b e2 f8 3c b6 c6 ab 3c 51 e1 89 be
       0.06978515 0.030381372 0.020968776 -0.26929715
0000d0 f9 05 16 bc 71 16 00 3e ff ee 19 bb 20 43 d8 3d
       -0.009156697 0.1250856 -0.00234884 0.10559678
0000e0 86 53 f0 3a ca d3 03 3d db 3e f8 bc 7a 2d b9 3d
       0.0018335439 0.0321844 -0.03030341 0.09041877
0000f0 31 78 81 3d 8c fa f3 bd 92 8c 4e bc 19 00 22 bd
       0.06321753 -0.119130224 -0.012606757 -0.039550874

a2c_network.mu.weight f4 [12, 64]
000000 12 da 38 bc cf 7e 26 be b2 df 38 be 31 b4 0f 3d
       -0.011282461 -0.16259311 -0.18054083 0.035083953
000010 ab 41 c1 3d 77 aa 89 3d 15 bd de 3b 44 af 31 3d
       0.09436353 0.06721967 0.0067974427 0.043380037
000020 65 42 88 bd de 97 94 3c 41 33 e1 bc cb 78 91 3d
       -0.06653289 0.018138822 -0.02749026 0.071031176
000030 d5 99 9d 3d 22 d3 88 bd 1d 20 10 3e 3d 33 c0 3d
       0.07695357 -0.066808954 0.1407475 0.09384773
000040 38 ed 12 3d 75 46 66 bd f6 eb af 3d de d3 03 3d
       0.03587076 -0.056219537 0.08589928 0.032184474
000050 be 1b b3 3d e0 00 16 bb a3 30 bc bc 96 04 da 3c
       0.08745526 -0.0022888705 -0.02297241 0.026613515
000060 79 97 eb bd 09 10 2f be 4f 42 bf bc 7b 0a 93 3d
       -0.115035005 -0.1709596 -0.023347048 0.07179733
000070 f2 32 a3 3c a9 ab 90 bd 05 3f 24 bc c6 77 0f bd
       0.019921754 -0.070639916 -0.010024791 -0.035026334
000080 df cf 8c bd 0d 24 44 be c7 fc 3e bd 01 a5 1c 3e
       -0.06875586 -0.19154377 -0.046627786 0.15297319
000090 f3 32 fc 3d 49 c0 02 bc 94 fe 67 bd 88 5e 52 3d
       0.12314405 -0.007980415 -0.05663927 0.051359683
0000a0 b5 d1 76 bd c1 2e 0b bd 17 27 d8 3d 5a ff 02 3d
       -0.060258586 -0.033980135 0.10554331 0.031981803
0000b0 a6 59 32 3b fc e5 ff bc c7 e1 07 bc 17 36 3b 3c
       0.002721408 -0.031237595 -0.008293576 0.01142647
0000c0 49 be c5 bc 32 bb 34 3e 96 f9 0f 3d 3c 66 59 3d
       -0.024138587 0.17649534 0.035150133 0.053076014
0000d0 fc f5 ea bc 20 7f 5e bd c5 b8 58 3d 61 05 ea 3c
       -0.028681748 -0.054320455 0.052910585 0.028567018
0000e0 7f f8 e3 bd a9 a3 a6 3d db 26 ca 3c a6 73 d4 3d
       -0.11131381 0.081366844 0.02467673 0.10373621
0000f0 cb 89 6f 3d 71 b6 21 bd 54 33 a0 bb 93 f7 71 bb
       0.05848102 -0.03948063 -0.0048889313 -0.0036921247
000100 53 8f 96 bd 8c 95 19 3e ba f9 a2 3d 6d b2 7d 3c
       -0.07351556 0.14998454 0.07957788 0.015484435
000110 15 e2 95 bd 1d 1c 1f 3c f6 34 9a bd 7a 96 f6 3d
       -0.07318512 0.009711293 -0.07529633 0.1204042
000120 30 5f 97 bd 04 1b a1 bd 19 3a 2b bd db 5d 95 3d
       -0.073912024 -0.07866481 -0.041803453 0.07293292
000130 68 5e a9 bd 27 ac b5 bd 10 cf fe bc bb ad ae 3d
       -0.0826996 -0.08870726 -0.031104594 0.0852923
000140 1f 85 8e 3d 82 e6 4c bc df 85 a7 3c d7 e2 d2 bd
       0.069589846 -0.012506129 0.020449577 -0.102971725
000150 c2 f1 f1 bb fb ae cf b8 0f f6 8f bd c8 c9 41 3d
       -0.007383556 -9.903122e-05 -0.07029354 0.047311574
000160 72 b0 c6 bc 13 6e 7c 3c 12 95 27 3b b8 64 19 bd
       -0.024254058 0.015407103 0.002557103 -0.03744957
000170 17 03 ad bd f8 b6 65 3d 32 0f 23 3d d8 32 32 3e
       -0.08447855 0.056082696 0.039809413 0.17402208
000180 6e 79 5a bd 0b 97 16 be 6d cb 2e 3d 61 87 46 3c
       -0.05333846 -0.14706056 0.04267447 0.012117238
000190 7d 6b 2d bd 12 6c 6d 3c 3a da 4d bd 14 b4 2c bd
       -0.042338837 0.014491098 -0.050256945 -0.042163923
0001a0 81 ed 22 be 79 6f e3 3d 2e 08 6a 3d ce 7d f9 3d
       -0.15910913 0.11105246 0.057136707 0.121821985
0001b0 fc 45 ea bd 12 01 b0 3d 29 ec a0 bd de e5 bd bd
       -0.1143913 0.08593954 -0.07857544 -0.09272359
0001c0 37 bc 46 bd 0b fc 8a 3e 4f 47 e3 3d 74 57 5d 3d
       -0.04851934 0.2714542 0.110975854 0.05403848
0001d0 d8 1a 62 bb 73 e5 0c be 0e a9 74 3b 69 fc 9e 3d
       -0.0034500863 -0.13759403 0.003733221 0.07762987
0001e0 6d e5 19 3d b2 ef f4 3d 70 b1 b8 bc b6 32 a6 bd
       0.037572313 0.11959781 -0.022545546 -0.08115141
0001f0 2c 19 f4 3c 0e d1 2f 3d b7 e0 76 bd be e7 0a 3d
       0.02979716 0.04292398 -0.0602729 0.033912413
000200 eb f3 84 3d 82 50 16 bd 51 b6 8c 3d 47 6a 30 3c
       0.06491836 -0.036697872 0.068707116 0.010767526
000210 e4 4d 17 3d 13 7e 52 bd d6 3b 49 3d 20 d2 27 bd
       0.036939517 -0.051389765 0.04912933 -0.040971875
000220 a0 64 2e 3d f2 4d 70 3c e3 42 44 bc a5 fc 0c 3d
       0.042576432 0.014667021 -0.011978838 0.034420628
000230 6d 81 2c bb 8c aa 46 3a 22 88 ee 3b cb f4 fd 3d
       -0.002632226 0.0007578514 0.007279412 0.12400206
000240 0c 72 8d bc 9e a6 6e 3d 31 44 20 bd 6a 4a dc 3c
       -0.017266296 0.058264367 -0.039127532 0.026890952
000250 50 54 12 3d cf 91 84 3b 26 95 82 3c 19 fa 65 3d
       0.035724938 0.004045702 0.01594026 0.056146715
000260 f1 be cb 3c 50 b2 30 3d 43 ef 11 3b d8 5e 0c bd
       0.024871321 0.043138802 0.0022267855 -0.034270138
000270 2d 68 98 bb 37 ca 32 3c 92 59 d7 bb 74 39 94 bc
       -0.0046510906 0.01091247 -0.006571957 -0.018093802
000280 3c ab b2 3d 94 ac 80 3c e2 f7 e0 bb c8 b5 05 bd
       0.087240666 0.015707292 -0.0068654874 -0.032644063
000290 95 b7 a2 bd d8 10 21 3d af cd 41 bc cb 1d 14 bc
       -0.07945172 0.039322704 -0.011828824 -0.009040306
0002a0 99 82 d0 3b f5 3c 1a bd ba 06 f8 bc 5a 7f c9 3c
       0.0063632247 -0.03765579 -0.030276645 0.024596859
0002b0 29 25 b2 bc 0d 8a 28 bd 5e ff 08 bd 06 49 e6 bc
       -0.021746235 -0.04114728 -0.033446662 -0.028110992
0002c0 8c 86 71 3d 41 28 d6 bb f2 4e 11 3d 38 80 50 bc
       0.058966205 -0.0065355604 0.03547568 -0.012725882
0002d0 9b 0f 6c 3d 94 02 4b 3d 88 d7 b3 3b 53 39 3c 3d
       0.05763207 0.049563006 0.00548834 0.045953106
0002e0 60 36 2e bd 1b e0 e9 bb 2f cb ee 3c 3f 02 73 3c
       -0.042532325 -0.007137311 0.02914962 0.0148320785
0002f0 c3 68 25 bc 93 0d 51 3b be 34 6c bc a7 f7 ab bc
       -0.010095778 0.003189896 -0.014416872 -0.020992113
000300 f0 b2 39 3e 6e b9 f4 bc f0 50 21 3d 88 08 2b 3e
       0.18134665 -0.029873576 0.03938383 0.16702473
000310 dc 49 00 3c 27 24 2f bd ef c5 1f bd 38 f2 79 3d
       0.007830109 -0.042759087 -0.039007124 0.061022013
000320 a1 4e 6f bc 07 28 bd 3c 01 20 5d 3d d0 30 7c ba
       -0.014606149 0.023090376 0.0539856 -0.0009620311
000330 c7 4f 42 3d a5 63 52 bd e3 3c c0 bb 1a 59 a6 bc
       0.047439363 -0.05136456 -0.0058666333 -0.020306159
000340 f7 f3 f6 3d 3f 7a 6c 3d 02 14 87 3c f3 a5 a8 3d
       0.12058251 0.05773377 0.016489033 0.08234777
000350 b7 fb ba bd eb 5b 2a bc 8c 92 95 3d cd fb 2b 3c
       -0.09130042 -0.0103978915 0.07303342 0.010497046
000360 97 9a 20 be 70 b8 1c 3d 59 fa a3 3c ed cd 15 be
       -0.15683971 0.03826183 0.020016836 -0.14629336
000370 aa d2 b1 bd 9c 8a 97 3c d9 89 85 3d 90 4b 9c bc
       -0.08682759 0.018498711 0.06520433 -0.019079
000380 04 f5 1f bc ae 8c 8e bd c1 81 e0 bd 51 4c c1 bd
       -0.009763006 -0.06960426 -0.109622486 -0.09438384
000390 13 df 2f 3d 7e 8c 41 3d 0e 4a 44 bd 41 58 c1 bd
       0.04293735 0.047253124 -0.047922187 -0.09440661
0003a0 ad 17 c3 bd 84 73 a1 3c 54 d9 f8 3c 57 ae 4f bd
       -0.09526 0.019708402 0.030377068 -0.050703373
0003b0 a4 af ed bc f1 e9 4f bd 36 b4 53 3d 91 bf db bc
       -0.029014416 -0.050760213 0.051685534 -0.026824744
0003c0 9a bf 91 bc de 4f 2f 3d b1 30 2c 3e 3b a8 5a 3d
       -0.017791558 0.042800777 0.1681545 0.053383093
0003d0 e7 6f 75 3d 63 13 ba 3d 41 96 22 3e 03 1e cd bd
       0.05992117 0.09085729 0.1587763 -0.1001549
0003e0 b7 5e 5a 3d 01 34 df bd 0e 41 fd bc 4a 53 c4 bd
       0.053312983 -0.10898591 -0.03091481 -0.09586199
0003f0 ee 37 68 3c e2 3c fe bd 4f 64 12 3c 7b b5 89 3b
       0.014173491 -0.12413956 0.008935048 0.0042025424

a2c_network.mu.bias f4 [12]
000000 a4 af 5b 3c 7b 9f 6a 3d ba c5 82 be 61 76 93 bc
       0.013408575 0.057281 -0.25541478 -0.018000783
000010 21 7f 9d 3d 05 42 d9 3c f0 39 3f 3d db 94 3a 3d
       0.076902635 0.026520738 0.046686113 0.045552116
000020 45 61 55 3c 50 c2 c6 bc 50 ee 1b 3d 20 57 76 bd
       0.013023679 -0.024262577 0.03806907 -0.060141683

exp_avg f4 [12]
000000 75 90 3a bb b5 30 fa 3b e3 c0 8c 3b c6 70 28 3c
       -0.002846745 0.007635201 0.004295455 0.0102807935
000010 28 b9 30 3c 98 53 a0 bc c6 c7 fd 3b db 58 a5 bc
       0.010786332 -0.01957111 0.007744762 -0.020183971
000020 39 c9 b9 3c 94 d3 04 bc 13 11 48 bc ff d9 14 3c
       0.022678958 -0.008107085 -0.012211102 0.009085177

exp_avg_sq f4 [12]
000000 84 81 28 3b 95 90 55 3b 6a 39 0a 3b 9f 6a 00 3b
       0.0025711963 0.0032587398 0.002109135 0.00195948
000010 9f d1 16 3b e2 46 ab 3b d8 62 06 3b 8c 5a 13 3b
       0.0023013128 0.0052269557 0.0020505693 0.002248439
000020 2b 22 14 3b 07 14 0d 3b ca 3e 7d 3b d1 89 17 3b
       0.0022603374 0.002152683 0.0038642162 0.0023122916
