omniisaacgymenvs/runs/WEE/nn/last_WEE_ep_100_rew_-1582.8656.pth (torch, 623514 bytes, 36 tensors)

value_mean_std.running_mean f8 [1]
0	0xc0484c9e523576dc	-48.598581577401745

value_mean_std.running_var f8 [1]
0	0x406e235fb927593b	241.10543496785417

value_mean_std.count f8 []
0	0x4179000010000000	26214401.0

running_mean_std.running_mean f8 [32]
0	0x3f9a8d63b9ca864c	0.025929983343877347
1	0xbf81cc19885d7840	-0.008690070604355893
2	0x3fe0e7e6cebdb9ee	0.5283082998192279
3	0x3fd6d78466515834	0.35690412513702374
4	0x3faf49d5f0adde23	0.06111019671419295
5	0xbfa801197ecf063c	-0.04688338921506527
6	0x3fe66c1f97f91512	0.7006986587736341
7	0x3fb040d39f9de1fb	0.06348917624371346
8	0x3fb27d10d8bdb511	0.07222085277108571
9	0x3fb53043b6623e27	0.08276770785072839
10	0xbf8db9b82a8d656d	-0.014514387892335912
11	0x3faff1d1478fecd3	0.062391796098347684
12	0x3fd11a0936143d2c	0.2672141101947598
13	0xbef9c4edb5d64da7	-2.457547394880762e-05
14	0xbf1bdbe6e6c048a2	-0.00010627362070206534
15	0x3fdb332c43d01951	0.4249983465419023
16	0x3fe84d28b117e065	0.7594188174107442
17	0xbf28f65a93c54336	-0.00019044738463460672
18	0xbf38f0b40d4501d3	-0.00038055797383054513
19	0x3fdbe9255523bc4c	0.4361050921861007
20	0x3f3a16c2c71f44d5	0.00039808516805546246
21	0xbf42a6d9302eccee	-0.0005692062844588044
22	0xbf59698cf2f1b9e9	-0.0015510441260421176
23	0x3f8ac36cfe93d852	0.013068057555283872
24	0x3f92016a100ab630	0.0175835201541103
25	0xbf488af82a49c398	-0.0007489883178789401
26	0x0000000000000000	0.0
27	0x0000000000000000	0.0
28	0x0000000000000000	0.0
29	0x0000000000000000	0.0
30	0x0000000000000000	0.0
31	0x0000000000000000	0.0

running_mean_std.running_var f8 [32]
0	0x3f5efbfbec64869f	0.0018911323728122776
1	0x3f4b4e52c685d4aa	0.0008333114792963465
2	0x3f5c3d259ded045c	0.0017235629417913434
3	0x3fd0f1a4dfa0f58b	0.2647487815737228
4	0x3f7e1469ff5cf5d0	0.007343687107832023
5	0x3f82b6839564ff45	0.009137180325182856
6	0x3fb841a41177ce8b	0.09475160051789026
7	0x3ff53e1fed269574	1.3276671661090775
8	0x3ff3d88111222be4	1.2403574628140115
9	0x3fe80ca7d9948838	0.7515448808301306
10	0x4060d44f304fba57	134.63466659137586
11	0x406f24241292b8e6	249.12940338761035
12	0x407f4d982a862e78	500.8496499291864
13	0x3eeab3b8bfa15589	1.2732523817652788e-05
14	0x3efad41fdf486061	2.5585757571361718e-05
15	0x3ed278083e031106	4.403323117855656e-06
16	0x3fb776f1eb480b57	0.09165870660949103
17	0x3f4c4f23324341e6	0.0008639261109469303
18	0x3f4d8c11d7b06357	0.0009017073747400278
19	0x3fc1e10a29da131d	0.13968016665980879
20	0x3f8430f8b6489e7f	0.009859030783516019
21	0x3f84b2648fb8d342	0.010105882297560268
22	0x3f7e9d3a8803a4ed	0.007474163663780714
23	0x403576e3a9ecc764	21.46441137343153
24	0x4035923a45c38bd9	21.57120166801528
25	0x402c4dbdc67d406f	14.151838496007455
26	0x3e747ae12d7731af	7.629393949173432e-08
27	0x3e747ae12d7731af	7.629393949173432e-08
28	0x3e747ae12d7731af	7.629393949173432e-08
29	0x3e747ae12d7731af	7.629393949173432e-08
30	0x3e747ae12d7731af	7.629393949173432e-08
31	0x3e747ae12d7731af	7.629393949173432e-08

running_mean_std.count f8 []
0	0x4169000020000000	13107201.0

a2c_network.sigma f4 [12]
0	0xbe7be1aa	-0.24597803
1	0xbdaff72b	-0.085920654
2	0xbf7f9ad8	-0.9984565
3	0xbd81a490	-0.06330216
4	0xbdeb4021	-0.11486841
5	0xbf8a8943	-1.0823139
6	0xbded5068	-0.11587602
7	0xbdfed3dd	-0.124427535
8	0xbdbac8cf	-0.091203324
9	0xbe04b9c5	-0.1296149
10	0xbe57dbb2	-0.21079901
11	0xbd472e23	-0.048627984

a2c_network.actor_mlp.0.weight f4 [256, 32]
0	0x3e0e59f2	0.13901499
1	0x3db7ab75	0.0896825
2	0xbe0550ef	-0.13019155
3	0x3db9b6e9	0.090680905
4	0x3dfe32c9	0.1241203
5	0x3e51ba60	0.20481253
6	0xbc9d09b5	-0.019169668
7	0x3ce644ae	0.02810892
8	0x3cc74021	0.024322571
9	0xbd9b5480	-0.075844765
10	0x3dac37b5	0.08409063
11	0x3d8e2f5a	0.06942625
12	0x3e20d38f	0.15705703
13	0xbdbd1fde	-0.09234594
14	0x3d2e1abc	0.042505965
15	0xbb7332f0	-0.0037109219
16	0x3d351b6d	0.04421561
17	0xbdf7cf5b	-0.12100097
18	0xbe6d9ea4	-0.23205048
19	0xbd34efb1	-0.0441739
20	0xbe18e044	-0.149293
21	0x3e3aa5c9	0.18227305
22	0x3bbb27a7	0.005711514
23	0x3d89d6df	0.067304365
24	0x3c1dae49	0.009624072
25	0x3d88e8e2	0.06685044
26	0x3e0daacf	0.1383469
27	0xbe009de0	-0.12560225
28	0x3c365cc8	0.011130519
29	0xbdf71b1f	-0.1206572
30	0x3d5f454c	0.054509446
31	0xbd795c02	-0.06087876
32	0x3ddd7244	0.1081281
33	0xbcc087ba	-0.02350222
34	0x3e2d1f4d	0.16906472
35	0xbd80fe29	-0.06298477
36	0xbe0d3ad2	-0.1379197
37	0xbe50ef3b	-0.20403759
38	0x3de2cf40	0.11074686
39	0x3e0ee08f	0.1395285
40	0x3e4e7958	0.20163476
41	0xbe55c8fd	-0.20877452
42	0xbe552e63	-0.20818476
43	0xbddde2fc	-0.108343095
44	0xbdc0a97f	-0.09407329
45	0x3ddfd5b6	0.10929434
46	0x3de6dbae	0.11272369
47	0x3e0f8e1e	0.14019057
48	0xbdbdfb79	-0.0927648
49	0xbd893ae3	-0.06700685
50	0x3e12e986	0.14346895
51	0xbd8cc290	-0.06873047
52	0x3d803a9b	0.06261178
53	0xbd8573f2	-0.065162554
54	0x3e184d0e	0.14873144
55	0xbdaf9d30	-0.08574903
56	0xbdabe9a3	-0.08394172
57	0xbd8b47d4	-0.068008095
58	0x3d19134e	0.037371926
59	0xbd389c1f	-0.045070764
60	0x3dd7ccd9	0.105371185
61	0x3df61e02	0.12017442
62	0xbe034539	-0.12819375
63	0xbdc147eb	-0.094375454
64	0x3e146ed2	0.144954
65	0xbd4b89cb	-0.049691956
66	0xbcb32aa6	-0.021870922
67	0xbe543416	-0.20722994
68	0xbe53e985	-0.2069455
69	0x3e01f257	0.12690102
70	0xbdd37fb5	-0.103270926
71	0xbe55fe68	-0.2089783
72	0x3d84877a	0.064711526
73	0xbe17ecdf	-0.14836453
74	0xbe2dabc4	-0.16960055
75	0xbe2536ca	-0.16134182
76	0xbe3da071	-0.18518235
77	0xbdc1855e	-0.09449266
78	0x3e40f4b8	0.18843353
79	0x3d9bc67e	0.07606219
80	0x3da2ca13	0.07948699
81	0xbe18c389	-0.1491834
82	0xbd7a2331	-0.061068717
83	0xbd7ed69b	-0.062216382
84	0xbd8e2e2b	-0.069423996
85	0xbe156d4f	-0.14592479
86	0xbd889364	-0.066687375
87	0xbd9108da	-0.070817664
88	0xbd107235	-0.035265166
89	0xbcafc9f5	-0.021458605
90	0xbc48b3b4	-0.012249876
91	0xbdf55402	-0.11978914
92	0xbdf88068	-0.121338665
93	0xbdd336c9	-0.10313184
94	0xbd77d98d	-0.060510207
95	0xbe0ee007	-0.13952647
96	0x3e1e7513	0.15474348
97	0x3c3f0298	0.011658333
98	0x3e56b040	0.20965672
99	0x3d8a59fb	0.06755444
100	0xbe87d4b8	-0.2652948
101	0x3dc52b41	0.09627391
102	0xbd64e304	-0.05588056
103	0xbdb1651f	-0.086618654
104	0xbe5c38a5	-0.21505983
105	0xbe68e1e6	-0.22742423
106	0x3d4adc64	0.049526587
107	0xbd85775c	-0.065169066
108	0x3dc3ab1d	0.09554122
109	0xbdf50632	-0.11964072
110	0x3e1291a4	0.1431337
111	0xbdf2191e	-0.11821197
112	0x3c33027d	0.010925886
113	0x3d552516	0.05203732
114	0x3e00f11d	0.12591977
115	0x3e2d23f4	0.16908246
116	0x3e06c0ec	0.13159531
117	0xbdd6c0ae	-0.104859695
118	0x3dbef414	0.09323898
119	0xbdc6b0ec	-0.09701714
120	0xbdab1d05	-0.083551444
121	0xbd6e6ede	-0.0582112
122	0x3e24e20e	0.16101858
123	0xbe04dbf6	-0.12974533
124	0x3dc17df5	0.094478525
125	0x3d7e782e	0.06212633
126	0x3d6b4b11	0.057444636
127	0xbdc3bc1e	-0.09557365
128	0x3e4069ae	0.18790314
129	0x3db9bca2	0.09069182
130	0xbb559db9	-0.003259523
131	0xbe397cc3	-0.18113999
132	0x3dc84db1	0.097804435
133	0xbda33ca9	-0.079705544
134	0xbe0da4fe	-0.13832471
135	0x3e2d6e87	0.16936694
136	0x3d633739	0.055472586
137	0xbd7cf816	-0.06176003
138	0xbe023e62	-0.1271911
139	0xbd58efa5	-0.052962918
140	0x3d96260d	0.07331476
141	0xbd828a80	-0.06374073
142	0xbde79241	-0.113071926
143	0xbdc6c035	-0.09704629
144	0xbd9f3ee2	-0.07775666
145	0x3d677dce	0.05651646
146	0x3de23ba2	0.1104653
147	0xbe14b4f6	-0.14522156
148	0xbc1b534a	-0.009480307
149	0x3d848ac0	0.06471777
150	0x3cbf410d	0.023346448
151	0xbd1d4b3c	-0.038401827
152	0x3d82794c	0.06370792
153	0x3d353327	0.044238236
154	0x3d876049	0.06610162
155	0xbcfe78c6	-0.031063449
156	0xbd3fbc91	-0.04681069
157	0x3c9aecc7	0.018911732
158	0xbcffd28d	-0.031228328
159	0xbd57c69b	-0.05267964
160	0x3dfc28d3	0.12312474
161	0x3de403be	0.11133526
162	0xbd53e02d	-0.051727463
163	0xbcb91bfa	-0.022596348
164	0xbd0a817d	-0.033814896
165	0xbc7ae060	-0.015312284
166	0x3d2c178f	0.042014655
167	0x3d0b05f0	0.03394121
168	0xbe332694	-0.17495185
169	0xbdbd9bf8	-0.09258264
170	0x3dc099cc	0.094043344
171	0x3e2359fb	0.15952294
172	0xbd2f78e4	-0.0428399
173	0xbe024688	-0.12722218
174	0xbdf22a82	-0.11824514
175	0xbe34178c	-0.17587107
176	0xbba7a841	-0.005116493
177	0x3d189723	0.03725351
178	0x3e00a866	0.12564239
179	0x3deca11f	0.11554169
180	0xbe844f02	-0.25841528
181	0xbd5bfe4b	-0.05370931
182	0x3c45b355	0.012066682
183	0x3e43f7c5	0.19137485
184	0xbcc4dec3	-0.024032002
185	0xbdbb8463	-0.0915611
186	0x3d95c7ea	0.07313521
187	0xbd89e4d3	-0.06733098
188	0xbdea54e2	-0.11441971
189	0x3e041fab	0.12902705
190	0xbda49ea0	-0.08038068
191	0xbd112747	-0.03543785
192	0xbe6136f8	-0.21993625
193	0x3e0f64f0	0.14003348
194	0x3dc5e75a	0.096632674
195	0x3d87c8dd	0.066301085
196	0xbe163322	-0.14667943
197	0xbe4cda8b	-0.20005243
198	0xbdaa3697	-0.083111934
199	0x3e468205	0.19385536
200	0x3ca120f3	0.019669032
201	0x3e1d1724	0.15340859
202	0x3dc5b113	0.09652915
203	0x3cf05682	0.029338125
204	0x3aa3b969	0.001249117
205	0xbe50b178	-0.20380199
206	0xbe52b0d6	-0.2057527
207	0xbdca3fef	-0.098754756
208	0x3d5e4989	0.054269347
209	0xbe3ba406	-0.18324289
210	0xbde58438	-0.11206859
211	0xbd57eaa5	-0.05271401
212	0xbc05cff2	-0.008167254
213	0xbdf8779e	-0.1213219
214	0xbe5555a0	-0.20833445
215	0x3dd59872	0.10429467
216	0xbdcd734b	-0.10031756
217	0x3df7f703	0.121076606
218	0xbd684a55	-0.056711514
219	0xbe04ca34	-0.1296776
220	0xbcff82c7	-0.03119029
221	0xbdaf7f4f	-0.08569204
222	0xbd5d867e	-0.05408334
223	0xbe2c5461	-0.16829063
224	0x3da471ca	0.08029516
225	0xbdc8a26b	-0.09796604
226	0x3de91a70	0.11381996
227	0x3d5bac0c	0.053630874
228	0x3e0aa9fe	0.1354141
229	0xbd797e68	-0.060911566
230	0x3e15c271	0.14624955
231	0xbd968967	-0.07350426
232	0x3e2f958b	0.1714689
233	0x3e2df134	0.16986543
234	0x3c9e8401	0.019350054
235	0xbd87ec45	-0.06636862
236	0xbe093b93	-0.13401632
237	0xbe200cc4	-0.1562987
238	0x3ddeae7a	0.108731225
239	0xbe853cf1	-0.26023057
240	0x3df54108	0.11975294
241	0x3e337eb2	0.17528799
242	0x3e605c41	0.21910192
243	0xbc6206d4	-0.013795573
244	0xbe359082	-0.17730907
245	0x3d9ea45b	0.07746192
246	0x3d82ecc8	0.06392819
247	0xbe4c9d5d	-0.19981904
248	0xbce8df3b	-0.028426757
249	0xbe4b5cce	-0.19859621
250	0xbc7d5271	-0.01546155
251	0xbdb23348	-0.08701187
252	0xbd93fd5b	-0.07226058
253	0xbd65dd62	-0.05611933
254	0xbe2c05fe	-0.16799161
255	0x3e148719	0.1450466

a2c_network.actor_mlp.0.bias f4 [256]
0	0xbda976dd	-0.082746245
1	0x3e2cc5b4	0.16872293
2	0x3b31b227	0.0027114244
3	0xbb446440	-0.002996698
4	0xbdefa25a	-0.11700888
5	0xbcba3fc1	-0.022735478
6	0xbdfa8141	-0.122316845
7	0x3c1672db	0.009182657
8	0x3d55562e	0.05208414
9	0xbcc926c1	-0.024554612
10	0xbe19b30e	-0.1500971
11	0xbdda3f86	-0.106566474
12	0xbcd8f568	-0.026484206
13	0x3bcc7245	0.006239208
14	0xbdb6d391	-0.08927072
15	0xbe07341c	-0.13203472
16	0x3c987014	0.01860813
17	0xbe17e1d1	-0.14832236
18	0xbbcec6a5	-0.0063103014
19	0x3e17f312	0.14838818
20	0xbe331cb1	-0.17491414
21	0xbc9c3d0c	-0.019072078
22	0x3defacc9	0.11702878
23	0x3cad133f	0.021127341
24	0x3db6bc71	0.08922661
25	0x3da3bb2a	0.07994683
26	0xbdcf1654	-0.101116806
27	0xbdcf683a	-0.101273015
28	0xbe1a6ee4	-0.15081364
29	0xbcc620f5	-0.024185637
30	0xbd54f9e3	-0.051996123
31	0x3dd09542	0.10184719
32	0x3d68735e	0.056750648
33	0x3d04263a	0.03226302
34	0xbdec6dd7	-0.11544388
35	0x3c185dee	0.009299738
36	0x3e223daf	0.15843843
37	0x3e13db89	0.14439215
38	0x3d687f07	0.056761768
39	0xbe1a938b	-0.15095346
40	0xbddfc395	-0.10925976
41	0x3b9c7c5d	0.0047755674
42	0x3db88ed7	0.090116195
43	0xbda6d3bc	-0.08145854
44	0xbd640a92	-0.055674143
45	0xbe0e6150	-0.1390431
46	0x3de9da26	0.11418562
47	0x3e125d91	0.14293505
48	0x3dc166ed	0.0944346
49	0xbdcdd402	-0.10050203
50	0x3d9a32fd	0.075292565
51	0xbdd03076	-0.10165493
52	0xbe0c474e	-0.13699076
53	0x3e2a8b9b	0.16654818
54	0x39ee735a	0.0004548084
55	0x3d53999a	0.051660158
56	0x3cdc937a	0.026925791
57	0xbd998b1f	-0.07497238
58	0x3e369ed6	0.17834029
59	0x3e7463e3	0.23866229
60	0x3c922c93	0.01784352
61	0xbc14c13a	-0.009079272
62	0x3daf1b9a	0.085501865
63	0xbe0bf392	-0.13667133
64	0x3d21c70f	0.039496478
65	0xbe2058f1	-0.15658928
66	0xbd5712b9	-0.05250809
67	0xbd034fbc	-0.032058463
68	0xbd8de31b	-0.069280826
69	0x3d0434ee	0.03227704
70	0xbe31073e	-0.17287919
71	0x3c87f148	0.016594544
72	0x3dbee90b	0.09321793
73	0xbca6be4b	-0.02035441
74	0x3df64836	0.12025492
75	0x3de5b9f0	0.112171054
76	0x3d695b3a	0.056971766
77	0x3cc021e9	0.02345367
78	0x3deb7a5b	0.11497947
79	0xb9ae2e2f	-0.00033222276
80	0xbc6371b8	-0.013882093
81	0x3ca493a2	0.020089928
82	0x3d250a7a	0.040293194
83	0x3df7c4f1	0.120981105
84	0x3de1aa20	0.11018777
85	0x3d446e56	0.047956787
86	0x3b88cbe8	0.004174698
87	0x3cadfc76	0.021238547
88	0xbe3383b1	-0.17530705
89	0x3d97f5e0	0.07419944
90	0x3dd2cb64	0.102927
91	0x3d3967f5	0.045265157
92	0xbd937938	-0.07200855
93	0xbc0c0ea2	-0.008548411
94	0x3e49f7bb	0.19723408
95	0x3db1f64b	0.08689555
96	0xbe16b241	-0.14716436
97	0xbbbbb140	-0.005727917
98	0x3e3920c7	0.1807891
99	0x3dce9f4c	0.10088977
100	0xbcf1c42b	-0.029512485
101	0xbd4058dd	-0.046959747
102	0xbd3a4ed7	-0.045485344
103	0xbd441657	-0.047872867
104	0x3ca33c7b	0.0199263
105	0x3e3f2908	0.18667996
106	0xbd6404f0	-0.05566877
107	0xbe4d12fa	-0.2002677
108	0x3e030900	0.12796402
109	0xbe275869	-0.1634232
110	0xbe15d51c	-0.14632076
111	0xbc250ed9	-0.010074341
112	0x3c1ddf4a	0.009635756
113	0xbd6c280a	-0.05765537
114	0x3e2e7537	0.17036901
115	0xbe404d1f	-0.1877942
116	0x3def2391	0.11676706
117	0x3df82afa	0.12117572
118	0x3d6e2503	0.058140766
119	0x3e13c13d	0.14429183
120	0xbe063643	-0.13106637
121	0xbc77badd	-0.015120235
122	0x3d9921c0	0.074771404
123	0xbe001eaa	-0.12511697
124	0xbe033bcc	-0.1281578
125	0x3dfffe8c	0.12499723
126	0x3e3dae8f	0.1852362
127	0x3c3fb87d	0.0117017
128	0xbdcf436c	-0.101202816
129	0x3d455c2b	0.0481836
130	0x3dafbb76	0.08580677
131	0x3e2fb56b	0.17159049
132	0xbdaf72cd	-0.085668184
133	0xbe28ba00	-0.16477203
134	0x3c73ef93	0.014888662
135	0xbe2a4a8d	-0.16630001
136	0xbceaf7bb	-0.02868258
137	0x3d7ba41d	0.061435807
138	0xbd06bf3b	-0.032897215
139	0x3e3380dd	0.17529626
140	0xbcc3f933	-0.023922538
141	0x3e075169	0.1321465
142	0xbe1198b4	-0.14218408
143	0xbd535519	-0.051594827
144	0x3d8f1590	0.069865346
145	0xbd433f2c	-0.047667667
146	0x3db7ea18	0.08980197
147	0xbe23cab1	-0.1599529
148	0xbe28a365	-0.1646858
149	0xbda64553	-0.08118691
150	0xbc83bf11	-0.016082318
151	0x3daa51ab	0.08316358
152	0x3cf3fdf6	0.029784184
153	0x3dce6f84	0.10079864
154	0xbe105076	-0.14093193
155	0xbe5f433f	-0.21802996
156	0x3cf11329	0.029428082
157	0xbdf25830	-0.11833227
158	0x3e37b5c3	0.1794043
159	0x3dc672b6	0.09689848
160	0x3d0a821b	0.033815484
161	0x3d17a0b1	0.03701848
162	0x3d9342fe	0.07190512
163	0x3c2bb67e	0.010480521
164	0xbdad0fe8	-0.084502995
165	0xbb0ad7fc	-0.0021185866
166	0xbcb50783	-0.022098308
167	0xbe0c6bab	-0.13712947
168	0x3d344083	0.044006836
169	0xbca66da4	-0.020315953
170	0xbdaa75eb	-0.08323272
171	0x3c8abb40	0.01693499
172	0xbdc6f3cd	-0.0971447
173	0x3e7a3005	0.2443238
174	0x3d696e07	0.056989696
175	0x3d5c800c	0.053833053
176	0x3dd3d6b1	0.103436835
177	0x3d948647	0.07252174
178	0xbdf323e2	-0.118720785
179	0x3c887d4e	0.016661312
180	0x3e08c043	0.13354592
181	0xbe17a64c	-0.14809531
182	0x3d83d360	0.06436801
183	0xbcfbda96	-0.030743878
184	0xbd9fb3b1	-0.07797945
185	0x3d321906	0.043480895
186	0xbcfbfbe6	-0.030759763
187	0x3d8d6394	0.06903759
188	0x3cece024	0.028915472
189	0x3cbf6a6d	0.023366177
190	0x3b4a105f	0.0030832512
191	0xbdd8d6d2	-0.10587849
192	0xbd2e8330	-0.04260558
193	0xbd0f3543	-0.034962904
194	0xbd45e884	-0.048317447
195	0x3de4bdc7	0.1116901
196	0x3df06a29	0.117389984
197	0x3c1a4019	0.009414696
198	0xbc141959	-0.0090392465
199	0xbcc8c39c	-0.024507336
200	0xbce8445b	-0.028352907
201	0xbdf25220	-0.1183207
202	0xbded3a03	-0.115833305
203	0x3e260744	0.16213709
204	0x3e37a5c9	0.17934336
205	0xbb9e79d5	-0.004836301
206	0xbd9512d3	-0.07278981
207	0x3c489fa2	0.012245091
208	0x3ce40d02	0.027838234
209	0x3e0c9247	0.13727675
210	0xbdb74007	-0.08947759
211	0x3d38fd48	0.045163423
212	0x3d90e91b	0.07075711
213	0xbe1f9ebf	-0.155879
214	0x3d2b589c	0.04183255
215	0xbc56514d	-0.013080907
216	0xbe260a11	-0.16214778
217	0x3d4307b7	0.04761478
218	0xbe0b6c67	-0.13615571
219	0xbcd2d48d	-0.025736118
220	0xbdf434eb	-0.11924156
221	0xbd11bd4f	-0.03558093
222	0x3af7172f	0.0018851514
223	0xbe0e01bb	-0.13867848
224	0xbdfab2b4	-0.12241116
225	0xbe13391b	-0.14377253
226	0xbd485fb6	-0.048919402
227	0xbd20f82e	-0.039299183
228	0xbe0ed5d2	-0.13948753
229	0x3c509af7	0.012732259
230	0xba2ce028	-0.0006594681
231	0x3cd27523	0.02569062
232	0x3b9a9b88	0.004718248
233	0xbd0ee3af	-0.034885105
234	0x3df97afd	0.12181661
235	0xbd841088	-0.064484656
236	0x3d351542	0.044209726
237	0xbd4cf35c	-0.050036773
238	0x3c45dc2f	0.012076422
239	0x3d384184	0.044984356
240	0xbd81fe11	-0.063472874
241	0xbe1d7e6b	-0.15380256
242	0x3d9b759a	0.0759079
243	0x3b3319b6	0.0027328557
244	0xbdb726d3	-0.08942952
245	0xbcb7883c	-0.022403829
246	0x3dc5a0ac	0.09649786
247	0x3d96b291	0.073582776
248	0x3bfef287	0.0077803764
249	0xbda2d009	-0.07949836
250	0xbd667ed1	-0.056273285
251	0xbdf679f6	-0.12034981
252	0x3d70e21a	0.058809377
253	0xbe431465	-0.19050749
254	0x3d463e46	0.048399232
255	0x3c0a58b7	0.008444003

a2c_network.actor_mlp.2.weight f4 [128, 256]
0	0xbc784f0f	-0.015155568
1	0x3df0dce3	0.11760881
2	0xbdbf1ef7	-0.09332078
3	0xbdb6c68a	-0.08924587
4	0x3d52b67e	0.05144357
5	0xbdf1458d	-0.11780844
6	0xbd6f2996	-0.05838927
7	0x3b3ae282	0.0028516357
8	0xbd365771	-0.044516984
9	0xbd480faa	-0.048843063
10	0xbd87bac8	-0.066274226
11	0x3d53e27c	0.051729664
12	0xbd7c25e0	-0.061559558
13	0xbdcc4ac5	-0.09975199
14	0x3cc2326a	0.02370568
15	0xbd6c6d8c	-0.05772166
16	0x3ccdc4a4	0.02511818
17	0x3cf7795c	0.030209236
18	0xbdb56fca	-0.08859213
19	0x3cc16817	0.023609204
20	0xbd082b68	-0.03324452
21	0xbcd8fd7c	-0.026488058
22	0x3cd52339	0.026017772
23	0x3d8260fa	0.06366153
24	0x3ba364c9	0.0049863798
25	0xbce3a055	-0.027786413
26	0x3d8cd82b	0.06877168
27	0x3c7c7059	0.015407645
28	0x3c564c6a	0.013079742
29	0x3c18df51	0.0093305865
30	0xbcb50e9c	-0.022101693
31	0x3d69f5a2	0.05711902
32	0x3a4574d8	0.00075323647
33	0xbd78e3fd	-0.0607643
34	0x3d3fb0bb	0.046799403
35	0xbde92d2f	-0.11385571
36	0x3d867987	0.06566148
37	0xbc481d46	-0.012214011
38	0x3d2e6c20	0.042583585
39	0x3cf500b2	0.029907558
40	0xbca5da3c	-0.020245664
41	0xbccc08cb	-0.024906537
42	0xbcdae55d	-0.026720697
43	0xbd705026	-0.058670186
44	0xbdb9342f	-0.09043156
45	0xbd9b7aab	-0.075917564
46	0xbd9dda46	-0.07707648
47	0xbd8e7957	-0.069567375
48	0x3c8aa1ba	0.01692282
49	0x3d5a0312	0.053225584
50	0xbccb6d95	-0.024832526
51	0xbe213994	-0.1574462
52	0x3dc9e7c8	0.09858662
53	0xbd80120b	-0.062534414
54	0x3d097f5b	0.03356872
55	0x3dca4ffc	0.09878537
56	0xbd9df858	-0.077133834
57	0xbe08fe68	-0.13378298
58	0xbb0dd1c6	-0.0021639927
59	0xbd2e83b0	-0.042606056
60	0xbcbcedaa	-0.023062546
61	0xbd42be99	-0.04754505
62	0xbcabe29b	-0.020982077
63	0xbcd7e193	-0.02635268
64	0x3c615394	0.013752837
65	0xbca951df	-0.020668922
66	0x3d70ec5a	0.058819152
67	0xbde1752e	-0.110086784
68	0xbe246a19	-0.16056098
69	0x3cdf61a4	0.027268238
70	0x398848ea	0.00025994267
71	0xbcf108af	-0.029423086
72	0xbc88d872	-0.016704772
73	0xbd15ec26	-0.03660216
74	0x3b0653a3	0.0020496629
75	0x3d8de436	0.069282934
76	0x3d53eda4	0.051740304
77	0x3d5abb04	0.05340101
78	0x3d8af3cf	0.06784784
79	0x3d981a92	0.07426943
80	0x3d48c8f0	0.049019754
81	0x3e21762a	0.15767732
82	0x3c993486	0.018701803
83	0x3e117766	0.14205703
84	0x3d670f57	0.056411114
85	0x3dbb591a	0.09147854
86	0xbb9d0936	-0.004792358
87	0xbdde7710	-0.10862553
88	0xbc75d062	-0.015003296
89	0xbd5ad214	-0.053423002
90	0xbd818595	-0.06324307
91	0xbd78f111	-0.060776774
92	0xbd6fafa6	-0.05851712
93	0xbdfac57a	-0.12244697
94	0xbc50396e	-0.012709005
95	0x3da7660f	0.08173763
96	0xbdaaaf1b	-0.0833418
97	0xbd9bbdd4	-0.07604566
98	0xbc8527e8	-0.01625438
99	0x3d13c922	0.036080487
100	0xbdd47398	-0.1037361
101	0x3c9a203c	0.018814199
102	0xbc312aa8	-0.010813393
103	0xbd069444	-0.03285624
104	0x3c4a4236	0.0123448875
105	0x3d3e40b8	0.04644844
106	0x3c93879d	0.018009001
107	0x3e0ec7cd	0.13943405
108	0x3bd50a06	0.006501439
109	0xbcb8b34e	-0.022546437
110	0xbd2e3f93	-0.042541098
111	0x3d478ad8	0.048716396
112	0xbc169386	-0.009190446
113	0x3e077aaf	0.13230394
114	0x3d7ccae7	0.06171694
115	0x3d8f5829	0.06999237
116	0x3d23f8c1	0.040032152
117	0xbd2fd390	-0.04292637
118	0xbc7ce720	-0.015435964
119	0x3c233477	0.009961239
120	0x3cf56530	0.029955477
121	0x3b87b616	0.0041415794
122	0x3d1790d0	0.03700334
123	0x3ca75fa7	0.020431353
124	0xbdb07541	-0.086161144
125	0xbcfd350d	-0.030909086
126	0xbd26e61f	-0.040746804
127	0x3d76b9f5	0.060235936
128	0xbdec8235	-0.115482725
129	0xbca93daa	-0.020659287
130	0xbd164306	-0.036685012
131	0x3db27861	0.08714367
132	0xbdb3f9fc	-0.08787915
133	0xbc5c3da1	-0.013442428
134	0xbc812e91	-0.015769275
135	0xbcb7532d	-0.022378528
136	0xbdd39344	-0.10330823
137	0xbdfaf1e8	-0.12253171
138	0xbd8a4907	-0.0675221
139	0x3b88f077	0.0041790563
140	0x3c6ea410	0.014565483
141	0x3db6347e	0.08896731
142	0x3db1d5f1	0.08683384
143	0x3d1b5589	0.03792337
144	0x3df4b93c	0.11949393
145	0x3d47312b	0.048630875
146	0xbd572e68	-0.05253449
147	0x3d926bd8	0.07149476
148	0x3cfbec61	0.030752363
149	0xbb5c9006	-0.003365518
150	0x3d665f29	0.056243096
151	0x3d495b19	0.049159143
152	0x3d853155	0.0650355
153	0xbda0252a	-0.078195885
154	0xbdbd2f9d	-0.09237597
155	0xbd6b7a3e	-0.057489626
156	0xbc26fb7d	-0.010191795
157	0xbdac6b29	-0.08418877
158	0xbd02e14d	-0.031953145
159	0xbd820b85	-0.063498534
160	0xbb02b3f1	-0.001994368
161	0xbc1d3375	-0.009594788
162	0x3c9e4419	0.01931958
163	0x3db5a619	0.08869571
164	0xbbbbb9c7	-0.0057289335
165	0xbdd418e8	-0.10356313
166	0x3a4e86eb	0.0007878381
167	0xbd9db49e	-0.077004656
168	0x3d32cd99	0.043653104
169	0x3d31ba7c	0.043390736
170	0xbd993581	-0.07480908
171	0xbdb13084	-0.08651832
172	0x3d9d46ed	0.07679544
173	0x3c77117a	0.01507985
174	0xbce10a8a	-0.027470846
175	0xbd6fbca4	-0.05852951
176	0x3d1a4b96	0.03766974
177	0x3d1131f3	0.035448026
178	0xbd818277	-0.06323712
179	0xbe16dc40	-0.14732456
180	0x3def5f12	0.11688055
181	0xbd38358d	-0.044972945
182	0xbbf2b19b	-0.007406426
183	0xbbc5ccba	-0.006036368
184	0xbd94c08d	-0.07263289
185	0xbc81953d	-0.015818233
186	0x3df7ac65	0.120934285
187	0xbdc9309f	-0.09823727
188	0x3cca6943	0.024708396
189	0xbc046dde	-0.008082835
190	0x3d30e51d	0.04318725
191	0xbd099649	-0.03359059
192	0x3ce875ac	0.028376423
193	0xbc3acf9f	-0.01140204
194	0xbd9c5a9f	-0.07634472
195	0x3d623721	0.055228356
196	0xbd99a9b1	-0.07503069
197	0x3d7377d1	0.059440438
198	0xbd87271d	-0.06599257
199	0x3d8ba454	0.068184525
200	0xbd125af0	-0.035731256
201	0x3d7db596	0.061940752
202	0xbd715605	-0.058919925
203	0xbd0048bb	-0.03131936
204	0x3d065ff8	0.032806367
205	0x3d337411	0.04381186
206	0x3c8e6d2a	0.017386038
207	0xbd2e8885	-0.042610664
208	0x3b878b47	0.004136476
209	0xbcb02ccd	-0.021505738
210	0xbd0e432d	-0.034732033
211	0x3d1e0d7e	0.038587086
212	0xbb7d224b	-0.0038625177
213	0x3cfa940a	0.030588169
214	0x3d7c7793	0.061637472
215	0x3da948c6	0.082658336
216	0x3d326395	0.043552
217	0xbd19ad43	-0.03751875
218	0xbd839ca6	-0.06426363
219	0x3bf95eff	0.0076102014
220	0x3d7f2e6c	0.06230013
221	0xbd33a6b2	-0.043860145
222	0xbdf5e58d	-0.12006674
223	0xbd87d62e	-0.066326484
224	0xbd82dcf9	-0.063898034
225	0xbce8c56e	-0.028414454
226	0xbaa8160b	-0.0012823952
227	0x3d905179	0.0704679
228	0xbd93af47	-0.07211166
229	0xbdc025c6	-0.09382205
230	0x3de5f9b5	0.112292685
231	0xbcf55c8c	-0.029951356
232	0xbb798ac7	-0.0038077103
233	0xbca6c5a8	-0.020357922
234	0xbdb775ce	-0.08958016
235	0xbc8834a4	-0.016626664
236	0xbce3da68	-0.027814105
237	0xbd1da3a7	-0.03848615
238	0xbafbb101	-0.0019202532
239	0x3cab7048	0.020927563
240	0xbd0c67da	-0.034278728
241	0xbd394185	-0.0452285
242	0xbd8542a7	-0.065068536
243	0x3e118d0c	0.14213961
244	0xbb0384f6	-0.0020068265
245	0xbdd68bf7	-0.10475915
246	0x3cdabb43	0.026700621
247	0xbd883574	-0.066508204
248	0xbddc3312	-0.107519284
249	0xbde1d292	-0.11026491
250	0xbca6b3df	-0.020349441
251	0xbd505265	-0.050859828
252	0xbda4a3cc	-0.08039054
253	0xbd95a30d	-0.0730649
254	0xbd817174	-0.063204676
255	0xbdd27a95	-0.10277287

a2c_network.actor_mlp.2.bias f4 [128]
0	0x3d96e575	0.07367984
1	0xbd0b72b8	-0.03404495
2	0x3e07875f	0.13235234
3	0xbbd3f202	-0.0064680586
4	0x3d47e8a5	0.04880585
5	0xbb9f3a1a	-0.004859221
6	0xbc9d7f85	-0.019225845
7	0xbd432452	-0.04764206
8	0xbd849a34	-0.064747244
9	0x3d3252c8	0.043535978
10	0xbe25aa55	-0.16178258
11	0x3de22b20	0.11043382
12	0xbd95ecad	-0.07320533
13	0xbe18549b	-0.14876024
14	0xbe12ee99	-0.1434883
15	0x3cb81f44	0.022475846
16	0x3e01ea0b	0.12686937
17	0xbd988287	-0.07446771
18	0x3d3f798d	0.04674678
19	0xbde1e815	-0.11030594
20	0x3d6c4820	0.05768597
21	0x3ba508f1	0.0050364663
22	0xbd0235ed	-0.03178971
23	0x3e405331	0.18781735
24	0xbd5e8c4c	-0.054333016
25	0x3c265b47	0.010153598
26	0xbd2027d6	-0.03910049
27	0xbd91ac36	-0.07112925
28	0xbd784beb	-0.060619276
29	0x3d2808c9	0.041024003
30	0x3d11cdd0	0.03559667
31	0xbe84b603	-0.25920114
32	0xbdc6b097	-0.097016506
33	0xbdd1f927	-0.102526
34	0xbe249f9d	-0.16076513
35	0x3e110ee1	0.14165832
36	0xbde48456	-0.111580536
37	0xbe0de15b	-0.13855498
38	0xbd43c6cf	-0.04779702
39	0xbe6513db	-0.22370856
40	0x3e1174a3	0.1420465
41	0x3dbd3026	0.09237699
42	0x3cd064dd	0.02543872
43	0xbe2020dd	-0.15637536
44	0x3c12c68c	0.00895847
45	0xbc7f9625	-0.015599762
46	0xbd1ae0f4	-0.03781219
47	0x3e00dbf1	0.12583901
48	0x3d4af3d8	0.049548954
49	0x3dd9a33c	0.106268376
50	0xbe00ded1	-0.12584998
51	0x3d8efd32	0.06981887
52	0x3d5699f1	0.052392904
53	0x3d3f2010	0.046661437
54	0x3d72b7ea	0.059257425
55	0xbd8be89c	-0.06831476
56	0x3c2e256b	0.010629038
57	0x3cd58217	0.026063008
58	0xbc52bdd3	-0.01286264
59	0x3d7fec14	0.062481
60	0x3dd64f25	0.10464314
61	0x3e080bb7	0.13285719
62	0xbdc5ebcd	-0.09664116
63	0x3e049956	0.12949118
64	0xbd12477f	-0.035712715
65	0x3cc8c3f7	0.024507506
66	0x3d06a9ac	0.032876655
67	0xbe1ced1e	-0.15324828
68	0x3dbd3e34	0.0924038
69	0xbdb760ee	-0.08954035
70	0x3d44e3d5	0.04806884
71	0x3d938640	0.072033405
72	0xbd65301c	-0.055954084
73	0xbddb5595	-0.10709683
74	0xbd9eca5c	-0.07753441
75	0x3cf9bb22	0.03048474
76	0xbdb9e829	-0.09077484
77	0xbd94b5d6	-0.07261245
78	0x3d9c847e	0.076424584
79	0xbc0a8bc0	-0.008456171
80	0xbe2b21ba	-0.16712084
81	0x3c4896e6	0.012243008
82	0x3d23d2c0	0.03999591
83	0x3e06c18e	0.13159773
84	0xbdf68b7e	-0.12038325
85	0xbe1b7485	-0.15181167
86	0xbe03d945	-0.1287585
87	0xbd454a5c	-0.048166618
88	0xbc8396fd	-0.016063208
89	0x3dbab083	0.09115698
90	0xbd934708	-0.071912825
91	0x3bce4ea8	0.0062959976
92	0x3c68fdbf	0.014220654
93	0x3c5e42ab	0.0135657
94	0xbdc31cd6	-0.095269844
95	0x3e52b301	0.20576097
96	0xbb209df8	-0.002450822
97	0x3d788025	0.060669083
98	0xbcd2131e	-0.025643881
99	0xbd8d4445	-0.06897787
100	0xbe066425	-0.1312414
101	0xbc3ee579	-0.01165139
102	0x3d9724b5	0.07380048
103	0x3d830232	0.06396903
104	0xbccc0010	-0.024902374
105	0xbce61a26	-0.02808864
106	0x3d8bccfe	0.068262085
107	0x3d990717	0.074720554
108	0x3c9aad8e	0.018881585
109	0xbd25af07	-0.040450122
110	0x3ddd93b8	0.10819191
111	0x3d05376d	0.03252356
112	0x3d9eb6b1	0.07749689
113	0x3d86a9f0	0.06575382
114	0xbc2b781c	-0.010465648
115	0xbe04b742	-0.12960532
116	0xbc899d13	-0.016798532
117	0xbd951cff	-0.07280921
118	0x3d7ec5a4	0.062200204
119	0xbc642d38	-0.013926797
120	0xbe1bae0e	-0.15203115
121	0xbd92248b	-0.07135876
122	0x3d75df0e	0.060027175
123	0x3d86a250	0.065739274
124	0xbde8a6d5	-0.11359946
125	0x3ddd4e87	0.108059935
126	0xbdd6d8ab	-0.10490545
127	0x3dfd793f	0.123766415

a2c_network.actor_mlp.4.weight f4 [64, 128]
0	0xba9d77ba	-0.0012013831
1	0xbc852883	-0.016254669
2	0xbad96154	-0.0016584792
3	0xbd3376c7	-0.043814447
4	0xbe6e5592	-0.2327483
5	0x3deb94aa	0.11502965
6	0x3d4f880f	0.050666865
7	0x3c8e2dfa	0.017355908
8	0x3cdf476a	0.027255733
9	0x3b922a3b	0.0044606007
10	0x3c9038ae	0.017605152
11	0x3d838b9c	0.06423113
12	0xbdf7da46	-0.12102179
13	0xbd9c1497	-0.07621115
14	0x3e0f7526	0.14009532
15	0x3d9895d5	0.07450453
16	0x3da99ab4	0.082814604
17	0x3d48cda6	0.049024247
18	0x3e07fd00	0.13280106
19	0xbc2c9146	-0.010532683
20	0xbe3fce72	-0.18731096
21	0xbd741c17	-0.0595971
22	0xbc3ec2a8	-0.011643089
23	0x3b3ce364	0.0028822059
24	0x3de5a86b	0.11213764
25	0x3b951450	0.0045495406
26	0xbd79828b	-0.06091551
27	0x3da83974	0.08214083
28	0xbd45ffec	-0.04833977
29	0xbd6669b9	-0.05625317
30	0xbda0a994	-0.078448445
31	0x3d55a843	0.05216242
32	0xbcf50780	-0.029910803
33	0x3cc5b942	0.02413619
34	0xbd9bc6c1	-0.07606269
35	0xbd8bb0e9	-0.06820852
36	0xbd0c360b	-0.034231227
37	0xbc88978b	-0.016673824
38	0x3d943ea8	0.07238513
39	0x3d9b9a7a	0.075978234
40	0x3d2fca19	0.042917345
41	0x3da3b025	0.07992581
42	0x3d9a2015	0.075256504
43	0x3cb55160	0.02213353
44	0xbe04e296	-0.1297706
45	0x3dc245e4	0.09485987
46	0xbd2a5881	-0.04158831
47	0xbdc69078	-0.09695524
48	0x3db91091	0.09036363
49	0xbd739527	-0.059468415
50	0xbdcadf9a	-0.0990593
51	0xbe5e3590	-0.2170012
52	0x3c87e4be	0.016588565
53	0x3da44da9	0.08022625
54	0xbe15cfcc	-0.1463005
55	0xbe34a557	-0.17641197
56	0x3e0fbe77	0.140375
57	0x3e4ce774	0.20010167
58	0x3e22930c	0.15876406
59	0x3e255aa8	0.16147864
60	0x3daa297a	0.08308692
61	0x3d1bef09	0.03806976
62	0x3ca46717	0.020068688
63	0x3d758a4f	0.059946354
64	0xbc869092	-0.016426358
65	0xbda570e9	-0.080781765
66	0xbc13bebb	-0.009017642
67	0x3d6fb7d0	0.058524907
68	0xbda890dd	-0.082307555
69	0xbc0ded23	-0.008662495
70	0xbc98ff8b	-0.01867654
71	0xbc23cc31	-0.0099974135
72	0x3dfcce91	0.12344087
73	0x3db70509	0.08936507
74	0xbd5e720f	-0.054307994
75	0xbda82308	-0.08209807
76	0x3ce3936c	0.027780257
77	0x3d9f1ec5	0.07769541
78	0xbd6a7ffe	-0.05725097
79	0x3cabf064	0.02098865
80	0xbd610935	-0.05494042
81	0x3cd8e01f	0.026474057
82	0xba39e718	-0.00070916256
83	0xbdd4b039	-0.10385174
84	0x3b44ec66	0.003004813
85	0xbd19d4af	-0.037556347
86	0xbdcbb8e8	-0.099473774
87	0xbd0ed7a3	-0.034873616
88	0x3def9363	0.11698034
89	0x3e3719c7	0.17880927
90	0x3ce932a9	0.02846654
91	0xbd7b4ed2	-0.061354466
92	0x3ddc8539	0.10767598
93	0x3dac85dc	0.08423969
94	0x3a9920da	0.0011682764
95	0x3d432140	0.04763913
96	0x3e72d482	0.23713878
97	0x3d99163e	0.074749455
98	0xbdd00b0f	-0.10158359
99	0xbdeec635	-0.11658899
100	0x3d85407e	0.065064415
101	0x3c8796a0	0.016551316
102	0xbcb1c4a5	-0.021700213
103	0x3dc6dafe	0.09709738
104	0xbe35a344	-0.17738062
105	0x3dd66c6f	0.10469901
106	0xbd25dbaf	-0.04049271
107	0x3dc4fcb2	0.0961851
108	0x3d557699	0.052115057
109	0xbcad4e08	-0.021155372
110	0x3d66361e	0.056203954
111	0x3d363007	0.044479396
112	0x3e5ffeba	0.21874514
113	0xbd3374cd	-0.04381256
114	0xbd90a606	-0.070629165
115	0x3dac0c51	0.08400787
116	0x3df61e89	0.12017543
117	0xbd0fa5b8	-0.03507015
118	0xbd929a90	-0.07158387
119	0x3ce1744a	0.027521271
120	0xbda7844a	-0.08179529
121	0xbc00390a	-0.007826099
122	0x3db128f7	0.086503915
123	0xbe2dfc92	-0.16990879
124	0xbdee06b6	-0.11622374
125	0xbdcf8dc7	-0.10134464
126	0x3bb71432	0.0055871243
127	0x3ddc4755	0.10755793
128	0x3ca9abbd	0.020711774
129	0xbd0ab440	-0.033863306
130	0xbde2080c	-0.11036691
131	0x3cd33c2c	0.025785528
132	0xbd8addc6	-0.06780581
133	0xbe1dfe44	-0.15429026
134	0x3d87f8aa	0.06639226
135	0x3d8b45f8	0.06800455
136	0x3dfc6137	0.1232323
137	0xbd71d3ea	-0.059039988
138	0x3cee938c	0.02912309
139	0x3d2b43c7	0.041812684
140	0x3e0f561d	0.13997693
141	0x3d84b1d9	0.06479234
142	0xbd806538	-0.06269306
143	0xbd037776	-0.03209635
144	0xbd096554	-0.0335439
145	0x3ccefc84	0.025266893
146	0x3ad9e82d	0.001662498
147	0xbce6a971	-0.028156968
148	0xbdd22757	-0.1026141
149	0xbd3d1ca7	-0.046169903
150	0x3dc10e17	0.094265155
151	0xbcaa2f7f	-0.020774601
152	0xbde541a0	-0.111941576
153	0x3d641cb3	0.055691432
154	0xbd5a3e85	-0.05328228
155	0x3bcc94a6	0.006243306
156	0xbcb660c1	-0.022262933
157	0xbdf4c4cf	-0.11951601
158	0xbda569ac	-0.08076796
159	0x3d754845	0.059883375
160	0x3d89cdff	0.06728744
161	0x3dc926c3	0.09821846
162	0xbdfec245	-0.12439398
163	0xbe00a91c	-0.1256451
164	0xbdbb42d6	-0.09143607
165	0x3d4fd384	0.050738826
166	0x3cf2358c	0.029566549
167	0x3e3f7127	0.18695508
168	0x3c1fdcfa	0.009757275
169	0xbc095d23	-0.008384022
170	0x3cff6f64	0.031181045
171	0x3dafeddf	0.08590292
172	0xbd1f4ec9	-0.038893495
173	0x3db98075	0.09057704
174	0xbd471f46	-0.04861381
175	0xbe1bcecb	-0.15215604
176	0xbcc8fb6e	-0.024533954
177	0xbdfe3b30	-0.12413633
178	0xbd1d6b68	-0.03843251
179	0xbd9ab5bb	-0.075541936
180	0xbd2d2e11	-0.04228026
181	0xbd7a772c	-0.061148807
182	0x3cfe23d9	0.031022953
183	0xbd563107	-0.05229285
184	0x3d2f4f7a	0.042800404
185	0x3d45927c	0.0482354
186	0x3d9d9434	0.07694283
187	0x3cd1c2e3	0.025605625
188	0xbdd4ebb5	-0.1039652
189	0xbe038f4f	-0.12847637
190	0xbcef6c51	-0.029226454
191	0xbc7adf9c	-0.015312102
192	0x3ccb2ee1	0.024802627
193	0xbd92d7c4	-0.0717006
194	0xbd6f5367	-0.058429148
195	0x3e05b057	0.1305555
196	0x3d0f6c64	0.03501548
197	0xbcb45899	-0.022014903
198	0x3d365b1a	0.044520475
199	0x3da53f19	0.080686755
200	0xbdcdc32c	-0.10046992
201	0x3d279e98	0.04092273
202	0x3ce0ff1b	0.027465394
203	0xbdc64730	-0.09681547
204	0x3d95d509	0.07316024
205	0x3e144cb7	0.1448239
206	0xbd30fd6e	-0.04321044
207	0x3cf6f6df	0.030147014
208	0x3de9fc87	0.11425119
209	0x3d149188	0.036271602
210	0x3c7bfb04	0.015379671
211	0xbca5e20e	-0.020249393
212	0x3d2cc120	0.042176366
213	0xbcf5c12f	-0.029999344
214	0xbd379247	-0.044817235
215	0x3cb9b730	0.022670358
216	0xbd2325a0	-0.039830804
217	0xbdf97f17	-0.121824436
218	0xbdac09e1	-0.08400322
219	0xbc9d40c0	-0.019195914
220	0xbb04665e	-0.0020202617
221	0xbc2189a3	-0.009859475
222	0xbd061f03	-0.03274442
223	0xbc0bc461	-0.008530707
224	0x3ab9bccc	0.0014170646
225	0x3d979e9f	0.074033014
226	0x3d45e3b1	0.048312847
227	0x3dbcc759	0.0921771
228	0x3d68de43	0.05685259
229	0xbdb1543d	-0.08658645
230	0xbd929c7c	-0.07158753
231	0xbcddcea3	-0.027076071
232	0x3cb7ab98	0.02242069
233	0xbc89a789	-0.01680352
234	0x3cf579ba	0.02996527
235	0x3cc8079d	0.024417693
236	0x3d448d6e	0.04798644
237	0xbd9321bf	-0.07184171
238	0x3cffa521	0.03120667
239	0xbc7a56ff	-0.015279531
240	0xbe05ef7d	-0.13079639
241	0xbe2d865c	-0.16945785
242	0x3c711aa6	0.014715826
243	0xbcfa999a	-0.030590821
244	0x3cc9eede	0.024650034
245	0x3ca5ca04	0.02023793
246	0xbe3235c5	-0.17403324
247	0xbcfed8e2	-0.031109277
248	0x3df0048c	0.11719617
249	0x3c0333e8	0.008007981
250	0xbd8becf8	-0.068323076
251	0xbd068bef	-0.032848295
252	0x3df3b85f	0.119004
253	0x3ca4ff3f	0.020141242
254	0x3bcfd35d	0.006342335
255	0x3d7badd2	0.061445065

a2c_network.actor_mlp.4.bias f4 [64]
0	0xbd533d7a	-0.0515723
1	0xbd1de075	-0.038544137
2	0xbd308726	-0.043097638
3	0xbd9d4c8c	-0.07680616
4	0xbc316bd1	-0.010828928
5	0xbc38ca1b	-0.011278654
6	0xbd8ca0a8	-0.0686658
7	0x3c66b684	0.014081601
8	0xbde3ae6f	-0.11117255
9	0xbced177a	-0.028941859
10	0xbd0661d0	-0.032808125
11	0x3be5c900	0.0070124865
12	0x3c27f387	0.010250933
13	0x3cb47b54	0.022031464
14	0xbd85355f	-0.0650432
15	0xbe0161d0	-0.12634969
16	0x3d3b5428	0.045734555
17	0xbd76316f	-0.060105737
18	0x3cca9a5f	0.024731813
19	0xbda2fb4b	-0.079580866
20	0x3c08c92e	0.008348746
21	0x3d24aa31	0.04020137
22	0xbb62395a	-0.0034519047
23	0xbdb2317f	-0.08700847
24	0xbd414c9a	-0.047192194
25	0xbd9018d5	-0.07035986
26	0xbdff06cd	-0.12452469
27	0x3d8e5277	0.06949323
28	0x3bd76ebb	0.0065744794
29	0xbdfd182d	-0.12358127
30	0xbdaecb58	-0.085348785
31	0x3d8dad52	0.06917824
32	0xbe378a0c	-0.17923754
33	0xbda37523	-0.079813264
34	0xbb94a7ef	-0.004536621
35	0x3cbe74ef	0.023249118
36	0x3e242db6	0.16033062
37	0xbbfa7a39	-0.0076439646
38	0xbdf9cf73	-0.12197771
39	0x3c581b5f	0.0131901195
40	0x3c5cfd92	0.01348819
41	0x3d46865c	0.04846798
42	0x3d63b791	0.055594984
43	0xbd604a70	-0.05475849
44	0xbd38e63c	-0.045141444
45	0x3d8e9bd2	0.06963314
46	0x3d656433	0.05600376
47	0xbdc432f6	-0.095800325
48	0xbe2b4d3b	-0.1672868
49	0x3d613e98	0.054991335
50	0xbe1e6707	-0.1546899
51	0xbcdd388d	-0.027004505
52	0xbdad92d7	-0.08475273
53	0xbdede3f4	-0.11615744
54	0x3dbc4926	0.091936395
55	0xbd95040b	-0.07276162
56	0x3d82e72c	0.06391749
57	0x3d899f20	0.06719804
58	0x3d388516	0.045048796
59	0xbdc76eb3	-0.09737911
60	0x3bd8512b	0.006601473
61	0xbd16fea5	-0.03686394
62	0xbdda3eaf	-0.10656487
63	0x3cf95285	0.030434856

a2c_network.value.weight f4 [1, 64]
0	0xbd2b5207	-0.041826274
1	0xbd57d7ba	-0.052695967
2	0x3dbacd60	0.091212034
3	0xbcf25bac	-0.029584728
4	0x3dbb6031	0.091492064
5	0xbcb981a1	-0.02264482
6	0xbbb05e5b	-0.005382342
7	0x3e2fe24e	0.17176172
8	0xbcb2a589	-0.021807449
9	0x3cef22c5	0.029191384
10	0xbc4b42c7	-0.012406058
11	0xbcf279da	-0.029599119
12	0xbdfa7f44	-0.12231305
13	0x3c2eda46	0.010672158
14	0xbd82e1d9	-0.06390733
15	0xbdbf0d85	-0.093287505
16	0xbdec5725	-0.11540059
17	0x3bb179c6	0.005416128
18	0xbbdb3dac	-0.0066907015
19	0xbe1b00cc	-0.15137023
20	0xbd9c4243	-0.07629826
21	0x3e491a27	0.19638883
22	0x3caa10ed	0.020760024
23	0xbe0020d9	-0.1251253
24	0xbe27305e	-0.16327044
25	0xbdc650db	-0.09683391
26	0x3db85518	0.09000605
27	0xbd383f06	-0.04498198
28	0xbdb5178d	-0.088423826
29	0xbdfa030d	-0.12207613
30	0x3dc2a57f	0.09504222
31	0x3d924f52	0.071440354
32	0x3d0ad9fa	0.033899285
33	0x3d842cd8	0.06453866
34	0x3d7de2ad	0.061983753
35	0xbdfc4cec	-0.12319359
36	0x3bbfe351	0.0058559556
37	0xbdb46f8a	-0.08810337
38	0x3dc8895d	0.09791825
39	0x3d0690a9	0.032852802
40	0xbd2bfa68	-0.041986853
41	0x3e571195	0.21002801
42	0xbd25a9c4	-0.040445104
43	0xbd416f60	-0.047225356
44	0x3d2fd932	0.042931743
45	0x3d9c0b71	0.0761937
46	0x3dd44365	0.10364417
47	0x3c814630	0.015780538
48	0x3dc15134	0.094393164
49	0x3c74f64e	0.014951302
50	0x3d84efc9	0.06491048
51	0xbe4a3900	-0.19748306
52	0x3c9fcece	0.019507792
53	0x3dd2feec	0.10302529
54	0xbd569ef7	-0.052397694
55	0x3d8757fa	0.06608577
56	0xbccda7bf	-0.025104402
57	0xbc03e7ad	-0.008050841
58	0xbc53fc05	-0.012938504
59	0x3dece574	0.11567202
60	0x3d382d7f	0.044965263
61	0xbe260487	-0.16212665
62	0x3dee028d	0.1162158
63	0xbc6d0a01	-0.014467717

a2c_network.mu.weight f4 [12, 64]
0	0xbd99ecfb	-0.075159036
1	0xbe0dc85f	-0.13845967
2	0xbdc407fa	-0.09571834
3	0x3da9cb80	0.08290768
4	0x3dbf8f9c	0.09353563
5	0x3d610350	0.0549348
6	0x3d656adf	0.056010123
7	0x3d69b9f0	0.05706209
8	0xbd935441	-0.071938045
9	0x3d21a732	0.03946609
10	0x3d399d78	0.04531619
11	0x3e0b8055	0.13623174
12	0x3dbd8b5c	0.09255096
13	0xbc22013e	-0.0098879915
14	0x3ddac9e6	0.1068304
15	0x3d31ce7e	0.043409817
16	0x3d17f6ba	0.03710053
17	0xbd6bfa94	-0.057612017
18	0x3d897ec0	0.06713629
19	0x3cb7c2ce	0.022431757
20	0x3d98ec29	0.07466919
21	0xbcaaa59f	-0.020830927
22	0x3cb09600	0.0215559
23	0xbc69ad49	-0.014262506
24	0xbd8c9c40	-0.0686574
25	0xbe21de8d	-0.15807553
26	0x3cf1d5fd	0.029520983
27	0x3dae80c0	0.08520651
28	0x3d889e2f	0.06670796
29	0xbda7166c	-0.081585735
30	0xbc5a7b48	-0.013335057
31	0xbdb76c4b	-0.08956202
32	0xbdbd6d93	-0.09249415
33	0xbdef4126	-0.11682348
34	0xbdad1a82	-0.084523216
35	0x3d3edbd7	0.046596374
36	0x3d100857	0.035164203
37	0x3cb1513a	0.021645177
38	0x3d82ed53	0.06392922
39	0x3d6a26b6	0.057165824
40	0xb803b9dc	-3.140593e-05
41	0x3c664ddc	0.014056649
42	0x3d96de40	0.073666096
43	0x3da9f472	0.08298577
44	0x3d72584f	0.05916625
45	0xbd170c6f	-0.036877092
46	0x3d2baaa2	0.041910775
47	0x3d9d7c5a	0.07689734
48	0x3d3c9906	0.046044372
49	0x3d8ebfd3	0.06970181
50	0x3d2ec1ef	0.04266542
51	0x3d3d2528	0.046178013
52	0xbd6cbb4e	-0.057795815
53	0xbd8ec648	-0.06971413
54	0x3c5d4b4b	0.013506721
55	0xbd86a68a	-0.065747336
56	0xbdac0788	-0.08399874
57	0x3dc21629	0.09476883
58	0x3d0dbf9e	0.03460657
59	0x3df9850d	0.121835805
60	0x3ca3b2cd	0.01998272
61	0xbbed8158	-0.007248085
62	0x3bed4f8b	0.0072421483
63	0xbc48b559	-0.012250268
64	0xbd38cfc9	-0.045120034
65	0x3d4b77f4	0.049674943
66	0x3df3f67a	0.11912246
67	0xbd1c89fb	-0.038217526
68	0xbdad64d0	-0.08466494
69	0xbda7f0bb	-0.082002126
70	0xbd50db3e	-0.050990336
71	0x3ccf10d0	0.025276572
72	0xbd941197	-0.072299175
73	0xbcc93a89	-0.024564045
74	0xbd90c131	-0.07068098
75	0x3dbf42e9	0.09338934
76	0xbd35a5ce	-0.044347577
77	0xbd7ca8fa	-0.061684586
78	0xbce0bbef	-0.027433364
79	0x3deae680	0.11469746
80	0x3d9f3fe9	0.07775862
81	0x3cfd57d0	0.030925661
82	0xbd0d1275	-0.03444143
83	0xbd5f2564	-0.054479018
84	0xbc374890	-0.011186734
85	0x3d159faf	0.03652924
86	0xbd0f7eef	-0.035033163
87	0x3db2f99b	0.08739015
88	0xbd1a537d	-0.037677277
89	0xbb8502bd	-0.0040591643
90	0x3c058b53	0.008150893
91	0x3cb34a77	0.021886094
92	0xbc025fc6	-0.0079574045
93	0x3d9f50cc	0.07779083
94	0x3c81971f	0.01581913
95	0x3db7d067	0.089752965
96	0xbd19a5a2	-0.037511475
97	0xbdcf7d38	-0.101313055
98	0x3c784445	0.0151529955
99	0xbaf491c8	-0.0018659169
100	0xbd40757b	-0.046987038
101	0x3d156b79	0.036479447
102	0xbd30ef41	-0.04319692
103	0xbd138e66	-0.036024474
104	0xbdc0f6ab	-0.09422048
105	0x3d6cf8df	0.05785453
106	0x3da8c81b	0.08241292
107	0x3e0cdfb7	0.13757215
108	0xbd99e1a8	-0.07513744
109	0x3ceb8b26	0.028752875
110	0xbda951b3	-0.08267536
111	0xbd2f8243	-0.042848837
112	0xbd9d11e8	-0.07669431
113	0x3dfa296d	0.122149326
114	0x3e0f4a54	0.13993198
115	0xbd4ed764	-0.05049838
116	0xbc3e3f40	-0.01161176
117	0xbdeff5e2	-0.1171682
118	0xbc522e1d	-0.012828377
119	0x3d8d91b3	0.069125555
120	0x3c6fdba7	0.014639772
121	0x3c5e2a1a	0.0135598425
122	0xbd5a3d23	-0.05328096
123	0x3af33da8	0.0018557804
124	0x3ba711ac	0.005098542
125	0x3cc5d893	0.024151122
126	0xbd9cf115	-0.0766317
127	0x3b620ad8	0.0034491327
128	0x3bea3c90	0.007148333
129	0xbc85827f	-0.016297577
130	0x3c946314	0.01811365
131	0x3a7b1658	0.00095782196
132	0xbbe86de9	-0.0070931804
133	0xbd3a79ca	-0.045526303
134	0x3c9a898a	0.018864412
135	0xbd69283c	-0.056923136
136	0x3d70362d	0.058645416
137	0xbc50ad2d	-0.012736601
138	0x3caa9132	0.020821188
139	0xbcc2e0f6	-0.02378891
140	0xbc0d842e	-0.008637471
141	0xbd697a38	-0.057001323
142	0x3cca70d0	0.024711996
143	0x3de93bf3	0.113883875
144	0xbd80145f	-0.062538855
145	0x3d28a4ad	0.041172672
146	0xbd9f11db	-0.077670775
147	0x3d173bdc	0.03692232
148	0x3ce90c29	0.028448181
149	0xbd1fc7b4	-0.03900881
150	0x3aad3fee	0.0013217905
151	0x3d4b7ee6	0.049681567
152	0x3d365bef	0.04452127
153	0x3d95f15b	0.073214255
154	0x3dd4fabd	0.10399387
155	0xbd8386ff	-0.06422233
156	0xbb7292bb	-0.0037013728
157	0x3d7259a3	0.059167515
158	0x3cd926b1	0.026507707
159	0xbd7472e9	-0.0596799
160	0x3e083e59	0.13305034
161	0x3cb6271a	0.022235442
162	0xbc42e77c	-0.0118960105
163	0xbc593930	-0.0132582635
164	0xbe0d28e5	-0.13785131
165	0x3c87f2dd	0.016595298
166	0x3d8e7f61	0.06957889
167	0xbd1b7457	-0.037952747
168	0xbc5a4161	-0.013321252
169	0xbd6bd68b	-0.05757765
170	0xbda95210	-0.08267605
171	0x3d787da4	0.060666695
172	0x38f81b7a	0.000118306794
173	0xbd833ac9	-0.06407697
174	0xbdb2063f	-0.086925976
175	0x3d863872	0.06553735
176	0x3de78fa2	0.11306693
177	0xbe15fd7d	-0.1464748
178	0x3dffa912	0.124834195
179	0x3b510d2f	0.0031898727
180	0x3d74a10a	0.05972389
181	0x3da42b40	0.08016062
182	0xbd284bd8	-0.041087955
183	0x3d2230c2	0.03959728
184	0xbd9e0879	-0.0771646
185	0xbd131feb	-0.03591911
186	0xbbbc86ad	-0.0057533593
187	0x3d09a331	0.033602897
188	0xbcc7e46b	-0.02440091
189	0x3c5f2e06	0.013621813
190	0x3dbdd648	0.092693865
191	0x3c187952	0.009306269
192	0x3da6604a	0.081238344
193	0xbcff143f	-0.031137584
194	0x3d887821	0.06663538
195	0x3d80c442	0.06287433
196	0xbd4677fb	-0.048454266
197	0xbcb78a84	-0.022404917
198	0xbd86d041	-0.0658269
199	0x3caf1a6d	0.021374905
200	0x3d477c3f	0.048702475
201	0x3c361693	0.011113781
202	0x3d5705a6	0.05249562
203	0x3cfbcfb5	0.03073869
204	0x3d9a35ab	0.075297676
205	0x3d04be46	0.03240802
206	0x3b35603e	0.0027675773
207	0xbce682dd	-0.028138572
208	0x3d76bc3e	0.060238115
209	0x3c2a94d6	0.010411462
210	0xbb8bd836	-0.0042677177
211	0x3d959b78	0.07305044
212	0xbdde41be	-0.10852383
213	0x3c4adea5	0.012382184
214	0x3b6c4d36	0.0036056763
215	0x3d96322d	0.07333789
216	0xbdafc57c	-0.08582589
217	0x3cc35595	0.02384452
218	0x3d724bf9	0.059154484
219	0xbd803d6a	-0.06261714
220	0xbd99ddcb	-0.07513007
221	0x3d63743f	0.055530783
222	0x3d008eff	0.03138637
223	0xbc80e271	-0.015732976
224	0x3ca5ac1e	0.020223673
225	0x3c2da56f	0.0105985245
226	0xbdf2602c	-0.118347496
227	0x3c3638d2	0.011121945
228	0x3d9ce234	0.07660332
229	0x3d704af6	0.05866524
230	0xbd4efd99	-0.05053482
231	0xbc62b123	-0.013836178
232	0xbdc4f6d0	-0.09617388
233	0x3df152a7	0.11783343
234	0x3d64519d	0.055741895
235	0xbdbecae1	-0.0931604
236	0x3d601f83	0.054717552
237	0xbcf0d7dd	-0.029399807
238	0x3d4610c3	0.04835583
239	0xbd9e04a7	-0.07715731
240	0x3d88f695	0.06687657
241	0x3d85b9b8	0.06529564
242	0x3dfb34ec	0.122659534
243	0x3d8f33fe	0.069923386
244	0xbc8ccf89	-0.017188804
245	0x3d7f72eb	0.062365454
246	0x3d9fd519	0.07804317
247	0xbd67108b	-0.05641226
248	0xbc48c08f	-0.012252941
249	0xbd121f67	-0.03567448
250	0xbd87c9d3	-0.06630292
251	0xbd892677	-0.0669679
252	0x3d85372a	0.06504662
253	0xbd91f2ed	-0.071264125
254	0x3cbc2b32	0.022969816
255	0x3d097851	0.03356201

a2c_network.mu.bias f4 [12]
0	0x3c8e8600	0.01739788
1	0x3c3cabed	0.0115156
2	0xbe41ba7b	-0.18918793
3	0xbccda3ed	-0.02510258
4	0x3d26d7ec	0.040733263
5	0x3ae22603	0.001725376
6	0xbcf8dd11	-0.03037885
7	0x3d530da4	0.05152668
8	0x3ca822d7	0.020524425
9	0xbca67cb0	-0.020323128
10	0x3c8a0595	0.016848365
11	0xbd5a7b87	-0.05334046

exp_avg f4 [12]
0	0xbc461906	-0.012090927
1	0xbc817ac4	-0.01580561
2	0xbc868637	-0.01642142
3	0xbc690072	-0.014221298
4	0xbb5033e1	-0.0031769203
5	0x3c99aa4a	0.018757958
6	0xbc4d226b	-0.012520413
7	0x396b3220	0.0002243002
8	0xbace43c0	-0.0015736744
9	0x3b6599f1	0.0035034383
10	0x3c585d0a	0.013205776
11	0xbb92b687	-0.0044773254

exp_avg_sq f4 [12]
0	0x3b949250	0.0045340434
1	0x3b1e775c	0.002418003
2	0x3bdcc5fd	0.006737469
3	0x3b15aeaa	0.0022839704
4	0x3b8901cc	0.0041811224
5	0x3c4bc9bc	0.012438234
6	0x3b49ace2	0.0030773212
7	0x3b17b0b1	0.0023146088
8	0x3b8bcd59	0.0042664227
9	0x3bed0bfe	0.0072340956
10	0x3b1e7a24	0.0024181688
11	0x3b494043	0.003070847
