omniisaacgymenvs/runs/WEE/nn/last_WEE_ep_1600_rew_882.10394.pth (torch, 623514 bytes, 36 tensors)

value_mean_std.running_mean f8 [1]
-12.279557574938499
00000000: 7b6b a32b 228f 28c0

value_mean_std.running_var f8 [1]
3215.2197877963113
00000000: 6faa 0688 701e a940

value_mean_std.count f8 []
419430401.0
00000000: 0000 0001 0000 b941

running_mean_std.running_mean f8 [32]
0.0011551638636338982 0.012190268317974318 0.47087471525531677 -0.09982667471127 0.016966602370390504 -0.0072837622157153 0.40402514865203887 0.037910568356475764
0.010532775873910868 0.034806139611840065 0.0034609570608872876 -0.0011695418359012968 0.06956312980986845 -5.639193625266364e-06 -2.044086899979787e-05 0.4282034214030344
0.4681530344538932 -0.0001392068397144281 8.819020513255178e-05 -0.2179072508706427 0.002300864403584943 0.0033807209340473952 -0.0052291633609208655 -0.21484886005950798
0.13442786012863678 -0.0207142869763742 0.0 0.0 0.0 0.0 0.0 0.0
00000000: f255 03c1 1bed 523f c093 0a1e 36f7 883f
00000010: c43b a2b3 cf22 de3f f540 27af 3d8e b9bf
00000020: 8362 3869 b15f 913f b926 2208 94d5 7dbf
00000030: fe35 0e4c 8cdb d93f 7f15 8796 0369 a33f
00000040: f8fc 503f 3592 853f 0c6d aa3e 1cd2 a13f
00000050: 8dba 752c 275a 6c3f 259d effb 6929 53bf
00000060: 1071 8aa7 e3ce b13f bfad 95bd 09a7 d7be
00000070: 6a9e 5ad2 0d6f f5be 9586 bd52 af67 db3f
00000080: 222b 2025 38f6 dd3f 542a dda5 013f 22bf
00000090: 052c ff2f 581e 173f 9d7c 0682 62e4 cbbf
000000a0: 60ae b52b 43d9 623f f806 28bb e2b1 6b3f
000000b0: a9f6 edd9 2c6b 75bf 80ec c4dd 2a80 cbbf
000000c0: ae3d 769f ee34 c13f 1773 7e44 2036 95bf
000000d0: 0000 0000 0000 0000 0000 0000 0000 0000
000000e0: 0000 0000 0000 0000 0000 0000 0000 0000
000000f0: 0000 0000 0000 0000 0000 0000 0000 0000

running_mean_std.running_var f8 [32]
0.002934507451438955 0.0014000182601771173 0.0013314607813543745 0.6595548216979643 0.0099312166785907 0.02874560998642737 0.1287493645011032 0.6606941624733434
0.6808020953173927 0.6303770139686323 206.46609141438475 126.89200399798143 188.52463125380487 3.742050956975615e-06 4.494761740390149e-06 2.437527099834885e-05
0.26462939256248413 0.00020742401804359027 0.00023229168116803824 0.46830640045017213 0.005411171723226444 0.005461561020937887 0.003307539791907997 13.227400856902898
15.141972286616623 7.144402846056734 4.7683715592938624e-09 4.7683715592938624e-09 4.7683715592938624e-09 4.7683715592938624e-09 4.7683715592938624e-09 4.7683715592938624e-09
00000000: d8e0 14b1 1b0a 683f 3976 0a29 1af0 563f
00000010: f6b7 c120 8dd0 553f 6c94 a3b6 121b e53f
00000020: 5e96 c056 d156 843f fa5c 2e3b 7d6f 9d3f
00000030: e4dd f4f2 db7a c03f 5765 8f15 6824 e53f
00000040: 9df7 cd79 21c9 e53f 35a7 646a 0c2c e43f
00000050: 53b7 8a38 eace 6940 d1ce ef97 16b9 5f40
00000060: a5b1 7bc7 c990 6740 8b7e fb44 fe63 cf3e
00000070: 9a8f 0cb3 36da d23e ff37 49de 2f8f f93e
00000080: 1170 a71e b0ef d03f bc19 70bf fe2f 2b3f
00000090: 94b4 f558 6a72 2e3f d638 9c68 bbf8 dd3f
000000a0: 6148 5959 062a 763f 1845 859f dc5e 763f
000000b0: e31b 91e7 6918 6b3f edf5 96e2 6d74 2a40
000000c0: d9e9 6f97 b048 2e40 4f0d f556 de93 1c40
000000d0: 34a6 0a46 e17a 343e 34a6 0a46 e17a 343e
000000e0: 34a6 0a46 e17a 343e 34a6 0a46 e17a 343e
000000f0: 34a6 0a46 e17a 343e 34a6 0a46 e17a 343e

running_mean_std.count f8 []
209715201.0
00000000: 0000 0002 0000 a941

a2c_network.sigma f4 [12]
-1.5658025 -1.3433429 -2.75779 -1.1136538 -1.0986319 -3.7513258 -1.2307394 -0.9504389
-1.0738691 -0.81829655 -1.192795 -1.0537992
00000000: 376c c8bf a9f2 abbf a27f 30c0 358c 8ebf
00000010: f89f 8cbf b915 70c0 de88 9dbf f74f 73bf
00000020: 8b74 89bf e27b 51bf 82ad 98bf e4e2 86bf

a2c_network.actor_mlp.0.weight f4 [256, 32]
0.15034325 0.13826264 -0.6996583 0.15162328 0.6170155 2.075781 0.027366629 -0.07976451
-0.077610955 -0.1714593 0.12853438 0.3231385 -0.22740562 -0.27005994 0.06756465 -0.13827066
-0.18019587 -0.25787118 -0.24199492 -0.12478274 -0.14801784 0.13911463 0.03203474 0.09096529
0.081753194 -0.018563781 0.1383469 -0.12560225 0.011130519 -0.1206572 0.054509446 -0.06087876
0.062413532 0.013978434 0.5330881 -0.16389103 -0.6851308 -1.3872172 0.1579524 0.34693336
0.27381268 -0.30265272 -0.44191524 -0.5697713 0.21113771 0.31940246 0.081387185 0.25738305
-0.09818678 -0.11971645 0.048846636 -0.12845841 0.14501141 -0.096419595 0.1271637 -0.06028921
-0.054616045 -0.0017077432 0.037371926 -0.045070764 0.105371185 0.12017442 -0.12819375 -0.094375454
0.14959608 -0.1138534 -0.3380983 -0.38707975 -1.2948228 -0.8996827 -0.10876129 -0.4614122
0.14469999 -0.30583194 0.16149183 -0.94565797 -0.45590863 -0.20862933 0.94023705 0.07144865
0.02629102 -0.21351783 -0.25133848 -0.06800869 -0.06141851 -0.10364969 -0.11473284 -0.14602564
-0.002179801 -0.05519827 -0.012249876 -0.11978914 -0.121338665 -0.10313184 -0.060510207 -0.13952647
0.11444771 0.31627753 -0.29729027 0.02474434 -0.54586333 0.42494005 -0.29375428 -0.2319199
-0.28367004 -0.20839258 0.32121482 -0.26537207 -0.091741346 -0.21398728 -0.08918187 -0.2865981
-0.45776764 -0.053318657 -0.11941346 0.0002427285 0.13294013 -0.14340292 0.10424221 -0.08671178
0.009861532 -0.068918966 0.16101858 -0.12974533 0.094478525 0.06212633 0.057444636 -0.09557365
0.288726 -0.13512237 -0.27240595 -0.017275028 1.0105782 -0.234657 -0.07753981 0.021084225
-0.0815948 0.043333564 0.078905545 0.20069082 -0.30830008 -0.16506211 0.11088413 -0.19640839
0.058903072 -0.13196482 0.34492967 -0.11565552 -0.06744074 -0.03831539 -0.03987764 0.010515938
-0.011833497 -0.009253933 0.06610162 -0.031063449 -0.04681069 0.018911732 -0.031228328 -0.05267964
0.16489917 0.2807769 -0.9445248 0.06238783 -0.05077229 -0.12563995 -0.04084611 -0.37272388
-0.24859588 -0.011712505 0.07881884 -0.22334546 -0.6615987 -0.36774376 0.35200503 -0.30925998
-0.16142046 0.19100234 -0.010667149 0.12612005 -0.25874928 0.043914042 -0.21598919 0.114307374
0.011018398 -0.14949232 0.07313521 -0.06733098 -0.11441971 0.12902705 -0.08038068 -0.03543785
-0.19194567 0.28213933 0.14088257 0.081403494 0.4778596 -1.7945821 -0.09728536 0.037465516
-0.009015747 0.076368555 0.024022304 -0.16514072 -0.1811792 -0.33917972 -0.109026514 -0.14753418
0.39753675 -0.2787451 0.018720815 0.05122521 -0.018256608 -0.031312507 -0.24137582 -0.0033616705
-0.11743534 0.09370632 -0.056711514 -0.1296776 -0.03119029 -0.08569204 -0.05408334 -0.16829063
0.06302869 -0.21654816 0.23735107 0.023315161 0.33800143 0.19483551 0.15833299 -0.016032506
0.004852519 0.14849646 -0.23436812 0.032399107 0.03638676 -0.46155834 -0.055805955 -0.35740346
0.29562807 -0.13725495 0.28940952 -0.13177495 -0.13920815 0.044275224 -0.037596814 -0.17224674
0.040047232 -0.18834189 -0.01546155 -0.08701187 -0.07226058 -0.05611933 -0.16799161 0.1450466
00000000: 95f3 193e b994 0d3e ce1c 33bf 2243 1b3e
00000010: baf4 1d3f 99d9 0440 fb2f e03c 935b a3bd
00000020: 7ef2 9ebd 0793 2fbe 849e 033e 6972 a53e
00000030: 05dd 68be 4c45 8abe 565f 8a3d d396 0dbe
00000040: 4485 38be b107 84be 84cd 77be 188e ffbd
00000050: fd91 17be 1174 0e3e dc36 033d 034c ba3d
00000060: 386e a73d 1213 98bc cfaa 0d3e e09d 00be
00000070: c85c 363c 1f1b f7bd 4c45 5f3d 025c 79bd
00000080: 55a5 7f3d cd05 653c 7678 083f 0dd3 27be
00000090: bb64 2fbf 5590 b1bf 46be 213e 40a1 b13e
000000a0: 2d31 8c3e 4cf5 9abe b742 e2be 88dc 11bf
000000b0: 7c34 583e b888 a33e 53ae a63d b6c7 833e
000000c0: 2716 c9bd e62d f5bd 6913 483d 9a8a 03be
000000d0: df7d 143e a377 c5bd 3337 023e d2f1 76bd
000000e0: 13b5 5fbd 5ad6 dfba 4e13 193d 1f9c 38bd
000000f0: d9cc d73d 021e f63d 3945 03be eb47 c1bd
00000100: b72f 193e f92b e9bd 381b adbe 512f c6be
00000110: c1bc a5bf 9b51 66bf 3dbe debd 383e ecbe
00000120: 3c2c 143e 0196 9cbe 1d5e 253e a416 72bf
00000130: db6c e9be eda2 55be 60b3 703f ab53 923d
00000140: 4460 d73c 6ba4 5abe 70af 80be 2448 8bbd
00000150: fa91 7bbd 4a46 d4bd 0df9 eabd bf87 15be
00000160: feda 0ebb 9517 62bd b4b3 48bc 0254 f5bd
00000170: 6880 f8bd c936 d3bd 8dd9 77bd 07e0 0ebe
00000180: 9063 ea3d 21ef a13e 6e36 98be a4b4 ca3c
00000190: b3bd 0bbf be91 d93e f666 96be 697c 6dbe
000001a0: 333d 91be dd64 55be 4576 a43e d9de 87be
000001b0: e3e2 bbbd 7b1f 5bbe fca4 b6bd fcbc 92be
000001c0: 8560 eabe aa64 5abd 0b8f f4bd f084 7e39
000001d0: 7521 083e 37d8 12be f17c d53d f295 b1bd
000001e0: 4392 213c 6325 8dbd 0ee2 243e f6db 04be
000001f0: f57d c13d 2e78 7e3d 114b 6b3d 1ebc c3bd
00000200: e5d3 933e 855d 0abe cb78 8bbe 5c84 8dbc
00000210: a05a 813f ed49 70be 31cd 9ebd d3b8 ac3c
00000220: 2d1b a7bd 897e 313d 3b99 a13d e581 4d3e
00000230: 82d9 9dbe 0b06 29be 3817 e33d 481f 49be
00000240: 5944 713d c921 07be 9f9a b03e cddc ecbd
00000250: 5f1e 8abd 99f0 1cbd bc56 23bd 0a4b 2c3c
00000260: 49e1 41bc cf9d 17bc 4960 873d c678 febc
00000270: 91bc 3fbd c7ec 9a3c 8dd2 ffbc 9bc6 57bd
00000280: 54db 283e fdc1 8f3e 61cc 71bf 628a 7f3d
00000290: 9bf6 4fbd c2a7 00be 404e 27bd aad5 bebe
000002a0: eb8f 7ebe cee5 3fbc c66b a13d acb4 64be
000002b0: 885e 29bf e948 bcbe 013a b43e 5357 9ebe
000002c0: 684b 25be 1e96 433e 44c5 2ebc 9d25 013e
000002d0: c97a 84be 36df 333d 452c 5dbe fc19 ea3d
000002e0: 8386 343c 8414 19be eac7 953d d3e4 89bd
000002f0: e254 eabd ab1f 043e a09e a4bd 4727 11bd
00000300: 688d 44be 9174 903e 8543 103e e0b6 a63d
00000310: 03aa f43e deb4 e5bf 8c3d c7bd 7175 193d
00000320: c9b6 13bc 1e67 9c3d 6cca c43c a61a 29be
00000330: 0a87 39be f7a8 adbe 4b49 dfbd 3313 17be
00000340: f089 cb3e aeb7 8ebe 655c 993c 87d1 513d
00000350: e28e 95bc 8b41 00bd 392b 77be 794f 5cbb
00000360: f181 f0bd 19e9 bf3d 554a 68bd 34ca 04be
00000370: c782 ffbc 4f7f afbd 7e86 5dbd 6154 2cbe
00000380: 3015 813d cdbe 5dbe 290c 733e 70ff be3c
00000390: 860e ad3e f682 473e 0b22 223e 9a56 83bc
000003a0: e101 9f3b 750f 183e 32fe 6fbe edb4 043d
000003b0: 490a 153d 6051 ecbe c994 64bd 96fd b6be
000003c0: 905c 973e 908c 0cbe 7c2d 943e 03f0 06be
000003d0: 958c 0ebe f059 353d 1eff 19bd 7361 30be
000003e0: 9108 243d b2dc 40be 7152 7dbc 4833 b2bd
000003f0: 5bfd 93bd 62dd 65bd fe05 2cbe 1987 143e

a2c_network.actor_mlp.0.bias f4 [256]
0.1438972 0.32451865 0.1277652 -0.3267906 0.032947656 0.22846857 -0.18826643 -0.3122796
-0.020975968 -0.22769316 -0.121853344 -0.00091512414 0.0015588443 -0.09483678 0.11787631 -0.16144848
0.1384669 0.14435741 0.080225 0.1118809 0.15415218 -0.25352064 -0.12011965 0.2997362
0.32844782 -0.13414492 -0.20257342 -0.36852822 -0.33189476 -0.1700936 -0.33695555 -0.05813263
-0.14299922 -0.19304173 -0.39270666 0.27275047 0.033089515 0.17678995 -0.17043823 -0.34459174
-0.004341202 -0.09656532 0.32174656 -0.15127693 -0.16475484 0.0724411 0.0049518826 0.19159745
0.31553686 -0.13210106 -0.08106385 -0.17929359 -0.15262735 0.33367744 -0.11235545 0.29506055
-0.2675116 -0.033470057 0.1828892 0.28734422 0.1982552 0.19030833 0.3346887 -0.15928611
0.106804185 -0.5929174 0.022071904 0.03204417 -0.09005696 0.21353105 -0.21187794 -0.096420825
0.36618835 0.009598226 0.1260121 0.106894396 0.14878236 0.20035554 0.5346157 -0.17874174
-0.2442893 0.23366763 0.109613776 -0.079877764 0.1432389 0.40769708 0.09937809 -0.004869132
0.118556105 -0.013747948 0.20640115 0.16209525 -0.14620487 -0.23315537 0.48917222 0.10740829
0.0576214 -0.013951511 0.037498135 -0.043414447 -0.11778723 -0.20392282 -0.121108815 -0.21553843
-0.27143317 0.17874795 -0.05777015 -0.47502148 0.360011 0.016318597 -0.0482201 -0.14399545
-0.1151266 -0.15210837 0.2990007 -0.37100288 0.27928838 0.26406732 0.13817744 0.22525993
-0.20462316 -0.22513518 -0.17752604 -0.12648444 0.1966291 0.45726666 0.332557 -0.030138167
-0.20220374 0.10499714 0.4129699 -0.04858097 0.30131695 0.03843243 -0.29834867 -0.22145969
-0.3403576 0.3802871 0.10089471 -0.027104912 0.13007939 0.13421194 -0.20750397 -0.33772504
0.0978225 0.25313672 0.392657 0.0065574823 -0.25922182 0.14259693 -0.171779 0.07789253
0.36270663 0.27759185 -0.0027331095 -0.000792946 0.091677055 -0.30139887 0.24849212 0.067116864
-0.14898276 0.23908105 0.24283348 -0.25606722 -0.15675318 -0.1331135 -0.40912434 -0.4078337
-0.0033350063 -0.07826062 -0.06860508 0.17337394 -0.42082566 0.18829554 0.33484432 0.3630986
0.044532973 0.17347182 -0.0825923 -0.2752174 0.23855539 -0.2220662 0.22156622 -0.11810297
0.109962374 0.2073042 -0.14368059 0.37474284 -0.19316399 -0.14519602 -0.22384952 -0.05683278
0.14532061 -0.011008069 -0.1691138 0.050730783 0.19618267 0.019663649 0.15449432 -0.3903108
0.021694807 -0.34086 -0.18602532 0.2207338 0.3082393 -0.12892947 -0.0069175805 0.26961938
-0.101557195 0.1671202 0.21255521 0.2359904 0.09184503 -0.06035082 0.23945068 0.016281098
-0.10157699 -0.095624134 -0.033129398 0.18135548 -0.30337477 0.16121371 -0.2407681 -0.20346004
-0.13298349 0.07505353 0.010692112 0.032421768 -0.22888786 -0.14691275 -0.21676584 0.32931998
0.119844586 -0.2509956 0.33522844 -0.023707284 -0.10023023 0.19474843 0.20743985 -0.26149136
-0.16278352 -0.25038886 0.0813111 -0.10860433 0.05457518 0.10224244 0.34887838 -0.21839345
0.3751676 -0.031342044 -0.09586669 0.062263057 -0.24766055 0.13002013 -0.05656961 -0.28546995
00000000: ca59 133e 4f27 a63e e1d4 023e 1951 a7be
00000010: 1ff4 063d aaf3 693e eac8 40be 1de3 9fbe
00000020: cbd5 abbc 6528 69be 3f8e f9bd f1e4 6fba
00000030: 2352 cc3a c939 c2bd 2369 f13d c052 25be
00000040: 44ca 0d3e 6ed2 133e 014d a43d d021 e53d
00000050: 12da 1d3e 75cd 81be 4b01 f6bd 0677 993e
00000060: 502a a83e 495d 09be 686f 4fbe bbaf bcbe
00000070: 1cee a9be 042d 2ebe 7085 acbe 7b1c 6ebd
00000080: 636e 12be bbac 45be d910 c9be f3a5 8b3e
00000090: df88 073d 6d08 353e 5c87 2ebe 546e b0be
000000a0: a440 8ebb 0ac4 c5bd f7bb a43e 57e8 1abe
000000b0: 7eb5 28be 005c 943d 6743 a23b 1f32 443e
000000c0: 0c8e a13e 8045 07be ce04 a6bd bd98 37be
000000d0: 584a 1cbe c5d7 aa3e 9d1a e6bd 2d12 973e
000000e0: 48f7 88be e617 09bd 4e47 3b3e c81e 933e
000000f0: 6903 4b3e 30e0 423e 515c ab3e e61b 23be
00000100: 27bc da3d 6fc9 17bf 23d0 b43c bf40 033d
00000110: c96f b8bd e2a7 5a3e 88f6 58be 4878 c5bd
00000120: 0a7d bb3e e141 1d3c 5109 013e 73eb da3d
00000130: 675a 183e 012a 4d3e 93dc 083f 1308 37be
00000140: f926 7abe 9146 6f3e 307d e03d f496 a3bd
00000150: 38ad 123e acbd d03e bd86 cb3d 3d8d 9fbb
00000160: 8bcd f23d 133f 61bc d35a 533e 4cfc 253e
00000170: bbb6 15be 48c0 6ebe c874 fa3e e1f8 db3d
00000180: 6b04 6c3d e194 64bc a597 193d 59d3 31bd
00000190: 6e3a f1bd 25d1 50be e607 f8bd 1bb6 5cbe
000001a0: 4af9 8abe b409 373e 65a0 6cbd 0436 f3be
000001b0: 5d53 b83e 94ae 853c 7182 45bd 8b73 13be
000001c0: 7fc7 ebbd 4cc2 1bbe 9f16 993e 17f4 bdbe
000001d0: e3fe 8e3e d533 873e 637e 0d3e 8aaa 663e
000001e0: bc88 51be d689 66be 63c9 35be 2385 01be
000001f0: 2459 493e db1e ea3e e944 aa3e 51e4 f6bc
00000200: 7f0e 4fbe be08 d73d ca70 d33e d7fc 46bd
00000210: 3746 9a3e 536b 1d3d 28c1 98be 54c6 62be
00000220: 5a43 aebe feb4 c23e e3a1 ce3d 1f0b debc
00000230: 8833 053e db6e 093e ec7b 54be 4cea acbe
00000240: 2a57 c83d 239b 813e 570a c93e 26e0 d63b
00000250: b9b8 84be ee04 123e d6e6 2fbe 1e86 9f3d
00000260: afb4 b93e 8520 8e3e f81d 33bb b5dd 4fba
00000270: 2ec1 bb3d f450 9abe b874 7e3e 9174 893d
00000280: f08e 18be aad1 743e 57a9 783e 3e1b 83be
00000290: e883 20be e84e 08be bf78 d1be 94cf d0be
000002a0: 1f90 5abb 1b47 a0bd d280 8cbd f088 313e
000002b0: 7676 d7be 8cd0 403e b770 ab3e 0fe8 b93e
000002c0: 3568 363d 99a2 313e 2726 a9bd 4ce9 8cbe
000002d0: dd47 743e 5265 63be 41e2 623e f8df f1bd
000002e0: f433 e13d 8d47 543e 0121 13be 4bde bf3e
000002f0: c8cc 45be 44ae 14be cf38 65be 7dc9 68bd
00000300: edce 143e 305b 34bc 2b2c 2dbe 15cb 4f3d
00000310: 1ce4 483e a915 a13c c233 1e3e d1d6 c7be
00000320: 4fb9 b13c 3485 aebe 6c7d 3ebe 0b08 623e
00000330: 8bd1 9d3e 1606 04be dfac e2bb 8d0b 8a3e
00000340: 38fd cfbd 8f21 2b3e 13a8 593e 78a7 713e
00000350: 3f19 bc3d 6c32 77bd 8f32 753e f05f 853c
00000360: 9907 d0bd 96d6 c3bd b1b2 07bd 40b5 393e
00000370: f053 9bbe 3515 253e ea8b 76be d457 50be
00000380: d32c 08be aab5 993d f82d 2f3c b0cc 043d
00000390: 9461 6abe 4c70 16be ddf7 5dbe a19c a83e
000003a0: 1471 f53d 7f82 80be 10a3 ab3e c735 c2bc
000003b0: 8245 cdbd 226c 473e 1d6b 543e 32e2 85be
000003c0: b9b0 26be f832 80be 6f86 a63d f26b debd
000003d0: 398a 5f3d 7c64 d13d 30a0 b23e 88a2 5fbe
000003e0: f815 c03e 8460 00bd c155 c4bd 8c07 7f3d
000003f0: ba9a 7dbe ff23 053e 89b5 67bd 1e29 92be

a2c_network.actor_mlp.2.weight f4 [128, 256]
-0.6364626 0.37504902 0.036723003 -0.122593574 -0.16895397 -0.4330166 -0.2607534 0.013103496
0.11962055 0.20449518 -0.38514704 -0.19220187 -0.13587919 0.0721293 -0.14614972 -0.43478978
-0.113626145 -0.09309948 0.06480854 0.24399577 -0.13727225 0.2331074 -0.27845412 0.08767779
-0.022306176 0.12958497 -0.18120098 -0.20071752 0.33279872 0.2723491 0.32472694 0.135066
0.03276275 0.38283205 -0.25925803 -0.3040315 -0.15336011 0.26080728 -0.11927421 0.3139333
0.01364441 0.1206864 -0.15880643 -0.15536353 0.43859732 -0.2219267 -0.2812671 -0.14943793
0.27207923 0.40020347 0.15407538 -0.23069134 0.35496145 -0.5018089 0.10235975 0.11854689
0.008491676 -0.30031577 0.28273576 -0.19873832 0.6100684 -0.3121504 -0.3123189 -0.18735187
-0.04054423 -0.16453402 -0.29026413 0.10637056 -0.16916741 0.0499311 0.25309396 -0.17114748
-0.2892998 0.14049639 -0.25928652 -0.26042742 -0.34819373 0.028757762 -0.25639248 -0.020514209
0.005365488 -0.15791078 0.38979352 -0.1043015 0.06775526 -0.062145963 0.008664639 -0.42779607
-0.08064641 -0.01773692 0.13143153 -0.054484062 -0.27050075 -0.16378076 0.022173444 0.23562247
-0.12975794 0.017902628 -0.37401614 0.25385877 -0.20904663 0.13397206 0.11301768 0.20377949
0.2892585 -0.34827524 -0.026369961 0.27808926 -0.14479664 0.055627756 0.12707424 0.041726425
0.06320371 0.23785089 0.3181912 0.47989255 -0.0392333 0.07472922 0.061093032 0.02464516
0.063129805 -0.09950582 0.30780423 0.092698075 -0.025863264 -0.074448 -0.13040572 0.09537511
0.13044472 -0.083740234 0.17627797 -0.32999226 -0.1811697 -0.29151925 0.19939688 0.2296286
-0.15481071 0.07953051 0.17398685 0.19271846 -0.06966851 0.27468568 0.27979076 -0.050877973
0.11859366 -0.20441942 0.03886257 -0.10494967 0.092613086 -0.45464286 0.10322849 0.2818486
0.23806047 -0.045601327 -0.15016812 -0.026895413 -0.15040313 -0.28437114 -0.04928927 -0.9256096
-0.12777056 -0.35378295 -0.5321128 -0.46848145 0.0066299676 0.22795664 -0.36951593 -0.14409186
-0.23872608 0.16751032 -0.255546 -1.2052536 0.20568636 -0.17100032 -0.20870954 -0.2140012
-0.25810316 0.12783045 -0.0302795 0.100717545 0.1099077 -0.08359607 0.090329476 0.095907375
-0.12095528 0.17535523 -0.23318717 0.0043173498 0.19451576 0.14170098 0.36321223 -0.01653957
0.17749783 -0.065118186 0.20408778 0.08809372 0.26634067 0.14895205 -0.4308894 0.08152498
-0.063615456 0.18740572 0.21089567 0.0519124 -0.13264167 0.24343087 -0.24442755 -0.31424704
0.6552286 0.28942633 -1.0333803 -0.26946232 -0.03848928 0.08260816 0.013721333 -0.10999009
0.029616794 -0.17127274 -0.15666515 -0.38315916 0.18956503 -0.4355245 -0.199907 -0.041326728
0.046750624 -0.29421163 0.006954283 -0.3360125 -0.10750868 -0.65730065 0.044936873 -0.39316896
-0.02218076 -0.3307655 0.110107094 -0.13631822 0.3522202 -0.062496968 -0.11044581 -0.15607807
0.07468488 0.10069628 0.028708404 -0.0008341725 -0.11707343 -0.18229741 -0.12423608 -0.14294262
-0.15232754 -0.25951475 0.09262145 -0.715608 -0.25999945 0.02354296 0.09732954 -0.010589731
00000000: 37ef 22bf 6d06 c03e dc6a 163d 5712 fbbd
00000010: 4502 2dbe 5ab4 ddbe 7881 85be 0cb0 563c
00000020: 9efb f43d 2f67 513e fe31 c5be 91d0 44be
00000030: ea23 0bbe 87b8 933d 46a8 15be c49c debe
00000040: d3b4 e8bd f1aa bebd 57ba 843d 07da 793e
00000050: 1991 0cbe b5b3 6e3e 8a91 8ebe 6a90 b33d
00000060: 71bb b6bc ecb1 043e c08c 39be e588 4dbe
00000070: 9864 aa3e 5771 8b3e 9c42 a63e be4e 0a3e
00000080: 3c32 063d 9002 c43e 78bd 84be 04aa 9bbe
00000090: 6f0a 1dbe 8888 853e 0946 f4bd debb a03e
000000a0: ce8c 5f3c 6e2a f73d 279e 22be 9e17 1fbe
000000b0: d48f e03e c140 63be 3e02 90be 4206 19be
000000c0: f84d 8b3e 78e7 cc3e f0c5 1d3e 5a3a 6cbe
000000d0: 82bd b53e 8c76 00bf fda1 d13d b6c8 f23d
000000e0: ac20 0b3c fdc2 99be bec2 903e 0f82 4bbe
000000f0: 712d 1c3f 2dd2 9fbe 43e8 9fbe 2bd9 3fbe
00000100: b511 26bd 9b7b 28be 809d 94be cfd8 d93d
00000110: 393a 2dbe 8e84 4c3d 8895 813e 4941 2fbe
00000120: 1a1f 94be 49de 0f3e 34c1 84be be56 85be
00000130: 7346 b2be 6695 eb3c e045 83be 6a0d a8bc
00000140: fad0 af3b 5db3 21be 0493 c73e 069c d5bd
00000150: 45c3 8a3d c48c 7ebd 21f6 0d3c 1608 dbbe
00000160: f229 a5bd 044d 91bc fd95 063e ae2a 5fbd
00000170: 137f 8abe 25b6 27be 15a5 b53c 0447 713e
00000180: 44df 04be 88a8 923c 0b7f bfbe c7f9 813e
00000190: 5210 56be f92f 093e d075 e73d 92ab 503e
000001a0: b119 943e 2251 b2be d105 d8bc b761 8e3e
000001b0: 9245 14be eed9 633d c01f 023e 54e9 2a3d
000001c0: f270 813d 2f8f 733e f5e9 a23e 7ab4 f53e
000001d0: 19b3 20bd a20b 993d b03c 7a3d a6e4 c93c
000001e0: 334a 813d b5c9 cbbd 8498 9d3e 7dd8 bd3d
000001f0: 32df d3bc 3178 98bd 1489 05be 0754 c33d
00000200: 4d93 053e 0080 abbd 3682 343e bff4 a8be
00000210: 8d84 39be 0342 95be b22e 4c3e c223 6b3e
00000220: b386 1ebe e4e0 a23d 9c29 323e fd57 453e
00000230: 5dae 8ebd 9aa3 8c3e bc40 8f3e 6c65 50bd
00000240: 3ce1 f23d 5353 51be 5c2e 1f3d daef d6bd
00000250: eeab bd3d f3c6 e8be 7569 d33d 764e 903e
00000260: 20c6 733e 75c8 3abd acc5 19be c553 dcbc
00000270: 4703 1abe 1899 91be 8ce3 49bd c0f4 6cbf
00000280: 49d6 02be 0a23 b5be 8b38 08bf cddc efbe
00000290: 3340 d93b 776d 693e 3131 bdbe d18c 13be
000002a0: 9c74 74be d387 2b3e edd6 82be c045 9abf
000002b0: 729f 523e b51a 2fbe f4b7 55be 2123 5bbe
000002c0: 1926 84be fce5 023e b70c f8bc 0045 ce3d
000002d0: 4a17 e13d 6b34 abbd a9fe b83d 166b c43d
000002e0: 67b7 f7bd 5290 333e 9ec8 6ebe 8e78 8d3b
000002f0: 242f 473e 101a 113e f4f6 b93e fe7d 87bc
00000300: fec1 353e af5c 85bd 63fc 503e 7b6a b43d
00000310: ce5d 883e e386 183e 899d dcbe 92f6 a63d
00000320: d248 82bd 49e7 3f3e 09f5 573e 19a2 543d
00000330: 38d3 07be f145 793e 374b 7abe fde4 a0be
00000340: 10bd 273f b02f 943e ce45 84bf f7f6 89be
00000350: efa6 1dbd 782e a93d 71cf 603c 7c42 e1bd
00000360: eb9e f23c 1f62 2fbe d46c 20be 702d c4be
00000370: 561d 423e 11fd debe 6cb4 4cbe 3746 29bd
00000380: 957d 3f3d e8a2 96be c1e0 e33b d509 acbe
00000390: 832d dcbd db44 28bf ba0f 383d 714d c9be
000003a0: 6db4 b5bc 185a a9be d47f e13d 0197 0bbe
000003b0: 3556 b43e d2fc 7fbd 6a31 e2bd eed2 1fbe
000003c0: 63f4 983d da39 ce3d e32d eb3c 5eac 5aba
000003d0: 32c4 efbd 2cac 3abe 7c6f febd 8d5f 12be
000003e0: c0fb 1bbe 1edf 84be 51b0 bd3d 1632 37bf
000003f0: a61e 85be 2add c03c b654 c73d 8d80 2dbc

a2c_network.actor_mlp.2.bias f4 [128]
-0.08813143 0.09642967 0.2457903 -0.071808696 0.25699487 -0.26883692 -0.20857808 -0.15812512
-0.637462 0.002371341 -0.5512645 -0.012213649 -0.24834728 -0.370461 -0.22408584 -0.2023078
-0.05968613 -0.030553924 -0.117789775 -0.37250242 -0.004658936 -0.1011072 -0.32520562 0.16292702
-0.16105838 -0.06637079 -0.26098126 -0.77978617 -0.2014042 0.0042443434 -0.013433637 -0.74432105
-0.2045322 -0.38810822 -0.34954613 0.13541098 -0.33336666 -0.60561466 -0.2053933 -0.66247404
0.0652935 -0.09096891 -0.013827574 -0.37686387 -0.026443796 0.07546465 -0.37774336 0.0071808714
-0.20949541 -0.011469963 -0.20309313 -0.010067664 0.07296433 -0.08229008 0.18012336 -0.09411983
-0.36576664 -0.31677738 -0.28134516 -0.3072868 0.055344082 -0.19942567 -0.22438669 0.03688494
-0.13893245 0.08702112 -0.061119787 -0.6296806 0.031225104 -0.30374557 0.0609507 -0.28114468
-0.6351706 -0.4819466 0.03577599 -0.06649992 -0.33486605 -0.3620905 -0.14947549 -0.26204988
-0.79084224 -0.27269465 0.07800153 0.029440898 -0.4902214 -0.4848261 -0.43191153 -0.4431954
-0.12743117 -0.43815798 -0.35010305 -0.15709464 -0.21046074 -0.187918 -0.33876088 0.14811143
0.012758744 0.085603245 -0.09329425 0.019929746 -0.3207334 -0.307643 0.09430713 -0.04030182
-0.269631 -0.3680661 -0.15578145 -0.0031801113 -0.5691717 -0.094113976 0.18460134 -0.026079752
-0.43967634 -0.19641371 0.10452171 -0.37495008 -0.0958292 -0.5590252 0.124915026 -0.1751898
-0.42461008 -0.30374247 -0.20886093 -0.015647119 -0.26154885 0.015538654 -0.33430323 -0.07247249
00000000: 407e b4bd eb7c c53d 74b0 7b3e 7010 93bd
00000010: d594 833e fea4 89be 7e95 55be 8deb 21be
00000020: b630 23bf 8068 1b3b ac1f 0dbf c21b 48bc
00000030: c04e 7ebe 10ad bdbe c276 65be c729 4fbe
00000040: 7279 74bd 394c fabc c43b f1bd a3b8 bebe
00000050: fda9 98bb 4b11 cfbd 5a81 a6be 57d6 263e
00000060: 7dec 24be 69ed 87bd 569f 85be 11a0 47bf
00000070: e73c 4ebe 2214 8b3b c218 5cbc d38b 3ebf
00000080: e470 51be 1fb6 c6be b6f7 b2be 2da9 0a3e
00000090: 09af aabe 9009 1bbf 9f52 52be e697 29bf
000000a0: 99b8 853d e84d babd 0d8d 62bc 4df4 c0be
000000b0: a9a0 d8bc 368d 9a3d 9467 c1be 844d eb3b
000000c0: f785 56be 83ec 3bbc a5f7 4fbe d8f2 24bc
000000d0: 536e 953d b487 a8bd 4272 383e e6c1 c0bd
000000e0: c445 bbbe a530 a2be 790c 90be b254 9dbe
000000f0: 7ab0 623d 3e36 4cbe a0c5 65be aa14 173d
00000100: 4f44 0ebe 2138 b23d be58 7abd bf32 21bf
00000110: cacb ff3c 8a84 9bbe 71a7 793d 32f2 8fbe
00000120: 8a9a 22bf b4c1 f6be d889 123d 1c31 88bd
00000130: 9073 abbe ed63 b9be 1a10 19be 672b 86be
00000140: a374 4abf a29e 8bbe 44bf 9f3d 0a2e f13c
00000150: 4dfe fabe 203b f8be 8223 ddbe 82ea e2be
00000160: 517d 02be 3e56 e0be b540 b3be 6bdd 20be
00000170: 0583 57be 946d 40be 1172 adbe 86aa 173e
00000180: 0d0a 513c c150 af3d 0e11 bfbd b543 a33c
00000190: 2b37 a4be 6283 9dbe 1924 c13d 8513 25bd
000001a0: 130d 8abe 2973 bcbe 2c85 1fbe 6a69 50bb
000001b0: 3db5 11bf d4be c0bd 2208 3d3e 34a5 d5bc
000001c0: 421d e1be ad20 49be 7a0f d63d 75f9 bfbe
000001d0: 1a42 c4bd 471c 0fbf 73d3 ff3d f464 33be
000001e0: 7e66 d9be 2284 9bbe a4df 55be 632e 80bc
000001f0: bbe9 85be d795 7e3c cb29 abbe 756c 94bd

a2c_network.actor_mlp.4.weight f4 [64, 128]
0.00923494 -0.2357915 -0.0030428914 0.07581589 -0.64271027 0.028593784 0.16060121 -0.028386038
0.2033165 0.18523428 -0.0080872085 0.08663116 -0.10674656 -0.20601031 -0.19432878 0.010764277
0.07896735 -0.09294809 0.09286224 -0.014813159 -0.038355287 -0.071524136 0.021617189 0.070960954
0.13422988 -0.11585614 -0.054176975 0.14574446 -0.08477964 -0.083035216 -0.015228082 0.12521829
-0.006112487 -0.063776016 -0.11477205 0.0046936027 0.03550167 0.02507087 -0.018278182 0.14784984
-0.11244824 0.059726752 -0.12307933 -0.03491847 -0.17365453 0.13925537 -0.0052958764 -0.093818136
0.13269357 -0.14723818 -0.10498474 -0.1167323 0.07523094 -0.0777505 -0.22641782 -0.3786909
0.1605661 0.15098864 0.23779182 0.12644677 0.041988704 -0.062797196 -0.044534042 0.047850903
0.04240922 -0.18149564 0.0826863 0.13593698 -0.23904505 0.06678626 -0.27098295 -0.17089437
0.24098723 -0.0635225 0.062354054 -0.10771439 0.028804006 0.12497847 -0.1554704 0.05252325
0.020453481 0.06210807 -0.109810516 -0.029738907 0.12004108 0.13052407 0.096200325 0.062975265
0.073055886 0.1756747 -0.023910848 0.011334226 -0.021818697 -0.07070134 0.007466258 0.08114034
0.05865364 0.09130921 -0.010683325 -0.18357806 0.15599708 0.20002739 0.009605541 0.24842082
-0.1659968 0.15630963 -0.01967004 0.14837413 0.18529853 -0.0740646 0.098012306 0.0059327735
0.13563834 0.008903903 -0.050137226 -0.013361991 0.06676181 0.1112019 -0.11225055 0.028949315
-0.10346164 -0.06615877 0.023510303 -0.056682013 -0.04459035 -0.22489196 -0.027463574 0.109171115
0.014970095 0.033033367 -0.17541584 0.112334654 -0.31155804 -0.2507458 -0.07631367 0.04105046
0.20557901 -0.036603935 -0.07875643 0.14820781 -0.026477968 -0.07344238 -0.21713977 -0.013375019
-0.03186531 -0.010958933 0.060200226 -0.06493009 -0.10680829 0.016693942 0.051327262 -0.078155756
0.09145475 -0.01271654 -0.025511688 -0.041255318 -0.023258103 -0.040181868 -0.16957287 0.08685422
0.045941696 0.108351424 -0.46151027 -0.17983966 -0.26614046 0.009210057 0.10236979 0.24385783
0.1017752 -0.24552001 0.21792635 0.19756655 -0.07443035 0.0787758 -0.03102969 -0.4034374
-0.06894164 -0.122127414 0.015591695 -0.082730785 -0.057278275 -0.09037729 0.06191158 -0.30088747
0.056695487 0.055681653 0.27862754 0.20250086 -0.12159902 -0.079211734 -0.045184154 0.009578148
0.03674053 -0.126183 -0.028942436 0.17212887 -0.028627692 -0.06488243 -0.0032283834 -0.06347624
-0.12689778 -0.04079289 0.07685614 0.05268789 0.052130725 0.2461743 -0.032507546 0.120307386
0.21692571 0.20219883 0.13924141 -0.026369156 -0.018368172 0.10748406 -0.21367936 0.069853365
0.11052437 -0.102011174 -0.15821117 -0.23586464 -0.0060684606 -0.05545007 -0.08584674 -0.09992359
0.04992966 0.052163765 0.08913987 0.10472749 0.043786097 -0.037598316 -0.061491996 0.06180974
0.061119217 -0.06523971 -0.0043054856 0.10902814 0.11264876 -0.12038518 0.07536841 -0.05377036
-0.13606425 0.025722183 -0.08112181 -0.0042275614 0.06902135 0.025315057 -0.3213991 -0.055249337
0.06240716 0.12654729 -0.13545051 -0.020610103 -0.06477851 0.016956689 -2.0688187e-05 0.10188184
00000000: 254e 173c 5473 71be 3f6b 47bb 5d45 9b3d
00000010: a988 24bf 833d ea3c a574 243e d689 e8bc
00000020: 3332 503e 0eae 3d3e 3680 04bc ad6b b13d
00000030: f19d dabd 5ef4 52be 20fe 46be a65c 303c
00000040: a2b9 a13d 915b bebd 8f2e be3d e4b2 72bc
00000050: 6f1a 1dbd 3f7b 92bd 8816 b13c fa53 913d
00000060: 8f73 093e fc45 edbd ade8 5dbd 093e 153e
00000070: f3a0 adbd 5e0e aabd 357f 79bc 3939 003e
00000080: 424b c8bb 009d 82bd 9c0d ebbd cbcc 993b
00000090: 336a 113d 6d61 cd3c 20bc 95bc f365 173e
000000a0: 434b e6bd 0aa4 743d 0411 fcbd ab06 0fbd
000000b0: 7ed2 31be f698 0e3e 0889 adbb b923 c0bd
000000c0: d3e0 073e 9bc5 16be 3d02 d7bd 5811 efbd
000000d0: ae12 9a3d a73b 9fbd 13da 67be c6e3 c1be
000000e0: 716b 243e c49c 1a3e b37f 733e 437b 013e
000000f0: 59fc 2b3d d19b 80bd 5469 36bd 4fff 433d
00000100: 4ab5 2d3d fed9 39be 6f57 a93d 1033 0b3e
00000110: 3ac8 74be 3cc7 883d 47be 8abe effe 2ebe
00000120: 5bc5 763e 1618 82bd f766 7f3d 5d99 dcbd
00000130: 61f6 eb3c b6f4 ff3d a233 1fbe 9f22 573d
00000140: 0f8e a73c 0865 7e3d 56e4 e0bd 029f f3bc
00000150: 19d8 f53d 1aa8 053e ad04 c53d 2df9 803d
00000160: 539e 953d 12e4 333e afe0 c3bc 30b3 393c
00000170: 20bd b2bc ddcb 90bd 83a7 f43b e82c a63d
00000180: cd3e 703d 5300 bb3d 1d09 2fbc e3fb 3bbe
00000190: b3bd 1f3e fbd3 4c3e 8f60 1d3c 0762 7e3e
000001a0: 11fb 29be a20f 203e 1023 a1bc 63ef 173e
000001b0: e6be 3d3e 2eaf 97bd adba c83d b667 c23b
000001c0: c7e4 0a3e ade1 113c b15c 4dbd 41ec 5abc
000001d0: 6aba 883d d2bd e33d 9ee3 e5bd 1d27 ed3c
000001e0: b2e3 d3bd 407e 87bd ae98 c03c 662b 68bd
000001f0: 5fa4 36bd 144a 66be 4afb e0bc 1b95 df3d
00000200: 2145 753c ff4d 073d 36a0 33be b60f e63d
00000210: 8984 9fbe c161 80be 574a 9cbd 8724 283d
00000220: 4e83 523e 02ee 15bd 0d4b a1bd cac3 173e
00000230: 53e8 d8bc f568 96bd e359 5ebe e522 5bbc
00000240: 3385 02bd 198d 33bc 8394 763d 11fa 84bd
00000250: 4ebe dabd bcc1 883c 893c 523d 2010 a0bd
00000260: a14c bb3d 0959 50bc e3fd d0bc 56fb 28bd
00000270: c787 bebc be95 24bd 83a4 2dbe a0e0 b13d
00000280: 5c2d 3c3d 5ae7 dd3d 134b ecbe e327 38be
00000290: 9043 88be c7e5 163c 41a7 d13d deb5 793e
000002a0: 846f d03d 9969 7bbe 1628 5f3e e34e 4a3e
000002b0: f06e 98bd 3555 a13d fa31 febc 598f cebe
000002c0: 4631 8dbd f01d fabd 4f74 7f3c c26e a9bd
000002d0: a09c 6abd bb17 b9bd ff96 7d3d ec0d 9abe
000002e0: 8739 683d 7212 643d 45a8 8e3e 635c 4f3e
000002f0: e808 f9bd c339 a2bd 0513 39bd aaed 1c3c
00000300: 3d7d 163d 1e36 01be b018 edbc 8d42 303e
00000310: 9f84 eabc 14e1 84bd 4993 53bb d5ff 81bd
00000320: 7ef1 01be 7216 27bd c066 9d3d 42cf 573d
00000330: 0787 553d 1e15 7c3e a226 05bd b863 f63d
00000340: c621 5e3e 360d 4f3e 4d95 0e3e 2104 d8bc
00000350: d978 96bc 9a20 dc3d c3ce 5abe 480f 8f3d
00000360: 9a5a e23d 3ceb d0bd 1c02 22be 8086 71be
00000370: f0d9 c6bb 9d1f 63bd 6ad0 afbd bda4 ccbd
00000380: 0b83 4c3d aca9 553d f78e b63d 5e7b d63d
00000390: 0d59 333d b100 1abd 08df 7bbd 362c 7d3d
000003a0: 2558 7a3d 669c 85bd 0815 8dbb 254a df3d
000003b0: 65b4 e63d 818c f6bd c15a 9a3d 4f3e 5cbd
000003c0: 6d54 0bbe 54b7 d23c 3123 a6bd 5b87 8abb
000003d0: 115b 8d3d 8661 cf3c 6c8e a4be 214d 62bd
000003e0: a69e 7f3d 9d95 013e 8ab3 0abe 85d6 a8bc
000003f0: 98aa 84bd c1e8 8a3c 8b8b adb7 6da7 d03d

a2c_network.actor_mlp.4.bias f4 [64]
-0.23186187 -0.0626171 -0.19858323 -0.32259437 -0.07612273 -0.052321546 -0.39356732 -0.05499195
-0.5693729 -0.1738515 -0.15410098 -0.09153337 -0.018251989 -0.08272452 -0.19822326 -0.6311929
-0.0036239652 -0.16287614 -0.048241217 -0.36135194 -0.097318895 -0.10869482 -0.41927978 -0.21859546
-0.41499314 -0.25074786 -0.12873809 0.049803104 -0.43415815 -0.51890093 -0.13675351 0.01848282
-0.3546449 -0.14398442 -0.06253083 -0.09631758 0.08672881 -0.537673 -0.22260745 -0.004676782
-0.09269808 0.07019954 0.015440885 -0.3448257 -0.13135262 -0.2588046 0.036129292 -0.15966974
-0.28388312 -0.04976239 -0.30564898 -0.28268522 -0.45561737 -0.2536095 -0.0064716623 -0.19599813
0.064355254 0.04522155 -0.33553794 -0.06785433 -0.0018886407 -0.14635137 -0.15290713 -0.03664192
00000000: 336d 6dbe 653d 80bd 6759 4bbe 172b a5be
00000010: 3ce6 9bbd 1e4f 56bd a881 c9be 3d3f 61bd
00000020: 6cc2 11bf 2106 32be a6cc 1dbe d975 bbbd
00000030: 3285 95bc 796b a9bd 0afb 4abe dc95 21bf
00000040: 0c80 6dbb 01c9 26be 9598 45bd 1f03 b9be
00000050: 214f c7bd 649b debd d7ab d6be 7dd7 5fbe
00000060: fb79 d4be 0662 80be ebd3 03be 57fe 4b3d
00000070: fa49 debe b1d6 04bf 1d09 0cbe 4869 973c
00000080: 0494 b5be a770 13be 2a10 80bd 2742 c5bd
00000090: e09e b13d f0a4 09bf 35f3 63be b13f 99bb
000000a0: 7ed8 bdbd c7c4 8f3d c4fb 7c3c ff8c b0be
000000b0: 4d81 06be 0982 84be 4ffc 133d 7780 23be
000000c0: 2159 91be a6d3 4bbd 067e 9cbe 1ebc 90be
000000d0: ae46 e9be 1bd9 81be 3d10 d4bb bcb3 48be
000000e0: b0cc 833d 3b3a 393d a1cb abbe 36f7 8abd
000000f0: 448c f7ba 22dd 15be b093 1cbe d715 16bd

a2c_network.value.weight f4 [1, 64]
0.0011601293 0.0022158346 0.019837512 -0.029780071 -0.018794138 0.007494794 0.0024154345 -0.23921041
0.0071612718 0.25929084 -0.018686661 0.008471756 0.014818739 0.053933457 0.007876253 -0.08921452
0.02399964 0.007976796 -0.014595418 0.026910968 0.027886821 0.64698774 -0.056093257 0.034647472
-0.20021959 -0.011658642 0.03256822 -0.0002371781 -0.29636085 -0.29913554 -0.024168996 -0.012974858
0.020316217 0.016343284 -0.028967109 -0.008224447 -0.003052476 -0.13698615 0.27805233 0.01883521
0.002749041 0.82016593 0.006615797 -0.04029834 -0.0074623497 -0.16368005 -0.024478262 -0.012624809
0.08028104 0.0002422573 -0.005783963 -0.0446524 -0.07359426 0.051669344 0.0012266706 0.00076928036
0.0032730966 0.030066334 -0.14930865 0.00015833427 0.045846075 -0.0445529 -0.01616894 -0.0056329668
00000000: 7b0f 983a 8937 113b 4782 a23c 56f5 f3bc
00000010: 2af6 99bc e496 f53b 444c 1e3b 93f3 74be
00000020: 1aa9 ea3b c5c1 843e c514 99bc 1fcd 0a3c
00000030: 4cca 723c 54e9 5c3d 660b 013c 1ab6 b6bd
00000040: e59a c43c 1bb1 023c 9f21 6fbc 6474 dc3c
00000050: e772 e43c fda0 253f 0bc2 65bd 82ea 0d3d
00000060: 5d06 4dbe e403 3fbc 4166 053d 03b3 78b9
00000070: 9cbc 97be 4b28 99be 0ffe c5bc 8094 54bc
00000080: 326e a63c 5ae2 853c 6e4c edbc d5bf 06bc
00000090: 0d0c 48bb 1946 0cbe e05c 8e3e 4c4c 9a3c
000000a0: 4129 343b 65f6 513f 54c9 d83b df0f 25bd
000000b0: ba86 f4bb be9b 27be a386 c8bc 49d8 4ebc
000000c0: 636a a43d 7306 7e39 6687 bdbb 6fe5 36bd
000000d0: 96b8 96bd 3ca3 533d 3cc8 a03a 88a9 493a
000000e0: 7381 563b ac4d f63c 5ee4 18be 8806 2639
000000f0: 18c9 3b3d 1a7d 36bd ba74 84bc c094 b8bb

a2c_network.mu.weight f4 [12, 64]
-0.06595564 -0.04203683 -0.07181347 -0.09391702 0.025511196 0.010573863 -0.04191735 0.044803083
-0.13695925 -0.011391208 0.0035130184 -0.054267645 0.118980326 0.009884404 0.07918216 -0.07650543
0.0021489135 -0.06762237 0.06130405 -0.014921415 0.07030389 -0.00047992117 -0.15858318 -0.013193614
-0.20835046 -0.07840587 -0.004440452 0.014237228 -0.012847513 -0.1377069 -0.015751753 0.026190113
-0.07237523 -0.012436972 0.00874282 0.028202131 0.0142807895 -0.16080491 -0.0011260236 -0.009949019
-0.0005545128 0.020161923 0.00018148344 0.041583955 -0.0640301 -0.17673796 0.0051806537 -0.04713481
-0.12535007 0.113867216 -0.029844852 -0.022052186 -0.19717266 -0.024722561 0.021261882 0.08054608
-0.02081472 -0.011605037 -0.10706838 -0.0026846759 -0.0013551259 0.023282925 -0.0024786636 0.03344302
-0.046824735 0.12118208 0.11132032 0.033742674 0.0122860195 -0.02165458 -0.031349845 -0.072037965
-0.10563149 -0.0012741423 -0.025875568 0.009996992 0.05412938 -0.041545127 0.058852788 0.06816546
-0.027012765 0.00088032015 0.08193177 0.04088317 -0.05131136 -0.021196188 -0.040770784 -0.0070782215
0.013657351 -0.038398184 -0.0032626293 0.0069479356 0.039825413 0.13832588 0.010095206 -0.0038711478
0.046922013 -0.07163237 0.0053829313 0.07735283 -0.047674786 -0.0031571297 -0.01655643 0.0011268769
-0.008830942 0.059498914 0.049699333 0.022717139 -0.092628844 0.12997597 -0.015423111 -0.007607456
0.043407798 0.23792328 0.09388711 0.04564121 -0.032741252 -0.0725664 0.02283645 0.023830153
0.037608966 -0.0013751582 0.035922978 -0.00036158168 0.07782307 -0.01256114 -0.009657432 -0.050117973
0.03923901 -0.0036329965 -0.010329321 0.008499196 -0.00016821943 0.0009485192 0.01346976 -0.021795727
0.070797 3.9941075e-05 0.0023722982 0.013714652 0.008662375 -0.005873748 0.009442673 0.11675189
0.009984598 0.004267335 -0.018604234 0.017064065 0.0032731046 0.009736822 0.056261104 0.015445493
0.03504625 0.018946256 0.002688038 0.0029854819 -0.0011968199 0.029572746 0.0022519599 -0.02134916
-0.013441388 0.0039663133 0.0062281047 0.0011642101 -0.031313002 0.09462475 0.005639759 -0.0021256027
0.0016198737 -0.011350271 0.0032613121 0.017654024 -0.008722825 0.043504607 -0.00029674423 -0.026203044
0.012794785 -0.019945875 0.042039894 -0.005964913 0.08724591 0.013124254 0.00720108 0.028107228
-0.014205642 0.0003476648 0.06521571 -0.00265489 -0.005226887 0.009630881 -0.0056679696 -0.007831187
0.08847288 -0.023193486 0.10774777 0.19838274 0.031548522 -0.02923071 0.053394243 0.032741457
0.08350712 0.033466306 0.042709872 0.018765403 -0.047378454 -0.029737638 0.087701716 0.12828073
-0.0035635743 0.12533078 0.05124306 0.09088094 0.009461784 0.009229125 0.11077292 0.035676207
-0.042696048 0.036555305 -0.018921519 -0.09301827 0.056800254 0.120886214 -0.052188404 -0.05600295
0.000405419 -0.005326912 -0.034001525 -0.09043322 -0.037627123 0.17812377 -0.054058257 -0.0077752676
-0.026740106 -0.03150944 -0.008715289 0.040608723 0.0093559725 0.05447856 0.07524588 0.0055144476
0.06904567 0.06210213 0.15980357 0.078353375 0.18643753 0.0723376 -0.023807097 -0.078371726
0.006321156 -0.018498752 0.029313967 -0.0051853494 -0.03106014 -0.04384701 0.00058361545 0.022995465
00000000: c013 87bd d02e 2cbd f112 93bd 9157 c0bd
00000010: dbfc d03c ff3d 2d3c 87b1 2bbd 7083 373d
00000020: 0c3f 0cbe 30a2 3abc ab3a 663b c047 5ebd
00000030: f5ab f33d 32f2 213c 422a a23d e1ae 9cbd
00000040: c9d4 0c3b 997d 8abd f519 7b3d f378 74bc
00000050: 7cfb 8f3d ee9d fbb9 a163 22be 072a 58bc
00000060: d359 55be 4293 a0bd 3681 91bb 4343 693c
00000070: 607e 52bc 0a03 0dbe d209 81bc a68c d63c
00000080: 7739 94bd 71c4 4bbc 0b3e 0f3c 2808 e73c
00000090: f9f9 693c 0baa 24be 1597 93ba 3601 23bc
000000a0: b95c 11ba 9e2a a53c 974c 3e39 f053 2a3d
000000b0: 3722 83bd ccfa 34be 79c2 a93b 6e10 41bd
000000c0: c55b 00be 3733 e93d 317d f4bc c9a6 b4bc
000000d0: a1e7 49be f886 cabc 662d ae3c 58f5 a43d
000000e0: a283 aabc 0e23 3ebc ab46 dbbd 63f1 2fbb
000000f0: 7b9e b1ba d5bb be3c 1371 22bb 8cfb 083d
00000100: 4bcb 3fbd 4f2e f83d e8fb e33d c235 0a3d
00000110: 4d4b 493c f264 b1bc b268 00bd a488 93bd
00000120: 5355 d8bd 1f01 a7ba 00f9 d3bc 6cca 233c
00000130: c5b6 5d3d 392b 2abd 9f0f 713d 559a 8b3d
00000140: e049 ddbc 49c5 663a d8cb a73d 1c75 273d
00000150: dc2b 52bd a1a3 adbc 44ff 26bd 6df0 e7bb
00000160: 15c3 5f3c 6a47 1dbd d6d1 55bb 82ab e33b
00000170: f91f 233d 4da5 0d3e 5d66 253c 15b3 7dbb
00000180: 4c31 403d feb3 92bd 4d63 b03b 296b 9e3d
00000190: a346 43bd d9e7 4ebb 5aa1 87bc b7b3 933a
000001a0: a8af 10bc 22b5 733d 8791 4b3d 4b19 ba3c
000001b0: 31b4 bdbd 6c18 053e 37b1 7cbc f747 f9bb
000001c0: 60cc 313d 29a2 733e e347 c03d 47f2 3a3d
000001d0: b11b 06bd b19d 94bd 8213 bb3c 7437 c33c
000001e0: dc0b 1a3d a73e b4ba f923 133d ac92 bdb9
000001f0: b461 9f3d 3dcd 4dbc 353a 1ebc 8148 4dbd
00000200: 16b9 203d 9117 6ebb 503c 29bc 3640 0b3c
00000210: 0f64 30b9 0ca6 783a 45b0 5c3c f48c b2bc
00000220: 04fe 903d 6786 2738 8f78 1b3b 6bb3 603c
00000230: a2ec 0d3c 9278 c0bb 71b5 1a3c 9d1b ef3d
00000240: 7096 233c 00d5 8b3b e867 98bc f0c9 8b3c
00000250: 9581 563b 3187 1f3c 0b72 663d 180f 7d3c
00000260: a88c 0f3d 2e35 9b3c cb29 303b 13a8 433b
00000270: 9dde 9cba 8b42 f23c 9e95 133b 6fe4 aebc
00000280: 4439 5cbc d9f7 813b 2115 cc3b 6998 983a
00000290: 1042 00bd 9fca c13d bacd b83b b24d 0bbb
000002a0: f151 d43a 7df6 39bc bdbb 553b 2c9f 903c
000002b0: 2eea 0ebc e331 323d 5694 9bb9 c4a7 d6bc
000002c0: 38a1 513c 8865 a3bc 0632 2c3d 5175 c3bb
000002d0: fcad b23d 1c07 573c 0af7 eb3b 2141 e63c
000002e0: c8be 68bc c846 b639 d08f 853d aafd 2dbb
000002f0: 4e46 abbb d8ca 1d3c 60ba b9bb 614e 00bc
00000300: 4531 b53d 4400 bebc ddaa dc3d d824 4b3e
00000310: 0639 013d 3e75 efbc ecb3 5a3d e81b 063d
00000320: c805 ab3d f713 093d 8cf0 2e3d e7b9 993c
00000330: e90f 42bd 599c f3bc f59c b33d 065c 033e
00000340: db8a 69bb b656 003e 3ee4 513d c91f ba3d
00000350: 9905 1b3c c235 173c eadc e23d 3721 123d
00000360: 0de2 2ebd 04bb 153d 4d01 9bbc 5d80 bebd
00000370: 62a7 683d 3193 f73d 82c3 55bd 5963 65bd
00000380: 6b8e d439 608d aebb 2f45 0bbd 0d35 b9bd
00000390: e61e 1abd 1466 363e 316c 5dbd acc7 febb
000003a0: 110e dbbc 0b10 01bd 92ca 0ebc 5555 263d
000003b0: cb49 193c e924 5f3d 831a 9a3d 8ab2 b43b
000003c0: d167 8d3d ce5e 7e3d 8ca3 233e bc77 a03d
000003d0: 7be9 3e3e bc25 943d 1a07 c3bc 5b81 a0bd
000003e0: b321 cf3b b28a 97bc d823 f03c dde9 a9bb
000003f0: d671 febc ec98 33bd c5fd 183a fc60 bc3c

a2c_network.mu.bias f4 [12]
0.19641785 0.098468505 -0.32195362 -0.18451956 0.08130499 -0.0060812603 0.11286517 0.031478442
-0.09431692 0.14416108 0.077695705 -0.07272498
00000000: c321 493e dba9 c93d 1bd7 a4be b2f2 3cbe
00000010: 3b83 a63d 4f45 c7bb db25 e73d 8aef 003d
00000020: 3b29 c1bd f69e 133e ed1e 9f3d d6f0 94bd

exp_avg f4 [12]
0.006812366 -0.004905885 -0.01414046 -0.0026110823 -0.0010248901 0.024476398 -0.009556985 0.015557756
-0.018475568 0.011942514 -0.009018117 -0.00066740374
00000000: 453a df3b 8cc1 a0bb 63ad 67bc b11e 2bbb
00000010: 9b55 86ba ba82 c83c e794 1cbc f5e5 7e3c
00000020: 135a 97bc 89aa 433c b9c0 13bc b5f4 2eba

exp_avg_sq f4 [12]
0.0060887863 0.0039650127 0.0052834316 0.0051171547 0.0076046134 0.005847236 0.007887038 0.009109704
0.06795787 0.0072218818 0.0059433123 0.004224403
00000000: 7184 c73b f0ec 813b a320 ad3b cead a73b
00000010: 1f30 f93b 2c9a bf3b a338 013c de40 153c
00000020: 7f2d 8b3d 89a5 ec3b 1ec0 c23b dc6c 8a3b

exp_avg f4 [256, 32]
-0.07336108 -0.01884468 0.005050538 -0.050706536 -0.004271052 0.004620813 -0.06938893 -0.0026768495
-0.0011962447 -0.0026996084 -8.3931245e-06 -6.315018e-05 2.752729e-06 -0.0009038432 -0.00051437825 -0.04661847
0.00747966 0.0012481742 0.0022272891 -0.05723718 0.032442775 0.014693473 -0.017274974 -0.01425015
0.038457435 0.008810386 0.0 0.0 0.0 0.0 0.0 0.0
0.03774463 0.010387446 -0.0027222869 0.02883836 0.0021804872 -0.002520539 0.03496632 0.0015188241
0.0006882976 0.0012627294 5.4666434e-05 -0.00014339689 -0.000109632936 0.0002202029 0.00037402124 0.023861073
-0.004238065 -0.0006459245 -0.0013170919 0.02941781 -0.019249348 -0.0035858795 0.011462925 -0.002510055
-0.026070694 -0.014492322 0.0 0.0 0.0 0.0 0.0 0.0
0.00220557 0.0003947669 -0.00029031574 0.022888286 -0.0017811342 -0.0010282168 0.0024295957 6.334919e-05
4.449275e-05 7.5496784e-05 1.4466727e-06 -3.0717943e-06 -4.5679026e-05 1.9241072e-05 5.546132e-05 0.0010941988
-0.0002831468 -0.0004379001 0.00017405422 0.001769391 -0.0068639363 -0.0020331338 0.004381637 -0.00032218677
-0.008102517 -0.0042027985 0.0 0.0 0.0 0.0 0.0 0.0
0.003801612 0.001074957 -0.00038552276 0.013837297 -0.0009005266 -0.00081526156 0.003712339 0.00015243563
-0.000124633 0.00027830532 -2.3626719e-05 9.654685e-05 0.00015937582 0.0002824262 -0.0001582579 0.002130522
-0.0005601611 0.00019611072 0.000112073096 0.0029833957 -0.0010062555 -0.003015269 0.0015424489 0.0025772254
-0.0019007527 0.0002951366 0.0 0.0 0.0 0.0 0.0 0.0
-0.0049706604 -0.00019037118 0.00032816097 -0.005715223 1.1501704e-05 0.00042898412 -0.00488741 -9.175821e-05
-8.643706e-05 -0.00017850198 3.147744e-06 -1.9450408e-05 4.0928997e-05 -4.9902326e-05 -3.4069366e-05 -0.0029815512
0.000117366886 -1.7766873e-05 0.00040338805 -0.0039893463 5.4561493e-05 -0.0016832959 0.000780221 0.00021778843
-0.00016964186 -0.00018786249 0.0 0.0 0.0 0.0 0.0 0.0
-0.0149685135 -0.0039111013 0.0010550233 -0.01605868 -0.00030956606 0.0012171139 -0.013780534 -0.0005810673
-0.00018865372 -0.00057100377 1.0338623e-06 -2.1020709e-05 -8.8786386e-05 -0.00018132255 -0.0001067766 -0.0095912125
0.0017539497 0.0003857857 0.0004772309 -0.01158828 0.0033959416 1.176205e-05 -0.0013845378 -0.0008166531
0.0053391703 -0.0004661537 0.0 0.0 0.0 0.0 0.0 0.0
0.011117829 0.0024270131 -0.00064761325 0.0007774141 0.0013025978 -0.00031568555 0.011025159 0.00033554796
0.00021489886 0.0003972942 5.9337503e-06 -3.572204e-06 -0.00012971587 0.00014601227 0.000109608816 0.007057774
-0.00084201 -0.0003785029 -0.00026182111 0.00872665 -0.008006543 -0.0037649404 0.0027093538 0.004050681
-0.0067065167 0.00041053683 0.0 0.0 0.0 0.0 0.0 0.0
-0.0075731915 -0.0024824683 0.0006638794 -0.009924541 8.501585e-05 0.0006538102 -0.006574405 -0.00034278704
-0.00010830718 -0.00028534993 -3.1287937e-06 1.6354094e-05 -2.7920014e-05 -7.441561e-05 -4.00915e-05 -0.005028102
0.001131998 3.0962852e-05 0.00019287204 -0.0059173615 0.0027947172 -0.003824268 -0.0004108073 0.0003954206
0.0019502239 -0.0061084875 0.0 0.0 0.0 0.0 0.0 0.0
00000000: 553e 96bd 2960 9abc fc7e a53b a8b1 4fbd
00000010: 2ef4 8bbb 306a 973b c91b 8ebd 156e 2fbb
00000020: 50cb 9cba eaeb 30bb 32d0 0cb7 7f6f 84b8
00000030: 86bb 3836 e4ef 6cba 57d7 06ba 02f3 3ebd
00000040: f017 f53b c799 a33a b6f7 113b 8971 6abd
00000050: b7e2 043d e4bc 703c 3f84 8dbc 7679 69bc
00000060: 8b85 1d3d 7059 103c 0000 0000 0000 0000
00000070: 0000 0000 0000 0000 0000 0000 0000 0000
00000080: 1d9a 1a3d 1b30 2a3c 6568 32bb 6d3e ec3c
00000090: 81e6 0e3b a12f 25bb d838 0f3d 4813 c73a
000000a0: df6e 343a 2b82 a53a a349 6538 cf5c 16b9
000000b0: bcea e5b8 44e6 6639 4818 c439 4c78 c33c
000000c0: 77df 8abb 4253 29ba 45a2 acba 9efd f03c
000000d0: cfb0 9dbc 1301 6bbb fece 3b3c bc7f 24bb
000000e0: 3592 d5bc 3471 6dbc 0000 0000 0000 0000
000000f0: 0000 0000 0000 0000 0000 0000 0000 0000
00000100: 538b 103b b7f8 ce39 8535 98b9 3780 bb3c
00000110: f274 e9ba 3bc5 86ba da39 1f3b 56da 8438
00000120: ba9d 3a38 0754 9e38 4c2b c235 0625 4eb6
00000130: 7b97 3fb8 e367 a137 249f 6838 386b 8f3a
00000140: 5273 94b9 f595 e5b9 5382 3639 e9ea e73a
00000150: dfea e0bb 533e 05bb d693 8f3b 2deb a8b9
00000160: 6bc0 04bc a1b7 89bb 0000 0000 0000 0000
00000170: 0000 0000 0000 0000 0000 0000 0000 0000
00000180: 7724 793b 92e5 8c3a fd1f cab9 d5b5 623c
00000190: 5111 6cba 47b7 55ba b74a 733b 21d7 1f39
000001a0: ebaf 02b9 82e9 9139 fe31 c6b7 3279 ca38
000001b0: 1f1e 2739 9a12 9439 08f2 25b9 3aa0 0b3b
000001c0: c6d7 12ba 12a3 4d39 c908 eb38 1385 433b
000001d0: 55e4 83ba d29b 45bb ff2b ca3a abe6 283b
000001e0: ad22 f9ba 90bc 9a39 0000 0000 0000 0000
000001f0: 0000 0000 0000 0000 0000 0000 0000 0000
00000200: ece0 a2bb 609e 47b9 050d ac39 c446 bbbb
00000210: 71f7 4037 46e9 e039 9126 a0bb 506e c0b8
00000220: 8b45 b5b8 432c 3bb9 d53d 5336 6f29 a3b7
00000230: 2dab 2b38 374e 51b8 b4e5 0eb8 2166 43bb
00000240: de22 f638 120a 95b7 d47d d339 10b9 82bb
00000250: f5d8 6438 0aa2 dcba bf87 4c3a 235e 6439
00000260: e4e1 31b9 f4fc 44b9 0000 0000 0000 0000
00000270: 0000 0000 0000 0000 0000 0000 0000 0000
00000280: 7f3e 75bc b228 80bb b548 8a3a 7e8d 83bc
00000290: 414d a2b9 9187 9f3a c0c7 61bc c452 18ba
000002a0: 59d1 45b9 6aaf 15ba 3dc3 8a35 a155 b0b7
000002b0: d432 bab8 6721 3eb9 40ed dfb8 7624 1dbc
000002c0: c9e4 e53a 4843 ca39 d934 fa39 c5dc 3dbc
000002d0: 728e 5e3b 9f55 4537 6179 b5ba a914 56ba
000002e0: 35f4 ae3b 1766 f4b9 0000 0000 0000 0000
000002f0: 0000 0000 0000 0000 0000 0000 0000 0000
00000300: 8e27 363c 860e 1f3b 97c4 29ba 61cb 4b3a
00000310: eebb aa3a 9982 a5b9 dea2 343c 7cec af39
00000320: 7956 6139 ed4b d039 871a c736 ffb9 6fb6
00000330: 5704 08b9 df1a 1939 c9dd e538 e644 e73b
00000340: 56ba 5cba cd71 c6b9 0945 89b9 39fa 0e3c
00000350: e02d 03bc 38bd 76bb 6a8f 313b 93bb 843b
00000360: 57c2 dbbb 523d d739 0000 0000 0000 0000
00000370: 0000 0000 0000 0000 0000 0000 0000 0000
00000380: 8928 f8bb e8b0 22bb 3108 2e3a 8b9a 22bc
00000390: 894a b238 7664 2b3a 1b6e d7bb 19b8 b3b9
000003a0: f922 e3b8 059b 95b9 44f8 51b6 2630 8937
000003b0: c635 eab7 940f 9cb8 ec27 28b8 c7c2 a4bb
000003c0: 8d5f 943a 1cde 0138 b23d 4a39 6de6 c1bb
000003d0: 9327 373b 92a0 7abb 9f61 d7b9 7450 cf39
000003e0: a89e ff3a b529 c8bb 0000 0000 0000 0000
000003f0: 0000 0000 0000 0000 0000 0000 0000 0000
