omniisaacgymenvs/runs/WEE/nn/last_WEE_ep_300_rew_-7758.0024.pth (torch, 623514 bytes, 36 tensors)

value_mean_std.running_mean f8 [1]
-34.80634709606012
00000000: c266 b361 3667 41c0

value_mean_std.running_var f8 [1]
254.94904991728288
00000000: 0ca0 ee9d 5ede 6f40

value_mean_std.count f8 []
78643201.0
00000000: 0000 0004 00c0 9241

running_mean_std.running_mean f8 [32]
0.0347774764042881 -0.0014213111582008615 0.4813019780540652 0.36133134739661193 0.033705188985346815 -0.058220086286881925 0.42978959537646944 0.1312790672581131
0.04104114230188751 0.10428967040236219 0.007215686136488796 0.061500108196016624 0.3701497626566532 2.0585149687753678e-05 -7.040787471921638e-05 0.42594448272344465
0.7293887310454862 -8.696239621129598e-05 -0.00018328867339768902 0.3478175862495891 9.911056868916303e-05 -0.00023325088605186331 -0.0014074117063717158 -0.0010240235339603347
0.001399148495699825 0.037470862806562734 0.0 0.0 0.0 0.0 0.0 0.0
00000000: c370 9677 5ace a13f b64b 483c 6949 57bf
00000010: 2b82 cfcf a6cd de3f d3a2 0584 0d20 d73f
00000020: 828d cb78 ce41 a13f f218 25ed 05cf adbf
00000030: 8064 1338 ac81 db3f 04f1 42a2 c0cd c03f
00000040: 0345 f437 5803 a53f e352 b053 bab2 ba3f
00000050: 6539 97ff 318e 7d3f 3501 ce32 f17c af3f
00000060: 14e1 4ea1 88b0 d73f 2322 0fb7 c895 f53e
00000070: 555a c313 fe74 12bf 805d cda5 ac42 db3f
00000080: 6529 3d09 2757 e73f 081c 4197 f2cb 16bf
00000090: 13e2 47b7 2506 28bf eb99 7ab1 a442 d63f
000000a0: 863f d69a 32fb 193f 4f60 ceda 9992 2ebf
000000b0: 2252 0ed0 1c0f 57bf 8729 ade5 10c7 50bf
000000c0: e376 0042 74ec 563f dd3a 9d84 612f a33f
000000d0: 0000 0000 0000 0000 0000 0000 0000 0000
000000e0: 0000 0000 0000 0000 0000 0000 0000 0000
000000f0: 0000 0000 0000 0000 0000 0000 0000 0000

running_mean_std.running_var f8 [32]
0.0016690795998384497 0.0006423966045636189 0.0026163243325690025 0.5019678715732461 0.007897467257844027 0.034259830067570274 0.13678518420407246 2.778325871910604
2.8267440693721104 2.7583902287336706 903.0663193433516 490.1560774225315 798.7843987505008 1.6016949733024044e-05 2.0906209577783943e-05 1.3000188663468422e-05
0.14121825176807098 0.0008392660453389 0.0009280347080865608 0.2040702380687696 0.01059079422443321 0.010571746726888313 0.007794337125873867 23.092650346920024
23.4844983876126 15.522714245617875 2.54313144574148e-08 2.54313144574148e-08 2.54313144574148e-08 2.54313144574148e-08 2.54313144574148e-08 2.54313144574148e-08
00000000: 8e30 ed92 a058 5b3f 4a46 2e34 d00c 453f
00000010: 3e2c 366e d46e 653f 2098 01ed 1e10 e03f
00000020: 87d6 bf1c 8c2c 803f c0d8 6923 818a a13f
00000030: 0bee 5d4a 2d82 c13f d2e4 2bea 023a 0640
00000040: deeb a0fe 2b9d 0640 f822 70e5 2e11 0640
00000050: 4c96 6fd2 8738 8c40 ab16 0a4b 7fa2 7e40
00000060: 6523 da72 46f6 8840 5142 9167 84cb f03e
00000070: bd3c 60c8 f7eb f53e c715 2953 6c43 eb3e
00000080: ab98 788e 7013 c23f d7e7 d21b 4680 4b3f
00000090: 2eac 425c eb68 4e3f 79d0 4b3b f91e ca3f
000000a0: 812d a956 a0b0 853f bcee a0d3 a3a6 853f
000000b0: 9245 cb70 f4ec 7f3f 0cfc e1ee b717 3740
000000c0: c7c2 1916 087c 3740 072a 9c33 a10b 2f40
000000d0: 797d 41a9 814e 5b3e 797d 41a9 814e 5b3e
000000e0: 797d 41a9 814e 5b3e 797d 41a9 814e 5b3e
000000f0: 797d 41a9 814e 5b3e 797d 41a9 814e 5b3e

running_mean_std.count f8 []
39321601.0
00000000: 0000 0008 00c0 8241

a2c_network.sigma f4 [12]
-0.39405432 -0.20638078 -1.3558053 -0.22632028 -0.24241412 -1.9830177 -0.20602849 -0.12987638
-0.18570727 -0.21080977 -0.41137874 -0.121959746
00000000: 7dc1 c9be 7c55 53be 078b adbf 81c0 67be
00000010: 683b 78be 86d3 fdbf 22f9 52be 50fe 04be
00000020: 0c2a 3ebe 84de 57be 3ca0 d2be 08c6 f9bd

a2c_network.actor_mlp.0.weight f4 [256, 32]
0.20039928 0.14659096 -0.3282901 0.074865095 0.039150767 0.31510302 -0.035845615 0.106582195
0.09586997 -0.07864403 0.020744808 0.06394223 0.11113967 -0.06456712 0.026312929 0.052379426
0.059268594 -0.18402371 -0.32378384 -0.038743105 -0.11418326 0.11068277 0.04460055 0.11667585
0.09607874 0.0029383912 0.1383469 -0.12560225 0.011130519 -0.1206572 0.054509446 -0.06087876
0.124246106 0.009168162 0.20360938 -0.04719149 -0.141433 -0.17565307 0.17882821 0.10512072
0.25958657 -0.28424132 -0.23866196 -0.07073809 -0.14822617 0.106892705 0.063060455 0.14116095
-0.088722035 -0.059253525 0.11600761 -0.08479269 0.1147472 -0.100215875 0.1701439 -0.04811641
-0.003994969 -0.10847523 0.037371926 -0.045070764 0.105371185 0.12017442 -0.12819375 -0.094375454
0.09583385 -0.047070242 -0.1011461 -0.34911692 -0.2694341 0.13531935 -0.09318787 -0.2556545
0.062020365 -0.19310215 -0.2705425 -0.18096225 -0.12986122 -0.060524087 0.06654051 0.080099784
0.020965625 -0.1786724 -0.10911064 -0.008327371 -0.06832002 -0.16785768 -0.14843659 -0.14560346
-0.026454672 -0.015989209 -0.012249876 -0.11978914 -0.121338665 -0.10313184 -0.060510207 -0.13952647
0.14313062 0.034531258 0.21770355 0.17462783 -0.2646001 0.014702655 -0.08254355 -0.07634957
-0.17703697 -0.25737643 0.02652945 -0.07818297 0.07765983 -0.12677485 0.113103196 -0.10532053
0.05002212 0.033662394 0.10622131 0.10763263 0.1607189 -0.10315252 0.10232242 -0.102861635
-0.01559717 -0.14862774 0.16101858 -0.12974533 0.094478525 0.06212633 0.057444636 -0.09557365
0.22186725 0.1531632 -0.11054323 -0.25447756 0.12629661 -0.08347457 -0.15643622 0.1681787
0.0410926 -0.13700154 -0.20903854 -0.026274392 0.009489688 -0.02385024 -0.094948135 -0.039206307
-0.059852578 0.057275333 0.107216015 -0.12518613 -0.009671455 0.052983895 0.012572613 -0.021629417
0.073547505 -0.04335727 0.06610162 -0.031063449 -0.04681069 0.018911732 -0.031228328 -0.05267964
0.17246753 0.16710988 -0.27188814 0.043866873 -0.09750003 -0.032871764 0.0043346477 0.055278707
-0.2338421 -0.077258795 0.09699261 0.18022586 -0.05422156 -0.05465421 -0.11754056 -0.13612744
0.0059458767 0.09232024 0.06421184 0.066451095 -0.31899855 -0.102508314 -0.102427304 0.25625035
-0.0020183888 -0.22015722 0.07313521 -0.06733098 -0.11441971 0.12902705 -0.08038068 -0.03543785
-0.23162904 0.17920855 0.105672404 0.09441498 -0.1726806 -0.27225995 -0.0893083 0.26757887
0.0086632455 0.17870586 0.100080594 -0.035230283 -0.021238077 -0.2531633 -0.119602755 -0.067828
0.057066996 -0.124924906 -0.06707604 -0.071224056 -0.07860351 -0.03742388 -0.27094394 0.043971013
-0.1408872 0.06138008 -0.056711514 -0.1296776 -0.03119029 -0.08569204 -0.05408334 -0.16829063
0.068286724 -0.10235347 0.14791112 0.0329621 0.11983501 -0.07336339 0.18275508 -0.047713075
0.175949 0.16849956 -0.037825737 -0.1002198 -0.078892276 -0.18803123 0.11264125 -0.2966397
0.117265515 0.19439483 0.2384062 0.021628821 -0.1899366 0.09733365 0.039196532 -0.28115368
-0.061219808 -0.2760195 -0.01546155 -0.08701187 -0.07226058 -0.05611933 -0.16799161 0.1450466
00000000: 7835 4d3e f11b 163e a415 a8be df52 993d
00000010: 8e5c 203d 2f55 a13e dad2 12bd c447 da3d
00000020: 7a57 c43d 1f10 a1bd 04f1 a93c 25f4 823d
00000030: 329d e33d c43b 84bd 368e d73c cf8b 563d
00000040: a0c3 723d b670 3cbe ffc6 a5be 17b1 1ebd
00000050: ead8 e9bd a6ad e23d 11af 363d bff3 ee3d
00000060: eec4 c43d 0692 403b cfaa 0d3e e09d 00be
00000070: c85c 363c 1f1b f7bd 4c45 5f3d 025c 79bd
00000080: be74 fe3d 0f36 163c fa7e 503e dd4b 41bd
00000090: d0d3 10be 66de 33be be1e 373e 8849 d73d
000000a0: 88e8 843e 1488 91be cd63 74be 22df 90bd
000000b0: 9ac8 17be 90ea da3d d725 813d 7f8c 103e
000000c0: e6b3 b5bd d3b3 72bd 6695 ed3d caa7 adbd
000000d0: 9400 eb3d fb3d cdbd 343a 2e3e b615 45bd
000000e0: 3be8 82bb 4328 debd 4e13 193d 1f9c 38bd
000000f0: d9cc d73d 021e f63d 3945 03be eb47 c1bd
00000100: 8a44 c43d bacc 40bd b025 cfbd 74bf b2be
00000110: 44f3 89be 2891 0a3e 48d9 bebd 26e5 82be
00000120: 1109 7e3d 92bc 45be 8c84 8abe 2b4e 39be
00000130: 57fa 04be 1be8 77bd 6446 883d 5b0b a43d
00000140: 1ac0 ab3c e6f5 36be 6675 dfbd 876f 08bc
00000150: 5eeb 8bbd e2e2 2bbe c3ff 17be 1319 15be
00000160: 78b7 d8bc cdfb 82bc b4b3 48bc 0254 f5bd
00000170: 6880 f8bd c936 d3bd 8dd9 77bd 07e0 0ebe
00000180: d590 123e a670 0d3d aeed 5e3e a3d1 323e
00000190: aa79 87be 68e3 703c 980c a9bd 2a5d 9cbd
000001a0: 2e49 35be d8c6 83be 4a54 d93c 651e a0bd
000001b0: 1e0c 9f3d 44d1 01be a6a2 e73d 4ab2 d7bd
000001c0: ffe3 4c3d 94e1 093d 8f8a d93d 7f6e dc3d
000001d0: 7f93 243e a141 d3bd 6b8e d13d 1fa9 d2bd
000001e0: 468b 7fbc df31 18be 0ee2 243e f6db 04be
000001f0: f57d c13d 2e78 7e3d 114b 6b3d 1ebc c3bd
00000200: 2b31 633e d0d6 1c3e 7d64 e2bd e24a 82be
00000210: e653 013e b7f4 aabd d130 20be 0a37 2c3e
00000220: b750 283d 224a 0cbe 330e 56be 653d d7bc
00000230: a37a 1b3c 9461 c3bc 2b74 c2bd cb96 20bd
00000240: fa27 75bd 8a99 6a3d 1294 db3d cb30 00be
00000250: 0675 1ebc a405 593d 5cfd 4d3c 2d30 b1bc
00000260: 13a0 963d 6597 31bd 4960 873d c678 febc
00000270: 91bc 3fbd c7ec 9a3c 8dd2 ffbc 9bc6 57bd
00000280: 549b 303e da1e 2b3e ec34 8bbe c0ad 333d
00000290: 19ae c7bd 8ba4 06bd a909 8e3b ed6b 623d
000002a0: 4e74 6fbe dc39 9ebd 10a4 c63d 218d 383e
000002b0: 6d17 5ebd 18dd 5fbd 1bb9 f0bd fe64 0bbe
000002c0: a1d5 c23b 6512 bd3d 7f81 833d 8317 883d
000002d0: c753 a3be e1ef d1bd 68c5 d1bd 3f33 833e
000002e0: f246 04bb e570 61be eac7 953d d3e4 89bd
000002f0: e254 eabd ab1f 043e a09e a4bd 4727 11bd
00000300: 2a30 6dbe 7282 373e c66a d83d a45c c13d
00000310: 2fd3 30be a865 8bbe 45e7 b6bd 1900 893e
00000320: 49f0 0d3c abfe 363e 0ef7 cc3d a14d 10bd
00000330: 7afb adbc 9f9e 81be 4af2 f4bd 68e9 8abd
00000340: 15bf 693d a1d8 ffbd 2a5f 89bd ebdd 91bd
00000350: e1fa a0bd c849 19bd 2ab9 8abe f31a 343d
00000360: bc44 10be ae69 7b3d 554a 68bd 34ca 04be
00000370: c782 ffbc 4f7f afbd 7e86 5dbd 6154 2cbe
00000380: e9d9 8b3d b29e d1bd 0376 173e 4403 073d
00000390: 0f6c f53d 8c3f 96bd 2624 3b3e c96e 43bd
000003a0: fa2b 343e 268b 2c3e 29ef 1abd 0a40 cdbd
000003b0: 4692 a1bd 428b 40be 75b0 e63d 29e1 97be
000003c0: e728 f03d 700f 473e c120 743e ed2e b13c
000003d0: bd7e 42be dd56 c73d 8b8c 203d 60f3 8fbe
000003e0: 9fc1 7abd 6e52 8dbe 7152 7dbc 4833 b2bd
000003f0: 5bfd 93bd 62dd 65bd fe05 2cbe 1987 143e

a2c_network.actor_mlp.0.bias f4 [256]
-0.05723565 0.22404556 0.04093556 -0.15158138 -0.049564883 0.035707068 -0.04771188 -0.15670161
-0.0043412466 -0.046040367 -0.118605554 -0.0335729 0.07979776 -0.10556705 -0.117764294 -0.2214476
0.035170685 -0.009194345 -0.07824186 0.11828627 -0.059896864 -0.12769693 0.029199997 0.21389173
0.21538205 0.106212325 -0.08766824 -0.21527037 -0.21406029 -0.08527906 -0.12718925 -0.0015594397
-0.076269165 -0.052517876 -0.28121012 0.14475428 0.10155518 0.14549795 0.06349909 -0.27206707
0.00432651 0.001827397 0.036890253 -0.0059593287 -0.16441165 -0.041446824 0.13443159 0.08445046
0.18240269 -0.0039502922 -0.014606593 -0.03494768 -0.18310265 0.26043302 -0.016023792 0.18763496
-0.13205682 -0.13954814 0.17810561 0.3109322 0.00022321673 -0.021036725 0.07949607 -0.048701573
0.1693683 -0.2811791 -0.036931504 0.07794822 -0.058542807 0.1959811 -0.23146404 -0.07303703
0.27075619 0.091706716 0.14765221 0.121291116 0.11772762 0.1531871 0.2318489 -0.03213232
-0.16452746 0.13551983 0.13415962 0.005077073 0.0816468 0.08415856 0.15011863 -0.018761508
-0.037158642 0.078086324 0.16127716 -0.046603642 -0.091244765 -0.014158125 0.24788727 0.1367242
0.0017101575 0.08265057 0.10381198 0.091777176 0.051412646 -0.03196167 -0.055883218 -0.12626779
-0.05179511 0.11800598 -0.10838042 -0.32133442 0.2320916 -0.09748237 -0.074010305 -0.04058081
-0.06386726 -0.17766047 0.12142017 -0.29770777 0.19782321 0.16213152 0.1446382 0.28901315
-0.16556273 -0.10133527 -0.01547257 0.019578453 -0.16350715 0.17145053 0.1587075 0.1017624
-0.08245972 0.01609611 0.19102478 0.07520183 0.09488414 -0.058875367 -0.08112548 -0.11975928
-0.1585171 0.17739877 0.083579786 0.052221816 0.12041217 0.09028614 -0.25862068 -0.26907787
0.11816798 0.12103681 0.2153265 -0.1501046 -0.26186293 0.0012632351 -0.032589566 0.031504307
0.21060003 0.21590976 -0.034365017 -0.09431563 0.05731253 -0.12978896 0.15680853 0.1015176
-0.10284126 0.0651058 0.078051955 -0.15728195 -0.1926124 -0.050741404 -0.20387806 -0.20724082
-0.03540875 0.04114756 -0.12811032 0.04712688 -0.12380863 0.18798593 0.088435955 0.14928
0.14811933 0.16722812 -0.08799173 -0.07740676 0.21887739 -0.18634897 0.21035449 0.043051496
-0.12783457 0.14702493 -0.072014146 0.19549443 -0.03560451 -0.01745734 -0.09404632 -0.082920246
0.13632482 0.078820415 -0.034945365 0.1036703 0.17636408 -0.008297805 0.09697126 -0.23845786
0.079736315 -0.26523307 -0.13236985 0.1566946 0.15002073 -0.106419414 -0.0706804 0.11039238
-0.0971018 0.13381016 -0.036062073 0.21635523 0.11148917 -0.13980465 0.043954138 0.060101435
-0.0640292 0.058589175 -0.07613759 -0.044991318 -0.13707745 -0.00010201619 -0.15371329 -0.056349773
-0.05377069 -0.03214058 0.07843769 -0.045775574 -0.08659638 0.03684438 -0.16748124 0.12584348
0.038318817 -0.17260157 0.13913934 -0.06196943 -0.00654122 0.10459369 0.14812705 -0.013817268
-0.1617124 -0.059512775 0.18625791 -0.070134975 0.024893282 0.09263837 0.28893462 -0.049491826
0.14827876 0.028661897 -0.14878611 0.0075356713 -0.07041597 -0.11042217 0.15652236 -0.0084826425
00000000: ee6f 6abd 336c 653e 0cac 273d 2638 1bbe
00000010: 8c04 4bbd 9341 123d 886d 43bd 6376 20be
00000020: 0441 8ebb d394 3cbd 78e7 f2bd bd83 09bd
00000030: 026d a33d 8a33 d8bd 682e f1bd 29c3 62be
00000040: 230f 103d e1a3 16bc 453d a0bd 1240 f23d
00000050: 6a56 75bd fcc2 02be d534 ef3c 6f06 5b3e
00000060: 1d8d 5c3e d985 d93d 688b b3bd d66f 5cbe
00000070: 9f32 5bbe caa6 aebd e63d 02be 1d66 ccba
00000080: 0233 9cbd fc1c 57bd c6fa 8fbe 773a 143e
00000090: 2afc cf3d 6afd 143e d00b 823d 604c 8bbe
000000a0: 65c5 8d3b 4585 ef3a 3c1a 173d 7946 c3bb
000000b0: 875b 28be 25c4 29bd 6fa8 093e 5df4 ac3d
000000c0: c5c7 3a3e 7471 81bb 7e50 6fbc 4c25 0fbd
000000d0: 437f 3bbe 7a57 853e 5444 83bc 6123 403e
000000e0: e739 07be b5e5 0ebe 5161 363e 8132 9f3e
000000f0: 490f 6a39 3655 acbc d6ce a23d 4d7b 47bd
00000100: e26e 2d3e b5f6 8fbe 7d45 17bd 51a3 9f3d
00000110: 95ca 6fbd 45af 483e e904 6dbe 7094 95bd
00000120: 8ea0 8a3e bbd0 bb3d 2432 173e 7a67 f83d
00000130: 2e1b f13d 14dd 1c3e cc69 6d3e 2e9d 03bd
00000140: e379 28be b6c5 0a3e 2461 093e 935d a63b
00000150: 7036 a73d 535b ac3d b3b8 193e bcb1 99bc
00000160: a933 18bd b9eb 9f3d d725 253e 76e3 3ebd
00000170: 89de babd 7bf7 67bc 29d6 7d3e 6e01 0c3e
00000180: 5d27 e03a b444 a93d 609b d43d acf5 bb3d
00000190: 1196 523d 3dea 02bd cde5 64bd 584c 01be
000001a0: 1c27 54bd 1fad f13d 8ef6 ddbd f285 a4be
000001b0: 6ca9 6d3e d6a4 c7bd b792 97bd 1038 26bd
000001c0: d7cc 82bd a0ec 35be 23ab f83d 276d 98be
000001d0: 2b92 4a3e ce05 263e 091c 143e 88f9 933e
000001e0: 4789 29be de88 cfbd aa80 7dbc fe62 a03c
000001f0: 6b6e 27be ba90 2f3e 3884 223e ce68 d03d
00000200: a4e0 a8bd fddb 833c 009c 433e 6b03 9a3d
00000210: 9e52 c23d 4c27 71bd 1e25 a6bd 5a44 f5bd
00000220: 4f52 22be 06a8 353e e12b ab3d 8be6 553d
00000230: a89a f63d f1e7 b83d ee69 84be 93c4 89be
00000240: 0e02 f23d 26e2 f73d 8d7e 5c3e 05b5 19be
00000250: e612 86be 2393 a53a a37c 05bd a90a 013d
00000260: 89a7 573e 7317 5d3e 55c2 0cbd 8e28 c1bd
00000270: 8bc0 6a3d 66e7 04be 6a92 203e 76e8 cf3d
00000280: 709e d2bd 3156 853d b4d9 9f3d 850e 21be
00000290: 2f3c 45be 38d6 4fbd 69c5 50be f036 54be
000002a0: c408 11bd 588a 283d 5a2f 03be 1e08 413d
000002b0: 618f fdbd 627f 403e e91d b53d dbdc 183e
000002c0: 98ac 173e d93d 2b3e 0235 b4bd 6f87 9ebd
000002d0: 6521 603e 44d2 3ebe 2b67 573e c456 303d
000002e0: 11e7 02be b48d 163e 277c 93bd b12f 483e
000002f0: 09d6 11bd b202 8fbc 5b9b c0bd 17d2 a9bd
00000300: bc98 0b3e 996c a13d df22 0fbd 1851 d43d
00000310: c998 343e 84f3 07bc de98 c63d 4c2e 74be
00000320: cb4c a33d a1cc 87be f68b 07be 8d74 203e
00000330: 099f 193e 6cf2 d9bd e3c0 90bd 6615 e23d
00000340: 4fdd c6bd 8805 093e d3b5 13bd 3a8c 5d3e
00000350: 6f54 e43d f328 0fbe 4109 343d ec2c 763d
00000360: be21 83bd 34fb 6f3d 06ee 9bbd d148 38bd
00000370: 085e 0cbe 86f1 d5b8 0467 1dbe 05cf 66bd
00000380: a83e 5cbd d7a5 03bd f1a3 a03d 2b7f 3bbd
00000390: 7159 b1bd 22ea 163d 3480 2bbe 1ddd 003e
000003a0: 31f4 1c3d 77be 30be 8b7a 0e3e a8d3 7dbd
000003b0: bb57 d6bb 3735 d63d 9eae 173e d361 62bc
000003c0: ef97 25be abc3 73bd 65ba 3e3e eda2 8fbd
000003d0: ffec cb3c 30b9 bd3d 3def 933e f1b7 4abd
000003e0: 63d6 173e 5bcc ea3c 635b 18be cbed f63b
000003f0: 4036 90bd 0525 e2bd 6647 203e c8fa 0abc

a2c_network.actor_mlp.2.weight f4 [128, 256]
-0.21369037 0.17494889 0.015021196 -0.054052547 0.029873842 -0.16013907 -0.1745488 0.026247675
0.03711462 0.01956277 -0.1621929 0.023379497 -0.09851172 -0.03836815 -0.05715002 -0.15190932
0.003090917 -0.058832306 -0.07290283 0.05958625 -0.10753427 0.03157113 -0.03993523 0.017177815
-0.048763562 -0.017884243 0.010993421 -0.033221535 0.056573246 -0.0180645 0.04860704 0.04127458
-0.014631804 -0.03665984 -0.01399965 -0.23765227 0.08494005 0.065921396 -0.007091628 0.045130864
0.047912177 0.004251894 -0.022936935 -0.14329226 0.0023150023 -0.17842776 -0.08503664 -0.11248737
0.027349712 -0.039174717 -0.033039324 -0.25265238 0.017038954 -0.15965177 -0.03768068 0.07750336
0.025204338 -0.2985763 0.10143069 -0.080150925 -0.1363126 -0.1407492 -0.063327536 -0.12553552
-0.0076343524 -0.015551681 0.022333097 -0.11188961 -0.19892256 0.08387789 0.00043140975 -0.031660676
-0.034452807 -0.055269234 -0.09895322 0.00013745175 0.021658672 0.06522468 0.07241736 0.034188174
0.0491291 0.040328395 0.04751776 0.07482523 0.13937517 0.06772906 -0.106258474 -0.19639973
-0.13835669 -0.004933363 -0.13034509 -0.04042771 -0.14995927 -0.18888156 -0.10028064 0.11365314
-0.14073399 0.036021154 -0.014762851 -0.002942181 -0.18801777 0.03772528 0.030888287 0.037101716
0.061253723 -0.0023373743 0.031112906 0.1387576 0.043542027 -0.08772764 -0.14026146 -0.025777139
-0.013832164 0.1114335 0.027034022 0.08498759 0.046380676 0.011949696 0.009151784 0.03095419
-0.0888096 -0.06328889 0.08343288 -0.043350697 -0.122459404 -0.08902056 -0.06521278 0.057835516
-0.113279104 0.0922227 -0.022463849 0.07338165 -0.20815365 -0.07486884 0.041174423 0.00997329
-0.05311489 -0.13871302 -0.07976618 0.01619529 0.032608915 0.1661956 0.0981817 0.0650901
0.13200484 -0.01667712 -0.063172884 0.102043875 0.029915504 -0.08772845 0.10023949 0.03476757
0.03790569 -0.027186235 -0.14741084 -0.11549908 0.0399829 -0.09649407 -0.020066746 -0.18353756
-0.029489188 -0.109473825 -0.050041497 0.0065130377 -0.10421557 0.013425878 0.019255688 -0.13911466
0.0032908074 0.00020732608 -0.04849048 -0.20479126 0.024409842 -0.0039400198 -0.12663253 -0.13664281
-0.038293112 -0.024429228 -0.08698685 -0.05145244 0.101560526 -0.015581022 -0.018684093 -0.04566966
-0.043610495 -0.012820837 0.10269696 -0.1355874 -0.031776756 0.042951975 0.113782294 -0.10735576
-0.005099402 0.0019959346 -0.05343767 0.012702897 -0.13791536 0.06593461 -0.08394142 0.06748579
-0.058715984 0.058164284 -0.03688018 -0.025874285 0.029766427 0.16865395 -0.029835608 -0.052102283
-0.0035701361 0.039017215 -0.19012763 -0.041506555 0.03860749 -0.010888887 -0.015323058 0.016492197
0.027365064 -0.06423458 -0.15237793 -0.037812717 0.15256418 -0.15633607 -0.0375324 -0.12421266
-0.20282802 -0.1295429 -0.005389261 0.0043930495 -0.18023336 -0.2563481 0.074882284 -0.055568833
-0.06321433 -0.0177772 -0.07411775 -0.07369003 0.03749084 -0.040617824 -0.09321228 -0.089792185
-0.041682534 -0.045824334 -0.08804677 0.09572652 -0.016153794 -0.17174469 0.018014673 -0.04494067
-0.16491489 -0.1232269 -0.047042105 -0.20425461 -0.012226795 -0.18719614 -0.094957605 -0.06689325
00000000: a6d1 5abe cd25 333e 761b 763c 3466 5dbd
00000010: fdb9 f43c 7ffb 23be ecbc 32be 5d05 d73c
00000020: 8005 183d 1a42 a03c e515 26be 5c86 bf3c
00000030: 83c0 c9bd ec27 1dbd 2416 6abd 1e8e 1bbe
00000040: fb90 4a3b 25fa 70bd 144e 95bd b610 743d
00000050: ed3a dcbd bb50 013d 2093 23bd 7db8 8c3c
00000060: 4dbc 47bd fa81 92bc c01d 343c 4e13 08bd
00000070: 59b9 673d 01fc 93bc 2d18 473d 890f 293d
00000080: 3cba 6fbc a128 16bd ca5e 65bc 1e5b 73be
00000090: 0df5 ad3d cc01 873d e360 e8bb 24db 383d
000000a0: 8f3f 443d 7953 8b3b 3de6 bbbc 35bb 12be
000000b0: 4bb7 173b c4b5 36be b127 aebd c75f e6bd
000000c0: 810c e03c ab75 20bd 3e54 07bd a75b 81be
000000d0: 4795 8b3c c17b 23be 0f57 1abd 15ba 9e3d
000000e0: 5479 ce3c fede 98be e5ba cf3d 2b26 a4bd
000000f0: 8895 0bbe 8f20 10be deb1 81bd 628c 00be
00000100: 9729 fabb 7acc 7ebc e6f3 b63c 6126 e5bd
00000110: 5bb2 4bbe 2cc8 ab3d d62e e239 a0ae 01bd
00000120: 631e 0dbd fe61 62bd fca7 cabd ec20 1039
00000130: 876d b13c 8494 853d 8e4f 943d e608 0c3d
00000140: 983b 493d 632f 253d fca1 423d f83d 993d
00000150: 5db8 0e3e 89b5 8a3d 0b9e d9bd 031d 49be
00000160: 60ad 0dbe 0ca8 a1bb 2f79 05be 8797 25bd
00000170: ec8e 19be 2b6a 41be f05f cdbd fac2 e83d
00000180: 921c 10be eb8a 133d e3df 71bc 9bd1 40bb
00000190: bb87 40be d385 1a3d 6f09 fd3c f8f7 173d
000001a0: 2fe5 7a3d a22e 19bb 7ee0 fe3c 7916 0e3e
000001b0: 2059 323d 8daa b3bd b3a0 0fbe 942a d3bc
000001c0: 4da0 62bc 3f37 e43d 7476 dd3c f90d ae3d
000001d0: aaf9 3d3d a8c8 433c 5df1 153c a493 fd3c
000001e0: cfe1 b5bd 9b9d 81bd dcde aa3d 8090 31bd
000001f0: ffcb fabd 6950 b6bd 478e 85bd efe4 6c3d
00000200: e0fe e7bd 41df bc3d 1b06 b8bc 1e49 963d
00000210: 3b26 55be d654 99bd 83a6 283d 0367 233c
00000220: 008f 59bd c90a 0ebe 735c a3bd fcab 843c
00000230: ed90 053d 2e2f 2a3e 7d13 c93d f54d 853d
00000240: 472c 073e 759e 88bc c960 81bd 61fc d03d
00000250: 5c11 f53c f9aa b3bd 5d4a cd3d 7168 0e3d
00000260: ff42 1b3d abb5 debc def2 16be c88a ecbd
00000270: 1cc5 233d af9e c5bd 0463 a4bc 45f1 3bbe
00000280: 4f93 f1bc d033 e0bd 50f8 4cbd 526b d53b
00000290: f96e d5bd 37f8 5b3c 1bbe 9d3c 1374 0ebe
000002a0: 96aa 573b ac65 5939 f49d 46bd cdb4 51be
000002b0: 26f7 c73c 481b 81bb f5ab 01be 18ec 0bbe
000002c0: 3dd9 1cbd ce1f c8bc 2926 b2bd cbbf 52bd
000002d0: f7fe cf3d 8b47 7fbc 620f 99bc 1c10 3bbd
000002e0: eba0 32bd 7d0e 52bc c952 d23d 6cd7 0abe
000002f0: 5828 02bd 69ee 2f3d b106 e93d 56dd dbbd
00000300: e218 a7bb 3ace 023b 75e1 5abd d01f 503c
00000310: af39 0dbe ba08 873d 7be9 abbd fd35 8a3d
00000320: 2c80 70bd ac3d 6e3d ac0f 17bd 4ff6 d3bc
00000330: b9d8 f33c 9fb3 2c3e ce69 f4bc 3469 55bd
00000340: f2f8 69bb 84d0 1f3d d1b0 42be c702 2abd
00000350: e322 1e3d 4d67 32bc 900d 7bbc a51a 873c
00000360: b32c e03c 6b8d 83bd f608 1cbe 82e1 1abd
00000370: c939 1c3e 9016 20be 93bb 19bd 3563 febd
00000380: 26b2 4fbe e5a6 04be 6698 b0bb 92f3 8f3b
00000390: 188f 38be 0f40 83be e25b 993d 259c 63bd
000003a0: 8476 81bd 7ea1 91bc 0ccb 97bd ccea 96bd
000003b0: ff8f 193d e05e 26bd 14e6 bebd f7e4 b7bd
000003c0: 4ebb 2abd 4cb2 3bbd dd51 b4bd 440c c43d
000003d0: f654 84bc d7dd 2fbe 8293 933c b513 38bd
000003e0: 73df 28be 635e fcbd 39af 40bd 1f28 51be
000003f0: e552 48bc 58b0 3fbe 2279 c2bd 54ff 88bd

a2c_network.actor_mlp.2.bias f4 [128]
0.019485967 0.06104908 0.14294557 0.030484213 0.15383099 -0.11190781 -0.10317844 -0.1575567
-0.1678692 0.07950976 -0.26912805 0.15575297 -0.13807353 -0.23945339 -0.12878864 -0.053781252
0.014330204 0.03824766 0.025019942 -0.116308875 0.110994324 0.023719503 -0.10099388 0.25809863
-0.10267479 -0.00880456 -0.13109018 -0.26643834 -0.07514185 0.08689483 0.013923898 -0.35038507
-0.11293136 -0.22980222 -0.3162086 0.14459556 -0.19456656 -0.38850242 -0.098256364 -0.27553418
0.09934973 0.00721944 0.04928918 -0.209428 1.6637612e-05 0.028449213 -0.15327695 0.065409936
-0.06765181 0.047238242 -0.20384598 0.061780635 0.025076281 0.029249888 0.16245542 -0.021147711
-0.0709552 0.0030290245 -0.10444537 -0.041189216 0.13819622 0.023101684 -0.1542533 0.13642803
-0.008954246 0.110334694 0.032579813 -0.2813511 0.075961925 -0.13857913 0.11594756 -0.023341091
-0.2404149 -0.25525492 -0.035210215 -0.020040046 -0.1368935 -0.16150597 0.031897854 -0.016259111
-0.3338989 -0.06592854 0.1313516 0.05907542 -0.23123123 -0.24502043 -0.13602722 -0.16522066
-0.08495203 -0.013017716 -0.15867934 0.014372446 -0.06993782 -0.028248273 -0.24805073 0.226934
-0.07409652 0.040833887 -0.059295796 0.013315424 -0.18752258 -0.10462179 0.12303214 0.04323614
-0.040310793 -0.1223913 -0.006618569 0.06504016 -0.10821631 -0.09537432 0.19845806 0.07021018
0.003542595 -0.019097034 0.09717174 -0.21879189 -0.09451141 -0.2288283 0.14929417 -0.07026318
-0.22260854 -0.13442583 -0.028725836 0.06859576 -0.17915033 0.055895414 -0.13898167 0.10612807
00000000: 09a1 9f3c 9a0e 7a3d 5360 123e 07ba f93c
00000010: df85 1d3e ec2f e5bd 384f d3bd 8b56 21be
00000020: e7e5 2bbe 03d6 a23d 27cb 89be b57d 1f3e
00000030: 2663 0dbe 4533 75be 2be1 03be bb49 5cbd
00000040: 3bc9 6a3c 94a9 1c3d 9ff6 cc3c 5933 eebd
00000050: fe50 e33d 674f c23c e1d5 cebd 8125 843e
00000060: 2947 d2bd 0041 10bc 813c 06be 9b6a 88be
00000070: f8e3 99bd ebf5 b13d 1021 643c ac65 b3be
00000080: 8f48 e7bd 4651 6bbe 18e6 a1be dc10 143e
00000090: 753c 47be cae9 c6be a23a c9bd d112 8dbe
000000a0: df77 cb3d 0d91 ec3b 74e3 493d 4b74 56be
000000b0: 0091 8b37 530e e93c a2f4 1cbe a5f5 853d
000000c0: 088d 8abd e37c 413d 00bd 50be b10d 7d3d
000000d0: c66c cd3c 769d ef3c b75a 263e f73d adbc
000000e0: f650 91bd 9982 463b 74e7 d5bd 06b6 28bd
000000f0: 4f83 0d3e be3f bd3c 94f4 1dbe cab3 0b3e
00000100: d4b4 12bc 28f7 e13d 6972 053d 400d 90be
00000110: ed91 9b3d b0e7 0dbe ea75 ed3d d135 bfbc
00000120: 532f 76be c6b0 82be 9638 10bd 062b a4bc
00000130: cf2d 0cbe d261 25be 53a7 023d d431 85bc
00000140: ccf4 aabe 8b05 87bd 0981 063e 11f9 713d
00000150: e1c7 6cbe a3e6 7abe b84a 0bbe 9b2f 29be
00000160: 54fb adbd 4248 55bc d67c 22be 687a 6b3c
00000170: 8f3b 8fbd ec68 e7bc 0301 7ebe 6361 683e
00000180: ebbf 97bd 6f41 273d 26e0 72bd f028 5a3c
00000190: eb05 40be f343 d6bd 46f8 fb3d 6118 313d
000001a0: ee1c 25bd 4aa8 fabd 95e0 d8bb c733 853d
000001b0: 83a0 ddbd 9d53 c3bd 9738 4b3e 5bca 8f3d
000001c0: e22a 683b 6271 9cbc fa01 c73d fb0a 60be
000001d0: 338f c1bd f751 6abe 92e0 183e 24e6 8fbd
000001e0: 7ef3 63be eda6 09be 7252 ebbc ef7b 8c3d
000001f0: 2f73 37be 97f2 643d 3651 0ebe ac59 d93d

a2c_network.actor_mlp.4.weight f4 [64, 128]
-0.0037329625 -0.07500778 0.004631263 -0.088140845 -0.29935747 0.13723204 0.06085034 0.027674899
0.08297605 0.03694168 0.0033184742 0.05984495 -0.1143766 -0.068615295 0.073675446 0.047265925
0.14455776 0.00022464382 0.12193294 -0.06811303 -0.18257767 -0.062562 0.0055245725 0.015859121
0.07457817 -0.00044370658 -0.03017732 0.07096407 -0.045451798 -0.06422597 -0.080453716 0.031800136
-0.025746215 0.045970757 -0.06222871 -0.079212666 -0.037302945 -0.020294966 0.05480776 0.0826197
0.06938454 0.12547036 0.03717287 0.030444682 -0.13673286 0.089136906 -0.0685923 -0.050292432
0.12254265 -0.06582639 -0.07753114 -0.17636739 0.034126136 0.067820586 -0.15705185 -0.20000373
0.1088556 0.17187001 0.19593619 0.13090643 0.094601505 0.04450217 -0.02533705 0.08995685
-0.034782764 -0.13553213 -0.01252467 0.07032949 -0.058913767 -0.032075044 -0.0636926 -0.039856706
0.09635156 0.05738388 -0.0379183 -0.03397985 0.04581393 0.07975972 -0.040169835 0.0055202795
-0.025975406 0.043000035 -0.010168246 -0.068877295 0.04348626 -0.041465245 -0.122851364 -0.028351745
0.081531994 0.16141269 0.0060230563 -0.07199937 0.09393612 0.08780681 -0.0036278788 0.06365494
0.21468912 0.08842556 -0.07581527 -0.14323853 0.07446252 0.026054408 -0.025682809 0.13249491
-0.14677174 0.12007067 0.00029940627 0.11944882 0.10097711 0.014693654 0.04413578 0.034727745
0.19495739 -0.02683553 -0.07958852 0.04493932 0.1183723 0.0032530373 -0.108092435 0.0011693699
-0.014987968 -0.0065103862 0.10315198 -0.16242573 -0.04676696 -0.064904645 -0.07775126 0.10183927
-0.016263628 -0.04314087 -0.08623982 0.08864419 -0.10575547 -0.23139222 0.015210895 0.008508422
0.10083974 -0.038081177 0.0037427677 0.022867832 0.12854199 0.01631035 -0.14614916 0.011920307
-0.0074162474 0.027481934 -0.061746728 -0.054929767 -0.10399006 -0.06242944 0.103002116 0.0042303065
-0.15885605 0.051865738 -0.10300241 -0.088345036 -0.015672928 -0.11390343 -0.029838149 0.03229567
0.043132227 0.10570577 -0.20434386 -0.13234772 -0.14242838 -0.02506187 0.053032566 0.1635725
0.023763377 -0.035226386 0.114895284 0.07368535 -0.053986922 0.11663298 -0.041478842 -0.14581937
-0.09355756 -0.11339175 -0.03355758 -0.082133524 0.022278452 -0.027982429 0.04959355 -0.096841685
0.073151916 0.03654086 0.09474379 0.039785195 -0.087620035 -0.18906623 -0.04561012 -0.005297761
0.043725457 -0.06719645 -0.01290594 0.09125982 0.04791405 -0.07359387 0.038957257 0.06802414
-0.17010413 -0.016418504 0.077808246 -0.04615395 0.10745682 0.1195401 -0.05328262 0.06043453
0.08281961 0.014920845 0.0109280385 0.028199276 -0.0013757851 -0.082096465 -0.09245183 0.07803803
0.0109342635 -0.1569316 -0.1269149 -0.063678786 -0.026185058 0.016287018 -0.086537756 0.009851518
0.021205904 0.1360659 0.05024894 0.09882381 0.04703909 -0.06910829 -0.016471017 0.017267972
0.029769368 -0.05539889 -0.009354349 0.07070706 0.019230606 -0.083295874 0.08358868 -0.038797785
-0.18313469 -0.13320267 -0.03609571 -0.12859935 -0.03792744 -0.014556546 -0.30775705 -0.04285287
0.024431735 0.0006027853 -0.13555971 -0.032318413 0.06362438 0.0025361283 -0.039722685 0.025896445
00000000: b8a4 74bb ae9d 99bd dac1 973b 3083 b4bd
00000010: 6245 99be 8e86 0c3e 353e 793d 78b6 e23c
00000020: 59ef a93d 2950 173d c27a 593b fa1f 753d
00000030: 473e eabd 2d86 8cbd 27e3 963d ea99 413d
00000040: f306 143e 5e8e 6b39 fab7 f93d d87e 8bbd
00000050: a4f5 3abe 8120 80bd 7907 b53b fdea 813c
00000060: 71bc 983d 4aa1 e8b9 6d36 f7bc 9c55 913d
00000070: aa2b 3abd e888 83bd ebc4 a4bd dc40 023d
00000080: bae9 d2bc d54b 3c3d 88e3 7ebd 403a a2bd
00000090: f9ca 18bd a141 a6bc 1a7e 603d 8434 a93d
000000a0: 7b19 8e3d 4d7b 003e 9442 183d 2067 f93c
000000b0: b303 0cbe 698d b63d 1f7a 8cbd 70ff 4dbd
000000c0: a4f7 fa3d fdcf 86bd a5c8 9ebd a799 34be
000000d0: d9c7 0b3d 85e5 8a3d 33d2 20be c7cd 4cbe
000000e0: afef de3d b1fe 2f3e 7fa3 483e 560c 063e
000000f0: 6fbe c13d e847 363d a58f cfbc 4c3b b83d
00000100: 5f78 0ebd efc8 0abe 4634 4dbc e808 903d
00000110: 904f 71bd 1f61 03bd 4471 82bd c940 23bd
00000120: f753 c53d 5c0b 6b3d 3850 1bbd 752e 0bbd
00000130: 63a7 3b3d 1059 a33d 2089 24bd 76e3 b43b
00000140: 60ca d4bc ce20 303d b798 26bc 8a0f 8dbd
00000150: a61e 323d 76d7 29bd 7f99 fbbd eb41 e8bc
00000160: 3ffa a63d 5e49 253e 0f5d c53b 6874 93bd
00000170: 9561 c03d 0fd4 b33d b5c1 6dbb 855d 823d
00000180: 77d7 5b3e 7618 b53d 0945 9bbd 1fad 12be
00000190: ce7f 983d 0e70 d53c c164 d2bc bfac 073e
000001a0: 554b 16be 9de7 f53d a1f9 9c39 95a1 f43d
000001b0: 16cd ce3d a7bd 703c b8c7 343d ae3e 0e3d
000001c0: e9a2 473e 2fd6 dbbc 4eff a2bd 4b12 383d
000001d0: 2d6d f23d e930 553b 915f ddbd 8b45 993a
000001e0: 1890 75bc 1455 d5bb 5841 d33d ee52 26be
000001f0: b68e 3fbd baec 84bd 0d3c 9fbd 1b91 d03d
00000200: 4d3b 85bc 7bb4 30bd 819e b0bd 168b b53d
00000210: 5396 d8bd 15f2 6cbe 1e37 793c e966 0b3c
00000220: 1185 ce3d 02fb 1bbd 3949 753b 5255 bb3c
00000230: 83a0 033e 489d 853c 20a8 15be 644d 433c
00000240: fe03 f3bb cb21 e13c 23ea 7cbd 09fe 60bd
00000250: bef8 d4bd 03b6 7fbd c6f2 d23d 629e 8a3b
00000260: 29ab 22be 2b71 543d edf2 d2bd 3eee b4bd
00000270: 8364 80bc 3446 e9bd 226f f4bc 7748 043d
00000280: 6bab 303d 447c d83d 843f 51be 2986 07be
00000290: bfd8 11be 8d4e cdbc ad38 593d 8d7f 273e
000002a0: 6aab c23c 8b49 10bd 384e eb3d 58e8 963d
000002b0: 6421 5dbd 46dd ee3d b8e5 29bd ac51 15be
000002c0: 1b9b bfbd ef39 e8bd ac73 09bd 9f35 a8bd
000002d0: 4d81 b63c 683b e5bc 9b22 4b3d ef54 c6bd
000002e0: acd0 953d deab 153d 0809 c23d cdf5 223d
000002f0: 2272 b3bd 949a 41be add1 3abd d798 adbb
00000300: 7719 333d 4b9e 89bd 7073 53bc 6ee6 ba3d
00000310: 8641 443d 62b8 96bd a591 1f3d 3e50 8b3d
00000320: c72f 2ebe 1980 86bc ee59 9f3d ed0b 3dbd
00000330: 5212 dc3d 71d1 f43d e03e 5abd 338a 773d
00000340: 549d a93d 8f76 743c 840b 333c 2b02 e73c
00000350: b053 b4ba 3122 a8bd 6357 bdbd 67d2 9f3d
00000360: a025 333c adb2 20be fbf5 01be 066a 82bd
00000370: 0c82 d6bc 5a6c 853c b53a b1bd 4368 213c
00000380: 01b8 ad3c dc54 0b3e d5d1 4d3d 2364 ca3d
00000390: 10ac 403d a688 8dbd 3aee 86bc 9075 8d3c
000003a0: e4de f33c f2e9 62bd fc42 19bc ddce 903d
000003b0: 8189 9d3c 0797 aabd 8b30 ab3d 6dea 1ebd
000003c0: a987 3bbe 4866 08be 18d9 13bd 8caf 03be
000003d0: ce59 1bbd 947e 6ebc 5592 9dbe 7e86 2fbd
000003e0: 1025 c83c 3d04 1e3a 2ad0 0abe 5060 04bd
000003f0: 804d 823d 2c35 263b 41b4 22bd c824 d43c

a2c_network.actor_mlp.4.bias f4 [64]
-0.07269531 -0.0057512545 -0.10062144 -0.04588433 -0.06685561 -0.0038504458 -0.18615866 0.023779953
-0.15263644 -0.08227837 -0.088706665 -0.04742703 -0.009419773 -0.04232938 -0.10373837 -0.26739934
-0.0048553254 -0.0743779 0.033319768 -0.11976417 -0.07741593 0.028366003 -0.047186013 -0.14531982
-0.11110198 -0.10291041 -0.18093735 0.06011471 -0.08248106 -0.22302979 -0.094947755 0.08491912
-0.29804724 -0.07931672 -0.01942104 0.008631905 0.14054823 -0.11500223 -0.16420953 -0.045414038
-0.05459855 0.11121293 0.06052822 -0.12985078 -0.094002254 0.029535059 0.06082377 -0.11854119
-0.21656014 0.06695103 -0.21304384 -0.13730958 -0.14671935 -0.17111062 0.056930665 -0.092683755
0.03466363 0.02258952 -0.028871909 -0.12948081 0.00597267 -0.048617814 -0.15052986 -0.0014655953
00000000: 47e1 94bd 0575 bcbb 9d12 cebd 35f1 3bbd
00000010: 98eb 88bd c357 7cbb 60a0 3ebe 2dce c23c
00000020: ba4c 1cbe 9081 a8bd d7ab b5bd d842 42bd
00000030: 6455 1abc 9261 2dbd c874 d4bd 91e8 88be
00000040: 6c19 9fbb 7153 98bd 4f7a 083d eb46 f5bd
00000050: 3e8c 9ebd d25f e83c 1f46 41bd b8ce 14be
00000060: 6f89 e3bd b1c2 d2bd a447 39be d83a 763d
00000070: d4eb a8bd ec61 64be f873 c2bd 13ea ad3d
00000080: a699 98be ce70 a2bd df18 9fbc d56c 0d3c
00000090: e0eb 0f3e 4a86 ebbd 8b26 28be 1204 3abd
000000a0: bba2 5fbd 9bc3 e33d 70ec 773d 9af7 04be
000000b0: 4184 c0bd 82f3 f13c 5822 793d b9c5 f2bd
000000c0: f1c1 5dbe 9f1d 893d 2a28 5abe e29a 0cbe
000000d0: 993d 16be 9f37 2fbe 2130 693d fbd0 bdbd
000000e0: 73fb 0d3d a80d b93c c884 ecbc 9e96 04be
000000f0: 63b6 c33b 7923 47bd 8024 1abe 3819 c0ba

a2c_network.value.weight f4 [1, 64]
-0.022482948 0.032352302 -0.034386065 -0.041052192 0.034096003 -0.009534592 -0.019670624 0.052227788
0.0060835527 0.03168436 -0.007121144 0.0090154 -0.16538687 -0.01952251 -0.048075385 -0.05708684
-0.045383856 0.02655908 -0.04977661 -0.09957451 -0.011127099 0.2834401 0.03205701 -0.18783505
-0.13056083 -0.03712079 0.08440967 -0.055065658 -0.09434343 -0.22129528 0.11731804 0.049813274
0.003062899 0.0142377345 0.022811068 -0.084294975 0.013557444 -0.10221161 0.15671897 0.05389174
-0.053872112 0.32566103 0.023495784 -0.0064323265 0.12283092 -0.024804432 0.07651798 0.018250022
0.05734719 0.013335541 -0.0050894446 -0.20018373 -0.0057086786 0.12116722 -0.025325969 0.09309853
0.008759245 -0.0023401792 0.010811186 0.12516509 0.053827424 -0.1328227 0.061818454 -0.03758323
00000000: 292e b8bc d983 043d 67d8 0cbd 5826 28bd
00000010: 40a8 0b3d fa36 1cbc 4a24 a1bc ceec 553d
00000020: 8a58 c73b 76c7 013d 7c58 e9bb 54b5 133c
00000030: 2d5b 29be aced 9fbc b2ea 44bd e4d3 69bd
00000040: 6ce4 39bd 6e92 d93c 8fe2 4bbd b8ed cbbd
00000050: 704e 36bc 101f 913e 364e 033d d557 40be
00000060: bdb1 05be f80b 18bd fade ac3d 878c 61bd
00000070: 2137 c1bd 3b9b 62be 7144 f03d 0109 4c3d
00000080: ebba 483b 6345 693c 47de ba3c d8a2 acbd
00000090: 0b20 5e3c 5254 d1bd f07a 203e 96bd 5c3d
000000a0: 01a9 5cbd 0bbd a63e 3b7a c03c 44c6 d2bb
000000b0: c78e fb3d aa32 cbbc 75b5 9c3d 1281 953c
000000c0: e3e4 6a3d 507d 5a3c 5bc5 a6bb f7fc 4cbe
000000d0: de0f bbbb 8526 f83d 6878 cfbc 71aa be3d
000000e0: f082 0f3c b15d 19bb 6721 313c 472b 003e
000000f0: 257a 5c3d ad02 08be 5935 7d3d dff0 19bd

a2c_network.mu.weight f4 [12, 64]
0.005317062 -0.15564159 -0.13633387 0.06492868 0.08583519 0.071224615 0.02908576 0.06304893
-0.072060704 0.03343333 0.021916237 0.102141045 0.08154273 -0.04296193 0.13392349 0.08574717
0.035119206 -0.031521957 0.08485417 0.041853607 0.08662139 0.011356892 0.0056846333 0.01669911
-0.0979536 -0.16570508 -0.027780626 0.07741961 0.08038593 -0.055338982 0.033130728 -0.042792063
-0.043483023 -0.18390353 -0.031408403 0.114892855 0.1026654 0.021599885 -0.014651726 0.074350335
-0.047203157 -0.031893358 0.081100315 0.046208564 0.013994223 -0.024418209 0.022231098 0.033425655
0.016750231 0.14986756 0.041397758 0.10385373 -0.038505126 -0.056844156 0.014374179 -0.0021890616
-0.06675028 0.09424759 0.04872316 0.09868438 0.024779128 -0.021270543 0.009748565 -0.0035286068
-0.0753734 0.1183727 0.021811368 -0.0055355383 -0.091065444 -0.017475346 -0.072094604 0.11596677
-0.10874971 -0.047849357 -0.049210627 0.07406969 -0.08783314 -0.06369343 -0.023054782 0.11132947
0.085942954 0.0007234574 0.020394366 -0.082672805 0.0036021003 -0.001414321 -0.018573478 0.06340048
-0.019337717 0.017874029 -0.011045442 -0.044378236 -0.040506497 0.03260688 0.078828156 0.17667678
-0.04561528 -0.10645483 0.057061996 0.072669804 -0.06930878 0.03964957 -0.055077583 -0.02748198
-0.122653864 0.0559191 0.10370273 0.12811309 -0.104731046 0.09040038 -0.07161382 -0.06929654
-0.09738995 0.21690147 0.11030982 0.036491018 -7.52636e-05 -0.11622857 0.0012159501 0.06593724
0.037305143 0.06680564 -0.0023731093 -0.04556721 0.009206925 0.034188304 -0.11974997 -0.0038989636
0.02564123 -0.017926339 0.030938383 0.013381828 0.015487605 -0.057803545 0.057644226 -0.045932937
0.048220716 0.00034839133 -0.0026714595 0.027202915 0.03176757 -0.01885043 0.02923062 0.13291992
-0.02517029 0.052717756 -0.05542203 0.032138035 0.028706387 -0.011718087 0.015171523 0.057403617
0.033623192 0.033379745 0.014455154 -0.030327683 -0.008780446 0.014141218 0.0048978594 -0.030973427
0.06992142 0.00973472 0.0025521673 0.009832653 -0.092318706 0.039226122 0.017823957 -0.035333283
-0.004897565 -0.037421234 -0.03556414 0.043969944 -0.018813152 -0.032228567 -0.031915393 -0.01298379
0.06402593 -0.046700634 0.050503016 -0.0049722013 0.07336233 0.06211048 0.0014297363 0.05810598
-0.050516065 -0.009636965 0.0058322945 0.0069479984 0.0041807033 0.013292506 -0.000882644 -0.023103835
0.17968786 -0.06820833 0.07797457 0.11537446 -0.004237979 -0.028498514 -0.01167787 -0.00492499
-0.016774474 0.016444627 0.03912618 0.010522346 0.04539031 -0.046141736 -0.025440054 -0.019354682
0.11295474 0.0086600175 0.020706926 0.09486538 -0.05621492 0.005257438 0.07827376 0.005355823
-0.14858575 -0.016999518 0.009647558 -0.11580059 -0.10828841 -0.010326758 0.054283522 -0.039294396
0.030181544 -0.035830926 -0.1515014 -0.056677982 0.046389624 0.048315227 -0.0976498 -0.08176544
-0.11519493 0.02491713 0.06918555 -0.052296374 -0.036702942 -0.045831896 0.029750986 -0.030601691
-0.044264026 0.07411059 0.12155064 0.102987565 0.037644826 0.07116536 0.14604595 -0.11720127
0.040075026 -0.09966404 -0.039175294 -0.08211373 0.024592921 -0.110690944 0.009597154 -0.007132169
00000000: c03a ae3b 8260 1fbe 1b9b 0bbe 54f9 843d
00000010: 5cca af3d 36de 913d 4245 ee3c cc1f 813d
00000020: 9094 93bd 63f1 083d ae89 b33c 532f d13d
00000030: e0ff a63d d9f8 2fbd 3d23 093e 369c af3d
00000040: 28d9 0f3d 2b1d 01bd 06c8 ad3d b06e 2b3d
00000050: 8e66 b13d 4212 3a3c 2946 ba3b 92cc 883c
00000060: e69b c8bd 98ae 29be 3294 e3bc 2c8e 9e3d
00000070: 61a1 a43d 21ab 62bd 16b4 073d bb46 2fbd
00000080: 411b 32bd 3551 3cbe 19a6 00bd f24c eb3d
00000090: 3d42 d23d 3ef2 b03c cb0d 70bc fd44 983d
000000a0: 1958 41bd 9ca2 02bd ec17 a63d 3145 3d3d
000000b0: 0748 653c b208 c8bc fe1d b63c 57e9 083d
000000c0: c837 893c e276 193e b290 293d 44b1 d43d
000000d0: 8db7 1dbd 6bd5 68bd ad81 6b3c 5c76 0fbb
000000e0: 5fb4 88bd e104 c13d f091 473d 091b ca3d
000000f0: 99fd ca3c 903f aebc 72b8 1f3c 3340 67bb
00000100: 5e5d 9abd 636d f23d c1ad b23c 7663 b5bb
00000110: 8580 babd 7528 8fbc 56a6 93bd fc7f ed3d
00000120: 2bb8 debd b0fd 43bd 1591 49bd dab1 973d
00000130: dce1 b3bd b371 82bd 62dd bcbc b500 e43d
00000140: dc02 b03d 67a6 3d3a 1612 a73c 5c50 a9bd
00000150: 3711 6c3b bd60 b9ba 6827 98bc 1cd8 813d
00000160: 226a 9ebc 8e6c 923c f1f7 34bc f4c5 35bd
00000170: 24ea 25bd cb8e 053d a870 a13d c2ea 343e
00000180: 16d7 3abd fd04 dabd d7b9 693d e8d3 943d
00000190: c3f1 8dbd 9667 223d 0899 61bd e421 e1bc
000001a0: f331 fbbd 6d0b 653d 1962 d43d 1430 033e
000001b0: 3b7d d6bd d623 b93d 44aa 92bd 58eb 8dbd
000001c0: 6274 c7bd 6b1b 5e3e 1dea e13d 9b77 153d
000001d0: d6d6 9db8 3f09 eebd 8460 9f3a 1b0a 873d
000001e0: 47cd 183d 65d1 883d 2b86 1bbb afa4 3abd
000001f0: a4d8 163c 0909 0c3d 793f f5bd c185 7fbb
00000200: 8f0d d23c 42da 92bc 7e72 fd3c 743f 5b3c
00000210: b9bf 7d3c 69c3 6cbd 5a1c 6c3d 2d24 3cbd
00000220: 1683 453d 4ba8 b639 a713 2fbb a6d8 de3c
00000230: b61e 023d 386c 9abc 0e75 ef3c 291c 083e
00000240: ed31 cebc 93ee 573d 3602 63bd 2ca3 033d
00000250: a829 eb3c 38fd 3fbc fb91 783c 0e20 6b3d
00000260: 79b8 093d 33b9 083d 4fd5 6c3c c371 f8bc
00000270: dcdb 0fbc 91b0 673c 397e a03b fcbb fdbc
00000280: f632 8f3d 607e 1f3c 4342 273b 2319 213c
00000290: 9711 bdbd 92ab 203d 8c03 923c a2b9 10bd
000002a0: c17b a0bb 0247 19bd b4ab 11bd d419 343d
000002b0: 0a1e 9abc 1a02 04bd b7b9 02bd f6b9 54bc
000002c0: 0720 833d 2a49 3fbd 40dc 4e3d d9ed a2bb
000002d0: fd3e 963d 8f67 7e3d fd65 bb3a 8900 6e3d
000002e0: efe9 4ebd 5ce4 1dbc d51c bf3b 09ac e33b
000002f0: 48fe 883b d0c8 593c 3c61 67ba 4144 bdbc
00000300: 1800 383e cfb0 8bbd 22b1 9f3d 7249 ec3d
00000310: bfde 8abb b775 e9bc 8954 3fbc cf61 a1bb
00000320: 9f6a 89bc e2b6 863c c642 203d eb65 2c3c
00000330: 31eb 393d 1eff 3cbd a967 d0bc b68d 9ebc
00000340: d154 e73d bfe2 0d3c 92a1 a93c c848 c23d
00000350: 9e41 66bd 9646 ac3b fe4d a03d e67f af3b
00000360: dd26 18be 9342 8bbc cb10 1e3c dc28 edbd
00000370: 50c6 ddbd 9031 29bc 6658 5e3d 29f3 20bd
00000380: 493f f73c 73c3 12bd 2f23 1bbe 2c27 68bd
00000390: 0c03 3e3d 30e6 453d 9efc c7bd a474 a7bd
000003a0: 52eb ebbd 021f cc3c 27b1 8d3d b934 56bd
000003b0: d355 16bd 3aba 3bbd 57b8 f33c 66b0 fabc
000003c0: 324e 35bd 4bc7 973d 8bef f83d 25eb d23d
000003d0: 7631 1a3d 25bf 913d 128d 153e 3807 f0bd
000003e0: b625 243d a91c ccbd 4676 20bd 3e2b a8bd
000003f0: 1877 c93c efb1 e2bd 623d 1d3c f8b4 e9bb

a2c_network.mu.bias f4 [12]
0.0065372135 0.039113283 -0.25704056 -0.0077038454 0.06556463 0.033739842 0.037255522 0.043261066
0.027286848 -0.019353736 0.024635965 -0.060459774
00000000: 1f36 d63b 4035 203d d29a 83be 8a70 fcbb
00000010: c046 863d ca32 0a3d 3f99 183d 8432 313d
00000020: ab88 df3c ba8b 9ebc 5dd1 c93c aba4 77bd

exp_avg f4 [12]
-0.009906078 0.010198693 -0.001709806 0.0031478053 -0.0050724046 0.012043668 0.008603195 -0.004163865
0.00443707 0.0014797961 0.008352589 -0.0062015923
00000000: 1a4d 22bc 6b18 273c 921b e0ba 694b 4e3b
00000010: 6a36 a6bb ce52 453c 6af4 0c3c 0871 88bb
00000020: d764 913b b8f5 c13a 4cd9 083c ba36 cbbb

exp_avg_sq f4 [12]
0.0022693593 0.002413385 0.0024566983 0.0022995463 0.0026513098 0.0038236275 0.0031056805 0.002274145
0.0021892758 0.0023655784 0.0021583561 0.0032012563
00000000: 88b9 143b e229 1e3b 8f00 213b fcb3 163b
00000010: 99c1 2d3b d395 7a3b ac88 4b3b d209 153b
00000020: f479 0f3b d207 1b3b 3573 0d3b 2bcc 513b

exp_avg f4 [256, 32]
-6.859579e-05 -0.00054587243 0.0011250664 0.00052336365 0.00049798307 -0.000538966 0.0011784852 0.00038733336
-0.000110308654 -0.00013679896 -0.00024060233 -0.00034371146 0.0007602682 4.3730593e-06 -5.4069897e-06 0.0012109897
0.0014648304 -6.0233783e-06 -2.0112411e-05 0.0016364782 9.3234754e-05 1.8096725e-05 -1.8558858e-05 -1.1630784e-05
7.223988e-05 -3.0971965e-05 0.0 0.0 0.0 0.0 0.0 0.0
-0.001578754 -0.000919409 0.0004000626 0.0014013476 0.0027876706 -0.0010007211 0.0022682522 0.0010261489
0.00022652057 -0.00032821659 -0.0004463042 -0.0013222535 0.0022799207 -8.340097e-06 1.7139564e-05 0.00037302493
0.0016951589 8.209612e-06 6.2641625e-06 -0.0016459161 1.5419306e-05 -0.00014478595 1.2574059e-05 0.00012534588
-6.777515e-05 -2.0786341e-05 0.0 0.0 0.0 0.0 0.0 0.0
0.00045681346 0.000697951 0.0006826765 -2.2153852e-05 -0.0003411931 -0.0006406393 -0.0020426717 0.0004230286
6.3252395e-05 4.301138e-05 3.8421967e-06 -0.00023220968 0.00055436353 1.0541833e-05 -3.105315e-05 0.0001517528
-0.0020745501 -1.5892234e-05 -1.9095178e-05 -0.00041028784 -0.00026658762 -0.00039138712 9.784165e-05 0.00022453345
-0.00026189996 -0.00020165875 0.0 0.0 0.0 0.0 0.0 0.0
-0.00065756595 0.00033803005 0.0008939644 -0.00041704014 -0.0005342758 0.0003598042 -0.00052236614 -0.00014803842
0.0006752446 6.5968234e-05 0.00034632333 0.00023855318 -0.00039241606 2.6932737e-06 -1.07324595e-05 -0.0003544602
-0.00028785373 -1.3962141e-06 -7.215589e-06 1.3074547e-05 -5.2615636e-05 -4.6583893e-05 4.0900548e-05 2.7230872e-05
-8.761128e-05 -9.973491e-05 0.0 0.0 0.0 0.0 0.0 0.0
-0.0011402988 -0.000643845 0.00032152282 -0.00010916073 0.00015684287 0.000361705 0.0009831957 0.00020444811
0.0005229016 -5.5445594e-06 0.00017718333 -0.0001294305 0.00039699447 -3.4410286e-06 5.255109e-06 -0.0009117308
0.0017293293 -1.8270945e-06 1.3105716e-05 -0.0021506636 5.122888e-06 -0.00016129938 9.7545024e-05 0.00013174552
-5.8136928e-05 -0.00013215121 0.0 0.0 0.0 0.0 0.0 0.0
-0.0005920368 -0.00040287623 0.00079272245 -0.0019866095 -0.00073970563 0.0017095982 0.0042725615 0.0002157513
0.0009470519 -0.00010674881 0.00032500012 -0.00026489305 0.0005447559 -3.079053e-07 1.6487287e-05 -0.0020177406
0.0017121659 -6.6642574e-06 1.21881585e-05 0.0008736208 2.5649506e-05 2.0754198e-06 -7.195682e-06 1.3033852e-05
6.774731e-05 3.2604956e-05 0.0 0.0 0.0 0.0 0.0 0.0
-4.9269773e-05 0.00017494471 -0.00023780094 -0.000791492 -0.000417225 0.001291512 -3.7296097e-05 -0.00026897865
0.00017753322 -0.00032339626 -1.4711322e-05 -3.7586426e-05 -0.00038930867 -5.7217976e-06 8.238628e-06 -0.0009328761
-0.00021121812 5.446852e-06 2.1811811e-05 -0.003058599 7.827052e-06 -7.882235e-05 6.596158e-05 -1.6554588e-05
-4.8070182e-05 -4.8337635e-05 0.0 0.0 0.0 0.0 0.0 0.0
0.0013526762 0.00037962425 -0.00029811202 0.00019295486 -0.0006866925 -0.0006557933 -0.003731062 -0.0007348095
-0.00093272346 -6.691982e-05 -0.00032097715 0.00043711378 -0.0010958634 9.724738e-06 -3.010949e-05 -0.00016620576
-0.0005888728 1.8174679e-06 -1.4576303e-05 0.0009877619 -0.00012479823 -1.9622486e-05 -2.4379427e-05 4.3938e-05
-8.031974e-05 1.6390015e-05 0.0 0.0 0.0 0.0 0.0 0.0
00000000: 16db 8fb8 e118 0fba f776 933a 5732 093a
00000010: 148b 023a 6549 0dba 6777 9a3a 0113 cb39
00000020: 8255 e7b8 b171 0fb9 324a 7cb9 2c34 b4b9
00000030: bc4c 473a 4bbc 9236 b06d b5b6 12ba 9e3a
00000040: 8dff bf3a 6d1c cab6 13b7 a8b7 197f d63a
00000050: 0787 c338 6cce 9737 d8ae 9bb7 d621 43b7
00000060: 7e7f 9738 e5e7 01b8 0000 0000 0000 0000
00000070: 0000 0000 0000 0000 0000 0000 0000 0000
00000080: 32ee ceba 7e04 71ba 7ebf d139 6cad b73a
00000090: 5ab1 363b a12a 83ba f5a6 143b d87f 863a
000000a0: 2786 6d39 7c14 acb9 f0fd e9b9 774f adba
000000b0: b96a 153b 72ec 0bb7 efc6 8f37 8f92 c339
000000c0: 1830 de3a 04bc 0937 bf30 d236 c8bb d7ba
000000d0: b558 8137 afd1 17b9 2cf5 5237 476f 0339
000000e0: 8222 8eb8 545e aeb7 0000 0000 0000 0000
000000f0: 0000 0000 0000 0000 0000 0000 0000 0000
00000100: 7780 ef39 b3f6 363a a5f5 323a 09d7 b9b7
00000110: 2ae2 b2b9 93f0 27ba 58de 05bb f0c9 dd39
00000120: 5fa6 8438 1e67 3438 38ec 8036 507d 73b9
00000130: b552 113a d4dc 3037 113f 02b8 d51f 1f39
00000140: 2df5 07bb 5050 85b7 952e a0b7 e71b d7b9
00000150: c9c4 8bb9 1733 cdb9 5630 cd38 bd70 6b39
00000160: 9e4f 89b9 5c74 53b9 0000 0000 0000 0000
00000170: 0000 0000 0000 0000 0000 0000 0000 0000
00000180: 8160 2cba a039 b139 ef58 6a3a 2ea6 dab9
00000190: a40e 0cba 1aa4 bc39 66ef 08ba c33a 1bb9
000001a0: e602 313a 6d58 8a38 bb92 b539 2224 7a39
000001b0: 31bd cdb9 17be 3436 900f 34b7 d8d6 b9b9
000001c0: 13eb 96b9 8d65 bbb5 701d f2b6 c05a 5b37
000001d0: 9caf 5cb8 1363 43b8 a18c 2b38 da6d e437
000001e0: f3bb b7b8 c628 d1b8 0000 0000 0000 0000
000001f0: 0000 0000 0000 0000 0000 0000 0000 0000
00000200: 1476 95ba b5c7 28ba 1092 a839 38ed e4b8
00000210: 3076 2439 39a3 bd39 93de 803a 1f61 5639
00000220: 5513 093a 670b bab6 4aca 3939 bcb7 07b9
00000230: b223 d039 6cec 66b6 0b55 b036 3801 6fba
00000240: aaaa e23a 7d3a f5b5 9fe0 5b37 26f2 0cbb
00000250: 46e5 ab36 7922 29b9 1691 cc38 2b25 0a39
00000260: 0dd8 73b8 1292 0ab9 0000 0000 0000 0000
00000270: 0000 0000 0000 0000 0000 0000 0000 0000
00000280: eb32 1bba 2239 d3b9 b4ce 4f3a c731 02bb
00000290: cee8 41ba 9914 e03a d800 8c3b 4c3b 6239
000002a0: 9443 783a 55de dfb8 c764 aa39 58e1 8ab9
000002b0: f3cd 0e3a 2f4e a5b4 2e4e 8a37 123c 04bb
000002c0: c16a e03a 899d dfb6 be7b 4c37 b303 653a
000002d0: e529 d737 7147 0b36 7072 f1b6 f8ab 5a37
000002e0: 8f13 8e38 4ec1 0838 0000 0000 0000 0000
000002f0: 0000 0000 0000 0000 0000 0000 0000 0000
00000300: 04a7 4eb8 5d71 3739 345a 79b9 217c 4fba
00000310: febe dab9 f447 a93a 616e 1cb8 b405 8db9
00000320: 3628 3a39 838d a9b9 a6d0 76b7 1ea6 1db8
00000330: 201c ccb9 defd bfb6 a338 0a37 418c 74ba
00000340: 6f7a 5db9 1ac4 b636 82f8 b637 c772 48bb
00000350: ef50 0337 6d4d a5b8 db54 8a38 b5de 8ab7
00000360: f79e 49b8 24be 4ab8 0000 0000 0000 0000
00000370: 0000 0000 0000 0000 0000 0000 0000 0000
00000380: 484c b13a 4e08 c739 eb4b 9cb9 ed53 4a39
00000390: 2703 34ba 8be9 2bba d584 74bb 3ba0 40ba
000003a0: 0382 74ba 4e57 8cb8 d348 a8b9 6b2c e539
000003b0: 13a3 8fba 6f27 2337 a393 fcb7 8547 2eb9
000003c0: 965e 1aba b9ef f335 bf8c 74b7 ca77 813a
000003d0: 45dc 02b9 f89a a4b7 6c82 ccb7 114a 3838
000003e0: 5571 a8b8 4a7d 8937 0000 0000 0000 0000
000003f0: 0000 0000 0000 0000 0000 0000 0000 0000
