omniisaacgymenvs/runs/WEE/nn/last_WEE_ep_1100_rew_305.70477.pth (torch, 623514 bytes, 36 tensors)

value_mean_std.running_mean f8 [1]
000000 0d 5d dd 17 a0 bd 3a c0
       -26.74072407869703

value_mean_std.running_var f8 [1]
000000 bd 83 bb 87 44 e9 87 40
       765.1584620141581

value_mean_std.count f8 []
000000 00 00 00 01 00 30 b1 41
       288358401.0

running_mean_std.running_mean f8 [32]
000000 bd 7c 0a 5c 96 74 95 3f 3a 98 c3 4b b8 2c 87 3f
       0.020952557914480908 0.011315765201697404
000010 a6 86 28 9c f3 df dd 3f 4b 04 2d 81 74 1f 9c bf
       0.46679392099222594 -0.027463741668956747
000020 81 46 48 76 e9 16 92 3f 34 75 4c 81 b5 d6 7d bf
       0.01766552719533943 -0.007284840587798148
000030 06 fc 32 22 4d df dc 3f 9f 1d b4 b3 23 65 ac 3f
       0.45112922992478877 0.05545913284918957
000040 c9 27 13 83 d6 ae 8e 3f 38 4d 0f 6f 5a bf a9 3f
       0.014981914401136625 0.050288034493542744
000050 8a 64 63 80 20 3a 73 3f 81 13 e7 1f b3 9a 47 3f
       0.004694106062936085 0.000720345938866815
000060 30 4b 61 63 01 c4 bb 3f da e9 17 fc 19 c8 c9 3e
       0.1084595553996166 3.0734117621975943e-06
000070 f3 ff e0 1a c5 2c f8 be 71 38 47 d1 f2 70 db 3f
       -2.3054964622071195e-05 0.42876882970165925
000080 91 d5 3f b9 bf b5 e1 3f 3f 39 29 37 71 d0 13 bf
       0.5534361475135247 -7.558527958304461e-05
000090 08 f6 63 0a 4a b3 e4 be 6e e4 e5 66 a1 1a aa bf
       -9.870695361953292e-06 -0.05098442441062266
0000a0 62 7b 49 87 80 4e 16 3f ca d1 0a 93 8f ec 57 3f
       8.509311175817832e-05 0.0014602090924827776
0000b0 e2 a7 35 20 2d 36 63 bf ef e2 2e 66 23 3a be bf
       -0.002345169197430317 -0.11807461971956078
0000c0 e0 57 7d a9 a4 da 9a bf a9 a2 43 01 2a f4 90 bf
       -0.026224682659936494 -0.01655641205516881
0000d0 00 00 00 00 00 00 00 00 00 00 00 00 00 00 00 00
       0.0 0.0
0000e0 00 00 00 00 00 00 00 00 00 00 00 00 00 00 00 00
       0.0 0.0
0000f0 00 00 00 00 00 00 00 00 00 00 00 00 00 00 00 00
       0.0 0.0

running_mean_std.running_var f8 [32]
000000 47 c3 86 4d 62 54 65 3f ae ee d9 f7 6e 6f 57 3f
       0.0026037139870926126 0.0014303764031912513
000010 d0 01 bd f7 f3 f9 5c 3f 8e 1f c0 be 47 29 e3 3f
       0.0017685778138486381 0.5987890935511915
000020 6e f7 98 e2 38 ab 8a 3f 64 86 50 a3 1b e6 a4 3f
       0.013021892943580329 0.04081808441720794
000030 a9 1d d2 3e e7 57 c2 3f 61 46 3d fa 9f 23 ec 3f
       0.14330759589595957 0.8793487441527753
000040 54 16 d5 0c 24 51 ed 3f 6f 2a 3a 63 26 8e ea 3f
       0.9161548853523507 0.8298522890120931
000050 6e 66 75 09 41 c6 70 40 0d 73 79 f1 5e 15 65 40
       268.39087816104336 168.6678397533473
000060 1c 38 4c 08 2f 44 70 40 40 a0 cb e0 8c 9d d4 3e
       260.2614825227081 4.9151017378138416e-06
000070 b0 73 d2 91 76 f8 d9 3e ed b2 33 a7 aa ec fb 3e
       6.191863829799299e-06 2.6630858383325002e-05
000080 9f 69 5d b5 63 79 d1 3f f0 f7 c7 74 63 d0 31 3f
       0.27303402625480006 0.00027182033662131923
000090 f2 c9 1d ff bb 5d 34 3f 4a 17 6f 6d 93 b8 da 3f
       0.0003107627845714548 0.41751561819943517
0000a0 f6 1a e3 5c 37 95 76 3f 51 3d f3 93 74 8c 76 3f
       0.00551339746579659 0.005505042440929601
0000b0 8b a0 69 ce c6 c6 6d 3f d8 06 e0 d0 6a fa 29 40
       0.0036348231254131383 12.989096190783513
0000c0 7c 2a c0 14 8e 6c 2c 40 6b 88 1a 19 74 f5 1d 40
       14.212021492440947 7.489700691456259
0000d0 83 b9 28 d9 01 ca 3d 3e 83 b9 28 d9 01 ca 3d 3e
       6.935813162121672e-09 6.935813162121672e-09
0000e0 83 b9 28 d9 01 ca 3d 3e 83 b9 28 d9 01 ca 3d 3e
       6.935813162121672e-09 6.935813162121672e-09
0000f0 83 b9 28 d9 01 ca 3d 3e 83 b9 28 d9 01 ca 3d 3e
       6.935813162121672e-09 6.935813162121672e-09

running_mean_std.count f8 []
000000 00 00 00 02 00 30 a1 41
       144179201.0

a2c_network.sigma f4 [12]
000000 d8 0c 8f bf 43 69 65 bf f9 df 14 c0 d1 01 6f bf
       -1.1175795 -0.8961374 -2.3261702 -0.93362147
000010 a6 58 67 bf 25 98 68 c0 2f eb 4e bf f9 d0 1a bf
       -0.9036964 -3.6342862 -0.8082761 -0.60475117
000020 1f a4 42 bf e3 e5 1a bf b9 cd 54 bf d3 91 34 bf
       -0.7603168 -0.6050703 -0.8312641 -0.7053501

a2c_network.actor_mlp.0.weight f4 [256, 32]
000000 41 d9 f9 3d a0 5c 22 3e dd 72 92 be fb 9d 6a 3d
       0.12199641 0.15855646 -0.2860326 0.05727957
000010 b2 fc 33 3f ed 11 6b 3f fa 63 b1 3c 1b 90 3a bc
       0.7030746 0.9182423 0.021654118 -0.0113868965
000020 7e 5a 19 be ed 04 54 be a2 e6 03 3e 8d ca 15 3e
       -0.14975926 -0.20705004 0.12880948 0.14628048
000030 65 e2 e0 3d 2c 46 ab be 20 91 73 be b7 fe 15 be
       0.10980681 -0.33451974 -0.2378583 -0.14647947
000040 15 c1 58 3d 68 47 88 be eb de 88 be ec 20 d0 bd
       0.052918512 -0.2661698 -0.26732573 -0.10162529
000050 25 e0 17 be 20 6f 0b 3e ea 8e d2 3c be 29 f6 3d
       -0.14831598 0.1361661 0.025702912 0.120196804
000060 80 07 c5 3d f5 8d c9 3b cf aa 0d 3e e0 9d 00 be
       0.09620571 0.006150956 0.1383469 -0.12560225
000070 c8 5c 36 3c 1f 1b f7 bd 4c 45 5f 3d 02 5c 79 bd
       0.011130519 -0.1206572 0.054509446 -0.06087876
000080 54 56 ba 3d a2 2e 84 39 86 a9 61 3e 54 32 ed bd
       0.09098497 0.00025211746 0.22037324 -0.11581865
000090 ee f4 48 bf 90 f1 19 bf a7 6c 25 3e e6 6a 9b 3e
       -0.78498733 -0.6013422 0.16154729 0.30354995
0000a0 7a 92 a8 3e 36 f6 83 be 62 79 6b be 49 3b 59 be
       0.32924253 -0.25773782 -0.22995523 -0.21214022
0000b0 e8 9a b6 3d 41 88 a5 3e 0e 0f 1a 3f 9d df 89 3e
       0.08916265 0.32330516 0.6017922 0.26928416
0000c0 11 3d d1 bd e7 53 b8 bd 85 6c e4 3d 3d 11 f6 bd
       -0.102167256 -0.09000378 0.11153511 -0.12015007
0000d0 71 c5 0b 3e 98 c3 e9 bd 11 a9 1c 3e ae 49 13 bd
       0.13649537 -0.1141426 0.15298869 -0.03595894
0000e0 0a da 21 bd 73 fe 2c bd 4e 13 19 3d 1f 9c 38 bd
       -0.03951458 -0.04223485 0.037371926 -0.045070764
0000f0 d9 cc d7 3d 02 1e f6 3d 39 45 03 be eb 47 c1 bd
       0.105371185 0.12017442 -0.12819375 -0.094375454
000100 ce 87 1e 3e e6 07 f2 bd bc fc 88 be 28 4b cd be
       0.15481493 -0.11817913 -0.2675532 -0.40096402
000110 4e b5 97 bf bc 21 54 be 3d 7b cd bd ac c2 d0 be
       -1.1852205 -0.20715994 -0.100332715 -0.40773523
000120 3d 42 ce 3d d8 e2 9c be c8 1c 84 bb 97 97 9e be
       0.10071228 -0.30641818 -0.0040317513 -0.3097503
000130 c9 7c ce be f0 87 6d be 6f e6 3b 3f b1 46 af 3d
       -0.4032958 -0.23196387 0.7339849 0.08558405
000140 dc 33 4a bd 2f e5 1f be 3e eb 40 be b3 23 9c bd
       -0.049365863 -0.1561477 -0.18839738 -0.076239966
000150 1c 9c 25 bd 38 62 e9 bd 36 0b 12 be 93 53 01 be
       -0.04043208 -0.11395687 -0.14262089 -0.12629537
000160 6b a9 04 3c ce 9b f7 bc b4 b3 48 bc 02 54 f5 bd
       0.008097033 -0.03022566 -0.012249876 -0.11978914
000170 68 80 f8 bd c9 36 d3 bd 8d d9 77 bd 07 e0 0e be
       -0.121338665 -0.10313184 -0.060510207 -0.13952647
000180 fa 94 f0 3d ea 58 79 3e 63 99 21 bd b1 fd ec 3c
       0.11747165 0.24350324 -0.03945292 0.028929563
000190 0c ac dc be 67 93 d9 bd e7 6b 4b be d0 ce c7 be
       -0.4310001 -0.10623818 -0.1986538 -0.39024973
0001a0 be bb 17 be cd 30 51 be 73 fe 52 3e 5b 62 a7 3d
       -0.14817712 -0.20428772 0.20604877 0.08173057
0001b0 fb 5f 63 be 1b 74 58 be bc 04 78 3d fe 3d 86 be
       -0.22204582 -0.2113804 0.06055139 -0.2621917
0001c0 87 e0 1c bd 00 f5 d6 3c e4 2b 34 bc 42 38 88 3d
       -0.038300063 0.026239872 -0.010996792 0.06651355
0001d0 a4 90 2a 3e 83 86 d5 bd d1 13 ac 3d c8 65 03 be
       0.16656739 -0.10426047 0.08402217 -0.12831795
0001e0 19 b2 07 bc fe 6b e3 bd 0e e2 24 3e f6 db 04 be
       -0.008282208 -0.11104582 0.16101858 -0.12974533
0001f0 f5 7d c1 3d 2e 78 7e 3d 11 4b 6b 3d 1e bc c3 bd
       0.094478525 0.06212633 0.057444636 -0.09557365
000200 ad 1f 8e 3e 13 83 ef 3d 64 7e 85 bd 93 20 7d be
       0.27758542 0.11694922 -0.06518248 -0.24719457
000210 d2 65 5a 3f 07 72 8c 3e e3 bd 6e bd 96 67 89 3e
       0.85311615 0.27430746 -0.05828656 0.26836842
000220 b4 f5 a3 bd c0 8f 84 bc 94 34 2b bd 0a 30 8a bc
       -0.080058485 -0.016181827 -0.04179819 -0.01686861
000230 27 12 6d bc 4a b3 31 be 1e 3e 7d be 86 61 22 be
       -0.01446966 -0.1735355 -0.24730727 -0.15857515
000240 bd 2f 81 bc 04 77 13 be b9 bc 69 3e 05 81 cd bd
       -0.015769834 -0.1440087 0.22825898 -0.10034374
000250 75 84 94 bd a5 2b 07 3d 23 38 20 bc 12 b7 98 3c
       -0.07251827 0.033000607 -0.009779009 0.018641982
000260 de 86 97 3c d0 d3 48 3d 49 60 87 3d c6 78 fe bc
       0.018496927 0.049030125 0.06610162 -0.031063449
000270 91 bc 3f bd c7 ec 9a 3c 8d d2 ff bc 9b c6 57 bd
       -0.04681069 0.018911732 -0.031228328 -0.05267964
000280 06 cd 03 3e 48 14 8b 3e 83 7e 10 bf b8 2b 8e 3c
       0.12871179 0.2716391 -0.5644304 0.017354831
000290 dd 69 32 bb 65 c6 84 3b 6d 46 cb bc c4 2f 9a be
       -0.0027223744 0.004051971 -0.024813855 -0.30114567
0002a0 19 5d 6d be af 85 c5 bc ad 18 24 3e 43 47 1d 3e
       -0.23180045 -0.024111597 0.16025038 0.15359215
0002b0 47 18 2f bf 19 2c d0 be 41 60 60 3d 0f 9d 9b be
       -0.6839642 -0.40658644 0.054779295 -0.30393264
0002c0 1e a2 36 3d 25 2f 3c 3e 9d 01 2b 3e 72 53 f7 3d
       0.0445882 0.18377359 0.16699834 0.12076463
0002d0 74 8a a0 be 7b d3 d5 bc 46 57 78 be ac 6d 2d 3e
       -0.3135563 -0.026101818 -0.24252042 0.16936368
0002e0 72 ec 75 3c bd 60 59 be ea c7 95 3d d3 e4 89 bd
       0.015009986 -0.21228309 0.07313521 -0.06733098
0002f0 e2 54 ea bd ab 1f 04 3e a0 9e a4 bd 47 27 11 bd
       -0.11441971 0.12902705 -0.08038068 -0.03543785
000300 95 1b 39 be 12 cf 8a 3e 87 d3 92 bb 35 ca bb 3d
       -0.18076928 0.27111107 -0.0044807824 0.09169427
000310 76 ae 74 3e 62 fc 05 bf 8f ba b1 bd ee 11 51 bc
       0.23894677 -0.5233823 -0.08678161 -0.012760622
000320 90 23 11 3e 6b 0d d3 3d 31 f0 92 3e 88 4c 13 3d
       0.14173722 0.10305294 0.28698877 0.035961658
000330 63 f0 db be 68 c0 8d be c3 e5 56 be 7d 06 0f be
       -0.42956838 -0.27685857 -0.20986085 -0.13967319
000340 e2 07 3b 3e 84 32 85 bd f5 29 03 3e 9f b0 07 3d
       0.18264726 -0.06503776 0.12808974 0.033127423
000350 10 c5 85 bd 8e b5 66 bb fa d6 80 be ca 2c fa 3c
       -0.06531727 -0.003520343 -0.25164014 0.030538935
000360 3a 91 b8 bd d5 af 04 3e 55 4a 68 bd 34 ca 04 be
       -0.09012075 0.129577 -0.056711514 -0.1296776
000370 c7 82 ff bc 4f 7f af bd 7e 86 5d bd 61 54 2c be
       -0.03119029 -0.08569204 -0.05408334 -0.16829063
000380 94 41 c7 3d 37 7d 37 be 7c 49 2b 3e 61 40 b6 3d
       0.09729305 -0.1791886 0.16727251 0.08898998
000390 6f 56 c2 3e 44 99 61 3d 16 1d 35 3e a9 bb 23 bd
       0.3795657 0.055077806 0.17686877 -0.03997389
0003a0 bd 27 bb 3c e4 2c 2d 3e 23 a1 80 be cb 13 3c be
       0.022846097 0.16911656 -0.25122938 -0.18366925
0003b0 9e 83 dd 3c 83 a2 c8 be 3c b1 72 be 8e d8 a3 be
       0.027040299 -0.39186487 -0.23700422 -0.32001156
0003c0 95 13 1f 3e fb 7d b0 bc eb 58 b2 3d d8 31 9e bd
       0.15534814 -0.021544447 0.08708366 -0.07724351
0003d0 e6 2d 2c be 0a 4d 56 3d a3 2e 30 bc 99 3e 68 be
       -0.16814384 0.052319564 -0.010753307 -0.22680129
0003e0 a7 35 b5 bb 48 8e 93 be 71 52 7d bc 48 33 b2 bd
       -0.0055300775 -0.2881949 -0.01546155 -0.08701187
0003f0 5b fd 93 bd 62 dd 65 bd fe 05 2c be 19 87 14 3e
       -0.07226058 -0.05611933 -0.16799161 0.1450466

a2c_network.actor_mlp.0.bias f4 [256]
000000 19 43 22 3e 33 d8 93 3e 9e b4 f4 3d cb 4b 93 be
       0.15845908 0.28875884 0.119485125 -0.28768763
000010 33 f3 0e 3c 3a 06 6e 3e 07 54 44 be 28 bf 9a be
       0.008724975 0.23244563 -0.19172679 -0.30223966
000020 0b 13 6c bb b9 31 74 be 27 61 f8 bd 5e 19 c0 bb
       -0.0036022093 -0.23847093 -0.12127905 -0.005862399
000030 e2 f0 f5 3c c3 d8 a2 bd 1b 36 e0 3d bb c6 25 be
       0.030022088 -0.079515 0.1094782 -0.16189091
000040 86 a5 2d 3e 25 f3 c5 3d 25 52 8f 3d 4e ba b0 3d
       0.16957673 0.09665517 0.0699809 0.08629285
000050 d0 4a 1d 3e b7 08 6a be ac e6 b7 bd 31 6e 76 3e
       0.1536057 -0.22854887 -0.08979544 0.24065472
000060 4b 4a 94 3e 36 3c ae bd f2 88 81 be 6d a1 a8 be
       0.2896293 -0.08507578 -0.25299793 -0.32935658
000070 b2 70 b6 be 73 6c 3f be 1f f3 a6 be 84 07 9f bd
       -0.35632855 -0.18693714 -0.32607362 -0.07765105
000080 7b 9b 0e be 8a 9a 30 be d2 71 c4 be c5 03 af 3e
       -0.13926499 -0.17246452 -0.38368088 0.34182563
000090 86 9b 75 3d e5 ec 48 3e 43 35 1c be 95 30 c2 be
       0.05996277 0.19621618 -0.15254693 -0.3792769
0000a0 b9 22 94 bc 84 1b 83 bd ab 39 80 3e 4c e6 02 be
       -0.018082963 -0.064017326 0.25043997 -0.12783164
0000b0 3a c9 3e be 7e 02 48 3d ae ec b6 3d 08 23 5e 3e
       -0.1863145 0.0488305 0.08931862 0.21693051
0000c0 ea d3 98 3e af 6f 01 be 5e fc a1 bd a9 d7 1d be
       0.29849178 -0.1264026 -0.07909463 -0.15414299
0000d0 01 8e 20 be 44 a4 bd 3e ad 15 d6 bd ab ec 70 3e
       -0.1567917 0.37039387 -0.10453353 0.23527782
0000e0 69 88 74 be 1f 75 de bc 6a d2 54 3e a7 48 be 3e
       -0.23880161 -0.027155457 0.20783392 0.37164804
0000f0 3d 1c 34 3e e9 2f 39 3e 78 bf a5 3e 89 fb dc bd
       0.17588897 0.18084683 0.32372642 -0.10790164
000100 f1 c8 27 3e 3f b1 10 bf 6f 04 1b bd eb 4b 8d 3d
       0.16385247 -0.56520456 -0.037846025 0.06899246
000110 21 7c 81 bd 93 31 4d 3e 2c ff 74 be 20 31 b5 bd
       -0.06322504 0.20038442 -0.23925465 -0.088472605
000120 42 84 c9 3e e4 13 74 bc ad 56 09 3e 2d 62 91 3d
       0.39358717 -0.01489732 0.1341197 0.07098804
000130 c3 6a f3 3d d8 87 31 3e 7f 76 e3 3e 22 4d 43 be
       0.118855976 0.17336977 0.44426343 -0.19072393
000140 62 8e 83 be 33 d5 25 3e 92 51 e8 3d 01 af 95 bd
       -0.25694567 0.1619461 0.11343683 -0.0730877
000150 f9 c9 dd 3d ff e4 99 3e cb fe e6 3d 8a c7 cf 3c
       0.10829539 0.30057523 0.11279067 0.025363702
000160 c5 ad c1 3d 8f 7d 11 3b b0 70 8a 3e cd 9f 15 3e
       0.09456972 0.0022200083 0.270391 0.1461174
000170 f2 66 a5 bd 09 fc 14 be 52 c7 eb 3e 6f a7 03 3e
       -0.08076276 -0.14549269 0.46050507 0.1285684
000180 09 ac b7 3d d2 0e 2c 3b 39 7f 9f 3d 51 a5 68 bd
       0.0896836 0.002625395 0.07787938 -0.056798283
000190 07 7e 55 bd ee 33 66 be 08 63 21 be 62 f5 33 be
       -0.052122142 -0.22480747 -0.15760434 -0.17574075
0001a0 77 19 75 be 44 38 52 3e 85 cb 8d bd f2 fb e4 be
       -0.23935495 0.20529276 -0.06923584 -0.4472347
0001b0 ac c8 ae 3e 25 27 d5 bc 4f b8 da bc ce 25 fb bd
       0.34137475 -0.026019642 -0.026699213 -0.1226307
0001c0 22 74 aa bd d2 de 44 be 94 dd 8e 3e a4 0b cd be
       -0.08322932 -0.19225624 0.27903426 -0.40047944
0001d0 22 fa 8f 3e 3a 0e 74 3e 72 38 0f 3e b8 b2 5f 3e
       0.28120524 0.23833552 0.13986376 0.2184552
0001e0 4d c4 82 be 3e d8 67 be 03 17 26 be 8d a9 a8 bd
       -0.2554039 -0.22641084 -0.16219716 -0.08235464
0001f0 ea 77 3f 3e 6a 6a e4 3e 43 9b c0 3e 3e 98 47 bd
       0.18698087 0.44612437 0.37618455 -0.048729174
000200 c9 88 23 be 42 36 38 3d 39 2b c0 3e b9 20 11 bd
       -0.15970148 0.04497362 0.37532976 -0.035431597
000210 b5 d6 86 3e 1c fd 0a 3d 3d 78 91 be 2c a6 54 be
       0.26335683 0.03393279 -0.28412047 -0.20766515
000220 8f 3c a1 be 7a d5 c4 3e 09 66 ef 3d 7a f1 3e bd
       -0.31491515 0.3844412 0.116893835 -0.04661701
000230 e2 ad d1 3d 2e 1f ed 3d d9 bd 87 be 52 57 a5 be
       0.10238244 0.11578213 -0.2651203 -0.32293183
000240 4c fd 8e 3d 65 f8 76 3e ca 26 c5 3e ae ab 77 bd
       0.06981906 0.24118192 0.38506156 -0.06046646
000250 4b 45 91 be 76 64 f3 3d 0f 1e 42 be fd f6 c9 3d
       -0.2837318 0.11884396 -0.18956779 0.098615624
000260 8e 71 ad 3e e9 12 92 3e 81 fb 15 bc 5b ed 69 3c
       0.33875698 0.28530052 -0.0091542015 0.014277781
000270 28 59 c7 3d d8 26 98 be 72 35 8c 3e 60 a5 b2 3d
       0.09733802 -0.29717135 0.27384526 0.08722949
000280 7a eb 6b be cd e7 8a 3e f5 cd 85 3e 64 de 7d be
       -0.23039046 0.27129975 0.26133695 -0.24791867
000290 92 87 25 be 76 6e 0b be 23 a9 c0 be 43 66 bf be
       -0.16164997 -0.13616356 -0.3762904 -0.37382707
0002a0 22 ce 3a bd d4 20 a4 bd ef 11 52 bd 94 61 59 3e
       -0.04560674 -0.08014074 -0.051286634 0.2122863
0002b0 f9 62 d7 be 76 94 69 3e 63 1e a9 3e f4 09 c1 3e
       -0.42067698 0.2281054 0.33030996 0.37702906
0002c0 5c b7 3f 3d b0 1e 1f 3e bf 06 8c bd 61 ae 69 be
       0.046805725 0.1553905 -0.06837224 -0.22820427
0002d0 ad df 5b 3e 3c 2b 83 be 91 af 6e 3e 4c 22 f1 bd
       0.21472044 -0.25618923 0.23309161 -0.1177412
0002e0 60 12 5f 3d 6a 5e 42 3e aa 69 1f be aa a0 be 3e
       0.054460883 0.18981329 -0.15567651 0.37231952
0002f0 1b 56 33 be 54 a5 fd bd 8e c0 62 be e0 39 b4 bd
       -0.17513315 -0.123850495 -0.22143766 -0.08800101
000300 08 12 f7 3d 3c b8 af bc b0 ed 0e be fd 57 5b 3d
       0.12063986 -0.021450154 -0.13957858 0.05355071
000310 7a de 5f 3e 7e 89 a9 bc e5 6b 26 3e 6c c4 b8 be
       0.21862212 -0.020695444 0.16252096 -0.36087358
000320 9c 5f b0 bc 86 24 b1 be 6a e3 05 be 92 0e 5d 3e
       -0.021529965 -0.34598178 -0.13075033 0.2158759
000330 14 ff 83 3e ee cb f8 bd af 44 c4 bc 79 83 6a 3e
       0.25780547 -0.121482715 -0.023958532 0.22901715
000340 31 46 e0 bd 82 33 63 3e 8f be 24 3e c7 70 74 3e
       -0.10950888 0.22187617 0.16088317 0.23871146
000350 f5 a4 05 3e ef 0a 03 be d2 8e 4b 3e 2e 82 21 3c
       0.13051207 -0.1279714 0.198787 0.009857697
000360 c8 36 ff bd 49 56 64 bd 8e 4f e9 bc 84 ba 07 3e
       -0.124616206 -0.05574635 -0.028480317 0.13254744
000370 2b 32 9b be 0f e4 34 3e 3c a6 63 be 91 80 36 be
       -0.30311713 0.17665122 -0.22231382 -0.17822482
000380 fd 0b c2 bd 76 ae 93 3d 74 96 fa bb e1 ca 81 3c
       -0.09474943 0.0721101 -0.00764733 0.01584381
000390 ee bd 48 be de 32 d3 bd fd 20 59 be 85 ba 98 3e
       -0.19603702 -0.103124365 -0.2120399 0.29829803
0003a0 4e 2a 8f 3d 41 9d 56 be 9e 55 ac 3e d4 81 e5 bc
       0.06990491 -0.20958425 0.3365907 -0.028016008
0003b0 77 04 d9 bd 62 ef 58 3e 1f 3a 5e 3e f8 af 40 be
       -0.10596555 0.21185067 0.21701859 -0.18817127
0003c0 55 3b 18 be 91 67 5f be 59 1c 47 3e 6d e3 1f be
       -0.14866383 -0.21816851 0.19444408 -0.156141
0003d0 44 94 67 3d 56 70 3d 3e 66 b9 ae 3e 30 0e 37 be
       0.05653788 0.18499884 0.34125823 -0.17876506
0003e0 7a d8 a8 3e ad 03 5e bd 64 2d b9 bd b3 3e 9f 3d
       0.3297766 -0.054202724 -0.09041861 0.07775631
0003f0 91 b3 48 be f1 62 b9 3d 5a 78 81 bc b3 d4 5f be
       -0.19599749 0.09052075 -0.015804458 -0.21858482

a2c_network.actor_mlp.2.weight f4 [128, 256]
000000 79 01 eb be 81 49 8a 3e 20 2d f9 bc a1 ec 42 be
       -0.4589956 0.27009204 -0.030417025 -0.1903558
000010 ca 16 e8 bd bf ad c5 be 2f 9b 11 be b3 7c fd 3b
       -0.11332472 -0.3860912 -0.14219354 0.0077358126
000020 39 3d 25 3d 12 ff 13 3e 80 3e 95 be 5a 1e 9a bd
       0.04034159 0.1445277 -0.29149246 -0.0752532
000030 0b a6 00 be a2 dd ea ba ab 71 15 be a6 b7 9c be
       -0.1256334 -0.0017918835 -0.14594142 -0.30608863
000040 62 6c 82 bd e3 45 9f bc 80 17 05 be f2 ad 0f 3e
       -0.06368329 -0.019442504 -0.12997246 0.14031199
000050 3e e0 64 be 81 f1 95 3d fe 06 77 be 1f ac 1b 3d
       -0.22351167 0.07321454 -0.24123761 0.038005944
000060 34 c8 97 3d e3 6c 46 3d 5c ca 9c bd 7d ac 1e be
       0.074112326 0.048443686 -0.076557845 -0.15495487
000070 1b 75 8e 3e 3a 0f 30 be 64 9c d2 3d 5d 59 a0 bd
       0.2782372 -0.17193308 0.102837354 -0.07829545
000080 22 4a 12 bd 65 5c f7 3d 23 50 d9 bd 56 83 8b be
       -0.03571523 0.1207817 -0.10610988 -0.2724864
000090 c2 e9 fc bd 87 1c 95 3d c3 89 45 3c e4 d4 e5 3d
       -0.12349273 0.07280832 0.012056771 0.11222246
0000a0 bb e5 95 3d 38 db 89 3d a8 99 02 be b8 09 19 be
       0.07319208 0.06731266 -0.12753928 -0.14945114
0000b0 80 d7 5e 3e a9 fe 34 be c8 02 7e be eb de 0b be
       0.21761894 -0.1767527 -0.24805748 -0.13659255
0000c0 60 fa 3b 3e 7d e2 01 3e bb ed 98 3d da fe 31 be
       0.18357229 0.12684055 0.074672185 -0.17382374
0000d0 b4 17 0a 3e a5 43 d0 be 73 58 00 3e f2 f7 f8 3d
       0.13485605 -0.4067661 0.1253374 0.12156667
0000e0 51 11 a5 bd 6e 2e 22 be 38 fe 20 3e 44 b6 2a be
       -0.080599435 -0.15838024 0.15721977 -0.16671091
0000f0 5f 04 91 3e 6a ab 8e be f4 0d 1f be 04 37 b0 bd
       0.28323647 -0.27865154 -0.15532666 -0.086042434
000100 eb 28 2b bd e3 7f 0a be 05 37 82 be 9f a7 9c bd
       -0.04178707 -0.13525347 -0.25432602 -0.07649159
000110 68 39 7f be 9e 20 01 3d 36 d0 20 3e da c7 22 be
       -0.24924242 0.031525247 0.15704426 -0.1589655
000120 c1 e6 2e be 37 e9 bb 3d a1 c1 18 be 25 ac ef bd
       -0.17080213 0.091753416 -0.14917614 -0.11702756
000130 05 f5 ef bd dd fe b2 3d 21 27 0f be 45 43 c2 bc
       -0.11716656 0.087400176 -0.1397977 -0.023713717
000140 54 a6 68 bc 3f 48 7c bd 64 42 18 3e ef db d7 bd
       -0.014199812 -0.061592337 0.14869076 -0.10539996
000150 d3 d9 ad 3d 02 19 43 bd 63 8f 66 bc 88 14 b4 be
       0.08488812 -0.04763127 -0.014072272 -0.35171914
000160 a6 b2 dd bd 40 d2 45 bd ac 26 dd 3c a3 37 dd bc
       -0.1082509 -0.048296213 0.02699598 -0.027004069
000170 e2 95 a1 be 20 b7 51 be 26 ae 8f bd 8c f8 06 3e
       -0.31559664 -0.20480013 -0.07015638 0.1318075
000180 c8 d7 28 be ae a0 f6 3d a0 b9 8b be 6e c0 3a 3e
       -0.16488564 0.12042366 -0.27290058 0.18237469
000190 4b 52 6e be d3 27 f5 3d 01 a6 c4 3d b5 ae 1b 3e
       -0.2327358 0.119704865 0.09601975 0.15203364
0001a0 bc 98 05 3e a6 a9 a4 be ec 0b c4 3b 78 f0 a3 3d
       0.13046545 -0.3216068 0.0059828665 0.0800485
0001b0 ef 2a 92 bc a4 d0 96 3d 19 3e a5 3c 7e a0 3a bd
       -0.017842738 0.07364014 0.020171212 -0.045563214
0001c0 81 96 a3 bc 45 d4 14 3e 15 56 89 3e c5 f2 4a 3e
       -0.019969227 0.145341 0.26823488 0.19819172
0001d0 23 9a 18 bd 68 54 57 bd bf c1 50 3d a0 d3 bd bc
       -0.03725637 -0.05257073 0.05096602 -0.0231722
0001e0 4a 8f c9 bd aa 2a dc bd 82 63 82 3c 85 66 5c bb
       -0.09841783 -0.10750325 0.01591659 -0.0033630442
0001f0 66 6b a9 bd 7e b0 88 bd 2b c7 a5 bd 71 62 9b 3d
       -0.08272438 -0.06674288 -0.08094629 0.075871356
000200 2a a8 4a bd 74 fa ba bd 37 82 fd 3d b3 b3 48 bd
       -0.04947678 -0.091298014 0.12378352 -0.0489995
000210 6c 2e ef bd 79 c5 87 be 92 26 93 3d 99 df 63 bc
       -0.11678776 -0.26517847 0.07185091 -0.01390829
000220 ce 3c 66 be d8 fd 21 3d 90 eb 1d 3e 57 95 25 3e
       -0.22484133 0.039548725 0.15421891 0.1617025
000230 36 ec 0f bd a1 69 33 3e aa fb 85 3e 2b 98 a6 bd
       -0.035137378 0.17520763 0.26168567 -0.081344925
000240 12 f4 54 3d ed bc d1 bd 96 1a 9b 3d 43 0d b3 bd
       0.051990576 -0.10241113 0.0757343 -0.08742764
000250 81 c5 7c 3c a4 d4 7b be 34 06 9a bc 70 81 2f 3e
       0.015427948 -0.24592835 -0.018801786 0.1713922
000260 eb c5 48 3e b9 59 da bd 6f 0c 12 be 0b fe e2 bd
       0.1960675 -0.106616445 -0.14262556 -0.11083611
000270 5d 78 3c be 5d 82 33 be 6b 5a 33 bd d4 3e 2b bf
       -0.1840529 -0.17530198 -0.0437874 -0.66892743
000280 89 f5 dc bd e8 1c a5 be 57 30 dd be 99 07 bb be
       -0.107890196 -0.32248616 -0.43200943 -0.36529234
000290 2b 6f f9 bd c6 6f 0f 3e 46 d4 7f be 0f 25 4c be
       -0.12179407 0.14007482 -0.2498332 -0.19936012
0002a0 50 eb 42 be c6 be 22 bd 33 50 25 be e4 c5 5b bf
       -0.19035077 -0.039732717 -0.16143875 -0.8584883
0002b0 54 0c d4 3d 1b 88 22 be e8 af 92 be b5 a5 4b be
       0.10353914 -0.15872233 -0.2864983 -0.19887431
0002c0 49 00 9a be 94 35 ef bb 13 07 c8 bd 98 ff e7 ba
       -0.30078343 -0.007300088 -0.09766974 -0.0017700074
0002d0 a7 7e b0 3d 61 35 20 be 67 67 e0 3c 91 08 2d bb
       0.08617907 -0.15645362 0.027393056 -0.002640281
0002e0 b4 67 eb bd fd 80 09 bd f2 67 4a be 81 e6 9a 3c
       -0.11494389 -0.03357028 -0.19766214 0.018908741
0002f0 ba 83 b4 bc a0 0f 42 3d ec c1 54 3e 39 60 c9 bb
       -0.022035468 0.047378182 0.207771 -0.006145504
000300 e9 0f 29 3e 7f 8f ae bd 9d 54 2a 3e 36 9b 2b 3d
       0.16509975 -0.085234635 0.1663384 0.041896068
000310 19 02 94 3c 1f 53 63 3d d7 cd 9e be 69 c2 c6 3d
       0.018067406 0.055499192 -0.31016418 0.097050495
000320 06 a3 50 be 5b 44 df 3d c7 1e 41 bd ea 72 23 be
       -0.20374689 0.1090171 -0.047148492 -0.15961805
000330 e3 5c ab bd e9 be 07 3e 5e 9f 55 be 04 12 6f be
       -0.08367326 0.1325642 -0.20861575 -0.23346716
000340 b3 26 91 3e 7c 45 42 3e e7 ea 0c bf 96 04 14 be
       0.28349838 0.18971819 -0.5504593 -0.14454874
000350 2d 58 4c 3c 78 3b ff 3d c3 aa d7 3c 26 54 1f bd
       0.012472195 0.12462515 0.026326543 -0.03889861
000360 9e b4 6e 3d 14 ab 17 be d3 2d 5b be 0f 0a a3 be
       0.05827772 -0.14811355 -0.214042 -0.31843612
000370 2a 3f e2 3d 4c 7b b4 be cd ab 4e be 4d b9 4c bd
       0.11047204 -0.35250318 -0.20182724 -0.049981404
000380 51 43 26 3d 3e 74 6f be 8c c3 b9 bb 39 30 06 be
       0.04059154 -0.23384187 -0.005669063 -0.13104333
000390 78 8f 92 bd 5f a3 1e bf cd 4f 14 3e f4 1c 9d be
       -0.07156271 -0.61968035 0.14483567 -0.30686152
0003a0 70 de bc bb 61 5f a4 be df 41 3f bd 87 6f d0 bd
       -0.0057638213 -0.32104018 -0.04669368 -0.10177522
0003b0 67 f4 51 3e 49 e3 be bd 5b a5 05 be e2 aa 06 be
       0.20503388 -0.09320695 -0.1305136 -0.13151124
0003c0 ed 27 9d 3d c9 b8 85 3d 12 f6 0b bd 6c 17 e7 3c
       0.07673631 0.065293856 -0.034170218 0.02820941
0003d0 c9 8c 4c be 77 6c 49 be 6c 7a 3c be d1 f0 e5 bd
       -0.1997558 -0.19670282 -0.18406075 -0.11227573
0003e0 bb 40 16 be 1f ca 1a be 1b 62 a7 3d 47 5e bb be
       -0.1467313 -0.15116166 0.08173009 -0.36595365
0003f0 0d ea 5a be 92 79 2e bd 22 76 05 3c 9e 6f f2 bd
       -0.21378346 -0.042596407 0.008145841 -0.118376955

a2c_network.actor_mlp.2.bias f4 [128]
000000 ec 6d 4c bd f8 3d 4b 3b 76 53 68 3e 88 ac de bb
       -0.049909517 0.0031012278 0.22688088 -0.0067954697
000010 82 78 82 3e 1d 45 9b be 01 fb 22 be 38 97 7d be
       0.25482565 -0.30326167 -0.15916063 -0.24764717
000020 8c eb 0f bf 89 f6 22 bb d2 aa 0f bf 53 e2 b7 3c
       -0.5621879 -0.0024866185 -0.56120026 0.022446787
000030 cc fb 46 be 55 6b a9 be ed eb 81 be 40 03 24 be
       -0.1943199 -0.330897 -0.2537531 -0.16016865
000040 67 84 d4 bc ec d7 3a bc be 49 fc bd d4 f5 bb be
       -0.02594204 -0.011404019 -0.12318753 -0.3671099
000050 9a 83 d9 3a 5f 72 ab bd b8 e9 82 be cc cf 61 3e
       0.0016595006 -0.08371424 -0.25568938 0.22051924
000060 fc 78 2f be 96 29 09 bd 5e 64 6b be d3 a2 19 bf
       -0.17135996 -0.033486925 -0.22987506 -0.60014075
000070 fc c8 47 be 86 84 0e 3d 24 c7 17 3d 19 45 37 bf
       -0.19510263 0.034794353 0.03705515 -0.7158981
000080 28 c7 62 be 4f da b5 be 97 7e a1 be 89 33 25 3e
       -0.22146285 -0.3551812 -0.31541893 0.1613294
000090 de 3b 90 be 3a ac 33 bf d0 b8 3d be c5 d9 0a bf
       -0.28170675 -0.7018467 -0.18527532 -0.5423854
0000a0 1d f9 95 3d f0 0b c0 bd fb 95 4f bd 5a e9 b6 be
       0.07322905 -0.09377277 -0.050680142 -0.35724908
0000b0 75 eb 86 bc 39 9e 7d 3d 44 af a7 be 39 fe a6 b8
       -0.016469697 0.06191847 -0.32750905 -7.9628495e-05
0000c0 92 3f 1d be 3d 4e ba bc 12 6a 87 be e3 90 5f bc
       -0.15356281 -0.022742385 -0.26448113 -0.0136453835
0000d0 24 28 ab 3d 2b 98 34 bc b1 3e f4 3d d8 32 8a bd
       0.083572656 -0.011022608 0.1192602 -0.06747979
0000e0 2c 6a 7c be 31 ba 87 be 0b 25 73 be c2 6d 8f be
       -0.24649876 -0.2650924 -0.237446 -0.28013426
0000f0 a6 31 e2 3c 22 cc 26 be 96 f6 5a be 30 a6 65 3d
       0.027611565 -0.16288808 -0.21383128 0.056066692
000100 32 36 29 be 11 33 d3 3d 52 67 c7 bc 61 84 05 bf
       -0.1652458 0.103124745 -0.02434126 -0.5215512
000110 fc 94 b3 bc d0 6b 8a be e7 de a6 3d 2a 44 83 be
       -0.021921627 -0.2703538 0.08147984 -0.25637943
000120 b7 52 11 bf 02 79 04 bf fd da 85 3a 59 17 95 bd
       -0.5676684 -0.51747143 0.0010212358 -0.07279844
000130 4b 9b ab be b3 ad a7 be ec c5 b6 bd 54 e0 86 be
       -0.33516917 -0.3274971 -0.08924469 -0.26343024
000140 62 8d 26 bf de e2 82 be 2d 10 7a 3d 1f 91 ce 3c
       -0.65059483 -0.2556371 0.061050583 0.025215684
000150 7e 13 f1 be b5 70 f2 be 77 d2 b5 be 24 d1 9c be
       -0.47085184 -0.47351614 -0.35512134 -0.30628312
000160 0d a1 34 be 19 39 cc be 48 de a2 be 34 1d dc bd
       -0.17639561 -0.39887312 -0.31810212 -0.107477576
000170 1d dd 2a be 09 db 35 be fe 11 88 be c7 23 5a 3e
       -0.1668591 -0.17759337 -0.26576227 0.2130271
000180 92 1f 68 bd 21 12 ae 3c 78 97 01 be d9 08 95 3d
       -0.056670733 0.021248879 -0.12655437 0.07277078
000190 e4 8b a8 be b9 c3 93 be b3 b0 af 3d da ea 00 bd
       -0.32919228 -0.28860262 0.085786246 -0.031473972
0001a0 90 4d 51 be 4e e3 94 be c3 26 2d be ee 3c a5 bc
       -0.20439744 -0.2907967 -0.16909318 -0.020170655
0001b0 fb 19 d3 be fe a0 f6 bd bf d7 51 3e 63 72 9f 3c
       -0.4123076 -0.120424256 0.20492457 0.019463724
0001c0 42 df 7f be 47 bd 10 be 50 74 81 3d c8 bc ad be
       -0.2498751 -0.14134704 0.06321013 -0.3393309
0001d0 01 df 2f be 8a c9 04 bf 75 54 f2 3d 4b ad 35 be
       -0.17174913 -0.51870024 0.11832515 -0.17741887
0001e0 59 0f ca be c4 07 61 be 90 07 f0 bd 61 38 d9 bb
       -0.39464834 -0.21975619 -0.117201924 -0.0066290353
0001f0 94 a4 76 be 67 d0 64 3c 5f 5a 94 be 8a 8e 77 bc
       -0.24086219 0.013965703 -0.28975198 -0.015109668

a2c_network.actor_mlp.4.weight f4 [64, 128]
000000 83 a9 74 bc 16 83 78 be c6 b6 26 bc a9 00 84 bd
       -0.014932993 -0.24268755 -0.0101754125 -0.064454384
000010 00 6f 0f bf c0 60 ff 3d ee 4d d3 3d 9e 81 37 bd
       -0.5602875 0.124696255 0.10317598 -0.044801347
000020 9b c5 2d 3e ea 28 be 3d ba 21 e4 3c 01 d9 c2 3d
       0.16969912 0.092851475 0.027848113 0.095140465
000030 ec 9a c7 bd 7d 21 0e be e5 7e b1 bd 6f e5 0d 3e
       -0.09746346 -0.13879962 -0.08666781 0.13857053
000040 80 81 b1 3d ea 11 fa bd 73 ef 1d 3e bd 24 3b bd
       0.08667278 -0.12210448 0.15423374 -0.045689333
000050 5e f2 f3 bd 9f 35 c1 bd 5d 55 10 3d e4 e3 4c 3d
       -0.11911462 -0.094340555 0.03523766 0.05002202
000060 f6 43 21 3e d5 84 1e bd 3d 2f 64 bd c2 78 f0 3d
       0.15748581 -0.038700897 -0.055709112 0.11741783
000070 66 09 3f bd 85 b7 02 bd b7 21 a1 bd 8f e2 c3 3d
       -0.046639822 -0.0319133 -0.07867759 0.09564697
000080 fe 7d 5e 3d c9 ce f9 bc 1b db 04 be 6a 1a a1 bd
       0.054319374 -0.03049411 -0.12974207 -0.07866366
000090 87 08 a6 3c de 6d 4d 3d b6 e5 16 bd 9d bc 02 3e
       0.020267738 0.050153606 -0.036840163 0.12767263
0000a0 a4 ec 69 bd fc 8b 60 3d 6c c4 72 bd bb 45 05 3d
       -0.057110444 0.054821 -0.059269354 0.032537203
0000b0 1e cb 04 be d3 b5 d6 3d 0b e2 ff bc 8d 3a 19 bd
       -0.12968108 0.10483899 -0.031235715 -0.037409354
0000c0 1c 06 1d 3e e8 2e ab bd 18 f9 c0 bd 52 0f 99 be
       0.15334362 -0.08358556 -0.09422511 -0.298945
0000d0 06 d1 30 3d c2 35 d5 bc 45 d7 60 be 86 52 92 be
       0.04316809 -0.02602661 -0.21957119 -0.28578585
0000e0 d2 84 2b 3e de 4b e2 3d 46 8b 16 3e 4f 25 1d 3e
       0.16749886 0.11049627 0.14701566 0.15346263
0000f0 76 4e a6 bb 1c 3e b7 3c 33 1b 11 3c 3b aa f1 bc
       -0.0050752712 0.022368483 0.008856582 -0.029500118
000100 58 ee d2 3c d9 86 2e be c1 9b d4 3d 51 8a cb 3d
       0.025748417 -0.17043628 0.1038127 0.09938491
000110 8e 6a 41 be 54 da 53 3c 80 b4 29 be 08 c0 ee bd
       -0.18888304 0.012930471 -0.16572762 -0.11657721
000120 ce 04 59 3e 4c 4a 90 bc 1e 9b dc 3d aa 83 78 bd
       0.21193239 -0.017613553 0.10771774 -0.06067244
000130 20 a4 2c 3d 00 b2 03 3e 57 eb bc bd 5b 89 38 3d
       0.04214871 0.1286087 -0.09224575 0.045052867
000140 cd bf a2 3c f2 79 a7 3d 84 c4 5c bc 69 7f b0 bc
       0.019866848 0.08177556 -0.013474587 -0.021545129
000150 c4 b6 fb 3d f4 09 dc 3d b1 49 71 3c 2c 10 dc 3d
       0.12290719 0.10744086 0.014727042 0.10745272
000160 0e d0 bb 3d e9 e9 f4 3d f1 08 0f bc 67 35 af 3c
       0.09170543 0.11958677 -0.008730159 0.021387769
000170 ec d5 80 bd 09 3b a1 bc 49 84 8b 3b a9 a5 63 3d
       -0.06290802 -0.01968147 0.004257713 0.055577908
000180 1c 7c 24 3d 3f 8a 05 3e 77 49 2b 3d 35 8e 8e be
       0.040157422 0.13041018 0.04181811 -0.2784287
000190 5b 83 4d 3e 71 79 5b 3e 77 3f c0 39 04 ff f0 3d
       0.2006964 0.21433045 0.0003666838 0.1176739
0001a0 cc 57 fd bd 1f 57 45 3e a9 d5 49 bd 9f bc d4 3d
       -0.123702615 0.19271515 -0.049276028 0.10387539
0001b0 9b df 32 3e cd 50 eb 3b f2 dd 07 3e 16 4d 37 3d
       0.17468111 0.007181263 0.13268259 0.04475125
0001c0 0d d0 00 3e fa c9 8a bc 3f 07 54 bd 40 b3 79 bd
       0.12579365 -0.016942013 -0.051764723 -0.06096196
0001d0 dd 6d 99 3d 57 38 d2 3d 1f 6f 95 bd 36 12 8b b9
       0.07491658 0.10264652 -0.07296585 -0.00026525714
0001e0 23 45 e6 bc a8 2d 5b bd 9c 3c b8 3d fb c9 ad bd
       -0.028109139 -0.053510338 0.08995935 -0.0848579
0001f0 8c 26 df bd e3 4f 67 be 0e 26 26 bd 2e 95 93 3d
       -0.10896024 -0.22589068 -0.040563636 0.07206188
000200 34 fc 93 3d 34 1b 8d 3d 56 d2 d4 bd 20 81 61 3d
       0.07225838 0.06889954 -0.10391681 0.055054784
000210 10 ec 90 be c7 74 81 be 10 19 d1 bc b2 47 0e bc
       -0.283051 -0.25284407 -0.025524646 -0.008684086
000220 e0 9e 3d 3e 43 61 5d bd 72 3f 29 bd 20 52 bb 3d
       0.18517637 -0.054047834 -0.04132027 0.091465235
000230 79 08 08 bd ca 83 b8 3b 7c d6 3d be 50 e5 2b 3b
       -0.033211205 0.005630945 -0.1853885 0.002622921
000240 a2 ba a5 bc 51 ce 4f bc 4e f1 db 3a 98 d5 cc bd
       -0.020230595 -0.012683467 0.0016780288 -0.10001677
000250 9a a6 04 be 7d 2e 81 3d 44 a5 d5 3c a1 44 a3 3c
       -0.12954178 0.06307695 0.026079781 0.019930186
000260 d6 84 90 bd 2a b1 47 3d ae a9 b4 bd fb d4 80 bd
       -0.070565864 0.04875294 -0.08821426 -0.06290623
000270 87 cd 9e bd ba 87 5e bd bb 06 00 bd 31 c8 89 3d
       -0.07754045 -0.054328658 -0.03125642 0.067276366
000280 c8 d9 a6 bc c5 d9 a6 3d 00 3f d8 be 5e e4 c8 bd
       -0.020367518 0.08147005 -0.42235565 -0.098091826
000290 8b f5 2d be d0 c5 a1 3c 12 d5 13 3d 43 9e 7e 3e
       -0.16988198 0.019747645 0.03609187 0.2486506
0002a0 92 79 27 3d 47 a6 ac bd ce 5f 79 3e 1f e6 23 3e
       0.040887423 -0.084301524 0.24352953 0.16005753
0002b0 ff 81 be bd 3d f4 a2 3d f9 fa 00 bd 86 17 ac be
       -0.093021385 0.07956741 -0.031489346 -0.33611697
0002c0 3c 33 84 bd 9b 85 e9 bd 24 e2 96 3d 08 39 a0 bd
       -0.06455085 -0.11402436 0.07367352 -0.07823378
0002d0 b9 7d 6d bd f9 61 c3 bd 41 3b 98 3d 1d d0 81 be
       -0.057981227 -0.09540171 0.07433177 -0.2535409
0002e0 69 1e d4 3d 84 12 1a 3d b5 d5 f4 3d c7 07 65 3e
       0.10357363 0.037615314 0.11954824 0.22366248
0002f0 a5 ab 93 3c 9e 27 f5 bd f3 04 f8 3b 14 04 dc 3c
       0.018026182 -0.11970447 0.0075689494 0.026857413
000300 5e 1e 6a 3d c8 68 3b be 89 31 48 bd 3e bf 39 3e
       0.057157867 -0.1830169 -0.048875365 0.1813936
000310 ee c3 ad bc b7 48 f3 bd ba ea 52 3d 46 44 65 bc
       -0.02121159 -0.11879104 0.051493384 -0.013993328
000320 2a 8f 17 be f0 09 b3 3c 15 07 e9 bc 59 55 94 3c
       -0.14800707 0.021855325 -0.02844576 0.018107103
000330 49 05 91 3d c5 55 2c 3e a4 73 fa bd 16 80 8c 3d
       0.07081086 0.16829593 -0.12229088 0.06860368
000340 23 02 6b 3e 81 ae 26 3e f4 ba 33 3d bc c2 78 bd
       0.22950034 0.16277505 0.043879464 -0.06073259
000350 ba 8d 9d 3d 3c 5a 08 3e 43 c0 9e be 6a 9b c9 3d
       0.07693048 0.13315672 -0.3100606 0.09844096
000360 aa 92 85 3d f5 1c fd bd 6e 2e 2e be 7c bb 31 be
       0.065221146 -0.12359039 -0.17009899 -0.17356676
000370 3b 1d f8 3c 84 ab f5 bd 03 35 c4 bd 22 79 8f bc
       0.030287376 -0.11995605 -0.09580424 -0.017513815
000380 a8 7a a9 3d b2 b8 f3 3d 82 4b bb 3d 79 90 9c 3d
       0.08275348 0.11900462 0.09145261 0.076447435
000390 4e cf bb 3d 6d 9c 8c 3c bc e0 51 bd 9d 59 05 bd
       0.091703996 0.017164433 -0.051239714 -0.032556165
0003a0 42 c9 7b 3d be dc 8c bd f4 64 b5 3b 1a 73 7a 3d
       0.06147123 -0.06878041 0.005535716 0.061144926
0003b0 29 c1 9e 3d 9a 40 29 be 66 77 b9 3c 04 9f 32 bd
       0.07751686 -0.1652855 0.022639941 -0.04360868
0003c0 89 ae 54 bd 27 2a a5 bd 19 99 cf bd 66 b5 27 be
       -0.051924262 -0.080646805 -0.10136623 -0.16377792
0003d0 77 6b 46 3c 7c 4d 6a 3c 1c 7b b7 be d3 e7 75 bd
       0.012110583 0.0143007 -0.35836112 -0.060035538
0003e0 af b4 c3 3c ef 7c 41 3d 12 e4 de bd e8 de 29 be
       0.023889868 0.047238287 -0.10883345 -0.16588938
0003f0 0a 1d ed 3d bc 5b 7a 3d 66 6b ed 3b 47 cd e8 3d
       0.115778044 0.06112264 0.007245469 0.113672785

a2c_network.actor_mlp.4.bias f4 [64]
000000 70 ce 4b be a9 81 11 bd b1 a1 35 be c7 68 92 be
       -0.19902968 -0.035524044 -0.17737462 -0.28595564
000010 83 48 c5 bd 57 76 4a bd ca a0 a8 be ca fc 2d bd
       -0.09632971 -0.049429264 -0.32935172 -0.042477407
000020 ba 3f ef be d6 57 d6 bd 12 1c 29 be 7e b0 23 bd
       -0.46728307 -0.10465972 -0.16514614 -0.039963238
000030 2d 3c 14 3b 8a 28 a1 bd cc f8 44 be ed 43 fb be
       0.0022618875 -0.0786906 -0.19235533 -0.4907526
000040 0e 0d 70 bb ac 52 d9 bd d3 9c ad bc d8 75 6f be
       -0.0036628875 -0.106114715 -0.021192944 -0.23384798
000050 33 8c d8 bd d1 e4 4a bd 6d c6 a0 be da 11 3d be
       -0.10573616 -0.049534623 -0.31401387 -0.18463841
000060 bf 38 9b be 24 15 86 be d0 85 01 be a9 a6 af 3c
       -0.3031673 -0.26188004 -0.12648702 0.021441774
000070 7a 2f b4 be e4 3c db be fb 64 fd bd cd 8a 0b 3d
       -0.35192472 -0.42819893 -0.12372776 0.034067918
000080 9b ac c7 be fe 04 32 be 92 d5 41 bd a3 57 84 bd
       -0.38998875 -0.17384717 -0.047322817 -0.06462028
000090 ee 9a e0 3d 71 9b a9 be b4 df 43 be cb 1c 62 bd
       0.109670505 -0.33126405 -0.19128305 -0.05520324
0000a0 8e d9 e2 bd 9b a8 fa 3d cc 57 1a 3c 82 39 98 be
       -0.110766515 0.1223919 0.0094203465 -0.29731375
0000b0 10 1a 20 be 88 20 31 be b2 bb c7 3c a6 1d 14 be
       -0.15634942 -0.17297566 0.024381492 -0.14464435
0000c0 a8 2e 86 be bc 4d d7 bc 43 45 8e be 46 18 a5 be
       -0.2620747 -0.026282184 -0.27787217 -0.32245082
0000d0 2c b2 b1 be 5d f3 62 be 33 88 3d 3c 4b cb 49 be
       -0.34706247 -0.22163148 0.011568117 -0.19706456
0000e0 c8 89 b3 3d 98 e6 3e 3d 7a 89 56 be 31 64 a8 bd
       0.08766514 0.04660663 -0.2095088 -0.08222235
0000f0 70 62 c4 3c b9 48 26 be 88 23 21 be 80 b4 32 bd
       0.02397272 -0.16238679 -0.1573621 -0.04362917

a2c_network.value.weight f4 [1, 64]
000000 bc 3d e2 bc 13 91 12 bc 92 a1 ad 3c 34 e6 26 bd
       -0.027617328 -0.008945721 0.021195207 -0.040746883
000010 91 dd 6a bd 2c 55 11 3d d3 ea ac bc b5 ac dc bd
       -0.05734021 0.035481617 -0.021108067 -0.10775129
000020 1f d3 f5 bc 46 8d a4 3d 2b 8d 11 be 0b c6 cd bb
       -0.030007897 0.08034758 -0.14214008 -0.006279712
000030 bf 53 2d bd d5 59 18 3b d6 13 23 3d 54 fb 3a bd
       -0.042316195 0.0023246903 0.03981384 -0.04564984
000040 b4 39 5a 3c 82 f4 6c 3d cf 56 83 3c a5 c2 4f bc
       0.013319422 0.05785037 0.016032605 -0.012680684
000050 7e 17 06 3e bc 7a 18 3f a2 bf 63 bd 0b 4a 17 3c
       0.13094899 0.5956228 -0.055602677 0.009233962
000060 20 ba f9 bd c5 5b 7f bc db 68 8e 3a 79 43 a5 bc
       -0.12193704 -0.015585844 0.001086499 -0.020173775
000070 7e 2f 67 be 87 23 4b be e5 1a b5 3c 05 02 82 bd
       -0.2257671 -0.19837771 0.02210755 -0.063480414
000080 d2 4d 99 3c cd c3 80 bc 9a 15 cd bc a5 84 b1 3b
       0.018713865 -0.015718365 -0.025034714 0.005417424
000090 49 41 24 bd 9a e6 9a bd b7 60 28 3e b0 62 b9 bb
       -0.040101323 -0.07563515 0.16443144 -0.0056575164
0000a0 b8 32 da 3b 50 d5 29 3f 69 e7 c8 3c 84 0d cb bc
       0.006658878 0.66341114 0.024524407 -0.024786718
0000b0 ce 8b 47 bd fd ca be bd b4 f9 d8 bc 9b 48 b7 bc
       -0.048717313 -0.09316061 -0.026486255 -0.022373488
0000c0 ea 69 b7 3c 93 8e 25 3d d0 42 93 bc 0e 70 1e be
       0.022389371 0.040419172 -0.017976195 -0.15472433
0000d0 fd ec e7 bc 73 16 11 3e 63 88 98 bc 23 62 3a 3c
       -0.028311247 0.1416872 -0.018619722 0.011375937
0000e0 8b 2c b8 3c 0b a1 79 bb 08 87 57 bd ff 1b 1b bc
       0.022482177 -0.0038090374 -0.05261901 -0.009467124
0000f0 8e 19 57 3c 7d c2 e8 bd 6c 36 a3 bb 3d 37 9f bd
       0.013128651 -0.11365221 -0.004980853 -0.07774208

a2c_network.mu.weight f4 [12, 64]
000000 b0 e6 c5 bd d4 a0 05 bd c4 44 28 be f9 d6 01 be
       -0.09663141 -0.03262408 -0.16432482 -0.12679662
000010 aa f8 f1 3c fd 7a c5 3d dc 31 31 3c a6 f3 2b 3d
       0.029537518 0.09642599 0.01081511 0.041980408
000020 25 0d fb bd f5 b0 81 3b 0a 22 40 bd 22 0a 34 bc
       -0.122583665 0.0039578625 -0.046907462 -0.010988744
000030 77 97 25 3e c6 87 29 3d cd d7 ff 3d 51 fd 27 bd
       0.1617106 0.04138925 0.124923326 -0.041013066
000040 2d eb f7 3c d2 ed cd bd fa ff 3b 3e d6 23 23 3c
       0.030263508 -0.10055126 0.18359366 0.009957274
000050 68 9b 6c 3d f6 da e2 3c 59 c0 fe bd 9b 20 48 3d
       0.057765394 0.0276923 -0.12439031 0.04885922
000060 02 39 45 be 22 7f 14 be ae f5 57 bc 7e af 24 3c
       -0.19260028 -0.14501622 -0.013181133 0.010051606
000070 c1 b9 a0 3c 03 dd ff bd 6b 8b 7e bb 96 74 30 3c
       0.019619824 -0.124933265 -0.0038840424 0.010769984
000080 5a 4f 18 be 40 92 c1 bd f6 f8 ba bd 3f 66 b4 3d
       -0.1487402 -0.09451723 -0.09129517 0.088085644
000090 29 9a 22 3b 20 30 08 be b9 2a 3e 3c 92 72 31 3d
       0.0024811125 -0.13299608 0.011606866 0.043322153
0000a0 ec 59 25 bc 24 5a 07 bd 81 dd 58 bc 56 51 82 bb
       -0.01009224 -0.03304495 -0.013236404 -0.003976981
0000b0 58 d4 50 bd aa ed 18 be 76 74 e4 3c 80 5c c1 bd
       -0.050983757 -0.14934412 0.027887564 -0.09441471
0000c0 20 68 e7 bd f8 fd 21 3e 70 7c 53 bd d6 fc 7e 3b
       -0.11299157 0.15819538 -0.051632345 0.0038908026
0000d0 85 ef 2a be 0b 0a 10 bd b9 f2 96 bc 2e c8 89 3d
       -0.16692932 -0.035165828 -0.018426286 0.06727634
0000e0 cd 1d c1 bd 5c c3 c8 3b d0 3c a7 bd c8 47 5a 3c
       -0.09429512 0.0061268043 -0.08165896 0.013322778
0000f0 69 0f 18 3d f7 c5 39 bd ed f5 37 bc 9b a9 2a 3c
       0.03712407 -0.04535481 -0.011228067 0.010416414
000100 2a 3d 00 bc d1 24 3c 3e 9b 8a a7 3d d3 66 85 3d
       -0.007827083 0.1837342 0.08180734 0.06513753
000110 52 ad 15 bc 89 9b 2e 3d 1f 2c d4 bd c6 ef c8 3c
       -0.009135561 0.0426288 -0.10359978 0.024528395
000120 c5 e3 b4 bd b1 14 10 bb 8b 68 42 bb 42 4d 1c 3d
       -0.08832506 -0.002198499 -0.0029664363 0.038159616
000130 32 a0 a3 3d cf 60 a1 bc c3 26 29 3d 0e 58 9e 3d
       0.07989539 -0.019699482 0.04129673 0.07731639
000140 dc 86 7b 3c b6 f6 ed 3c 0f 36 9c 3d ca 8d 43 3d
       0.015351977 0.029048305 0.07627498 0.047742642
000150 38 01 7a 3d 3c 4f 8f 3b bf a9 c9 bc 5c 2e 8b 3c
       0.06103632 0.004373459 -0.024617074 0.01698988
000160 28 59 6b ba 17 28 77 3c 3a 80 fa b9 8c 11 6e bc
       -0.0008977824 0.015085242 -0.00047779252 -0.014530551
000170 eb cb 08 3d 50 b9 05 3e e8 32 2e bd 42 f2 92 3b
       0.033397596 0.13058972 -0.042529017 0.004484446
000180 92 57 f3 bc e7 e5 93 bc 67 ba 31 bd e2 3b dc 3c
       -0.029704843 -0.018053962 -0.043390658 0.026884023
000190 63 59 ba bd c2 a8 a2 bb ed f7 7c bd 6a a7 73 3d
       -0.090990804 -0.004963965 -0.061759878 0.05948583
0001a0 f6 5c 45 bd 68 6b 3b 3c 62 7d e4 3a ac b9 27 3d
       -0.048184358 0.011439182 0.0017432387 0.040948555
0001b0 2f ae ad bd 92 b5 01 3e 31 7b 0e be 24 b9 bd bb
       -0.084804885 0.1266692 -0.13914181 -0.0057898927
0001c0 9e 80 51 3c b6 10 87 3e 23 2e ba 3d a5 88 66 3d
       0.012787012 0.26379937 0.09090831 0.056282658
0001d0 95 60 04 bd 67 63 da bd f0 41 aa 3b 85 d0 48 3d
       -0.03231867 -0.10663491 0.0051958486 0.049026985
0001e0 63 41 e8 3d 03 98 89 3b b2 9c 34 3d b8 24 1c bb
       0.113405965 0.0041990294 0.04409475 -0.0023825597
0001f0 ba 66 55 3d 99 53 bf 3d 6c 8d a3 3b e7 b1 ca bc
       0.05209992 0.09342117 0.004991224 -0.024743034
000200 75 15 5b 3d fc 29 37 bd 7e c9 53 bc ab 57 cb 3c
       0.05348726 -0.044717774 -0.012926457 0.024822077
000210 5c 7c 4e bb 75 e3 6e ba ad 13 4f 3d 41 ae 47 bc
       -0.003150723 -0.0009112873 0.050555874 -0.012187541
000220 50 03 89 3d 62 07 85 3b 6a 53 f2 bb 77 1a 96 3c
       0.06690085 0.004059718 -0.0073951976 0.018323166
000230 94 83 5a 3c 2c dd 84 3b 67 16 93 3c e4 db d8 3d
       0.013337035 0.004054686 0.017955018 0.10588816
000240 7a 4e 5c bc a1 95 70 3c 3c 75 0c bd 02 42 fa 3c
       -0.013446445 0.014684112 -0.03429149 0.030549053
000250 6d f4 de 3b 73 5a 12 3a 03 22 20 3d 6d b1 40 3d
       0.00680404 0.0005582936 0.039094936 0.047044206
000260 51 b0 0a 3d 8e 38 8a 3c 53 28 59 3b 3a aa b2 bc
       0.033859555 0.01687267 0.0033135607 -0.021809686
000270 82 63 a5 bb 12 93 da 3c dc ad bb 3c 1a 55 c7 ba
       -0.0050472626 0.026681457 0.022910051 -0.0015207857
000280 54 a5 1f 3d c5 d8 4f bb 6e d2 4d 3c c9 74 a5 3a
       0.03897603 -0.0031714898 0.012562377 0.0012623306
000290 7a 2d 53 bc 9e f0 8d 3d 8b 0f 11 3c ed 9c 02 bb
       -0.01288926 0.0693066 0.008853803 -0.001992996
0002a0 a4 c8 43 bc 0d a0 6c bc f0 d4 7d bc b3 eb 21 3b
       -0.011949692 -0.014442456 -0.015492663 0.0024707138
0002b0 39 3a d0 bc 0f 7b ee 3c b0 c2 0f 3b 25 72 b7 bc
       -0.025418388 0.029111413 0.002193611 -0.022393296
0002c0 5f 99 a3 3c fd 10 98 bc ca 65 b4 3b af 82 76 3c
       0.019970594 -0.018562788 0.0055052983 0.015045806
0002d0 63 04 ae 3d 23 24 e7 3c 06 ee a3 3c b3 d1 72 3d
       0.084969305 0.028215474 0.02001096 0.059282016
0002e0 68 f2 67 bc 5a 23 41 bc 18 ee 83 3d 0f 05 dc 3b
       -0.014156915 -0.011788214 0.06441897 0.00671447
0002f0 9c ab b7 3b b6 a2 ba 3b 85 70 7a bb c1 d5 86 bc
       0.005605174 0.005695666 -0.003821404 -0.016459348
000300 f9 a9 1a 3e fc 47 a6 bc 5d e5 d6 3d 13 11 66 3e
       0.15103902 -0.020297997 0.10492966 0.22467451
000310 12 43 24 3d a7 72 57 3d 2b c4 80 3d db 74 3d 3d
       0.040103026 0.052599575 0.06287416 0.04625402
000320 92 af cf 3c bd b8 af 3c 7f f6 09 bd 0e 4a 8b 3c
       0.025352273 0.021450395 -0.033682343 0.017003085
000330 01 e8 74 bd f9 38 05 bc 85 b3 7e bc 16 9e b7 3d
       -0.05979157 -0.008131259 -0.0155457305 0.089656994
000340 00 af a6 3c 48 a9 06 3e 25 a8 34 bd c0 88 33 3e
       0.020347118 0.13150513 -0.044105668 0.17532635
000350 bd d4 81 bd 4c 52 ef bb 71 9b cc 3d 35 aa 9a bb
       -0.06339405 -0.0073035117 0.099905856 -0.0047199973
000360 9c 65 b6 bd d1 6b a5 3c 81 00 a1 bb 48 bb 02 be
       -0.08906099 0.020193012 -0.00491339 -0.12766755
000370 fb 81 97 3a 33 25 96 3d b5 eb 0b ba 7b e7 54 bd
       0.0011559123 0.07331314 -0.0005337552 -0.05197857
000380 b8 5f b8 ba 62 b0 7d bd 88 df 48 bd f1 e6 8f bd
       -0.0014066612 -0.06193579 -0.0490413 -0.070264705
000390 26 15 ac 3c 15 1e f6 3d 20 26 24 bb d0 9c 6a bd
       0.021006178 0.120174564 -0.0025047138 -0.057278454
0003a0 09 39 2d bd ee 67 21 bd 4a f6 02 bc 08 de 62 3c
       -0.04229072 -0.039405756 -0.00799329 0.013846882
0003b0 83 c3 0b 3b a1 13 19 3c 7a a4 93 3c dd 08 a8 bb
       0.002132625 0.009343059 0.018022764 -0.0051280097
0003c0 56 e9 89 3d 6d cf ab 3d c8 b7 48 3e 8f 96 fa 3b
       0.067339584 0.08389173 0.19601357 0.0076473425
0003d0 fe 98 2a 3e a9 4f e4 3d 87 19 9e 3d ff 17 88 bd
       0.16659924 0.111480065 0.07719713 -0.06645202
0003e0 a8 48 08 3d f6 6f ea bb ba 22 d7 bc aa 42 a2 bc
       0.033272415 -0.00715446 -0.026261676 -0.019807179
0003f0 12 e1 1e bd aa ac 5b bd 1b f2 a8 3a af 85 35 3d
       -0.038788863 -0.053631462 0.0012889536 0.044316944

a2c_network.mu.bias f4 [12]
000000 84 f8 27 3e fb cb c3 3d 7f 8e 9a be 3f 79 f8 bd
       0.16403395 0.095603906 -0.3018684 -0.12132501
000010 d7 cc 8d 3d 47 37 24 bc 22 0c 73 3d 73 3f e2 3c
       0.06923836 -0.010022945 0.059337743 0.027618146
000020 cb 1b 47 bd 1d fa 83 3d c6 d2 a4 3d 9c 53 5b bd
       -0.04861049 0.0644419 0.08048014 -0.053546533

exp_avg f4 [12]
000000 91 f0 2b 3c 9d aa 57 bc 0a 38 97 bc 68 2c aa 3c
       0.010494367 -0.013163236 -0.018459339 0.020773128
000010 d1 d7 94 bc 98 68 ab bc dc 1b 9d 3c 6e e6 a9 3c
       -0.018169316 -0.020923898 0.019178323 0.02073976
000020 c0 ee 08 3b 7c dc 1b 3c 72 8c 43 bc 2e 20 19 bc
       0.002089426 0.009513017 -0.01193534 -0.009346051

exp_avg_sq f4 [12]
000000 f9 aa 43 3b 8b 3d 5c 3b e9 d5 5e 3b bb 95 44 3b
       0.0029856546 0.0033606018 0.0034002012 0.0029996473
000010 93 ca 42 3b bf 22 b1 3b 13 1e 53 3b 50 12 16 3b
       0.0029722794 0.0054057534 0.003221397 0.0022899099
000020 c5 67 3c 3b 35 fc 48 3b 89 94 18 3b 63 98 41 3b
       0.0028748375 0.0030667905 0.0023281893 0.0029540292
