omniisaacgymenvs/runs/WEE/nn/last_WEE_ep_800_rew_-342.26428.pth (torch, 623514 bytes, 36 tensors)

value_mean_std.running_mean f8 [1]
000000 33 8a 24 da 8f 77 3f c0
       -31.467038759156093

value_mean_std.running_var f8 [1]
000000 28 a7 b4 ce 7d 8c 6b 40
       220.39035735400944

value_mean_std.count f8 []
000000 00 00 00 02 00 00 a9 41
       209715201.0

running_mean_std.running_mean f8 [32]
000000 84 3a 65 2e 38 3f a2 3f fe e3 f6 d8 eb 67 69 3f
       0.03563857618666069 0.0031013113400288886
000010 61 1f b5 ca 78 d0 dd 3f 5c c7 03 56 e2 44 c3 3f
       0.46584911151557234 0.1505396766656827
000020 ed a6 51 2e 7f c0 95 3f 50 ed 19 c4 41 93 8d bf
       0.021242129518589548 -0.014441026494060566
000030 b6 75 a6 66 73 7c df 3f 6d 57 67 9b 6b 6f b2 3f
       0.49197087311207655 0.07201263946566679
000040 08 a9 1a 8d 28 09 94 3f 82 1b d8 7d 7a 86 b0 3f
       0.019566186535180413 0.06455197880141664
000050 b8 fc a3 70 fe 5b 7c 3f 4a 4c 73 2f 37 61 77 3f
       0.006923669725664876 0.00570794636515177
000060 fa 6e 5a 49 be 14 c4 3f b4 72 ac 1d ff 87 e1 3e
       0.1568830354852862 8.359544997166075e-06
000070 84 16 c1 62 cc 2e fc be d8 3e 98 fc 77 71 db 3f
       -2.687721841734002e-05 0.42880057971431773
000080 64 a4 8d e2 ef 84 e5 3f 14 df 88 b6 1b e9 08 bf
       0.6724776673191966 -4.751315902179316e-05
000090 83 d8 9e 72 f6 c3 12 bf c1 b1 3f 06 eb c3 bf 3f
       -7.158462236031737e-05 0.12408322241362325
0000a0 27 f2 92 dc 7e 2e 1e 3f 32 e7 98 6c 74 56 22 bf
       0.00011513375570166487 -0.0001399056548494981
0000b0 a7 37 dd 97 db 3a 55 bf c8 a1 eb e9 f1 65 7e bf
       -0.0012957710709602195 -0.007421441054909335
0000c0 d8 c3 7a 0f 7e b3 5b bf 91 77 67 97 cd 72 91 3f
       -0.0016907435473678591 0.01703950153920847
0000d0 00 00 00 00 00 00 00 00 00 00 00 00 00 00 00 00
       0.0 0.0
0000e0 00 00 00 00 00 00 00 00 00 00 00 00 00 00 00 00
       0.0 0.0
0000f0 00 00 00 00 00 00 00 00 00 00 00 00 00 00 00 00
       0.0 0.0

running_mean_std.running_var f8 [32]
000000 bb 9e 66 a1 d2 46 5c 3f df 4e 42 f0 82 e4 54 3f
       0.001725869840450685 0.0012751845070270646
000010 2f b6 b2 da a7 bc 60 3f 7b b4 59 6d f9 c3 e0 3f
       0.0020430830387201597 0.5239226470709036
000020 30 52 2d 3a b1 4f 8a 3f a5 4d b4 69 e4 1e a7 3f
       0.012847313487932416 0.045157564071043134
000030 ab 60 45 3a d0 9f c3 3f db e2 0a 92 42 eb f2 3f
       0.15331461758865336 1.1824365334306808
000040 d8 60 9b ec f6 b5 f3 3f 42 00 b6 5b 39 eb f1 3f
       1.2319249384363982 1.1199277479609155
000050 44 b5 28 51 de d3 76 40 ca 6e e0 de 20 b5 6b 40
       365.241776618019 221.66026252588773
000060 bf 71 03 05 94 e2 75 40 d7 93 13 69 0a ed da 3e
       350.1611375937027 6.419644379839079e-06
000070 ae 72 68 56 30 30 e1 3e c8 ae 6a 73 6a ab fc 3e
       8.195990358444757e-06 2.734145456410769e-05
000080 9c ff ea 11 44 bd cc 3f 72 1e 28 9d 64 8b 36 3f
       0.22452593684101607 0.0003440018309963439
000090 ec b9 d8 b2 ec 8c 39 3f 45 a8 47 d1 33 a8 d3 3f
       0.00038986948752298026 0.30714126050464
0000a0 26 d7 95 0d ae 8d 75 3f f8 5c 69 9c 6f 9e 75 3f
       0.0052620696018175536 0.005278049450303295
0000b0 a7 6c cd a1 a3 a6 6e 3f f0 01 66 d6 67 95 27 40
       0.0037415691316887325 11.791807842208954
0000c0 51 68 ed fa 30 54 28 40 78 86 0f 7f 4b 56 1e 40
       12.164436189155966 7.584272370646083
0000d0 b9 37 67 44 e1 7a 44 3e b9 37 67 44 e1 7a 44 3e
       9.536743073112864e-09 9.536743073112864e-09
0000e0 b9 37 67 44 e1 7a 44 3e b9 37 67 44 e1 7a 44 3e
       9.536743073112864e-09 9.536743073112864e-09
0000f0 b9 37 67 44 e1 7a 44 3e b9 37 67 44 e1 7a 44 3e
       9.536743073112864e-09 9.536743073112864e-09

running_mean_std.count f8 []
000000 00 00 00 04 00 00 99 41
       104857601.0

a2c_network.sigma f4 [12]
000000 f8 a0 1a bf b1 55 02 bf 0f 2d fb bf 34 8e 12 bf
       -0.6040187 -0.50912005 -1.9623126 -0.57248235
000010 bc 7f 07 bf 8f 59 53 c0 23 6c 0d bf 3f 72 ab be
       -0.5292928 -3.3023412 -0.5524313 -0.334856
000020 07 68 de be fa 82 e0 be 1f 6e 23 bf f0 63 91 be
       -0.43438742 -0.43849927 -0.63839906 -0.2839656

a2c_network.actor_mlp.0.weight f4 [256, 32]
000000 1c 91 11 3e 5a 37 20 3e b5 e1 e4 be 5b f3 50 3c
       0.14215511 0.15646115 -0.4470345 0.012753333
000010 d1 ad 57 3e d2 75 f6 3e 67 38 01 3d b5 38 09 3d
       0.210624 0.48136765 0.03154793 0.033501346
000020 de 6f 2f bd 98 86 4c be 20 1f 9d 3c 0d 51 50 3d
       -0.042831294 -0.19973218 0.01917988 0.050858546
000030 59 59 11 3e 2c ed 85 be 08 6e 8c 3d 13 11 8e bd
       0.1419424 -0.2615751 0.06856924 -0.069368504
000040 d2 e6 73 3d cc 5c 84 be 3e 1e 87 be 5d fe 88 bd
       0.0595463 -0.25852048 -0.2639026 -0.06689141
000050 29 a3 14 be fc 8a b3 3d 4a ca f1 3c 63 24 0e 3e
       -0.14515366 0.087667435 0.029515404 0.13881068
000060 b6 72 dc 3d 0f 56 51 3d cf aa 0d 3e e0 9d 00 be
       0.10764067 0.051107462 0.1383469 -0.12560225
000070 c8 5c 36 3c 1f 1b f7 bd 4c 45 5f 3d 02 5c 79 bd
       0.011130519 -0.1206572 0.054509446 -0.06087876
000080 11 d8 95 3d b2 2e 6d bb 04 9a c7 3e eb a6 e0 bd
       0.07316602 -0.0036191163 0.38984692 -0.10969337
000090 f8 5c 98 be 37 23 3e be 8c 86 24 3e 74 58 8a 3e
       -0.2975843 -0.18568121 0.1606695 0.2702061
0000a0 51 8e 96 3e eb 08 75 be a1 b5 8d be 47 57 20 bd
       0.29405454 -0.23929183 -0.27677634 -0.039145734
0000b0 c2 1b df bd e8 75 86 3e 63 f6 76 3e 2c d1 6d 3e
       -0.10893966 0.2626183 0.24117427 0.23224324
0000c0 89 14 e0 bd e2 57 b3 bd ed 59 51 3e 00 79 07 be
       -0.10941417 -0.08756997 0.2044446 -0.13229752
0000d0 e5 f9 00 3e 7a ad db bd 9c 1d 13 3e 39 34 18 bd
       0.12595327 -0.107264474 0.14366764 -0.03715918
0000e0 a4 47 33 bd a9 82 b1 bd 4e 13 19 3d 1f 9c 38 bd
       -0.043769494 -0.086674996 0.037371926 -0.045070764
0000f0 d9 cc d7 3d 02 1e f6 3d 39 45 03 be eb 47 c1 bd
       0.105371185 0.12017442 -0.12819375 -0.094375454
000100 c0 d9 28 3e 78 63 bb bd e9 e9 61 bd 65 43 c2 be
       0.16489315 -0.091498315 -0.055154715 -0.37942043
000110 dc c0 00 bf 40 95 56 3e a2 f8 ab bd 8c b6 ae be
       -0.5029428 0.20955372 -0.08397032 -0.34123647
000120 8d eb 97 3d 51 9f 92 be 32 63 0f be b5 99 05 be
       0.074179746 -0.28637174 -0.14002684 -0.13046916
000130 f2 ce 9c be 27 4a 3d be b6 c3 85 3e e4 49 dd 3d
       -0.30626637 -0.18485318 0.26125878 0.10805109
000140 19 3b a6 b7 b3 50 40 be ff db d4 bd 0e 35 7c bd
       -1.9816262e-05 -0.18780784 -0.103935234 -0.061574034
000150 66 11 6b bd af e4 a3 bd 45 77 21 be b9 5f 0d be
       -0.05738964 -0.08002602 -0.15768154 -0.13806047
000160 5c bc 04 bc bc 40 35 bd b4 b3 48 bc 02 54 f5 bd
       -0.008101549 -0.04425119 -0.012249876 -0.11978914
000170 68 80 f8 bd c9 36 d3 bd 8d d9 77 bd 07 e0 0e be
       -0.121338665 -0.10313184 -0.060510207 -0.13952647
000180 04 e0 30 3e bb 2a 0e 3e 45 d0 f6 3d de 0a 17 3e
       0.17272955 0.13883488 0.12051443 0.14750239
000190 ec 3d 9e be 06 0d 7f bc b2 df af bd 5d 20 6e be
       -0.30906618 -0.01556707 -0.08587588 -0.23254533
0001a0 25 ef 17 be 23 1b 3b be 69 0d 19 3e 97 4f a2 3c
       -0.1483732 -0.1827207 0.14946522 0.019813342
0001b0 5c 41 5c bd c2 af e3 bd 44 a6 ca 3b 02 8a 3b be
       -0.05377327 -0.111175075 0.006184371 -0.18314365
0001c0 40 e6 07 3d 39 e0 b8 3d 13 94 8a bc e3 f2 09 3e
       0.033178568 0.09027142 -0.01691631 0.1347156
0001d0 a9 ac 15 3e 02 93 f9 bd 20 30 ff 3d ad 6a a9 bd
       0.14616646 -0.12186243 0.12460351 -0.082723
0001e0 c4 9b 19 bd 5b f0 24 be 0e e2 24 3e f6 db 04 be
       -0.037502065 -0.16107313 0.16101858 -0.12974533
0001f0 f5 7d c1 3d 2e 78 7e 3d 11 4b 6b 3d 1e bc c3 bd
       0.094478525 0.06212633 0.057444636 -0.09557365
000200 f0 77 86 3e f2 d1 31 3e bc 57 59 be 89 c5 9c be
       0.2626338 0.17365244 -0.21224874 -0.30619457
000210 79 8a a4 3e 30 4d 29 3d bb cc b5 bd 77 56 7c 3e
       0.32136896 0.041333377 -0.0887694 0.24642359
000220 8d da 13 bc 74 93 87 bd b4 09 75 be a2 a1 ba bd
       -0.009024275 -0.06619921 -0.23929483 -0.0911286
000230 a8 e5 59 bd 9d 2e ff bd e3 66 63 bd 52 37 0a be
       -0.053197533 -0.12460063 -0.055518042 -0.13497666
000240 51 06 aa bd 9f 1d 32 be f6 2d 18 3e 59 c4 d0 bd
       -0.08301986 -0.17394112 0.14861283 -0.101937
000250 e2 ba 8d bd 64 c6 83 3d e0 ec 1f bc 12 70 93 bc
       -0.06920411 0.064343244 -0.009761065 -0.017997775
000260 be 6c e2 3c 2c 0c 89 3c 49 60 87 3d c6 78 fe bc
       0.027639743 0.016729437 0.06610162 -0.031063449
000270 91 bc 3f bd c7 ec 9a 3c 8d d2 ff bc 9b c6 57 bd
       -0.04681069 0.018911732 -0.031228328 -0.05267964
000280 7d 4f 0f 3e 2c 7c 68 3e 7d a7 dd be 5b d1 27 3b
       0.13995166 0.22703618 -0.43291846 0.0025606963
000290 04 8a d9 bd b8 67 4e 3c 38 ec f4 3c 76 12 13 be
       -0.106220275 0.012597971 0.029897794 -0.14362511
0002a0 26 9f 9f be 74 cb 2f bd 44 8f ab 3d b5 8d 5e 3e
       -0.31176108 -0.042918637 0.08376935 0.21733744
0002b0 b7 b9 98 be 86 9c 8a be b7 13 e0 bd f8 d3 67 be
       -0.2982919 -0.27072543 -0.1094126 -0.22639453
0002c0 12 d3 96 3d c6 8e e2 3c 3e 0e 51 3e 1a d3 1d 3e
       0.07364477 0.02765597 0.20415589 0.1541256
0002d0 e3 f2 d8 be 60 30 a2 bd 90 eb 64 be 9c de 37 3e
       -0.42372808 -0.07919383 -0.22355485 0.17956012
0002e0 ba 0f 55 bd 18 ec 82 be ea c7 95 3d d3 e4 89 bd
       -0.05201695 -0.2557075 0.07313521 -0.06733098
0002f0 e2 54 ea bd ab 1f 04 3e a0 9e a4 bd 47 27 11 bd
       -0.11441971 0.12902705 -0.08038068 -0.03543785
000300 38 f6 66 be e1 fb 4b 3e 03 af 8c bb cf da 0d 3e
       -0.22554862 0.19920303 -0.004293324 0.13853
000310 b8 e3 82 3b 4b 66 e4 be 98 99 f9 bd 49 dc 0a 3d
       0.0039944313 -0.44609293 -0.12187499 0.033901487
000320 6f 5e 1c bd 50 a6 9e 3d a2 4d 91 3c 33 77 25 3d
       -0.038175996 0.07746565 0.017737214 0.04039688
000330 59 71 79 be 3f b9 86 be a2 19 95 be be 7a 16 be
       -0.24359645 -0.26313207 -0.2912112 -0.1469526
000340 f7 d1 1b 3e a0 a1 d7 bd 74 ff 7c bd 87 38 96 3a
       0.15216814 -0.105288744 -0.061767057 0.0011460938
000350 44 b6 45 bd a3 8c 5e bc 1b 72 a9 be 0b dd 8f 3c
       -0.048269525 -0.013583335 -0.33094868 0.017561456
000360 c4 2b c3 bd 26 17 1e 3e 55 4a 68 bd 34 ca 04 be
       -0.09529832 0.15438518 -0.056711514 -0.1296776
000370 c7 82 ff bc 4f 7f af bd 7e 86 5d bd 61 54 2c be
       -0.03119029 -0.08569204 -0.05408334 -0.16829063
000380 76 e6 ef 3d e2 81 0d be db 38 e1 3d 0c 0d 82 3d
       0.11713879 -0.13819078 0.109971724 0.06350145
000390 93 de 79 3e c9 a2 f8 bd bf 27 28 3e 8a 57 8a bd
       0.24401312 -0.12140424 0.16421412 -0.06754978
0003a0 3d 64 f9 3d da 8b 18 3e eb b1 5c be 3c 67 5a be
       0.12177322 0.14897099 -0.21552245 -0.21328443
0003b0 e7 f1 45 bd c5 bf 9b be 97 f5 2f bc c4 46 93 be
       -0.0483264 -0.30419746 -0.0107397055 -0.28764927
0003c0 85 1b fd 3d cb ec b6 3d 24 7e b9 3d 8a 5a 80 bd
       0.123587646 0.089318834 0.090572625 -0.06267269
0003d0 dd b8 47 be fd f9 66 3d ae f8 02 3c c0 45 79 be
       -0.19504113 0.05639075 0.00799386 -0.24343014
0003e0 62 a8 05 bd be c4 9b be 71 52 7d bc 48 33 b2 bd
       -0.032631285 -0.3042354 -0.01546155 -0.08701187
0003f0 5b fd 93 bd 62 dd 65 bd fe 05 2c be 19 87 14 3e
       -0.07226058 -0.05611933 -0.16799161 0.1450466

a2c_network.actor_mlp.0.bias f4 [256]
000000 5b 05 d0 3d 03 2e 9b 3e 58 2c df 3d 44 6a af be
       0.101572715 0.30308542 0.1089713 -0.34260762
000010 c1 50 ac b9 c6 e8 2c 3e 3d f4 ff bd ce 31 97 be
       -0.00032866563 0.16885671 -0.12497757 -0.29530185
000020 9f 57 ee bc b9 19 39 be cd 58 01 be 97 c2 48 3b
       -0.029094515 -0.18076219 -0.12631531 0.0030633563
000030 4d d2 3a 3d 35 20 60 bd 62 ad 22 3d 26 cd 5e be
       0.045610715 -0.054718215 0.039716132 -0.21757945
000040 52 43 b0 3d be f0 d4 3d 9a cb 76 3d 3a 77 d3 3d
       0.0860659 0.103974804 0.060252763 0.10325475
000050 a6 64 a1 3d 32 2d 3f be 35 80 c9 bd 23 87 86 3e
       0.07880525 -0.18669584 -0.09838907 0.26274976
000060 1b 13 99 3e bb 29 b9 bd 70 4a 63 be eb 94 c0 be
       0.2989739 -0.090411626 -0.22196364 -0.37613615
000070 71 48 b4 be db 33 2c be 0c 4d 80 be 03 60 8d bd
       -0.35211518 -0.16816656 -0.25058782 -0.069030784
000080 30 7b 04 be 27 b1 25 be 71 7f c2 be 98 3b a7 3e
       -0.12937617 -0.1618086 -0.37987855 0.32662654
000090 9f 6c 86 3d 9b 8d 6a 3e 50 aa 86 bd 89 5f bc be
       0.065636866 0.2290558 -0.06575453 -0.36791638
0000a0 be c3 73 bc 61 5d f8 bc 77 80 0d 3e 7c cb c9 bd
       -0.014878212 -0.030317964 0.13818537 -0.09853265
0000b0 f6 07 4e be 16 14 f1 3c 45 32 09 3e c6 c3 51 3e
       -0.20120224 0.029428523 0.13398083 0.20484838
0000c0 c9 e7 9f 3e e2 06 c6 bd c9 e5 71 bb ea af eb bd
       0.31231526 -0.096692815 -0.0036910644 -0.11508162
0000d0 c9 60 3d be d7 0f b8 3e 46 95 0f bd 20 8c 86 3e
       -0.18493952 0.35949585 -0.035054468 0.26278782
0000e0 71 82 4b be c2 b1 b6 bd 48 4f 6c 3e c4 ce be 3e
       -0.19873978 -0.08920623 0.23077118 0.37267125
0000f0 85 10 2b 3e 24 52 10 3e 97 18 78 3e 51 ec aa bd
       0.1670552 0.14093834 0.2422813 -0.08345855
000100 2a 48 55 3e 16 b9 0e bf a9 04 5b bd d5 61 15 3e
       0.2082831 -0.5575117 -0.05347124 0.14588101
000110 65 85 6e bd ce de 5d 3e 5c 9f 87 be 5a e2 4a bd
       -0.058232684 0.21667024 -0.2648877 -0.049532272
000120 e5 2c cb 3e 9d a1 00 3d a6 47 0d 3e aa 39 23 3d
       0.3968269 0.031404126 0.13796863 0.039849915
000130 50 46 36 3e 28 e0 27 3e 61 ec c0 3e 4b c0 12 be
       0.1780026 0.16394103 0.37680343 -0.14331166
000140 de 5a 86 be d4 7e 2d 3e 02 3a 28 3e bb 55 95 bd
       -0.262412 0.16942912 0.16428378 -0.072917424
000150 ab 99 d8 3d 75 e6 61 3e b2 af 2d 3e 0c 0f 31 3c
       0.10576185 0.22060569 0.16961554 0.01080681
000160 1c bd ec 3c 6f 1e 33 3d a7 0d 89 3e cd ad 6a 3d
       0.028898768 0.043730196 0.26768228 0.057294656
000170 7c 61 94 bd 3a 86 da bd 6b 80 de 3e 27 a0 13 3e
       -0.07245156 -0.10670133 0.4345735 0.14416562
000180 71 bd 5b 3d 6c 4b c1 3c 2b 20 b5 3d 09 11 25 bc
       0.053647462 0.023595534 0.08844026 -0.010074862
000190 ff 78 b1 bc 03 ed 65 be f0 fe 20 be da 21 10 be
       -0.02166414 -0.22453694 -0.15722251 -0.14075413
0001a0 3a f0 4e be f2 94 57 3e 2b a1 a8 bd 38 eb e0 be
       -0.20208827 0.21052912 -0.08233865 -0.43929458
0001b0 d4 37 b8 3e f5 f7 f2 bc af e0 d0 bc 8a ef 3c bd
       0.35980093 -0.02965925 -0.025497762 -0.04612688
0001c0 56 8d a3 bd 92 b0 34 be 87 d0 87 3e 02 37 d1 be
       -0.07985942 -0.17645481 0.2652628 -0.4086228
0001d0 e5 d8 6d 3e 18 42 73 3e bf 59 16 3e 5d 9b 8a 3e
       0.2322727 0.23755682 0.14682673 0.27071658
0001e0 bf c4 89 be 39 30 36 be d9 81 e1 bd ee fc 93 3c
       -0.26907918 -0.17791833 -0.110110946 0.018064942
0001f0 d4 47 8f 3c dd 9e c8 3e 2b 42 ad 3e df e6 01 bd
       0.017490305 0.39183703 0.33839545 -0.031714316
000200 d1 d1 45 be 1d 10 d4 3b 78 63 ad 3e cf cd c1 3b
       -0.1931832 0.0064716474 0.3386495 0.005914427
000210 ad 34 5c 3e 2a 61 8b bc 31 62 5d be a4 04 68 be
       0.21504469 -0.017014105 -0.21619488 -0.2265802
000220 23 92 81 be 16 7c be 3e 30 47 1f 3e 75 61 00 bd
       -0.25306806 0.37204045 0.155545 -0.031342942
000230 b4 96 cb 3d 37 61 0f 3e a1 fc 88 be b3 f4 b6 be
       0.09940854 0.14001928 -0.2675524 -0.35733566
000240 48 e9 aa 3d 10 98 48 3e 15 d0 a2 3e 73 f0 1b be
       0.08345276 0.19589257 0.3179938 -0.15228443
000250 5c b4 92 be 15 d0 cc 3c 1c 88 0b be 05 14 19 3e
       -0.28653228 0.025001565 -0.1362614 0.14949043
000260 3a 31 ab 3e d3 23 95 3e 7b 67 b4 bd c6 fe 37 bd
       0.33435994 0.29128894 -0.088088 -0.044920705
000270 6d b5 67 3d 49 2d 8e be f6 b0 8b 3e 87 66 ad 3d
       0.056569505 -0.27768925 0.27283448 0.08466821
000280 2f ce 5a be cb ee 7c 3e 4d ce 6e 3e f0 84 85 be
       -0.21367715 0.24700467 0.23320885 -0.26077986
000290 e1 fd 39 be 78 37 ef bd dd 3d c2 be 8a 42 c2 be
       -0.18163253 -0.11680502 -0.37937823 -0.3794139
0002a0 c8 5c 2c bd 8c cb 92 bb 72 96 9f bd 7f c6 51 3e
       -0.04208067 -0.004479831 -0.07792367 0.20485877
0002b0 ab f2 a0 be b7 ac 53 3e 38 af 7c 3e 55 79 ab 3e
       -0.3143514 0.20671354 0.24676216 0.33491006
0002c0 f0 ec 1e 3d 19 e9 16 3e 68 ae 89 bd 77 42 f8 bd
       0.03880018 0.14737357 -0.067227185 -0.12122052
0002d0 69 f7 87 3e d9 92 83 be 7c 11 70 3e 97 32 07 bd
       0.26555946 -0.25697973 0.2344417 -0.03300723
0002e0 de 69 62 bd 4d 54 2f 3e d6 db 23 be 93 d0 ad 3e
       -0.055276744 0.17122002 -0.1600183 0.33948192
0002f0 6d 80 c3 bd e5 ca 66 bd f7 e3 3d be 29 58 8e bd
       -0.0954598 -0.05634584 -0.18543993 -0.06950409
000300 15 a4 f1 3d 4b 7d 71 3c 13 f1 da bd e5 ac 49 3d
       0.11798874 0.014739345 -0.106905125 0.04923715
000310 54 b6 84 3e b6 64 fb bc 09 81 14 3e fe 36 bc be
       0.25920355 -0.030687671 0.14502348 -0.36760706
000320 bc a8 d7 3c b8 06 ba be 06 e4 2c be 23 9f 82 3e
       0.026325576 -0.3633325 -0.16883859 0.25512037
000330 c8 f8 74 3e 54 75 cd bd 1c 16 9f bd b0 bd 3e 3e
       0.23923028 -0.10032144 -0.07767889 0.18627048
000340 a6 be f3 bd 64 39 81 3e 19 23 ff 3d 46 97 7c 3e
       -0.11901598 0.25239098 0.12457866 0.24667081
000350 e9 2b 11 3e 7d 71 10 be 7c 0e 3f 3e 15 c0 4f bb
       0.14176907 -0.14105792 0.18657869 -0.0031700183
000360 10 35 fb bd d0 db ba bc 23 b5 cc bc 9f b3 6b 3d
       -0.1226598 -0.022809893 -0.024988716 0.057544347
000370 69 c2 8c be 15 75 09 3e fc 3b 1e be 55 15 1b be
       -0.27492073 0.1342357 -0.1545257 -0.15144856
000380 05 0f 1e bd c8 e4 a9 3c 30 86 68 3c 72 a6 88 3c
       -0.038588542 0.020738974 0.014192149 0.01668093
000390 a6 1a 0e be ae 45 d7 bd 71 0f 79 be 8d fe 40 3e
       -0.13877353 -0.10511337 -0.24322297 0.18847103
0003a0 de 83 30 3d 7b 77 7c be 0f 07 9c 3e 83 2c d7 bc
       0.04309451 -0.24654953 0.30474135 -0.026266342
0003b0 78 cb dc bd 2d 1b 28 3e b7 e2 5a 3e c5 b1 33 be
       -0.10780996 0.16416617 0.21375547 -0.17548282
0003c0 50 50 f2 bd 8b 02 44 be b3 41 76 3e 70 64 23 be
       -0.11831725 -0.19141595 0.240485 -0.15956283
0003d0 fe ed 95 bc 1a e9 43 3e 90 c7 ab 3e da d8 3f be
       -0.01830196 0.1913189 0.33550692 -0.18735066
0003e0 99 1e a9 3e 1a b5 09 bc 5d 04 c1 bd 95 bb ba 3d
       0.33031157 -0.008404994 -0.0942466 0.0911781
0003f0 fe 0c 39 be 35 6c 88 3d fd b1 8c 3d 1a 53 30 be
       -0.18071362 0.06661264 0.06869886 -0.172192

a2c_network.actor_mlp.2.weight f4 [128, 256]
000000 ab 90 8b be 59 f5 82 3e 4f 7e 30 bd 66 99 00 be
       -0.2725881 0.2557781 -0.043089207 -0.12558517
000010 44 f4 16 3c 5b b3 9f be b4 f8 3e be 6f 15 2a bd
       0.009213511 -0.31191525 -0.1864956 -0.041524347
000020 9c 40 0d bc bc bb 17 3d 32 c5 3d be 8e 08 a3 bc
       -0.008621361 0.03704427 -0.18532255 -0.01990154
000030 86 79 e9 bd 06 fe a6 bd 56 0b f5 bd 99 1d 7f be
       -0.11400132 -0.0815392 -0.11965053 -0.24913634
000040 54 65 62 3a 69 34 83 bc 5a ae d7 bd b6 44 d0 3d
       0.0008636315 -0.016016202 -0.10531302 0.101693556
000050 49 0e 0f be 97 18 d3 bc f8 6d 0d 3c b6 58 90 3d
       -0.13970293 -0.025768561 0.008632176 0.0704817
000060 81 c1 0b bc c3 a3 0a bd 22 fa 5b bd 29 fd b0 bd
       -0.008530022 -0.03384758 -0.053705342 -0.086420365
000070 2c 96 0a 3e 37 01 cb bd 42 60 a9 3d 4f 5c 52 bd
       0.13533849 -0.09912341 0.08270313 -0.051357564
000080 f1 80 d3 bd 09 d8 29 bd 4f 3b 00 be 9a 6f 27 be
       -0.10327328 -0.041465793 -0.12522624 -0.16351166
000090 39 df 65 3c b2 43 5c 3d e3 c4 bb bd a9 dd 95 3c
       0.014030271 0.053775497 -0.091684125 0.018294172
0000a0 bd 3c 98 3d f1 8e b4 3c c7 e3 6c bd 7a 3c 36 be
       0.0743346 0.022040816 -0.057834413 -0.17796507
0000b0 11 6e 1f bd 2d 6c 17 be c8 a6 83 be 83 50 50 be
       -0.038923327 -0.1478736 -0.25713181 -0.20343213
0000c0 29 b8 b3 3d 47 5c 39 3d 8f 5d c6 b8 13 96 56 be
       0.0877536 0.04525402 -9.4588024e-05 -0.20955686
0000d0 ef 78 17 3d 7a 4d 82 be b3 77 8f 3c f2 ec e0 3d
       0.036980566 -0.25449735 0.017513132 0.10982694
0000e0 ae 91 e2 bd 40 16 81 be 48 c9 7c 3d 75 59 17 be
       -0.110629424 -0.25212288 0.061715394 -0.14780219
0000f0 3e 87 2e bd f5 d6 91 be 34 8d 44 bd e6 c7 84 bd
       -0.042609446 -0.28484312 -0.047986224 -0.0648344
000100 ec 78 b5 bc 47 e7 dd bd ac 58 da bd 7b d6 93 bc
       -0.022152387 -0.10835128 -0.10661444 -0.018046608
000110 df 0f 98 be cc a0 50 3d 4e e5 b0 bd 56 a0 3a be
       -0.2969961 0.050934598 -0.086374864 -0.18225226
000120 db 85 6f bd dc f0 c3 3c e1 83 10 be e3 62 9a bd
       -0.058477264 0.023918562 -0.14112808 -0.075383924
000130 ab 7a a3 3a 44 8d e2 3d 03 29 e3 bb f2 f7 df 3c
       0.0012472471 0.110621005 -0.006932379 0.02733991
000140 63 1a 36 ba d1 25 46 3b 94 3a d6 3d 84 ba 69 3d
       -0.0006946681 0.0030234943 0.10460392 0.05706264
000150 c8 37 aa 3d 05 9c b6 3c ba 33 3b bd dc a2 66 be
       0.08311421 0.022291193 -0.045703627 -0.22523063
000160 9e 62 b7 bd 7f b0 87 bd c9 1e f7 bd 9d 55 d6 bd
       -0.089543566 -0.06625461 -0.12066419 -0.10465548
000170 2a 9b 69 be 87 34 58 be d1 2a 03 be f5 cd d9 3d
       -0.22813097 -0.21113788 -0.12809302 0.10634986
000180 ce 58 38 be 0e e0 66 3d 47 16 0a be 97 32 05 3d
       -0.18002626 0.05636602 -0.1348506 0.03251895
000190 cf 41 2f be 97 17 9b 3d 7f 82 5b 3c b3 01 79 3d
       -0.17114948 0.07572859 0.013397812 0.060792636
0001a0 40 70 fa 3c 64 d0 28 be ab 8d d1 bd 14 db 50 3d
       0.030571103 -0.16485745 -0.10232099 0.05099018
0001b0 90 27 b9 3d 51 95 91 bc e7 99 dd bd fc 16 1b bd
       0.09040749 -0.017771395 -0.1082037 -0.037863716
0001c0 65 2a 9c bd 4c ee a5 3d 23 1f 21 3e 2e 08 39 3e
       -0.076252736 0.08102092 0.15734534 0.18069527
0001d0 c8 be 1a bd 0c d2 1a 3d c7 67 a1 3d 5e cc fc 3b
       -0.0377796 0.037797973 0.07881122 0.007714792
0001e0 be 8b 19 be 13 ce 20 be fc 9c 27 bc c4 7c 9e 37
       -0.14994714 -0.15703611 -0.010230299 1.8893166e-05
0001f0 ca c9 08 be 13 ec d3 bd df 8f c6 bd b4 8a a3 3d
       -0.13358226 -0.10347762 -0.0969541 0.0798544
000200 28 cf f1 bd 94 6e 40 bd e9 3c 07 3e 88 98 8d bd
       -0.1180709 -0.046980456 0.13206829 -0.06913859
000210 1e d1 4b bc a0 9c 84 bd 13 14 a6 3d f8 11 fa bc
       -0.012439994 -0.06475186 0.081092976 -0.030526146
000220 45 2f 55 be 6a bf f8 bd 23 96 f2 3b 38 5a 91 3d
       -0.20818813 -0.12145884 0.0074031516 0.07097286
000230 18 a2 a3 bd ff 36 24 3e 3e 83 32 3e af 80 31 bd
       -0.07989901 0.16036604 0.17432877 -0.043335613
000240 b0 59 73 3d de 63 60 3d db b1 b2 3c 53 00 79 3c
       0.059411705 0.05478274 0.021813324 0.015197831
000250 16 bc 1b 3c df 6a 53 be d7 f5 fc 3c dd fb 79 3d
       0.009505292 -0.20646237 0.030878944 0.06103121
000260 fa 62 25 3e c4 41 d1 bd 43 64 51 be 9b 93 65 bd
       0.16151038 -0.10217622 -0.20448403 -0.05604897
000270 54 76 45 bd 4b 8a 3e be bc 57 b7 bd 1f c3 e7 be
       -0.04820855 -0.18607442 -0.08952281 -0.45266053
000280 3c e5 e0 bd d9 24 12 be 1f c8 26 be 5d 4d 88 bd
       -0.10981223 -0.14271869 -0.16287278 -0.06655381
000290 ba b5 cf bd e6 a1 3b 3d b4 5a ca bd 21 56 50 be
       -0.101420835 0.045808695 -0.098805815 -0.20345356
0002a0 9d dc 83 bd 66 24 46 bd 87 b0 d2 bd ca 13 be be
       -0.06438563 -0.048374556 -0.10287576 -0.37124473
0002b0 0f 12 79 3d 18 46 a8 3c 6c b5 ea bd d2 09 0b be
       0.060808238 0.020541236 -0.11460385 -0.13577965
0002c0 49 4a 6d bd 92 82 3e 3c 5d c3 1e be eb 0c 2b bd
       -0.057932172 0.01162781 -0.15504213 -0.041760366
0002d0 36 b7 aa 3d 32 00 3f be aa ae 03 bd 70 af b3 bd
       0.08335726 -0.18652418 -0.032148995 -0.087736964
0002e0 d3 c0 0b be a2 56 00 bd 45 48 2e bd 46 03 30 bd
       -0.13647775 -0.03133262 -0.04254939 -0.04297187
0002f0 ab e1 98 bc 35 ac ba 3c 67 24 11 3e 7b 07 17 be
       -0.018662294 0.022787193 0.14174043 -0.14748947
000300 35 c1 f9 3d ed 8a d5 bd cb 5f 15 bd fb d7 63 3c
       0.121950544 -0.104268886 -0.03646831 0.013906474
000310 1b 10 c4 bd 75 1d 77 3d 14 51 8d be 94 e6 c2 bb
       -0.095733844 0.060330827 -0.2760092 -0.005947897
000320 8a 7e 14 be 8b cf 3d 3d 05 5a 2b bd 09 ac f9 bd
       -0.14501396 0.046340507 -0.041833896 -0.12191016
000330 77 e8 16 3c 03 3a 02 3e 11 ba 63 be 07 72 17 be
       0.009210697 0.12717442 -0.22238947 -0.14789592
000340 5c 58 87 3c fc 76 77 3d 5f 00 8c be b8 a7 06 bd
       0.016521625 0.060416207 -0.27344033 -0.032874793
000350 e3 be 65 bc da 2a 79 3d ef ea 04 be b7 9b fd 3b
       -0.014022562 0.060831882 -0.12980245 0.00773951
000360 f9 f2 d1 3c e7 ed 40 be a3 21 80 be b5 eb 4e be
       0.025628554 -0.18840753 -0.25025663 -0.20207103
000370 d3 f7 fd 3d 98 d9 15 be 10 62 66 be 9c fb df bd
       0.12400784 -0.14633787 -0.22498345 -0.109366626
000380 df 7c 6b bd fb 54 48 be 31 e0 0b bd be df 50 bc
       -0.057492133 -0.19563667 -0.034149352 -0.012748657
000390 99 29 c6 bd 79 ee c7 be d2 cd 23 3d 90 9d 37 be
       -0.09675903 -0.39049128 0.039991207 -0.17931199
0003a0 5a 94 06 bd f6 cd fc bd eb 59 dc bd 86 3b c6 bc
       -0.032856323 -0.123439714 -0.10759338 -0.024198305
0003b0 97 f2 42 3b 42 07 20 be 0e 1f c3 bc 5a c7 eb bd
       0.0029746646 -0.15627769 -0.023818519 -0.11512633
0003c0 81 8e 11 3b af fd f8 bb d5 2c 2e bd e7 dc c8 3c
       0.0022210183 -0.007598601 -0.042523224 0.024519397
0003d0 e8 08 8f bd 04 ab 11 be 6f c5 49 bd 97 25 fe bd
       -0.069841206 -0.14225394 -0.049260553 -0.124095134
0003e0 1b 7f 36 be 0c 53 90 bc 60 f6 c9 bc 68 b2 68 be
       -0.17821924 -0.017617725 -0.024653614 -0.22724307
0003f0 e1 a7 14 be 82 86 c7 bd a0 c1 45 bd 93 ee 4b be
       -0.14517166 -0.09742452 -0.04828036 -0.19915228

a2c_network.actor_mlp.2.bias f4 [128]
000000 f2 26 a5 bc a0 a2 c0 3b fa 38 40 3e c3 20 56 3d
       -0.020160172 0.0058787614 0.18771735 0.052277338
000010 28 ba 6c 3e 1e 4c 86 be 72 f8 03 be 4c 2e 4a be
       0.23117888 -0.26229948 -0.12887743 -0.19744223
000020 0b b6 d7 be ea 0c 6f 3d df 6d 05 bf 4e 33 ab 3d
       -0.42131075 0.058361925 -0.52120775 0.08359395
000030 a3 2e 26 be 12 c6 9b be a4 87 81 be b4 b1 06 be
       -0.16228728 -0.30424553 -0.25298798 -0.13153726
000040 bf 9f 21 bd 0c e3 89 bd 04 21 b7 bd 07 8f a7 be
       -0.039458986 -0.06732759 -0.08941844 -0.3272631
000050 42 97 f2 3c 17 8d 54 bd 34 58 56 be 6e 5f 81 3e
       0.029613141 -0.051892366 -0.20932084 0.2526812
000060 dc 75 58 be f2 1b 48 bd ce 17 35 be 14 14 f7 be
       -0.2113871 -0.048854776 -0.17684862 -0.48257506
000070 32 03 49 be 32 45 c1 3c b9 9c 93 3d 84 0e 22 bf
       -0.19630125 0.023592565 0.07207627 -0.633034
000080 ff bc 5e be c0 2a be be a6 58 9d be 5f b6 23 3e
       -0.21751784 -0.3714199 -0.30731696 0.15987538
000090 14 39 a1 be b3 35 1e bf 52 55 39 be 69 e9 e9 be
       -0.3148886 -0.6180069 -0.18098953 -0.4568589
0000a0 5a c6 cb 3d f8 42 f3 bd 29 6f 59 bc e3 50 c2 be
       0.09949942 -0.11878008 -0.013271132 -0.37952337
0000b0 e3 0e 7e bc f8 9b 84 3d 1e 98 81 be 9f 87 5a 3b
       -0.015506479 0.06475061 -0.2531137 0.0033344997
0000c0 0d ee 29 be c0 6d ac 3d 50 45 89 be ce ab 59 3c
       -0.16594715 0.08419371 -0.26810694 0.01328559
0000d0 4e 14 91 3d f9 02 46 bd 45 8a 07 3e 25 6e d7 bc
       0.07083951 -0.04834268 0.1323634 -0.026297638
0000e0 00 25 4b be f4 57 56 be 93 19 1a be 5f ba 64 be
       -0.19838333 -0.20931989 -0.15048818 -0.2233672
0000f0 72 81 a5 3d f7 59 ce bd 3a 95 40 be 27 d8 e6 3d
       0.0808133 -0.10075753 -0.18806925 0.112716965
000100 f1 a9 e1 bd 6b bf 07 3e 33 10 90 bb df 47 e7 be
       -0.11018742 0.13256614 -0.0043964623 -0.4517202
000110 90 0f ae 39 35 4a 7e be 3a 81 95 3d e3 34 56 be
       0.0003319946 -0.24832995 0.07300039 -0.20918612
000120 e8 e4 dc be f3 ae d1 be 34 c7 d8 bb 20 b1 66 bd
       -0.43143392 -0.40953788 -0.0066155437 -0.056321263
000130 e2 8c 92 be 59 9c 8f be 20 ac 9c bd a8 18 6b be
       -0.2862311 -0.2804897 -0.07650018 -0.22958624
000140 c7 95 09 bf 46 c6 69 be 9f 25 e4 3d a6 3c cd 3c
       -0.5374417 -0.22829542 0.11139988 0.025053333
000150 ca f2 ee be 06 b9 e2 be 31 3b 9c be 87 01 80 be
       -0.46669608 -0.44281787 -0.3051391 -0.25001165
000160 97 d0 c5 bd 9f 43 ae be 91 c1 94 be 49 c5 e1 bd
       -0.09658926 -0.34035966 -0.2905393 -0.11023957
000170 c9 ef 3b be 14 b4 1c be 9f 77 9a be b1 ad 7e 3e
       -0.1835319 -0.1530307 -0.3016939 0.24870946
000180 78 76 a3 bd 7f d7 21 3c d5 f8 f2 bd e8 93 bf 3d
       -0.079815805 0.009878038 -0.11863867 0.09354383
000190 a1 0e aa be 60 97 7a be 00 72 e0 3d 97 5a 83 bc
       -0.33214286 -0.24471807 0.10959244 -0.016034408
0001a0 78 36 03 be 1a 8d 82 be a7 51 88 bd ef 7a 06 3d
       -0.12813747 -0.25498277 -0.06656199 0.032832082
0001b0 4e 81 9a be bc 58 fa bd e6 2a 53 3e 79 f2 61 3d
       -0.30176777 -0.12223956 0.20621833 0.05516288
0001c0 b0 10 11 be f9 74 a2 bd dc e1 b4 3d ff d0 ad be
       -0.14166522 -0.07932467 0.08832142 -0.33948514
0001d0 b1 d1 44 be 5e 81 fb be 08 04 d3 3d 2e dc 05 be
       -0.19220616 -0.49122137 0.10303503 -0.13072273
0001e0 11 9a ab be 02 e6 53 be e0 fc a2 bd 50 9c 0b 3d
       -0.3351598 -0.2069321 -0.07958388 0.034084618
0001f0 18 4c 49 be 4b 0b f1 3c 86 c9 9f be 42 88 9e 3c
       -0.19657934 0.02942433 -0.31208438 0.019352082

a2c_network.actor_mlp.4.weight f4 [64, 128]
000000 81 ec 86 3c 04 5a 14 be 95 1b 8b 3c 7d a7 e1 bd
       0.016470196 -0.14487463 0.016980926 -0.11018274
000010 bc b6 f5 be a2 97 bb 3d c8 0c 36 3d 86 80 4a bd
       -0.47990978 0.09159781 0.044445783 -0.049438976
000020 f4 21 09 3e fc 38 92 3d 44 82 d5 3d 6e 2c 26 3e
       0.13391858 0.07139775 0.10425237 0.16227886
000030 d6 41 00 be d5 5a 8d bd e3 cd 19 bd 2f 4b b6 3d
       -0.12525114 -0.069020905 -0.037549865 0.08901059
000040 3c f0 c2 3d 0e ae 05 be 15 eb 8d 3d 41 46 87 bc
       0.09518477 -0.13054678 0.06929604 -0.016512992
000050 85 4a 33 be 6b 7d d3 bd db e0 46 3c cf 64 b2 3c
       -0.17508896 -0.10326656 0.012138571 0.021776585
000060 f0 6d 13 3e f5 14 8e 3b ab 29 13 bd 79 06 ad 3d
       0.14397407 0.0043359944 -0.03592841 0.084485
000070 9f d3 81 bd 74 91 80 bb 9e 29 c1 bd 67 87 89 3d
       -0.06339192 -0.0039235894 -0.09431766 0.06715279
000080 8b 9f 76 3d c2 3b 01 bd 83 43 52 be 7d 38 9c bd
       0.060210746 -0.03155113 -0.20533566 -0.07627962
000090 64 33 b8 3c 20 65 19 3d cf 56 aa 3c ec 65 b5 3d
       0.022485442 0.037449956 0.020793347 0.08857331
0000a0 a1 f8 e5 3c 66 52 ec 3b db cb a2 3b f9 4a 26 3d
       0.028072657 0.007211971 0.004968149 0.040598843
0000b0 7b 3f d6 bd 34 2a fe 3d f2 93 b4 bd 82 58 00 be
       -0.10461327 0.12410393 -0.08817281 -0.12533763
0000c0 81 9e 0e 3e 82 18 cf bd 09 57 9b bd fb 09 80 be
       0.13927652 -0.10112096 -0.0758496 -0.25007614
0000d0 66 92 8a 3d a0 56 4b 3d b4 a7 68 be 21 cb 94 be
       0.067662045 0.04964316 -0.22720224 -0.29061225
0000e0 ed 93 b0 3d c1 24 33 3e ef 54 13 3e 57 1a 0d 3e
       0.086219646 0.17494489 0.14387868 0.13779579
0000f0 7a 3b b4 3d 97 9b 0d 3b 9b 42 f3 3c 26 7c d3 3c
       0.08800407 0.0021607631 0.029694846 0.025816035
000100 e8 f3 55 bc 65 95 4b be 89 72 3d 3d 52 26 d7 3d
       -0.01305864 -0.19881208 0.046251807 0.10505356
000110 93 94 2f be c8 22 0b bd cf 5b 01 be eb 96 9e bd
       -0.1714652 -0.033968717 -0.12632678 -0.07743629
000120 a5 46 08 3e 9c 09 ff 3c 32 50 22 3d ed c6 c7 bd
       0.13308199 0.031132512 0.03962726 -0.09754739
000130 ef 4b ce 3c 85 7c 85 3d 2f 69 d4 bc ca b9 c0 3c
       0.025182692 0.06517891 -0.025929062 0.023526091
000140 ec 9c 9b bb d6 e7 88 3d e1 1f 30 bc c7 70 c8 3c
       -0.004748931 0.06684844 -0.010749788 0.024467839
000150 9c 99 65 3d 2e 9e 64 3d 18 f4 68 bd 5e b2 8d 3d
       0.056054696 0.055814914 -0.05687341 0.069187865
000160 19 04 bb 3d a0 0f df 3d 16 a5 31 3d f3 bc b4 bc
       0.09131641 0.10891652 0.04337033 -0.022062754
000170 7c f2 c3 bc 87 0d 16 bc 6d 04 f1 3a 91 34 92 3d
       -0.023919336 -0.009158499 0.001838816 0.071389325
000180 40 22 00 3e 20 8d fd 3d 96 cd 11 3c 5a 78 69 be
       0.12513065 0.12380433 0.008899113 -0.22799817
000190 c7 c8 77 3d 17 1a bb 3d f1 97 27 bd 95 bf fa 3d
       0.06049421 0.091358356 -0.040916387 0.122435726
0001a0 79 15 21 be b2 16 fc 3d d9 e0 36 bb b3 b4 a2 3d
       -0.15730847 0.12309016 -0.0027905016 0.07944622
0001b0 ce 92 14 3e ee 39 68 bb 3d d0 d5 3d 62 83 2c 3d
       0.14509127 -0.003543492 0.10440109 0.042117484
0001c0 53 6e 04 3e 3d 7b 5c bd 57 71 90 bd c0 de 4a bc
       0.1293271 -0.053828467 -0.07052868 -0.012382209
0001d0 56 6e dc 3d a0 65 45 3d d7 2a a3 bd 67 e7 a7 bc
       0.107632324 0.04819262 -0.079671554 -0.020496083
0001e0 b2 6e 0f 3d ae 28 6c bd 53 98 b9 3d 95 9d c5 bd
       0.035017677 -0.057655983 0.09062257 -0.09649197
0001f0 32 d9 b5 bd c8 83 86 bd e5 56 68 bd 78 41 96 3d
       -0.08879317 -0.06568104 -0.056723494 0.07336706
000200 0b b4 6f 3d 7f c6 82 3d 70 7d 7b bd 14 03 b9 3d
       0.05852131 0.063855164 -0.061398923 0.0903379
000210 f3 1a 85 be f1 50 6b be 22 72 74 bc c1 0f ca bc
       -0.25997123 -0.22980095 -0.0149197895 -0.024665715
000220 42 56 2b 3e 3c dd ef bc 99 f4 37 bd bd b7 ea 3d
       0.16732123 -0.029280297 -0.044911 0.114608265
000230 a9 75 f4 3c e6 35 0d bc 57 f7 7a be 87 8f 80 3d
       0.029841261 -0.008618807 -0.24508415 0.06277376
000240 0f 12 b6 bb f7 ab 21 bc 01 72 80 3b ec d5 b1 bd
       -0.005556352 -0.00986766 0.0039198403 -0.086833805
000250 7b f3 72 bd 1e 43 32 3c 4f bf 83 3d 74 76 87 3d
       -0.059314232 0.01088026 0.064329736 0.0661439
000260 be 8d 09 be 3a 5d 23 3c ea 59 bc bd 73 75 b4 bd
       -0.13432977 0.009970957 -0.09196837 -0.08811464
000270 aa 3f ba bd 91 a3 19 bd 53 e9 5a bd f0 6a 00 3d
       -0.09094174 -0.037509505 -0.05344517 0.031351984
000280 b7 ab ca bb 15 4c 8b 3d 6c 90 b7 be d0 6e 08 bd
       -0.006185021 0.06801621 -0.35852373 -0.033308804
000290 a7 bd 11 be 7a 81 96 bc 2b 4a d6 bb 1f 9b 74 3e
       -0.14232503 -0.018372286 -0.006539603 0.23887299
0002a0 a0 fa 16 3d f5 c8 b7 bd 9e 7c 78 3e 3c f5 f2 3d
       0.03686011 -0.089738764 0.24266288 0.11863181
0002b0 a8 68 a7 bd 11 c5 bc 3d c5 79 a5 bc c3 80 8f be
       -0.081742585 0.09217275 -0.020199666 -0.28027925
0002c0 9e af 98 bd 2f a4 e5 bd 80 e5 51 bc 67 9c 0e bd
       -0.07455371 -0.11212956 -0.012811065 -0.034817126
0002d0 eb c4 2c 3c f8 2f b2 bd 4e 10 dc 3d d6 12 02 be
       0.010544996 -0.087005556 0.10745297 -0.12702498
0002e0 25 8f 13 3e 3d 6f 81 3d e2 7a 82 3d 4e 14 10 3e
       0.14410074 0.06320045 0.06371094 0.14070246
0002f0 ab 01 3a bd c9 4a 05 be 84 f2 92 3d e4 d8 6a 3c
       -0.045411747 -0.1301681 0.071751624 0.014333937
000300 27 8d 95 3d 95 6c 21 be 94 52 a8 3c 41 51 34 3e
       0.07302313 -0.15764077 0.020547189 0.17609121
000310 2f 63 ce bc 21 96 10 be ba d9 19 bc da 8d 14 3e
       -0.025193779 -0.1411977 -0.009390289 0.14507237
000320 16 7b 1f be 97 2d a6 bb f9 d1 e7 3c be 7d 8b 3c
       -0.15574297 -0.0050713527 0.028298365 0.017027732
000330 3d e7 b7 3d d5 d3 16 3e 04 a0 bc bd cd ff d5 3d
       0.08979652 0.14729245 -0.09210208 0.10449181
000340 a3 0f 27 3e d1 c3 f0 3d 86 88 ed bb d7 80 87 bb
       0.16314559 0.11756099 -0.007248941 -0.004135232
000350 69 ee 8e 3d fa 27 b5 3d ba 42 49 be 67 62 82 3d
       0.06979067 0.088455155 -0.1965436 0.06366425
000360 0a 3d 17 3d 78 74 27 be 41 7e dd bd 70 6c 71 bd
       0.036923446 -0.16353023 -0.10815097 -0.058941305
000370 df af 89 3d 9f be 17 bc dc 37 96 bd d8 6d 07 bd
       0.06722998 -0.009261756 -0.07334873 -0.03306374
000380 ad 62 00 3e 71 23 fd 3d 52 80 aa 3d e0 c2 8c 3d
       0.12537642 0.123602755 0.083252564 0.06873107
000390 5f 9e 1c 3e c6 f1 6f 3d 24 8c 26 bd 0b 2a 21 3d
       0.15294789 0.058580182 -0.040660992 0.039346736
0003a0 3d 8b 82 3d b1 1a 9e bd f9 29 ae bc 6f 8e 8f 3d
       0.06374214 -0.07719935 -0.021260248 0.07009589
0003b0 24 7f 5b 3d 9b ed ef bd 4a ac c6 3d 28 0b dd bc
       0.053588048 -0.117152415 0.0970083 -0.026982859
0003c0 67 97 bd bd e6 f2 a5 bd 10 da df bd 6d cd 53 be
       -0.09257393 -0.0810297 -0.10930264 -0.20683832
0003d0 61 2e 83 bd 69 dc 3d 3c f3 d4 9f be 08 df ad bd
       -0.064053304 0.011588194 -0.31217155 -0.084898055
0003e0 86 6b ab 3d 60 ae 02 bc 4f 38 da bc 15 b9 51 be
       0.08370118 -0.007976145 -0.026638178 -0.2048076
0003f0 c7 a4 24 3e 76 15 c0 3c 39 8e 6d bd 82 f4 f0 3d
       0.16078483 0.023447733 -0.057996962 0.11765386

a2c_network.actor_mlp.4.bias f4 [64]
000000 f5 cf 22 be d3 e6 cf bb d4 7c 22 be 7c 2a 3c be
       -0.15899642 -0.006344655 -0.1586793 -0.18375582
000010 39 df 0b be 75 3c 83 bd d7 ee 76 be 82 93 a5 bc
       -0.13659371 -0.06408016 -0.24114548 -0.020211939
000020 72 e9 aa be ff d0 cb bd ee da 19 be d0 b3 86 bd
       -0.3338123 -0.09951972 -0.15024921 -0.06577265
000030 ac 70 09 3d 4b 6d e4 bd d5 d9 31 be 68 ed bb be
       0.033554718 -0.111536585 -0.17368253 -0.36704564
000040 dd 87 c8 ba 25 65 92 bd 12 3b 47 3c 65 6e 4d be
       -0.001529928 -0.07148198 0.01216008 -0.20061643
000050 9e c3 b2 bd 79 11 06 bd 45 0a 80 be 91 31 3a be
       -0.08728717 -0.032731507 -0.25007835 -0.1818297
000060 36 19 25 be 45 21 46 be 3b e9 05 be f4 72 37 3d
       -0.16122898 -0.19348629 -0.13077252 0.044787362
000070 e1 ca 4f be 42 66 a2 be 50 d5 dc bd 5f 1a d8 3c
       -0.20292236 -0.31718642 -0.10782874 0.026379762
000080 47 80 a8 be b9 36 1e be b0 58 46 bd bb 7f 5a bd
       -0.32910368 -0.15450563 -0.048424423 -0.05334447
000090 fa a8 e9 3d 32 5b 3f be 8b 4b 2f be 77 4d 03 bd
       0.11409183 -0.18687132 -0.17118661 -0.032056298
0000a0 82 ab d8 bd f4 7e 16 3e f3 0e 72 3b b5 ca 94 be
       -0.105795875 0.14696866 0.003693518 -0.29060903
0000b0 17 44 1c be 4a 76 c9 bd a7 11 3e 3d d0 52 f6 bd
       -0.15260349 -0.09837015 0.046403553 -0.12027514
0000c0 59 88 78 be 86 82 05 bd a5 82 81 be 8a 22 91 be
       -0.24270763 -0.03259518 -0.25294986 -0.28346664
0000d0 56 cb 7a be 32 b8 57 be 01 b6 b2 3c 9f 46 2a be
       -0.24491629 -0.21066359 0.021815302 -0.16628502
0000e0 b1 77 89 3d 97 69 2b 3d 32 13 05 be ec a1 e2 bd
       0.067122824 0.041848745 -0.12995604 -0.110660404
0000f0 ea 25 7f 3c 34 aa f8 bd 5e a8 35 be cc af 06 bd
       0.015573004 -0.12141839 -0.17740008 -0.032882497

a2c_network.value.weight f4 [1, 64]
000000 a2 fd 3e bb 09 8b 0f bb 30 51 5b 3d 50 dc b1 bd
       -0.0029142876 -0.002190294 0.053544223 -0.086845994
000010 a5 7b 58 bd 59 90 2a 3d 0e 7a d8 bc b3 7b da bd
       -0.05285229 0.041641567 -0.026425388 -0.10668125
000020 c6 33 9c bc a4 14 71 3d bb d0 82 be 22 a8 34 3c
       -0.019067656 0.058857575 -0.25549874 0.011026414
000030 c1 03 d5 bd b8 18 48 3c 19 85 ae 3d 1e 8e 16 3a
       -0.104011066 0.012212925 0.0852148 0.0005743223
000040 c1 6b 51 bd ac 90 ac 3d 29 8c 91 3c f5 df 9e bd
       -0.051128153 0.084260315 0.017767029 -0.0775756
000050 fc f8 d1 3d 19 43 b6 3e ec 1c 97 bc ee 78 62 3c
       0.10252568 0.35598066 -0.018446408 0.013822777
000060 6b 4e 87 bd cb f8 25 bb a8 74 ac 3d 64 4e 20 3d
       -0.06606754 -0.0025325294 0.08420688 0.03913726
000070 ae 89 8c be 1b 31 58 be 21 af ef 3d 2e b2 ec bc
       -0.2744879 -0.21112482 0.11703325 -0.028893556
000080 69 46 12 3c 93 16 86 bd ae 14 01 bd e7 f1 bd bd
       0.00892792 -0.065472744 -0.031513862 -0.09274655
000090 09 be c8 bd 59 e3 ed bc 5b b7 44 3e ac 2f 0b 3d
       -0.09801871 -0.029039072 0.1921057 0.03398101
0000a0 d7 a1 12 3b c8 ab 16 3f 95 b9 3e bd 35 74 33 3c
       0.0022374296 0.5885587 -0.046563704 0.010952999
0000b0 43 35 0c be 26 fa 0a bd 94 c5 40 bd fe af 6b bd
       -0.13692193 -0.033929966 -0.047063425 -0.057540886
0000c0 ea 2f 65 3d 42 a0 5e 3c 30 ab 52 3d f5 50 94 be
       0.055953898 0.013588013 0.05143279 -0.28968015
0000d0 90 54 bb bc 61 4a e4 3d a2 07 03 bd d2 06 9f 3b
       -0.022867471 0.11146999 -0.0319897 0.004853108
0000e0 d7 d6 d1 3d a7 e0 07 bd 69 ca c0 bb 3d c4 07 bd
       0.102460556 -0.03317323 -0.005883504 -0.03314613
0000f0 8e 7c 76 3d 27 fc 47 bd 4c fe 1b 3d ce 5d da bd
       0.06017738 -0.048824456 0.038084313 -0.10662423

a2c_network.mu.weight f4 [12, 64]
000000 1a 08 ed bd d9 76 10 be 49 4b 83 be 17 79 ae bd
       -0.11573811 -0.14107837 -0.25643376 -0.0851919
000010 cb 55 94 3d 74 43 f4 3d 11 57 14 3c 8e 2a b4 3c
       0.07242926 0.11926928 0.009053961 0.021992948
000020 b7 b9 a8 bd 4f 20 2b 3d 21 67 83 bd 05 88 a9 3d
       -0.08238547 0.04177886 -0.06416155 0.08277897
000030 fb e3 a1 3d 82 fd 83 bd 62 ea 40 3e ee 7a b4 3c
       0.07904812 -0.06444837 0.1883941 0.022031274
000040 41 4c 82 3a e2 27 e7 bd 63 46 15 3e fe e1 48 bc
       0.0009940938 -0.11286904 0.14577632 -0.012260912
000050 4d 23 50 3d 8c a3 55 3c b5 16 8f bd 42 40 a2 3d
       0.050814915 0.013039481 -0.06986753 0.079224125
000060 17 4e 1f be e6 32 1a be de 1e 1d bd b0 1f f4 3d
       -0.15557133 -0.15058479 -0.038359515 0.119201064
000070 87 25 98 3d 51 19 05 be 84 86 26 3b 68 8f 3b 3d
       0.07429033 -0.12997939 0.0025409767 0.04579106
000080 02 0d e4 bd fe d6 72 be 7f 3e 02 be c8 55 0c 3e
       -0.111352935 -0.23714826 -0.12719153 0.13704598
000090 ed b0 86 3d 5b 96 93 bd 62 28 8c 3d d7 d4 d6 3b
       0.06576715 -0.072064124 0.0684364 0.006556134
0000a0 53 62 0c be d2 40 de bd e0 79 e7 bc ba f0 71 bc
       -0.13709383 -0.10852207 -0.028256357 -0.014766866
0000b0 46 2d 8d bc d6 b3 d3 bd 7d 09 d0 bd a0 dc 08 be
       -0.017233502 -0.10337035 -0.1015806 -0.13365412
0000c0 64 28 b7 bd 1c 95 10 3e ae 53 48 bd 31 87 b8 3d
       -0.08943251 0.1411938 -0.04890793 0.09010161
0000d0 3b fc d7 bd bc 65 bb bc 17 b7 0f bc d9 5b 64 3d
       -0.10546156 -0.02287566 -0.008771679 0.055751655
0000e0 c5 41 02 be 2b f0 eb 3c 6e 94 4f bc b6 25 84 3d
       -0.12720402 0.028801044 -0.012669666 0.06452505
0000f0 e0 b1 bb 3d ff c6 98 bd fd b9 bf 3c ad 33 18 bd
       0.09164786 -0.074598305 0.023404116 -0.037158657
000100 b2 07 04 bd 58 b2 25 3e 3e b9 2b 3d 02 1f c9 3d
       -0.0322339 0.16181314 0.041924708 0.098203674
000110 bb 4f 84 bd af 35 63 3d 6d 0f a7 bd 10 b4 6e 3d
       -0.0646052 0.05547112 -0.08157239 0.05827719
000120 5d 55 da bd 7b 62 3d bd a6 da bc 3c e4 ba 4d 3d
       -0.10660813 -0.046236496 0.023053478 0.05022706
000130 6c 11 8f bc 60 4b ac bd 49 de f7 bc 3e d3 8c 3d
       -0.017464362 -0.08412814 -0.030257361 0.06876229
000140 71 c5 7d 3b 17 98 16 3d ea 6c f8 3d cd c2 74 3d
       0.003872242 0.036766138 0.12130149 0.05975609
000150 af 36 3b 3c 4f 9e 92 bc 0c c4 e6 bc 91 05 14 3d
       0.011426612 -0.017897753 -0.028169654 0.03613812
000160 b1 53 24 bc 1b 34 07 3d 3f 37 8d 3c bb e9 0a bd
       -0.010029719 0.033008676 0.017238257 -0.03391431
000170 ab 71 50 bc 44 2c fc 3d a0 be 5c bc 22 7b 46 3e
       -0.012722413 0.123131305 -0.013473183 0.19382909
000180 c4 1e 8d bd ae e7 21 be c2 44 5c 3d 5e 5f bc 3d
       -0.06890634 -0.15811035 0.05377651 0.09197877
000190 15 b4 b6 bb 80 d6 a0 bc 99 3a 90 bc 96 7a fa 3b
       -0.0055756667 -0.019633532 -0.017606067 0.007644008
0001a0 58 69 05 be 4a 90 f1 3c ec 05 07 3c 22 b0 5a 3d
       -0.13028467 0.029487748 0.008241158 0.05339063
0001b0 75 e8 3e be d1 f8 c8 3d 93 15 a2 bd 5d cf 4b 3d
       -0.18643363 0.09813083 -0.07914271 0.049758304
0001c0 e5 e5 33 3c 0f 76 8c 3e da ca d3 3d 49 2a 93 3d
       0.010980104 0.27433822 0.10341425 0.071858
0001d0 d9 96 65 bd 1d 2c 22 be 77 26 49 bc 39 a2 57 3d
       -0.056052063 -0.1583714 -0.012277237 0.052644942
0001e0 08 c5 59 3d d4 25 13 3e 3d f3 13 3d ec d3 f0 bd
       0.05316642 0.14369899 0.036120642 -0.11759171
0001f0 2c af 6c 3d de 9a eb 3d 45 c8 b9 3b 0b 3b 05 3c
       0.057784244 0.11504148 0.005669626 0.008131753
000200 93 21 38 3d af 96 2e bd 80 36 a1 3c 2b 29 05 3d
       0.044953894 -0.04262417 0.019679308 0.032509964
000210 66 35 3d 3c a3 fd 8c 37 2d 28 59 3d 91 fb a8 bc
       0.011548376 1.680741e-05 0.05301683 -0.020627769
000220 88 47 58 3d 46 fd dd ba ae 94 1f bc 18 3c e9 3c
       0.052802593 -0.0016936443 -0.009740038 0.028471038
000230 e7 26 fc 3c e4 3b ea bb 3b 83 41 3c 2a e6 b1 3d
       0.030780269 -0.007148253 0.011811073 0.086864784
000240 92 b4 12 bb 01 60 fc 3c 12 49 d1 bc 2f 08 21 3d
       -0.002238546 0.030807497 -0.025547538 0.039314445
000250 1c 98 87 3a 2d 59 b7 3c 7f d1 86 3c 2f 40 4d 3d
       0.0010345015 0.02238139 0.016457317 0.05011004
000260 2a c8 8a 3c 22 c4 1b 3d 5b d4 ba bb 0a 19 5a bd
       0.016941149 0.038028844 -0.0057015843 -0.053246535
000270 c9 6f 46 3c 08 51 38 3d e9 6a d0 3a 47 28 11 bc
       0.012111613 0.044999152 0.0015901002 -0.0088597005
000280 e2 d2 5d 3d 28 7a 68 bb e8 e7 4a bb 98 a2 47 3c
       0.05415619 -0.0035473201 -0.003096098 0.012184761
000290 07 56 80 bd 3b 31 62 3d 47 f4 6d 3b be 34 5f bb
       -0.062664084 0.05522273 0.003630893 -0.0034058536
0002a0 f9 8b a6 3a cb 5a 7e bc 1d 43 fe bc ef 1e fc 3b
       0.001270651 -0.015524576 -0.031037861 0.0076941173
0002b0 bc 44 31 ba 9a 2b 58 3c 16 e7 fe bb f1 c2 f5 bc
       -0.00067622564 0.013193989 -0.0077790124 -0.030000182
0002c0 62 3f 82 3d ba d0 05 3c a9 47 8c 3c 43 6d b1 3c
       0.063597456 0.00816744 0.017124014 0.021658545
0002d0 5a 7a 6a 3d 6c da 1d 3d a4 68 48 3c bf 63 93 3d
       0.05724559 0.03853838 0.0122319795 0.071967594
0002e0 18 46 dd bc 4e c0 1c bc 79 8d 4c 3d 14 15 a7 3b
       -0.027010962 -0.009567333 0.049939606 0.0050989483
0002f0 75 23 4f bb 75 87 85 3b 98 87 97 bb 8b 74 f0 bb
       -0.0031606827 0.0040749856 -0.0046243183 -0.0073381118
000300 03 90 3a 3e 69 f8 01 bd 10 bf 85 3d d5 f7 50 3e
       0.18218999 -0.031731043 0.06530583 0.2040704
000310 dc 13 3e 3d d9 bc 14 3d 38 a9 5f 3d 7d 49 aa 3c
       0.046405658 0.03631291 0.05460474 0.020786995
000320 b3 13 b9 ba 4b d0 24 3b b6 d0 8d bd 32 bf 61 3d
       -0.0014120251 0.0025148566 -0.06924574 0.05511398
000330 95 61 d4 bc fd 35 8a bc a2 36 fa 3c 37 5a 47 3d
       -0.025925437 -0.016871447 0.03054363 0.04867002
000340 af 5e a5 3d 74 b7 e0 3d 2e 01 2d bd a1 2a 35 3e
       0.080747 0.10972491 -0.042237453 0.17692043
000350 99 1b eb bd db 49 88 bc 96 4f 6c 3d 0f 6e d5 bc
       -0.11479873 -0.01663678 0.057693087 -0.026053457
000360 80 dd 06 be dd a2 02 3d 43 29 ae bb e4 34 76 be
       -0.13170433 0.0318936 -0.0053149774 -0.24043614
000370 72 ed 59 bd 59 6e ac 3d d8 74 7c 3c e0 bd f5 bc
       -0.05320496 0.08419485 0.015408717 -0.029997766
000380 c0 ae f1 3c e3 86 b2 bd 1b 26 0a be ed 63 42 bc
       0.029502273 -0.08717134 -0.13491099 -0.0118646445
000390 77 29 ea 3b 1f 9b a1 3d 1e c0 f3 bc 92 35 77 bd
       0.0071460563 0.07890915 -0.029754695 -0.060353823
0003a0 2d ee 57 bd de 2e 90 3c b3 3c 4a bd 89 11 e3 ba
       -0.052717377 0.017600473 -0.049374294 -0.0017323951
0003b0 90 ac 02 bd c7 1a df bc 15 ac d0 3c f3 23 50 3d
       -0.03190285 -0.027234448 0.02547268 0.050815534
0003c0 41 d2 3e 3d f2 2d c5 3d bc 7a 47 3e 02 cd 16 bc
       0.046587233 0.09627904 0.19480413 -0.009204151
0003d0 d8 a4 ff 3d 30 03 ce 3d c3 f5 ee 3d 2e 19 b0 bd
       0.12482613 0.10059202 0.11667969 -0.08598553
0003e0 c5 eb 54 3d 09 18 b2 bc d3 fc 88 bd 72 d4 0e bd
       0.05198266 -0.021739976 -0.066888474 -0.034870572
0003f0 9a 8d 94 3b ea 65 db bd de 13 c5 3c 98 5e 8a 3d
       0.004533482 -0.10712798 0.024057325 0.067563236

a2c_network.mu.bias f4 [12]
000000 45 9f d2 3d 93 7b dc 3d 14 55 8d be c2 79 9e bd
       0.102842845 0.107657574 -0.27603972 -0.07738067
000010 a4 e3 49 3d b1 9f 84 ba b6 05 5a 3d 98 68 63 3d
       0.04928936 -0.0010118393 0.053228103 0.05551967
000020 28 2f 87 bb 01 53 cf 3b 3a 47 1f 3d fa ba 73 bd
       -0.0041254945 0.0063270335 0.038886286 -0.059504487

exp_avg f4 [12]
000000 e4 b0 7b 3a f0 2b 45 3b c6 18 ac bb 58 e7 8d ba
       0.0009601249 0.0030086003 -0.0052519767 -0.0010826392
000010 95 ca df bb 8e 74 1a bc e0 ef cd 3a ed 26 d9 39
       -0.0068295696 -0.009427203 0.0015711747 0.00041418467
000020 bf 53 b3 bb 4e 58 f6 39 d1 82 31 3b 91 d8 fe 3b
       -0.00547263 0.00046986568 0.002708603 0.0077772816

exp_avg_sq f4 [12]
000000 a2 61 d7 3a 45 d3 12 3b 66 19 0c 3b bd c8 d7 3a
       0.0016432295 0.0022403758 0.0021377443 0.0016463023
000010 06 4f 1a 3b 4b dc 37 3b 69 20 eb 3a b5 d1 b0 3a
       0.0023545637 0.0028054889 0.0017938736 0.0013490232
000020 0a 1e 9a 3a 9f 65 eb 3a 7d eb ee 3a c1 6f fb 3a
       0.001175822 0.0017959363 0.001822814 0.0019183086
