omniisaacgymenvs/runs/WEE/nn/last_WEE_ep_900_rew_243.51364.pth (torch, 623460 bytes, 36 tensors)

value_mean_std.running_mean f8 [1]
-29.99402948700454
00000000: b4f1 69b7 78fe 3dc0

value_mean_std.running_var f8 [1]
345.1289431042322
00000000: 8dfb a426 1092 7540

value_mean_std.count f8 []
235929601.0
00000000: 0000 0002 0020 ac41

running_mean_std.running_mean f8 [32]
0.030289407764052412 0.006112881308259271 0.4656431387780783 0.08263597232190578 0.01983834438366166 -0.011444321780721908 0.47414893141966524 0.06557854745963798
0.017736862890227297 0.059117393297007395 0.006040107570882384 0.00434954726726308 0.1371044156879713 6.530533884709024e-06 -2.4700070008431e-05 0.4288334868017863
0.6258729459538088 -5.382455046847032e-05 -4.1733036230586966e-05 0.0566237664885187 -2.1618232640190856e-05 0.0004594888509197127 -0.001633104443088936 -0.05183544590420951
-0.019158918935621445 0.005484996331140813 0.0 0.0 0.0 0.0 0.0 0.0
00000000: dd18 0cbf 2f04 9f3f 8654 da14 d209 793f
00000010: 1627 2ae1 18cd dd3f d882 988e a127 b53f
00000020: 8ea4 56c1 8050 943f 9e4f 2fde 1e70 87bf
00000030: 2d5f 78c2 7458 de3f 4088 a874 c1c9 b03f
00000040: 4f4b 30b8 9c29 923f b2bb ab8d a244 ae3f
00000050: 9e3f b307 83bd 783f 5eac 3eb4 d4d0 713f
00000060: e92d c232 a38c c13f e7d2 467c 1b64 db3e
00000070: b9fe e5e2 5fe6 f9be 8d92 4f02 0272 db3f
00000080: 4054 4ab3 2607 e43f fc97 cc78 3538 0cbf
00000090: 318e c834 50e1 05bf d932 7d52 cafd ac3f
000000a0: b1c5 8ea2 19ab f6be a66e 6b96 f11c 3e3f
000000b0: bc21 238b bcc1 5abf ae43 ddf1 2c8a aabf
000000c0: 9255 0549 659e 93bf 4e5e c67d 6f77 763f
000000d0: 0000 0000 0000 0000 0000 0000 0000 0000
000000e0: 0000 0000 0000 0000 0000 0000 0000 0000
000000f0: 0000 0000 0000 0000 0000 0000 0000 0000

running_mean_std.running_var f8 [32]
0.002061750937143171 0.0013398950195706045 0.0019274356964127453 0.5612236645821077 0.01287396393632834 0.04389824589008829 0.15043258720603778 1.0588799058286829
1.1055811439231376 1.000753754083252 325.98934580700165 199.6234848916121 314.2516305543137 5.760023630297635e-06 7.369833913803943e-06 2.7197215773501724e-05
0.2489293685630885 0.0003067434013563216 0.0003475681515737352 0.35551622270371547 0.005022059701568323 0.005017975986980292 0.0035134081077006353 11.4775702085843
12.01844051342498 7.123017343894545 8.477104962860807e-09 8.477104962860807e-09 8.477104962860807e-09 8.477104962860807e-09 8.477104962860807e-09 8.477104962860807e-09
00000000: 83f1 1e1b cee3 603f 0817 8152 edf3 553f
00000010: 21c4 ff51 4094 5f3f b9e2 a354 8bf5 e13f
00000020: c27e 9c30 aa5d 8a3f 813e e6b4 d479 a63f
00000030: 9bbb 2601 6041 c33f e2cf 5e0e 2cf1 f03f
00000040: 1996 83da 75b0 f13f 4f30 525e 1603 f03f
00000050: 1cd8 445c d45f 7440 c560 9696 f3f3 6840
00000060: 3a97 c2ad 06a4 7340 f836 4c3d c728 d83e
00000070: a4f5 4f85 4ce9 de3e ae0e c76f b284 fc3e
00000080: d206 7fe4 eadc cf3f 04eb 88e0 4c1a 343f
00000090: 3795 19d8 39c7 363f 2d6f 6d1d c7c0 d63f
000000a0: 7c27 d4e2 0292 743f 8a5e 19ac ba8d 743f
000000b0: 1f42 719d 26c8 6c3f b2d3 1615 84f4 2640
000000c0: da29 f408 7109 2840 af78 3342 f87d 1c40
000000d0: e7ee 0376 5634 423e e7ee 0376 5634 423e
000000e0: e7ee 0376 5634 423e e7ee 0376 5634 423e
000000f0: e7ee 0376 5634 423e e7ee 0376 5634 423e

running_mean_std.count f8 []
117964801.0
00000000: 0000 0004 0020 9c41

a2c_network.sigma f4 [12]
-0.7925916 -0.67897415 -2.043896 -0.6995041 -0.6402979 -3.562068 -0.6493822 -0.4007761
-0.4795647 -0.46866402 -0.7658896 -0.41773757
00000000: 48e7 4abf 40d1 2dbf 31cf 02c0 b312 33bf
00000010: 90ea 23bf ecf8 63c0 e93d 26bf 8632 cdbe
00000020: 8189 f5be bbf4 efbe 5711 44bf b3e1 d5be

a2c_network.actor_mlp.0.weight f4 [256, 32]
0.12547089 0.1783915 -0.4369011 0.007995937 0.5514518 0.64456594 0.013993421 0.0085988585
-0.007199389 -0.20035963 0.11669277 0.12662587 0.09630517 -0.2804027 -0.065862566 -0.10633174
0.069473356 -0.23594742 -0.2543409 -0.07930552 -0.13918759 0.11881919 0.038411565 0.13144682
0.10469512 0.017688632 0.1383469 -0.12560225 0.011130519 -0.1206572 0.054509446 -0.06087876
0.081450954 0.005743083 0.3717685 -0.11392016 -0.56301725 -0.32691565 0.16815518 0.28495392
0.32226843 -0.24980496 -0.2554738 -0.14176753 -0.14162269 0.28758982 0.39479354 0.25666946
-0.12575395 -0.10199321 0.15970571 -0.12836297 0.12320139 -0.11054674 0.14907694 -0.033841442
-0.044445194 -0.08235089 0.037371926 -0.045070764 0.105371185 0.12017442 -0.12819375 -0.094375454
0.1701021 -0.09991785 -0.08093345 -0.3816186 -0.8631328 0.08832983 -0.0764406 -0.33836055
0.07532328 -0.3005385 -0.09993616 -0.14635496 -0.31495866 -0.19735585 0.4358936 0.112467766
-0.014192351 -0.17731369 -0.16553612 -0.05863481 -0.053478364 -0.106203936 -0.14587869 -0.1275811
-0.008263613 -0.03257617 -0.012249876 -0.11978914 -0.121338665 -0.10313184 -0.060510207 -0.13952647
0.16030182 0.19747068 0.13552946 0.10896146 -0.37615952 -0.029367324 -0.112335406 -0.25517836
-0.06523796 -0.22162628 0.24415825 0.057841886 -0.079897024 -0.15993363 0.09342492 -0.22875363
-0.008491341 0.078378916 -0.058235206 0.10641066 0.14855021 -0.11046961 0.11292191 -0.101381786
-0.020859629 -0.13729957 0.16101858 -0.12974533 0.094478525 0.06212633 0.057444636 -0.09557365
0.27054277 0.17133199 -0.19772266 -0.29959965 0.6495279 0.15956748 -0.08813284 0.24869494
0.03601356 -0.019819986 -0.0990757 0.0101660155 -0.043773707 -0.12971228 -0.19366398 -0.13980584
-0.061389115 -0.14437176 0.18215373 -0.09353323 -0.06603032 0.049660325 -0.0013689841 0.0037335085
0.027551461 0.023428934 0.06610162 -0.031063449 -0.04681069 0.018911732 -0.031228328 -0.05267964
0.1267114 0.21389857 -0.44254312 0.00069931423 0.08537893 0.071928166 -0.009740694 -0.13837613
-0.32006988 -0.026332697 0.104817934 0.19287507 -0.31420872 -0.30674866 -0.16937004 -0.2594701
0.0746415 0.07832066 0.27292228 0.14152464 -0.3572778 -0.062121883 -0.2584256 0.19049115
-0.01182676 -0.24622612 0.07313521 -0.06733098 -0.11441971 0.12902705 -0.08038068 -0.03543785
-0.20890261 0.18531528 0.00603149 0.15085228 0.20525685 -0.40667722 -0.09905221 0.038168143
-0.054250844 0.12434853 -0.024841562 0.075919814 -0.16770607 -0.26761812 -0.37300688 -0.15693757
0.18079162 -0.111315176 -0.005938596 0.013066713 -0.03364455 -0.023151213 -0.3127359 0.050004896
-0.079698704 0.16229515 -0.056711514 -0.1296776 -0.03119029 -0.08569204 -0.05408334 -0.16829063
0.112103865 -0.1449009 0.11872536 0.07245871 0.32377848 -0.0843789 0.16337632 -0.049150027
0.10448269 0.168179 -0.25048655 -0.22760978 0.015908508 -0.33937564 -0.11185195 -0.30749464
0.1483892 0.06463176 0.16879289 -0.065521665 -0.18174244 0.05285264 0.012688643 -0.23625645
-0.0093243485 -0.2790765 -0.01546155 -0.08701187 -0.07226058 -0.05611933 -0.16799161 0.1450466
00000000: 717b 003e 43ac 363e 80b1 dfbe 6401 033c
00000010: f22b 0d3f 4602 253f a944 653c 3ae2 0c3c
00000020: dae8 ebbb 132b 4dbe 9efc ee3d 36aa 013e
00000030: a53b c53d f190 8fbe f4e2 86bd 75c4 d9bd
00000040: 0c48 8e3d 339c 71be f838 82be ef6a a2bd
00000050: 3187 0ebe 7a57 f33d 7255 1d3d ff99 063e
00000060: 656a d63d c0e7 903c cfaa 0d3e e09d 00be
00000070: c85c 363c 1f1b f7bd 4c45 5f3d 025c 79bd
00000080: c2cf a63d 7930 bc3b 7158 be3e f94e e9bd
00000090: e621 10bf 7d61 a7be df30 2c3e 7be5 913e
000000a0: 5e00 a53e dfcc 7fbe 76cd 82be 822b 11be
000000b0: 8a05 11be f93e 933e 6122 ca3e 2e6a 833e
000000c0: a5c5 00be d1e1 d0bd e589 233e 9571 03be
000000d0: 0351 fc3d 5466 e2bd a0a7 183e 539d 0abd
000000e0: 2a0c 36bd 95a7 a8bd 4e13 193d 1f9c 38bd
000000f0: d9cc d73d 021e f63d 3945 03be eb47 c1bd
00000100: 3f2f 2e3e bba1 ccbd 70c0 a5bd 8363 c3be
00000110: 45f6 5cbf 45e6 b43d e48c 9cbd 983d adbe
00000120: 1843 9a3d 2fe0 99be 54ab ccbd 13de 15be
00000130: 4342 a1be a717 4abe 722d df3e 8055 e63d
00000140: 0987 68bc b891 35be 4d82 29be 0e2b 70bd
00000150: 210c 5bbd 7381 d9bd 3961 15be 9fa4 02be
00000160: 1b64 07bc 976e 05bd b4b3 48bc 0254 f5bd
00000170: 6880 f8bd c936 d3bd 8dd9 77bd 07e0 0ebe
00000180: 2926 243e c135 4a3e 3cc8 0a3e 3027 df3d
00000190: fb97 c0be be93 f0bc 1b10 e6bd bda6 82be
000001a0: 7b9b 85bd 00f2 62be 9f04 7a3e 9deb 6c3d
000001b0: 0da1 a3bd a4c5 23be 9155 bf3d 643e 6abe
000001c0: 441f 0bbc 2085 a03d 0a88 6ebd d5ed d93d
000001d0: 8c1d 183e e43d e2bd 9a43 e73d 41a1 cfbd
000001e0: d0e1 aabc 4298 0cbe 0ee2 243e f6db 04be
000001f0: f57d c13d 2e78 7e3d 114b 6b3d 1ebc c3bd
00000200: 9584 8a3e a771 2f3e cf77 4abe 2065 99be
00000210: 7647 263f a865 233e fe7e b4bd e3a9 7e3e
00000220: f482 133d 865d a2bc 33e8 cabd 5c8f 263c
00000230: 0f4c 33bd 4cd3 04be da4f 46be 4329 0fbe
00000240: 2773 7bbd 31d6 13be 8286 3a3e 5a8e bfbd
00000250: e83a 87bd a068 4b3d 7c6f b3ba e1ad 743b
00000260: 9ab3 e13c 09ee bf3c 4960 873d c678 febc
00000270: 91bc 3fbd c7ec 9a3c 8dd2 ffbc 9bc6 57bd
00000280: a2c0 013e 3a08 5b3e 0395 e2be 2f52 373a
00000290: 26db ae3d 134f 933d 6f97 1fbc 79b2 0dbe
000002a0: 33e0 a3be abb7 d7bc c9aa d63d 0b81 453e
000002b0: f7df a0be 290e 9dbe 576f 2dbe 44d9 84be
000002c0: a5dd 983d 9566 a03d 78bc 8b3e d6eb 103e
000002d0: 1eed b6be 8473 7ebd 5c50 84be 1d10 433e
000002e0: 07c5 41bc b322 7cbe eac7 953d d3e4 89bd
000002f0: e254 eabd ab1f 043e a09e a4bd 4727 11bd
00000300: 91ea 55be 4ac3 3d3e cea3 c53b 0579 1a3e
00000310: da2e 523e ff37 d0be e3db cabd 3356 1c3d
00000320: 2236 5ebd 71aa fe3d 8880 cbbc d97b 9b3d
00000330: 24bb 2bbe 3e05 89be c2fa bebe 3eb4 20be
00000340: 7021 393e 36f9 e3bd 8e98 c2bb c415 563c
00000350: dece 09bd 9da7 bdbc eb1e a0be efd1 4c3d
00000360: 1339 a3bd b330 263e 554a 68bd 34ca 04be
00000370: c782 ffbc 4f7f afbd 7e86 5dbd 6154 2cbe
00000380: b696 e53d e760 14be 4826 f33d 3b65 943d
00000390: 4bc6 a53e d8ce acbd 1f4c 273e 8a51 49bd
000003a0: 05fb d53d 1e37 2c3e c63f 80be 8a12 69be
000003b0: 8f52 823c a5c2 adbe a312 e5bd f06f 9dbe
000003c0: 57f3 173e a85d 843d 0bd8 2c3e 3930 86bd
000003d0: b11a 3abe 037c 583d 07e4 4f3c 36ed 71be
000003e0: 27c5 18bc 1de3 8ebe 7152 7dbc 4833 b2bd
000003f0: 5bfd 93bd 62dd 65bd fe05 2cbe 1987 143e

a2c_network.actor_mlp.0.bias f4 [256]
0.12623645 0.29485232 0.10167637 -0.31670022 -0.003207362 0.19766478 -0.14526922 -0.30171445
-0.010548544 -0.21798927 -0.12126542 -0.011787866 0.027501505 -0.060676005 0.089208506 -0.17032856
0.15343681 0.09197273 0.0673287 0.10294122 0.12939505 -0.20146695 -0.09237013 0.25693113
0.26738203 -0.091806084 -0.24698766 -0.34076262 -0.36275896 -0.17859925 -0.30499664 -0.07544948
-0.1428433 -0.1670358 -0.38169363 0.32996652 0.06138523 0.21613526 -0.11324283 -0.38241723
-0.016391715 -0.04449056 0.20459282 -0.09973808 -0.19543818 0.027371718 0.11502747 0.22298345
0.30080143 -0.12475374 -0.043177903 -0.12647621 -0.15305047 0.3731424 -0.051135853 0.24687691
-0.20343855 -0.03670792 0.21786816 0.37528634 0.17345496 0.16642669 0.30620918 -0.093733996
0.18672368 -0.5506932 -0.050547265 0.110893816 -0.053774577 0.19789538 -0.24434268 -0.08361303
0.39525577 0.0069536744 0.15584448 0.051155638 0.16197698 0.14625283 0.40824643 -0.16922686
-0.2568505 0.15918316 0.12787338 -0.07091197 0.10687748 0.25887632 0.13924941 0.027191065
0.07055611 0.008763154 0.2698205 0.09181656 -0.06923007 -0.12320348 0.45614263 0.12295708
0.078900024 -0.0043671504 0.08472386 -0.050173797 -0.03274847 -0.22867718 -0.15116073 -0.16089426
-0.2148248 0.20921409 -0.07099932 -0.4352143 0.3498593 -0.02143421 -0.034426212 -0.084236085
-0.06112429 -0.1854473 0.26672536 -0.40628338 0.25047287 0.23482603 0.14986578 0.20434406
-0.27922377 -0.22752185 -0.13473156 -0.020414425 0.10224908 0.4349053 0.3634994 -0.06027302
-0.1984825 0.0032004663 0.3540406 0.0066429046 0.24957038 0.022565242 -0.23376879 -0.21814008
-0.27972704 0.38173217 0.13246083 -0.027405024 0.09834214 0.12892012 -0.271842 -0.33641246
0.073135115 0.2166461 0.3576192 -0.12204095 -0.27546227 0.06561826 -0.15083411 0.12104967
0.33191863 0.2760949 -0.08011479 -0.013444418 0.08320918 -0.29781955 0.27796602 0.10157129
-0.2068452 0.26834336 0.25410938 -0.24780542 -0.16526043 -0.13130745 -0.37716147 -0.37470892
-0.04648507 -0.040231064 -0.05230332 0.21185601 -0.37527776 0.22143245 0.29105142 0.3610664
0.04873512 0.14353879 -0.075262666 -0.17216937 0.23086806 -0.24929819 0.23130947 -0.09801259
0.009981989 0.16503674 -0.16615151 0.35197398 -0.13539435 -0.09302901 -0.2122227 -0.07615913
0.112512924 -0.0053831236 -0.13451226 0.06218193 0.2400984 -0.026401225 0.1538268 -0.34495732
-0.009032797 -0.32433027 -0.14368875 0.2502366 0.23990455 -0.0955619 -0.068759926 0.19451521
-0.11180874 0.25302023 0.15290745 0.22976437 0.14190331 -0.13806677 0.19711208 -0.006332501
-0.13667426 -0.042668346 -0.03267654 0.083519466 -0.30040112 0.16787831 -0.1800614 -0.17801449
-0.061349098 0.045382306 0.0046558883 0.018564094 -0.16038038 -0.09399683 -0.2208029 0.24083434
0.057914507 -0.21759501 0.31536233 -0.023249276 -0.11776146 0.20238234 0.22050104 -0.1714053
-0.1263655 -0.23981337 0.21758007 -0.1564412 0.025122415 0.18505688 0.32642764 -0.18596031
0.31317037 -0.036476593 -0.07450178 0.09002851 -0.17894338 0.07874777 0.064456694 -0.18890749
00000000: 2144 013e e2f6 963e b33b d03d 8826 a2be
00000010: 9b32 52bb a368 4a3e 74c1 14be 517a 9abe
00000020: cdd3 2cbc 9438 5fbe 015a f8bd e521 41bc
00000030: d64a e13c 6787 78bd f3b2 b63d 9c6a 2ebe
00000040: 8a1e 1d3e 335c bc3d a1e3 893d d9d2 d23d
00000050: 2380 043e 5a4d 4ebe 8d2c bdbd 7a8c 833e
00000060: 4ce6 883e d404 bcbd 55ea 7cbe 7078 aebe
00000070: 8bbb b9be b9e2 36be 8528 9cbe 4285 9abd
00000080: 8445 12be 6f0b 2bbe 596d c3be 5ff1 a83e
00000090: 146f 7b3d 9052 5d3e dbeb e7bd 31cc c3be
000000a0: eb47 86bc bc3b 36bd c880 513e 7a43 ccbd
000000b0: f220 48be a73a e03c 8693 eb3d c655 643e
000000c0: a502 9a3e e47e ffbd 50db 30bd fb82 01be
000000d0: 43b9 1cbe 850c bf3e d473 51bd 4dcd 7c3e
000000e0: 3252 50be 0b5b 16bd d518 5f3e 8825 c03e
000000f0: 2d9e 313e c26b 2a3e 73c7 9c3e 9cf7 bfbd
00000100: 7e34 3f3e 3bfa 0cbf a60a 4fbd 4c1c e33d
00000110: bb42 5cbd 16a5 4a3e f834 7abe 4f3d abbd
00000120: f75e ca3e a6db e33b b295 1f3e 9388 513d
00000130: 4bdd 253e 4dc3 153e ad05 d13e ce49 2dbe
00000140: e981 83be e900 233e 3df1 023e 4c3a 91bd
00000150: 95e2 da3d 708b 843e 6697 0e3e ccbf de3c
00000160: b97f 903d 5593 0f3c ea25 8a3e 520a bc3d
00000170: 7fc8 8dbd 1b52 fcbd 878b e93e ecd0 fb3d
00000180: 5696 a13d 501a 8fbb b483 ad3d 0a83 4dbd
00000190: 4223 06bd 5a2a 6abe e1c9 1abe 77c1 24be
000001a0: 08fb 5bbe 383c 563e 1768 91bd 69d4 debe
000001b0: c220 b33e cc96 afbc 8002 0dbd f883 acbd
000001c0: 775d 7abd e6e5 3dbe 3a90 883e 6004 d0be
000001d0: fb3d 803e 3c76 703e 6a76 193e 923f 513e
000001e0: 6bf6 8ebe 7dfb 68be 12f7 09be 273c a7bc
000001f0: f767 d13d e8ab de3e 981c ba3e d8e0 76bd
00000200: ff3e 4bbe eabe 513b cf44 b53e b9ac d93b
00000210: 618f 7f3e beda b83c 1661 6fbe 1d60 5fbe
00000220: 6238 8fbe 6672 c33e d0a3 073e 8080 e0bc
00000230: 9b67 c93d a303 043e e02e 8bbe 413e acbe
00000240: ddc7 953d 7ad8 5d3e dd19 b73e 9bf0 f9bd
00000250: 6409 8dbe de62 863d 4274 1abe e4e8 f73d
00000260: 3df1 a93e 505c 8d3e 3913 a4bd fa45 5cbc
00000270: 9369 aa3d ce7b 98be 9051 8e3e 9c04 d03d
00000280: 3acf 53be 4d64 893e a01a 823e b4c0 7dbe
00000290: 083a 29be 7675 06be 4f1b c1be d9d9 bfbe
000002a0: 2167 3ebd 54c9 24bd 023c 56bd c8f0 583e
000002b0: 6824 c0be 30bf 623e b104 953e b2dd b83e
000002c0: 7a9e 473d d5fb 123e 5023 9abd 2b4d 30be
000002d0: ad68 6c3e 0648 7fbe 64dc 6c3e d3ba c8bd
000002e0: 7f8b 233c 64ff 283e 9f23 2abe ef35 b43e
000002f0: d1a4 0abe fe85 bebd e850 59be 51f9 9bbd
00000300: 2d6d e63d ea64 b0bb 95bd 09be 7bb2 7e3d
00000310: 5bdc 753e 6247 d8bc c684 1d3e 3f9e b0be
00000320: 4cfe 13bc 9e0e a6be 2523 13be 031f 803e
00000330: 8aa9 753e f5b5 c3bd 01d2 8cbd ff2e 473e
00000340: fbfb e4bd de8b 813e c593 1c3e 5a47 6b3e
00000350: 1a4f 113e 6061 0dbe c0d7 493e de80 cfbb
00000360: 56f4 0bbe 01c5 2ebd d6d7 05bd 410c ab3d
00000370: 2dce 99be 4be8 2b3e 0462 38be 6e49 36be
00000380: 3149 7bbd cce2 393d 6c90 983b ba13 983c
00000390: c13a 24be 6981 c0bd 281a 62be 479d 763e
000003a0: c337 6d3d 3ad1 5ebe 2c77 a13e 4475 bebc
000003b0: ec2c f1bd 513d 4f3e 06cb 613e df84 2fbe
000003c0: f565 01be a391 75be 4fcd 5e3e 1f32 20be
000003d0: 86cd cd3c 8d7f 3d3e 8621 a73e 616c 3ebe
000003e0: de57 a03e 7b68 15bd 6494 98bd de60 b83d
000003f0: ef3c 37be 8346 a13d df01 843d f770 41be

a2c_network.actor_mlp.2.weight f4 [128, 256]
-0.3374792 0.31494778 0.008282569 -0.12758139 -0.009157263 -0.27536526 -0.17687877 -0.048573043
0.006235418 0.03978285 -0.21071054 -0.012170866 -0.10128861 -0.021334007 -0.11841529 -0.2767475
-0.07210448 0.0007359215 -0.028689878 0.1066442 -0.13153458 -0.024274686 -0.1915925 0.089897454
-0.016162617 -0.031279538 -0.037470065 -0.18185584 0.219712 -0.08038124 0.106621996 -0.016189847
-0.0661157 -0.00035507075 -0.18530804 -0.2017909 -0.029150382 0.09825377 -0.07010061 0.10087157
0.124459855 0.051677104 -0.069255024 -0.1819972 0.051847894 -0.13790104 -0.2788944 -0.18336354
0.11912135 0.025359591 0.023897052 -0.22552149 0.05203044 -0.42575562 0.028098673 0.12861702
-0.09796522 -0.29201064 0.074336685 -0.15443556 0.163507 -0.24090217 -0.080316596 -0.06821493
-0.014488712 -0.12128275 -0.10702459 0.0025040833 -0.30006054 0.060379207 0.12089824 -0.15426959
-0.08337638 0.03593359 -0.20157412 -0.09489837 0.013667763 0.108097374 -0.008840375 0.016497103
-0.0070663113 0.01805757 0.12580103 -0.023119869 0.20563091 0.032610156 -0.0499825 -0.34238967
-0.08800742 -0.03578752 -0.09766564 -0.08477297 -0.292539 -0.21502064 -0.12141137 0.12272847
-0.15589583 0.07153364 -0.20468114 0.04310702 -0.20688158 0.16708015 0.0917153 0.12010814
0.096893884 -0.2783819 -0.063888304 0.06257372 0.08867263 0.070277385 -0.067213036 -0.026833251
-0.06626957 0.11643222 0.1503846 0.24541174 -0.040360246 0.09321938 0.09833693 0.01919824
-0.12648527 -0.12553382 0.027798073 0.0058631385 -0.121122986 -0.107932866 -0.114165515 0.06577508
-0.12340295 -0.047238786 0.12480356 -0.08141217 -0.032553945 -0.083472446 0.091068685 -0.018712142
-0.1728771 -0.069243014 0.038059115 0.056261323 -0.01491063 0.19736357 0.30180553 -0.033999037
0.08305095 0.044774767 0.0019023884 -0.007281467 0.06585653 -0.20045917 0.059970897 0.0970975
0.19746237 -0.067676984 -0.19873211 -0.05139153 -0.026470713 -0.144678 -0.06607155 -0.643414
-0.11747432 -0.27382326 -0.26850522 -0.14996603 -0.12340724 0.10410454 -0.13685736 -0.24696307
-0.07116665 -0.035597682 -0.10757439 -0.6403974 0.06268324 -0.10881628 -0.12303557 -0.14327903
-0.09854415 0.01687437 -0.09843325 -0.010130399 0.083268926 -0.15302996 -0.06306969 -0.08035778
-0.12690367 0.018749652 -0.05652395 -0.035367176 0.0041796206 0.06945587 0.19327942 -0.120718986
0.11437337 -0.07200366 -0.0019700306 0.0013147235 -0.060827643 0.06463491 -0.22720423 -0.014215249
-0.12599014 0.058315165 -0.031802997 -0.08881619 0.011757626 0.18017972 -0.1936787 -0.13816865
0.1465667 0.09728438 -0.3760671 -0.0303764 -0.005122321 0.16717589 -0.013722773 0.0015672588
0.055130202 -0.16501908 -0.17205879 -0.20883265 0.12799075 -0.24759437 -0.18781376 -0.088112764
-0.05424307 -0.21542576 0.038173668 -0.029016461 -0.095026724 -0.64151794 0.034580484 -0.17989677
-0.027629672 -0.20400123 -0.06860742 -0.1596455 0.14226703 -0.123983145 -0.059436675 -0.1470154
0.04683389 -0.008483584 -0.04061666 0.11542478 -0.09375897 -0.15369138 -0.040221564 -0.17270003
-0.15285432 -0.054330036 -0.0016378951 -0.27311882 -0.131805 -0.00864075 -0.034220956 -0.17978154
00000000: 13ca acbe d640 a13e 9db3 073c b2a4 02be
00000010: 5808 16bc adfc 8cbe b51f 35be 87f4 46bd
00000020: 7a52 cc3b 57f3 223d 81c4 57be 5068 47bc
00000030: 6770 cfbd a8c4 aebc b783 f2bd d9b1 8dbe
00000040: 83ab 93bd dbea 403a 0907 ebbc 4668 da3d
00000050: 00b1 06be b5db c6bc d330 44be 281c b83d
00000060: 7767 84bc f91e 00bd 367a 19bd 6b38 3abe
00000070: 2ffc 603e eb9e a4bd a25c da3d 92a0 84bc
00000080: ab67 87bd ca28 bab9 64c1 3dbe 46a2 4ebe
00000090: c8cc eebc 4639 c93d e990 8fbd c195 ce3d
000000a0: cfe4 fe3d 5fab 533d 94d5 8dbd 795d 3abe
000000b0: 755e 543d ee35 0dbe 3fcb 8ebe a7c3 3bbe
000000c0: e5f5 f33d ebbe cf3c c0c3 c33c 1bef 66be
000000d0: df1d 553d a4fc d9be 302f e63c 2eb4 033e
000000e0: fda1 c8bd 6b82 95be d53d 983d 5b24 1ebe
000000f0: 616e 273e 0faf 76be 077d a4bd 45b4 8bbd
00000100: 1062 6dbc 1763 f8bd b52f dbbd 8c1b 243b
00000110: 89a1 99be 3050 773d 7f99 f73d d9f8 1dbe
00000120: 3cc1 aabd 1a2f 133d 7269 4ebe 145a c2bd
00000130: c1ee 5f3c 2862 dd3d 38d7 10bc ef24 873c
00000140: 848c e7bb 78ed 933c fcd1 003e e165 bdbc
00000150: e990 523e 3a92 053d 73ba 4cbd b34d afbe
00000160: 3c3d b4bd ef95 12bd ec04 c8bd 739d adbd
00000170: acc7 95be 5f2e 5cbe 86a6 f8bd 1059 fb3d
00000180: 28a3 1fbe 3b80 923d ef97 51be fd90 303d
00000190: c4d8 53be 0f17 2b3e 3bd5 bb3d 42fb f53d
000001a0: 4d70 c63d 1388 8ebe dfd7 82bd a726 803d
000001b0: ff99 b53d 97ed 8f3d fda6 89bd 68d1 dbbc
000001c0: 57b8 87bd 0474 ee3d 6cfe 193e 374d 7b3e
000001d0: c950 25bd cde9 be3d df64 c93d a145 9d3c
000001e0: 5b85 01be f08b 00be c9b8 e33c 921f c03b
000001f0: 540f f8bd e80b ddbd 9ccf e9bd 16b5 863d
00000200: b0ba fcbd 757d 41bd 0299 ff3d 6cbb a6bd
00000210: 4957 05bd 9af3 aabd 3882 ba3d 354a 99bc
00000220: b206 31be 48cf 8dbd e0e3 1b3d 4672 663d
00000230: b74b 74bc ad19 4a3e 4186 9a3e 9342 0bbd
00000240: 9e16 aa3d bf65 373d 9059 f93a 5f99 eebb
00000250: cadf 863d 2b45 4dbe 0ba4 753d 0edb c63d
00000260: 9333 4a3e 3b9a 8abd 6e80 4bbe ed7f 52bd
00000270: 1cd9 d8bc 7826 14be 8550 87bd c8b6 24bf
00000280: 6096 f0bd 9032 8cbe 8479 89be b290 19be
00000290: efbc fcbd c334 d53d 5624 0cbe e3e3 7cbe
000002a0: d2bf 91bd e0ce 11bd f64f dcbd 16f1 23bf
000002b0: 1260 803d 12db debd 13fa fbbd bdb7 12be
000002c0: 84d1 c9bd 1e3c 8a3c 5f97 c9bd f9f9 25bc
000002d0: e688 aa3d e3b3 1cbe ae2a 81bd 9f92 a4bd
000002e0: 09f3 01be df98 993c a885 67bd 2cdd 10bd
000002f0: 33f5 883b e13e 8e3d 0aeb 453e 843b f7bd
00000300: 963c ea3d a876 93bd a11b 01bb cd52 ac3a
00000310: 6826 79bd 4f5f 843d 3aa8 68be 13e7 68bc
00000320: 8f03 01be e2db 6e3d dc43 02bd 43e5 b5bd
00000330: 0fa3 403c 0881 383e b653 46be 157c 0dbe
00000340: 9515 163e 083d c73d de8b c0be eed7 f8bc
00000350: 25d9 a7bb 2830 2b3e 7bd5 60bc 7b6c cd3a
00000360: 35d0 613d c3fa 28be 2e30 30be 3ad8 55be
00000370: 0210 033e 6189 7dbe 4052 40be 7774 b4bd
00000380: fb2d 5ebd 9298 5cbe fe5b 1c3d eeb3 edbc
00000390: 5f9d c2bd 853a 24bf 44a4 0d3d dc36 38be
000003a0: 9f57 e2bc b3e5 50be 0c82 8cbd 1c7a 23be
000003b0: 73ae 113e e0ea fdbd df73 73bd 348b 16be
000003c0: e5d4 3f3d bbfe 0abc a85d 26bd d463 ec3d
000003d0: b404 c0bd 4661 1dbe 5ebf 24bd 47d8 30be
000003e0: d885 1cbe 2c89 5ebd a4ae d6ba 3bd6 8bbe
000003f0: e4f7 06be ef91 0dbc 462b 0cbd a718 38be

a2c_network.actor_mlp.2.bias f4 [128]
-0.024285287 0.0074128085 0.2190894 0.03743244 0.23668501 -0.3085447 -0.15543471 -0.2518858
-0.41642845 0.052901067 -0.5149436 0.042462993 -0.16933684 -0.29898438 -0.2577461 -0.13228394
-0.026382562 -0.0550062 -0.09861948 -0.32744968 0.019487498 -0.062088523 -0.23465633 0.25465247
-0.20029408 -0.046956144 -0.18487296 -0.51315314 -0.19931181 0.016075946 0.059803333 -0.6889697
-0.22424988 -0.3748376 -0.308051 0.15142848 -0.28921616 -0.6367997 -0.1810937 -0.5176331
0.079892345 -0.11796782 -0.03668287 -0.3621481 -0.019779949 0.057378557 -0.28740624 0.0014343035
-0.1370922 0.055968467 -0.28602454 0.01773128 0.066461205 -0.046876546 0.117739625 -0.0625153
-0.22272506 -0.2302928 -0.17893216 -0.23996678 0.05728777 -0.15923537 -0.20338778 0.09133218
-0.120142065 0.11891874 -0.0018692043 -0.4871842 -0.0075092083 -0.2558376 0.109779455 -0.22869645
-0.4850469 -0.4424063 -0.0015320592 -0.0829316 -0.3057857 -0.31690037 -0.08453448 -0.23860346
-0.5642849 -0.24067385 0.098418355 0.03205279 -0.4532511 -0.45131138 -0.33019793 -0.26044092
-0.13431163 -0.34368345 -0.29457855 -0.095895454 -0.18649052 -0.1538659 -0.2666762 0.25782025
-0.06436003 0.001166379 -0.1308189 0.07755386 -0.34695202 -0.2670853 0.109440945 -0.030633695
-0.1949184 -0.2637333 -0.1322359 -0.0007841546 -0.34049395 -0.12952717 0.20809643 0.04538567
-0.17175457 -0.091086805 0.07159746 -0.35185626 -0.18616863 -0.49135238 0.09745463 -0.141191
-0.34523427 -0.22073102 -0.084332295 0.008422738 -0.18746851 0.039040696 -0.31394115 0.01592654
00000000: f0f1 c6bc 25e7 f23b f958 603e c252 193d
00000010: 8e5d 723e 92f9 9dbe 472a 1fbe 2df7 80be
00000020: 1c36 d5be caae 583d 58d3 03bf aded 2d3d
00000030: a366 2dbe 7b14 99be 4cf7 83be 7175 07be
00000040: 3e20 d8bc 2e4e 61bd 03f9 c9bd 7ca7 a7be
00000050: 3fa4 9f3c 8950 7ebd c049 70be cf61 823e
00000060: e419 4dbe 1655 40bd 564f 3dbe 015e 03bf
00000070: 6518 4cbe b4b1 833c 57f4 743d 5160 30bf
00000080: c3a1 65be b7ea bfbe dcb8 9dbe 1110 1b3e
00000090: 2414 94be 4e05 23bf a070 39be 9a83 04bf
000000a0: 999e a33d 1d99 f1bd c740 16bd 7a6b b9be
000000b0: 8f09 a2bc c705 6b3d e926 93be 3dff bb3a
000000c0: e661 0cbe 313f 653d cf71 92be 3041 913c
000000d0: d01c 883d 9f01 40bd 7921 f13d 0608 80bd
000000e0: 0a12 64be e0d1 6bbe fe39 37be dab9 75be
000000f0: 95a6 6a3d 990e 23be e344 50be 5e0c bb3d
00000100: 0b0d f6bd ab8b f33d 1700 f5ba 3570 f9be
00000110: ce0f f6bb 25fd 82be 0dd4 e03d 672f 6abe
00000120: 1158 f8be 1483 e2be 60cf c8ba 0bd8 a9bd
00000130: f18f 9cbe c440 a2be 6a20 adbd 7754 74be
00000140: fa74 10bf 3573 76be 908f c93d c949 033d
00000150: 8710 e8be 4912 e7be b40f a9be 8358 85be
00000160: fd88 09be 47f7 afbe 00d3 96be d664 c4bd
00000170: 5ff7 3ebe 068f 1dbe c889 88be 0401 843e
00000180: 31cf 83bd 2fe1 983a 64f5 05be 8fd4 9e3d
00000190: b2a3 b1be 68bf 88be 9322 e03d 84f3 fabc
000001a0: b098 47be 0d08 87be d968 07be b98f 4dba
000001b0: 3955 aebe c5a2 04be 3b17 553e 53e6 393d
000001c0: 6ee0 2fbe b88b babd b0a1 923d 8126 b4be
000001d0: fda2 3ebe 8a92 fbbe 4b96 c73d 6094 10be
000001e0: 8cc2 b0be 5007 62be 69b6 acbd 86ff 093c
000001f0: bff7 3fbe 23e9 1f3d e5bc a0be 6078 823c

a2c_network.actor_mlp.4.weight f4 [64, 128]
0.0041613663 -0.16853312 0.03478905 -0.11163952 -0.52203953 0.11138227 0.066893876 -0.033374477
0.15477449 0.07212096 0.05444777 0.11751919 -0.08960167 -0.10944325 -0.06835929 0.12498632
0.07785574 -0.135402 0.071296535 -0.030146863 -0.16562213 -0.09045803 0.04015173 0.028859276
0.13153768 -0.0411993 -0.053555466 0.10265788 -0.051886298 0.0043659457 -0.104187556 0.08844299
0.05513551 -0.033808246 -0.1716614 -0.08489334 0.02250164 0.028118914 -0.013097603 0.11065747
-0.017691642 0.01635625 0.038657043 0.03484404 -0.13091904 0.11418663 -0.08143864 -0.11685984
0.14810044 -0.07751991 -0.0543928 -0.24692035 0.03653661 0.037762042 -0.22543962 -0.29627183
0.11812635 0.13527812 0.11243908 0.1436867 0.10287171 0.025450591 0.027061788 0.0027261036
0.015051878 -0.18368211 0.04518995 0.14699113 -0.17015603 -0.04460096 -0.12842901 -0.10227601
0.17082237 -0.001978642 0.058847997 -0.0807207 0.03738641 0.08493421 -0.03975735 0.04426372
0.0020316257 0.055326726 -0.02208228 -0.03677833 0.08132356 0.086790726 0.0155899795 0.10650034
0.09710223 0.13104646 -0.009878842 -0.03718562 -0.035073005 -0.016758233 0.014654915 0.060282886
0.09361319 0.11856381 0.017616218 -0.2644703 0.07816573 0.1509494 -0.040345542 0.09144766
-0.13860372 0.10887941 -0.018274486 0.08434086 0.16357343 0.0055069244 0.11971741 0.0377277
0.10747912 -0.03866244 -0.07322176 -0.03994679 0.09099249 0.06548323 -0.08242436 -0.0058438773
0.011177626 -0.04304405 0.08740674 -0.08970348 -0.12057479 -0.13220058 -0.04620472 0.06947676
0.077488355 0.085648134 -0.07951423 0.07029117 -0.25937366 -0.2290873 0.008118673 0.0015079263
0.19176365 -0.04422105 -0.03230568 0.106103145 0.009500278 0.0055633355 -0.22949195 0.032490578
-0.017120654 -0.03364974 -0.02037803 -0.075379476 -0.14885955 0.054762196 0.047748517 0.037572864
-0.13771728 0.024079854 -0.07589055 -0.06077432 -0.09358491 0.0022724248 -0.06721499 0.05413173
0.025084032 0.0837872 -0.38980412 -0.005981391 -0.122066714 0.024495486 0.04579527 0.25859883
0.07880205 -0.14577638 0.23888294 0.1813001 -0.0811317 0.06105765 0.019031173 -0.3409067
-0.060471993 -0.08468728 0.089060105 -0.10760704 0.000677113 -0.07845866 0.14186682 -0.19759059
0.09806145 0.031475052 0.08633595 0.20899948 -0.084706426 -0.107856415 0.07237804 0.009040459
0.08273605 -0.13545713 -0.0017911626 0.1681664 -0.04653151 -0.09861648 0.0020824773 0.10624611
-0.14015025 0.012530756 0.039037514 0.020507155 0.08280071 0.17147884 -0.03142645 0.092533104
0.22771941 0.13569796 -0.002741962 0.013396898 0.05456308 0.10851276 -0.2479064 0.091851495
0.05384411 -0.122863725 -0.12246145 -0.12451215 0.045267917 -0.03659258 -0.070835285 -0.039143298
0.114210024 0.11394644 0.103869446 0.0875328 0.17025656 0.025974546 -0.09372271 0.050114106
0.12297368 -0.0663536 0.00016981084 0.03224656 0.07093851 -0.124101005 0.09475565 -0.038490392
-0.09266571 -0.047295433 -0.09080309 -0.15828593 -0.06948267 0.011183646 -0.3231115 -0.073907465
0.11085432 0.0480278 -0.021734308 -0.17393531 0.1706068 0.03204938 -0.043426085 0.09159677
00000000: 125c 883b f293 2cbe f77e 0e3d 43a3 e4bd
00000010: 62a4 05bf 631c e43d a8ff 883d adb3 08bd
00000020: 347d 1e3e 27b4 933d a004 5f3d e7ad f03d
00000030: 1581 b7bd c823 e0bd f5ff 8bbd d4f8 ff3d
00000040: d572 9f3d d2a6 0abe eb03 923d 8ef6 f6bc
00000050: d998 29be 0f42 b9bd 2476 243d 4a6a ec3c
00000060: d0b1 063e 99c0 28bd fa5c 5bbd 4b3e d23d
00000070: ba86 54bd 3510 8f3b 4960 d5bd 9921 b53d
00000080: c6d5 613d 847a 0abd 02c8 2fbe 8fdc adbd
00000090: 5c55 b83c a359 e63c 5497 56bc 62a0 e23d
000000a0: 10ee 90bc 8bfd 853c d956 1e3d a0b8 0e3d
000000b0: a40f 06be aeda e93d 4dc9 a6bd 3654 efbd
000000c0: a4a7 173e c2c2 9ebd fcca 5ebd b0d8 7cbe
000000d0: 6aa7 153d 5fac 1a3d a5d9 66be f1b0 97be
000000e0: 3aec f13d 5986 0a3e 7646 e63d 9b22 133e
000000f0: 67ae d23d c27d d03c afb0 dd3c 6ea8 323b
00000100: 279c 763c 2a17 3cbe 1919 393d d884 163e
00000110: 623d 2ebe 7faf 36bd e582 03be 1676 d1bd
00000120: 0fec 2e3e 1bac 01bb 990a 713d e550 a5bd
00000130: 7e22 193d fdf1 ad3d 9ad8 22bd e04d 353d
00000140: 0625 053b 479e 623d e6e5 b4bc e0a4 16bd
00000150: f78c a63d 56bf b13d 1d6d 7f3c da1c da3d
00000160: 89dd c63d 0b31 063e deda 21bc f34f 18bd
00000170: b6a8 0fbd 9048 89bc 2b1b 703c 30eb 763d
00000180: 46b8 bf3d 95d1 f23d e34f 903c a768 87be
00000190: 5b15 a03d 7b92 1a3e 5e41 25bd e948 bb3d
000001a0: 22ee 0dbe 2bfc de3d 60b4 95bc e7ba ac3d
000001b0: cb7f 273e 6e73 b43b 672e f53d 5c88 1a3d
000001c0: 031e dc3d 825c 1ebd 4af5 95bd 3f9f 23bd
000001d0: 455a ba3d 121c 863d 1ace a8bd ff7d bfbb
000001e0: 5d22 373c f54e 30bd 4e02 b33d 75b6 b7bd
000001f0: eaef f6bd 975f 07be 2941 3dbd d549 8e3d
00000200: 37b2 9e3d 4a68 af3d 5bd8 a2bd d1f4 8f3d
00000210: a0cc 84be dc95 6abe 2f04 053c 9ca5 c53a
00000220: b15d 443e 2221 35bd f652 04bd 9b4c d93d
00000230: 0ea7 1b3c a44c b63b f0ff 6abe d714 053d
00000240: 9d40 8cbc 4fd4 09bd d4ef a6bc 8e60 9abd
00000250: a36e 18be 534e 603d f393 433d 01e6 193d
00000260: c205 0dbe 1d43 c53c 816c 9bbd 7eee 78bd
00000270: 72a9 bfbd f6ec 143b 03a8 89bd 3cb9 5d3d
00000280: 077d cd3c a098 ab3d 6894 c7be 8bff c3bb
00000290: 1dfe f9bd c2aa c83c d293 3b3d 1167 843e
000002a0: f862 a13d 6746 15be bb9d 743e bca6 393e
000002b0: 6028 a6bd 9617 7a3d 43e7 9b3c 538b aebe
000002c0: 7bb1 77bd 8670 adbd 2565 b63d 1461 dcbd
000002d0: 4980 313a efae a0bd 8945 113e 3055 4abe
000002e0: 71d4 c83d fceb 003d e7d0 b03d f603 563e
000002f0: 907a adbd d3e3 dcbd f03a 943d 6f1e 143c
00000300: 8571 a93d 46b5 0abe 72c5 eaba d033 2c3e
00000310: d397 3ebd 70f7 c9bd 2c7a 083b 8f97 d93d
00000320: 8c83 0fbe cd4d 4d3c cde5 1f3d 9ffe a73c
00000330: 6b93 a93d 2698 2f3e 05b9 00bd ff81 bd3d
00000340: 472f 693e 68f4 0a3e 7db2 33bb aa7e 5b3c
00000350: 897d 5f3d f03b de3d 2ddb 7dbe a31c bc3d
00000360: a48b 5c3d fa9f fbbd 12cd fabd 3a00 ffbd
00000370: da6a 393d 1ae2 15bd 1712 91bd b954 20bd
00000380: f2e6 e93d c05c e93d 81b9 d43d 6644 b33d
00000390: bc57 2e3e 92c8 d43c b1f1 bfbd 7344 4d3d
000003a0: a0d9 fb3d 65e4 87bd 400f 3239 f814 043d
000003b0: 3648 913d ab28 febd 400f c23d 1aa8 1dbd
000003c0: 85c7 bdbd dbb8 41bd f8f6 b9bd b515 22be
000003d0: ee4c 8ebd 9c3b 373c df6e a5be cc5c 97bd
000003e0: 9707 e33d ccb8 443d 260c b2bc 191c 32be
000003f0: 8db3 2e3e 3646 033d 8ddf 31bd 1697 bb3d

a2c_network.actor_mlp.4.bias f4 [64]
-0.18248966 -0.025097493 -0.16521598 -0.22672331 -0.11827098 -0.056444164 -0.289046 -0.037337586
-0.36972672 -0.1022554 -0.15674262 -0.056938898 0.028040472 -0.106284685 -0.1934354 -0.41821316
-0.0072081843 -0.08346718 0.0035441397 -0.21443567 -0.10177965 -0.035848577 -0.30102757 -0.176538
-0.20835818 -0.23136191 -0.12606938 0.030507673 -0.2640442 -0.35469037 -0.11821718 0.027031217
-0.37093115 -0.16487871 -0.034269985 -0.053791758 0.11531164 -0.22534534 -0.17841671 -0.03183577
-0.110398374 0.13901936 -0.0011948434 -0.2987109 -0.1570421 -0.11336415 0.029928504 -0.14756095
-0.24102135 -0.02170859 -0.26904842 -0.29428735 -0.2921453 -0.22128761 0.01430195 -0.18309046
0.057179224 0.052137643 -0.17031443 -0.08583691 0.01887589 -0.14489664 -0.16549242 -0.041747082
00000000: 92de 3abe 4299 cdbc 612e 29be 282a 68be
00000010: 0e38 f2bd ff31 67bd d6fd 93be 4cef 18bd
00000020: d24c bdbe 476b d1bd 2381 20be c338 69bd
00000030: 22b5 e53c c9ab d9bd ee13 46be 0920 d6be
00000040: a232 ecbb d7f0 aabd cc44 683b 0695 5bbe
00000050: d971 d0bd f5d5 12bd 4920 9abe 61c6 34be
00000060: d95b 55be 23ea 6cbe 5518 01be 3aeb f93c
00000070: cd30 87be fa99 b5be d91b f2bd 9270 dd3c
00000080: b0ea bdbe f7d5 28be af5e 0cbd bf54 5cbd
00000090: 8228 ec3d eec0 66be dfb2 36be 3966 02bd
000000a0: 8b18 e2bd 175b 0e3e 4b9c 9cba a3f0 98be
000000b0: a5cf 20be 772b e8bd 9f2c f53c 381a 17be
000000c0: 4dce 76be 37d6 b1bc b7c0 89be d5ac 96be
000000d0: 1294 95be 3899 62be ba52 6a3c 117c 3bbe
000000e0: c334 6a3d 488e 553d e866 2ebe 43cb afbd
000000f0: 9ca1 9a3c c95f 14be d876 29be fdfe 2abd

a2c_network.value.weight f4 [1, 64]
-0.011830788 -0.017191881 0.06260401 -0.0858229 -0.058497444 0.047061432 -0.012248036 -0.09401451
-0.019121923 0.023497637 -0.24242449 0.021689747 -0.0572195 -0.0019919546 0.059588425 -0.015773179
-0.043197908 0.071520485 0.017881444 -0.0662838 0.1251669 0.45001307 -0.036901206 0.009312655
-0.08649077 -0.0030991368 0.0066484534 0.027513556 -0.2692088 -0.19745265 0.03181926 -0.048446536
0.018838732 -0.057296004 -0.029331986 -0.052626837 -0.092981555 -0.05157192 0.19324869 0.009627703
-0.009218311 0.61640614 0.005180326 -0.0064524654 -0.074222155 -0.055319052 -0.012770498 -0.036442358
0.044835247 0.023729358 0.027310127 -0.26092952 -0.038619045 0.12474337 -0.02870845 0.0073044696
0.08598263 -0.012147904 -0.02530746 -0.004979443 0.023590893 -0.0742522 -0.0013327246 -0.09991403
00000000: ecd5 41bc fdd5 8cbc 8836 803d ebc3 afbd
00000010: 049b 6fbd 7dc3 403d fdab 48bc ae8a c0bd
00000020: 94a5 9cbc 1e7e c03c 203e 78be b2ae b13c
00000030: ff5e 6abd 748b 02bb fe12 743d c136 81bc
00000040: 4af0 30bd 5579 923d 1b7c 923c cdbf 87bd
00000050: c02b 003e 1d68 e63e b825 17bd 1b94 183c
00000060: 1322 b1bd e31a 4bbb 45db d93b 1c64 e13c
00000070: bcd5 89be 0731 4abe ea54 023d e06f 46bd
00000080: af53 9a3c 37af 6abd a249 f0bc 3d8f 57bd
00000090: 1d6d bebd 143d 53bd fce2 453e 83bd 1d3c
000000a0: 6608 17bc cbcc 1d3f b9bf a93b 346f d3bb
000000b0: c901 98bd 3b96 62bd 5a3b 51bc 9544 15bd
000000c0: 2aa5 373d 1264 c23c 7db9 df3c 8e98 85be
000000d0: 012f 1ebd 7479 ff3d fc2d ebbc 555a ef3b
000000e0: a917 b03d 0108 47bc 9751 cfbc 982a a3bb
000000f0: b041 c13c 8a11 98bd d1ae aeba ba9f ccbd

a2c_network.mu.weight f4 [12, 64]
-0.12992983 -0.12476649 -0.23223805 -0.11434519 0.04928947 0.111468 -0.0054643746 0.027467022
-0.09767211 0.030268008 -0.052719947 0.035035174 0.12042321 -0.041410137 0.18012339 -0.0072190952
0.015514708 -0.10309793 0.12362562 -0.020143935 0.054437608 0.028325979 -0.09630966 0.07997808
-0.17305061 -0.1631497 -0.006821643 0.036391072 0.051904604 -0.13589953 -0.02106003 0.01087368
-0.1355295 -0.19281402 -0.12240116 0.098435506 0.002983523 -0.09851397 0.07515883 0.022386363
-0.051783584 -0.07913436 -0.042541932 -0.01871764 -0.023817418 -0.12457347 -0.027227333 -0.14850733
-0.11594862 0.13718683 -0.056809567 0.06823614 -0.13474363 -0.0018180527 -0.03770686 0.083807394
-0.11637875 0.043859895 -0.042158797 0.023237621 0.07632178 -0.065359205 0.007610916 -0.0147215985
-0.030161921 0.16680717 0.0673895 0.08377375 -0.052482415 0.051520552 -0.08682159 0.074048124
-0.09368595 -0.0111249285 0.04988932 0.068375595 0.052317522 -0.08661762 0.0134290885 0.07456668
0.021585992 0.032523513 0.08671716 0.05003086 0.027910778 -0.010755537 -0.026154142 0.017113073
-0.008600608 0.027205149 0.002043373 -0.02230929 0.013963096 0.11846208 -0.027908355 0.089979336
-0.084566295 -0.15634526 0.00614799 0.0745157 -0.033038817 -0.0147049455 -0.023044154 0.03330429
-0.11955129 0.01724385 0.003536162 0.07583264 -0.14968076 0.11016405 -0.0922021 0.03476127
-0.0057546864 0.28677905 0.07279456 0.07173858 -0.049516845 -0.15190527 0.0036398785 0.04124212
0.07529018 0.06399044 0.040783163 -0.04596675 0.05526831 0.123577766 0.022552492 -0.008955436
0.04817593 -0.037056077 0.027479686 0.03255315 -0.003699248 -0.006319884 0.057524234 -0.020971732
0.059084088 -0.013724065 -0.011038646 0.019891236 0.01219349 -0.016736647 -0.00027555166 0.09465968
-0.0068286126 0.022218335 -0.031368654 0.034565583 0.009322425 0.008701408 0.024994824 0.044595998
0.019558633 0.033797268 -0.00022650158 -0.03453321 0.019194433 0.025849564 0.02174959 -0.007583935
0.038728595 0.009431415 -0.011492609 0.0031697303 -0.0450918 0.060820106 -0.0022233233 -0.0014035775
-0.001246509 -0.02182078 -0.010174316 -0.0056374413 -0.0048864027 0.016877852 0.0048515233 -0.033542484
0.050770056 0.0021461775 0.003378728 0.024836445 0.065979764 0.031367928 0.017177181 0.075296
-0.021570373 -0.0071018436 0.054295212 0.0053250827 0.0010747823 0.012711497 -0.0011386389 -0.00042283564
0.18586776 -0.04089293 0.104461655 0.22042735 0.04347993 0.035535764 0.07129479 0.04180981
0.011097714 0.046500552 -0.053377494 0.07022946 -0.07220397 -0.015662469 -0.014085525 0.070378505
0.0943349 0.11102977 -0.013584982 0.17571187 -0.11574375 -0.03492402 0.075486064 -0.025019336
-0.11283669 0.046690233 -0.037564445 -0.1984935 -0.030822376 0.08152603 0.031803876 -0.035434537
0.043218367 -0.08106322 -0.09253496 0.0014765896 0.021627486 0.09882716 -0.05372179 -0.068706244
-0.06467575 -0.008629709 -0.00959384 -0.0019215051 -0.0143985 -0.011761293 -0.0062644053 0.04655945
0.07395951 0.115231596 0.20943502 -0.0042721946 0.1465471 0.10553368 0.1256037 -0.12418751
0.057543475 0.0056956015 -0.046285838 -0.0019960143 -0.014094129 -0.0912874 -0.0017627552 0.08314618
00000000: 530c 05be 9385 ffbd d0cf 6dbe d02d eabd
00000010: c1e3 493d 5649 e43d 7f0e b3bb 8502 e13c
00000020: 5108 c8bd 9df4 f73c dff0 57bd 0b81 0f3d
00000030: 72a0 f63d ad9d 29bd 4472 383e 298e ecbb
00000040: 6731 7e3c 0225 d3bd 6e2f fd3d e504 a5bc
00000050: f8f9 5e3d e20b e83c 003e c5bd 8ccb a33d
00000060: 2e34 31be b710 27be 1788 dfbb ce0e 153d
00000070: ec99 543d 3f29 0bbe 1686 acbc 8527 323c
00000080: 3fc8 0abe 0a71 45be 76ad fabd 8e98 c93d
00000090: 3687 433b b1c1 c9bd dfec 993d 9b63 b73c
000000a0: 061b 54bd 3211 a2bd 7340 2ebd bc55 99bc
000000b0: bf1c c3bc 6020 ffbd db0b dfbc 4e12 18be
000000c0: 7876 edbd b47a 0c3e 26b1 68bd 64bf 8b3d
000000d0: 3cfa 09be ba4b eeba 8272 1abd 36a3 ab3d
000000e0: fb57 eebd 6fa6 333d b4ae 2cbd d35c be3c
000000f0: 984e 9c3d 0cdb 85bd fe64 f93b dc32 71bc
00000100: 2216 f7bc 80cf 2a3e 8203 8a3d 9291 ab3d
00000110: cdf7 56bd 3707 533d 85cf b1bd 8ba6 973d
00000120: 6bde bfbd 5545 36bc be58 4c3d 8108 8c3d
00000130: e64a 563d 9464 b1bd ae05 5c3c 6ab6 983d
00000140: 1bd5 b03c 6037 053d c498 b13d 29ed 4c3d
00000150: 25a5 e43c fe37 30bc 3641 d6bc b730 8c3c
00000160: 91e9 0cbc 55dd de3c 1cea 053b f9c1 b6bc
00000170: 78c5 643c 3f9c f23d 10a0 e4bc 1647 b83d
00000180: 1831 adbd f918 20be 1475 c93b b09b 983d
00000190: b653 07bd 03ed 70bc 18c7 bcbc 146a 083d
000001a0: 4fd7 f4bd f942 8d3c f4be 673b 254e 9b3d
000001b0: ea45 19be b09d e13d 74d4 bcbd d561 0e3d
000001c0: cf91 bcbb b4d4 923e 5015 953d adeb 923d
000001d0: 2dd2 4abd 0e8d 1bbe 078b 6e3b 7fed 283d
000001e0: bd31 9a3d 6b0d 833d 3f0c 273d a147 3cbd
000001f0: 0661 623d 5716 fd3d 01c0 b83c d2b9 12bc
00000200: 2054 453d 1dc8 17bd 141d e13c 7456 053d
00000210: 156f 72bb 0817 cfbb 889e 6b3d e9cc abbc
00000220: 2802 723d e7da 60bc 70db 34bc f2f2 a23c
00000230: 34c7 473c 4b1b 89bc eb77 90b9 efdc c13d
00000240: 8ec2 dfbb 3a03 b63c 6b7c 00bd a494 0d3d
00000250: 16bd 183c 5a90 0e3c f2c1 cc3c 4baa 363d
00000260: 6d39 a03c 016f 0a3d 0e81 6db9 b272 0dbd
00000270: a53d 9d3c 77c2 d33c 322c b23c a882 f8bb
00000280: e0a1 1e3d 3986 1a3c 7f4b 3cbc 40bb 4f3b
00000290: 2eb2 38bd 811e 793d 2db5 11bb 3ff8 b7ba
000002a0: e761 a3ba 7ec1 b2bc 2db2 26bc 49ba b8bb
000002b0: 1e1e a0bb 6c43 8a3c 87f9 9e3b d863 09bd
000002c0: 43f4 4f3d e2a6 0c3b a66d 5d3b cd75 cb3c
000002d0: 6620 873d a87b 003d 29b7 8c3c ca34 9a3d
000002e0: 5ab4 b0bc 95b6 e8bb a864 5e3d 087e ae3b
000002f0: b6df 8c3a e243 503c 623e 95ba 0ab0 ddb9
00000300: 1e54 3e3e 587f 27bd feef d53d b5b7 613e
00000310: 0318 323d f38d 113d 0103 923d c340 2b3d
00000320: 30d3 353c 5d77 3e3d 5ca2 5abd 77d4 8f3d
00000330: addf 93bd 944e 80bc f9c6 66bc 9b22 903d
00000340: a832 c13d 9363 e33d 8b93 5ebc d0ed 333e
00000350: 0f0b edbd 7d0c 0fbd 7098 9a3d 5af5 ccbc
00000360: ec16 e7bd 423e 3f3d 2ddd 19bd e141 4bbe
00000370: 357f fcbc 1ff7 a63d c844 023d ce23 11bd
00000380: be05 313d 7904 a6bd f882 bdbd 208a c13a
00000390: 202c b13c e565 ca3d 610b 5cbd dcb5 8cbd
000003a0: b874 84bd 9f63 0dbc 7b2f 1dbc 03db fbba
000003b0: b0e7 6bbc 70b2 40bc a445 cdbb 1fb5 3e3d
000003c0: 1578 973d 8bfe eb3d 2276 563e c4fd 8bbb
000003d0: 7110 163e 0b22 d83d 429e 003e 0556 febd
000003e0: b5b2 6b3d 2ba2 ba3b 3896 3dbd 90cf 02bb
000003f0: 10eb 66bc e3f4 babd 400c e7ba 8b48 aa3d

a2c_network.mu.bias f4 [12]
0.13141552 0.09800208 -0.28477582 -0.09818834 0.06398511 -0.0033937227 0.05545563 0.048530567
-0.022399094 0.0315705 0.05992807 -0.067756526
00000000: ca91 063e 51b5 c83d 23ce 91be f816 c9bd
00000010: a00a 833d 3869 5ebb 7125 633d fdc7 463d
00000020: 4e7e b7bc 1250 013d 2377 753d efc3 8abd

exp_avg f4 [12]
-0.029513171 -0.0031405222 -0.009771329 -0.020147588 0.0024855088 -0.02122085 -0.00012038097 0.017206352
-0.012197553 0.016499758 0.009390973 0.0058302544
00000000: 9bc5 f1bc 38d1 4dbb ed17 20bc 8e0c a5bc
00000010: ebe3 223b 59d7 adbc 0b75 fcb8 56f4 8c3c
00000020: 3fd8 47bc 802a 873c 98dc 193c b80b bf3b

exp_avg_sq f4 [12]
0.002805582 0.002885605 0.0042568073 0.0027177953 0.0039863368 0.005614316 0.0028608232 0.0028197507
0.002846453 0.0023943554 0.0045139273 0.0032643643
00000000: dbdd 373b 6b1c 3d3b b07c 8b3b 0a1d 323b
00000010: d19f 823b 4cf8 b73b a67c 3b3b 91cb 383b
00000020: 8f8b 3a3b 9eea 1c3b 91e9 933b f2ee 553b

exp_avg f4 [256, 32]
-0.05897479 0.01185934 0.0052096336 -0.046281412 -0.0036166804 0.0035643121 -0.024228694 -0.0020573998
0.00017375976 -0.0013352698 0.00034705078 0.0006053585 -0.00088978716 -0.00096497353 0.0001234909 -0.0224021
-0.013907205 -0.0020664118 0.0018838024 -0.04741536 0.038543057 -0.018270504 -0.022933746 0.022653215
0.06283409 0.008322283 0.0 0.0 0.0 0.0 0.0 0.0
0.05227771 -0.006083214 -0.004607583 0.03512265 0.001331479 -0.0017933717 0.023959884 0.0015461696
0.0005426682 0.00162195 3.9208247e-05 9.552505e-05 0.0001184941 0.0008855731 -0.00014804183 0.022673989
0.010354721 0.0018980387 -0.0014094393 0.043102216 -0.027323794 0.013619819 0.021225268 -0.022161793
-0.04904778 -0.0033471081 0.0 0.0 0.0 0.0 0.0 0.0
0.037729204 -0.0032431528 -0.0042457646 0.028906984 0.0007551129 -0.0014373433 0.019661035 0.0010266799
0.00046544638 0.0011800035 4.4417564e-05 0.00012318297 -3.7820086e-05 0.000575469 -7.033909e-05 0.015742997
0.009068997 0.0015995005 -0.0012873434 0.02991272 -0.018607745 0.0046791257 0.015736714 -0.011477489
-0.032047197 -0.0012255441 0.0 0.0 0.0 0.0 0.0 0.0
0.0046445713 -0.001411528 -0.00030251642 0.0055890135 -9.320803e-06 -0.00013106558 0.00275934 0.00011561098
0.0001765225 0.00022477256 6.705141e-05 0.0001133777 -0.00010222331 8.468875e-05 -5.189708e-06 0.0019623048
0.0015031503 0.00032830436 -0.00026483054 0.003935423 -0.004568421 0.0009446 0.0025951623 -0.0013650066
-0.0069148783 -0.00023821183 0.0 0.0 0.0 0.0 0.0 0.0
-0.0254881 0.0046431394 0.0026801182 -0.020681664 -0.0012909727 0.0013923302 -0.011192886 -0.0008792462
1.172653e-06 -0.0006329153 0.00011922859 0.00020419594 -0.00029963636 -0.00044424398 7.9497e-05 -0.010038092
-0.0069917045 -0.0010000659 0.00086539966 -0.021461004 0.01853868 -0.009081916 -0.010480023 0.0123630995
0.030475983 0.005574046 0.0 0.0 0.0 0.0 0.0 0.0
0.0015361629 0.001759292 -0.0002452407 0.00300423 -0.0012138962 0.00052327546 0.004498664 -0.00012277655
0.00050170545 0.00032000648 0.00020894704 0.0003838508 -0.0004700562 -1.0462964e-05 5.0222454e-05 0.000645646
0.00033754043 0.00030232006 -0.0003080269 0.0021405753 0.0006776044 -0.008100388 0.0012836559 0.007427558
0.002286993 7.259206e-05 0.0 0.0 0.0 0.0 0.0 0.0
-0.0096625155 8.685139e-06 0.0013185997 -0.0059625073 -0.00040496903 0.00041199077 -0.0051336763 -0.00031391685
-5.8659858e-05 -0.00029187632 8.659063e-06 -1.3350134e-05 -7.4664895e-05 -0.00017776198 5.7327958e-05 -0.004495273
-0.0024856473 -0.0003478946 0.00026437594 -0.008314952 0.008044019 -0.0033431952 -0.0057112933 0.0066233426
0.014066304 0.0028750263 0.0 0.0 0.0 0.0 0.0 0.0
-0.009466609 0.00013462297 0.0009924343 -0.0035349084 -0.0005721215 0.00024070547 -0.0059477114 -0.00019843772
-0.00018103437 -0.00030803634 -3.8481692e-05 -5.55663e-05 8.880263e-05 -0.0001565394 6.9700414e-05 -0.0039431737
-0.0018068021 -0.00040017953 6.430058e-05 -0.008363119 0.00094933563 0.00084036856 -0.0032972766 0.003256093
0.005158239 -0.0012231298 0.0 0.0 0.0 0.0 0.0 0.0
00000000: 8d8f 71bd ad4d 423c 93b5 aa3b 9491 3dbd
00000010: d405 6dbb 3c97 693b 417b c6bc 71d5 06bb
00000020: 4833 3639 3804 afba 5ef4 b539 ecb0 1e3a
00000030: 9b40 69ba 47f6 7cba 567d 0139 9c84 b7bc
00000040: 0cdb 63bc a36c 07bb ebe9 f63a 9c36 42bd
00000050: 53df 1d3d 06ac 95bc 8ddf bbbc 3c93 b93c
00000060: 29af 803d 2f5a 083c 0000 0000 0000 0000
00000070: 0000 0000 0000 0000 0000 0000 0000 0000
00000080: 2721 563d b355 c7bb 35fb 96bb c5dc 0f3d
00000090: 0685 ae3a 920f ebba 8547 c43c d8a8 ca3a
000000a0: d941 0e3a 9c97 d43a 8973 2438 9f54 c838
000000b0: 0980 f838 ce25 683a ad3b 1bb9 cdbe b93c
000000c0: d9a6 293c 9cc7 f83a efbc b8ba f38b 303d
000000d0: 26d6 dfbc a925 5f3c 9de0 ad3c a68c b5bc
000000e0: 53e6 48bd 285b 5bbb 0000 0000 0000 0000
000000f0: 0000 0000 0000 0000 0000 0000 0000 0000
00000100: f089 1a3d 138b 54bb 0e20 8bbb 57ce ec3c
00000110: c5f2 453a 3d65 bcba 2e10 a13c a991 863a
00000120: 2807 f439 59aa 9a3a ff4c 3a38 ad2a 0139
00000130: 02a1 1eb8 12db 163a 0383 93b8 75f7 803c
00000140: 2196 143c 55a6 d13a 14bc a8ba 850b f53c
00000150: 456f 98bc 5a53 993b 48ea 803c 140c 3cbc
00000160: ec43 03bd 70a2 a0ba 0000 0000 0000 0000
00000170: 0000 0000 0000 0000 0000 0000 0000 0000
00000180: 7d31 983b 0503 b9ba 119b 9eb9 0b24 b73b
00000190: 8b60 1cb7 a66e 09b9 0bd6 343b 2c74 f238
000001a0: e618 3939 edb0 6b39 f49d 8c38 30c5 ed38
000001b0: b960 d6b8 ed9a b138 4123 aeb6 039a 003b
000001c0: 5b05 c53a 4420 ac39 f4d8 8ab9 b9f4 803b
000001d0: b1b2 95bb 089f 773a 9913 2a3b 05ea b2ba
000001e0: 3496 e2bb 80c8 79b9 0000 0000 0000 0000
000001f0: 0000 0000 0000 0000 0000 0000 0000 0000
00000200: 6bcc d0bc 7a25 983b eca4 2f3b 986c a9bc
00000210: db35 a9ba d97e b63a 5e62 37bc 377d 66ba
00000220: 0d64 9d35 3aea 25ba 5d0a fa38 6e1d 5639
00000230: 8318 9db9 6be9 e8b9 a0b7 a638 cf76 24bc
00000240: ab1a e5bb a514 83ba fddb 623a fdce afbc
00000250: 6ede 973c 51cc 14bc 67b4 2bbc 998e 4a3c
00000260: c5a8 f93c 7da6 b63b 0000 0000 0000 0000
00000270: 0000 0000 0000 0000 0000 0000 0000 0000
00000280: 1359 c93a 0b98 e63a a693 80b9 9ee2 443b
00000290: 991b 9fba 6c2c 093a 8769 933b 94bd 00b9
000002a0: e284 033a 8bc6 a739 cb18 5b39 953f c939
000002b0: e071 f6b9 178a 2fb7 f3a5 5238 9240 293a
000002c0: e9f7 b039 b680 9e39 ac7e a1b9 e548 0c3b
000002d0: 43a1 313a 7db7 04bc 5840 a83a df62 f33b
000002e0: 60e1 153b 913c 9838 0000 0000 0000 0000
000002f0: 0000 0000 0000 0000 0000 0000 0000 0000
00000300: 874f 1ebc 63b6 1137 ddd4 ac3a 2361 c3bb
00000310: 0652 d4b9 7700 d839 6638 a8bb 3595 a4b9
00000320: 8b09 76b8 fa06 99b9 6446 1137 64fa 5fb7
00000330: 6995 9cb8 9e65 3ab9 6d73 7038 154d 93bb
00000340: 3ee6 22bb 9f65 b6b9 f09b 8a39 703b 08bc
00000350: 10cb 033c 8219 5bbb cd25 bbbb a008 d93b
00000360: 5b76 663c f06a 3c3b 0000 0000 0000 0000
00000370: 0000 0000 0000 0000 0000 0000 0000 0000
00000380: d619 1bbc 9429 0d39 9214 823a eca9 67bb
00000390: 6dfa 15ba e265 7c39 05e5 c2bb b813 50b9
000003a0: 0bd4 3db9 f07f a1b9 6767 21b8 dc0f 69b8
000003b0: 8d3b ba38 ba24 24b9 202c 9238 bd35 81bb
000003c0: 38d2 ecba 30cf d1b9 1cd9 8638 7705 09bc
000003d0: d6dc 783a 2e4c 5c3a 1f17 58bb 2d64 553b
000003e0: 7206 a93b 6d51 a0ba 0000 0000 0000 0000
000003f0: 0000 0000 0000 0000 0000 0000 0000 0000
