omniisaacgymenvs/runs/WEE/nn/last_WEE_ep_2000_rew__878.09625_.pth (torch, 623622 bytes, 36 tensors)

value_mean_std.running_mean f8 [1]
00000000: 5907 f988 5907 0440
2.5035887433049706

value_mean_std.running_var f8 [1]
00000000: 6253 10d5 6e1f b840
6175.432938595159

value_mean_std.count f8 []
00000000: 0000 0001 0040 bf41
524288001.0

running_mean_std.running_mean f8 [32]
00000000: 26ef 925a 7f0f 68bf e046 7cd9 edee 7c3f
00000010: 19f3 cc2f 1c35 de3f 1374 dba5 5dc4 983f
00000020: bb82 d286 93f5 893f 47c7 6963 084a 7dbf
00000030: 7aed 45a8 3744 da3f ac4b b373 3292 9e3f
00000040: 1e75 6e8d a14c 813f fc10 08db 4ea7 9c3f
00000050: 7312 4b30 fbb4 693f bbd0 4243 2dd6 43bf
00000060: 6154 a0a9 fa3e a83f 1f9b 442f 7ee9 e5be
00000070: 50d9 9e8a 7cef f4be afc4 540b c25c db3f
00000080: b256 1f9c 73bb de3f ccd4 5a67 5372 2abf
00000090: a2a6 b952 2120 213f 199d 67b7 1db4 d1bf
000000a0: 12aa 1159 a6c8 6b3f 70ad c90e 5bba 6b3f
000000b0: be97 5a29 85c8 7cbf aeac 9df6 5e57 ccbf
000000c0: ab62 f997 cfb0 cc3f a286 2d17 f17b 92bf
000000d0: 0000 0000 0000 0000 0000 0000 0000 0000
000000e0: 0000 0000 0000 0000 0000 0000 0000 0000
000000f0: 0000 0000 0000 0000 0000 0000 0000 0000
-0.002937077272319305 0.007063798045935349 0.47199158351922815 0.024186576126215508 0.012675430824232383 -0.007150681273388865 0.4104136603634384 0.029854572593489045
0.008446943405767512 0.02798197948324431 0.0031380563762886614 -0.0006053658494438377 0.047355492788633276 -1.0448494756132958e-05 -1.9965643026609054e-05 0.4275364981322793
0.4801911377556777 -0.00020177143203673473 0.00013065726067234157 -0.2766184130727694 0.0033915757162976757 0.003384759757229787 -0.007027168428669071 -0.22141634980957775
0.22414584084142083 -0.018050925292647187 0.0 0.0 0.0 0.0 0.0 0.0

running_mean_std.running_var f8 [32]
00000000: 1635 b487 ccef 673f e8ad 09fb 929d 563f
00000010: c4b4 6e88 8db0 513f ce06 6840 274e e53f
00000020: 6ba4 4201 23a2 803f 3417 dd4e 8b9d 973f
00000030: c622 aba4 a52e c13f 959a f75b ae3f e13f
00000040: 5fcc 9803 10d8 e13f 6693 8d08 b07f e03f
00000050: 414f e508 2033 6540 4415 eaa5 08cf 5940
00000060: 2d64 7016 0932 6340 438c 1c78 7f69 ca3e
00000070: 4f09 a7cc 241c d03e bed5 f3c9 3a02 f73e
00000080: fe17 3e1b 32c9 d03f 7ff7 e930 71cd 263f
00000090: a60f 342e 3671 2a3f f019 94fb 9089 db3f
000000a0: 7102 5860 f083 743f 3072 8bb2 321a 743f
000000b0: a031 9ade a7a7 673f e028 4d9a 18dd 2740
000000c0: c9ed a607 58eb 2b40 c714 c544 5044 1940
000000d0: 0939 e5d1 4d62 303e 0939 e5d1 4d62 303e
000000e0: 0939 e5d1 4d62 303e 0939 e5d1 4d62 303e
000000f0: 0939 e5d1 4d62 303e 0939 e5d1 4d62 303e
0.0029219622352970693 0.0013803420407850712 0.001079691138993242 0.6657902009903525 0.008121751285516695 0.023061920822576812 0.13423605480627127 0.5390235706552909
0.5576248235942208 0.5155868689586043 169.59766049181965 103.2349028383224 153.5636093325751 3.1485678285855217e-06 3.840908173238031e-06 2.194281534869334e-05
0.26228001270681023 0.00017396933295182532 0.0002017382276805455 0.4302713829823963 0.0050086393071074745 0.004907796894908986 0.0028875616743048865 11.931828329008965
13.959655989768082 6.316712450531845 3.814697251072773e-09 3.814697251072773e-09 3.814697251072773e-09 3.814697251072773e-09 3.814697251072773e-09 3.814697251072773e-09

running_mean_std.count f8 []
00000000: 0000 0002 0040 af41
262144001.0

a2c_network.sigma f4 [12]
00000000: 6718 e4bf 8566 ccbf a39a 39c0 655c a1bf
00000010: 765a a7bf f537 72c0 cec8 afbf 261b 70bf
00000020: e991 8abf 5bef 6ebf af7f bcbf eb6c 9ebf
-1.7819947 -1.5968786 -2.9000633 -1.2606322 -1.3074481 -3.7846653 -1.3733156 -0.93791425
-1.0825778 -0.9333398 -1.4726466 -1.2376989

a2c_network.actor_mlp.0.weight f4 [256, 32]
00000000: 2dcb 1f3e 93c4 903d 5464 4cbf 8260 403e
00000010: ba6a 173f a31d 1f40 390f 8a3d 96d2 42bd
00000020: 7290 47bd 5ff7 6dbe 5f60 b13e 501b 86be
00000030: 93b4 81be c66d eebd 0d58 d63b 92a2 25be
00000040: 7fd7 63be 26c5 8ebe dac6 89be e30b 27be
00000050: 15f9 fbbd cc2f e93d 19cd 6e3c edeb ef3d
00000060: 0e92 cb3d 1d7c 8bbc cfaa 0d3e e09d 00be
00000070: c85c 363c 1f1b f7bd 4c45 5f3d 025c 79bd
00000080: a8b2 9a3d b679 c33c 4429 0a3f 6c48 63be
00000090: 049e 2ebf 8323 bcbf 8d7c 493e 741d aa3e
000000a0: 52c4 fe3e df20 56be 6dbd 2bbf b500 183e
000000b0: 2240 8c3e a750 ca3e 59ae bcbd b728 9e3e
000000c0: a934 b3bd d1f8 f5bd de81 92ba 2092 f2bd
000000d0: 69e5 0c3e f8ee afbd b93a 203e 5a2a 69bd
000000e0: 83bf 86bd 2c62 0c3d 4e13 193d 1f9c 38bd
000000f0: d9cc d73d 021e f63d 3945 03be eb47 c1bd
00000100: aece 163e 6b7d d7bd a8e7 d7be cf54 dabe
00000110: d310 a7bf d56b 86bf 3884 b4bd 8e95 08bf
00000120: b349 4b3e a1fb 7dbe febb a53e aa07 1bbf
00000130: 905f 01bf e276 a8be 7993 703f 0446 d53d
00000140: 1874 39bd 5a4f 6cbe 514a 7cbe f23f 35bd
00000150: c6a0 a0bc 2ad8 f8bd f7c2 a1bd f192 13be
00000160: d575 a13c 2ba4 54bd b4b3 48bc 0254 f5bd
00000170: 6880 f8bd c936 d3bd 8dd9 77bd 07e0 0ebe
00000180: 7422 a43d 5306 a73e 6fe0 8bbe 712d b33d
00000190: f6e0 17bf c4c7 d03e 1dcc adbe c372 e0be
000001a0: bf17 c7be a30e 46be 71df 2a3f 3159 913f
000001b0: 2673 013e 0fe9 3ebe cf17 0cbf 94c1 a5be
000001c0: 35c9 0cbf 6eb9 84bd a58b 23be 2c72 4dbd
000001d0: be97 e93d d6e9 16be 26fe 8c3d 677a b2bd
000001e0: a813 6a3c 15be 6abd 0ee2 243e f6db 04be
000001f0: f57d c13d 2e78 7e3d 114b 6b3d 1ebc c3bd
00000200: b4f6 a03e a7c4 14be b34c 8fbe d576 92bc
00000210: d636 823f 913f eebd a6bb 94bd 955a 173e
00000220: ef00 c6bc d3b7 22bd ae91 9abe 8db1 8cbf
00000230: 5912 94be a54f bb3c 3ee3 233f 5305 67be
00000240: 776e b13d 7c81 36be a255 813e 2b39 38be
00000250: 9ff3 0fbd 7389 8ebd 9d2c 4cbd 5eed b43c
00000260: 78f9 60bc 844c 7abb 4960 873d c678 febc
00000270: 91bc 3fbd c7ec 9a3c 8dd2 ffbc 9bc6 57bd
00000280: d3ff 233e 1b45 7b3e bd56 74bf 3b40 a13d
00000290: 6602 2cbd 6f51 b0be 35dc 1dbd 1c51 d6be
000002a0: 11af d0be 693f 19bd dde5 943e 952e 68bf
000002b0: 8f53 36bf 6c3e dabe 7f54 ee3e b08a a1be
000002c0: 213d 20be 5e15 a93e 579b 34bd 6f24 2a3e
000002d0: c4de 6fbe 4a85 bb3d d7cf 04be a329 aa3d
000002e0: f809 bd3c cef8 12be eac7 953d d3e4 89bd
000002f0: e254 eabd ab1f 043e a09e a4bd 4727 11bd
00000300: 380e 32be c908 aa3e 7c76 363e 4da2 583d
00000310: 6d4a ff3e 4d6d 1cc0 8e42 dfbd f74e 0b3e
00000320: bbc8 153d 95e8 703d 703f 09bf e319 81bf
00000330: ef7e 8bbe dbea e7be 4da6 f23e 518d 01be
00000340: 7cf9 003f b907 a1be c1e6 d33d b151 d83d
00000350: 27f9 f03b 36b3 64bc 2c2a 75be e493 0abd
00000360: 5a07 ebbd bff8 8e3d 554a 68bd 34ca 04be
00000370: c782 ffbc 4f7f afbd 7e86 5dbd 6154 2cbe
00000380: c5c1 c23d 1dce 4bbe 3987 0e3e 736a 0b3d
00000390: 609d c23e 180a 743e 7f37 2e3e c0ce 043e
000003a0: a7a0 dd3c 3855 203d 61dd 96be d9fc 88bf
000003b0: 9216 98bc 58f1 c0be 9877 873e 40be babe
000003c0: 9cff 903e f1ac 3bbe 3156 883e 174d 20be
000003d0: 3368 09be 23b3 f93d 7007 a3bd a77d 6fbe
000003e0: c493 603d 3b21 07be 7152 7dbc 4833 b2bd
000003f0: 5bfd 93bd 62dd 65bd fe05 2cbe 1987 143e
0.15604849 0.070687436 -0.7984059 0.18786815 0.59147227 2.486184 0.06741185 -0.04756411
-0.04872174 -0.23238896 0.34643838 -0.26192713 -0.2533308 -0.11642031 0.006541258 -0.16175297
-0.22250174 -0.27884787 -0.26909524 -0.16313128 -0.12303368 0.1138607 0.014575266 0.11714921
0.09939967 -0.017026955 0.1383469 -0.12560225 0.011130519 -0.1206572 0.054509446 -0.06087876
0.07553607 0.023861747 0.53969216 -0.22195596 -0.6820986 -1.4698337 0.19676419 0.33225596
0.49759156 -0.20910977 -0.67085916 0.1484402 0.2739268 0.39514658 -0.09212942 0.30890438
-0.087502785 -0.120103486 -0.001117762 -0.118442774 0.13759388 -0.085905015 0.15647401 -0.056925155
-0.06579497 0.03427331 0.037371926 -0.045070764 0.105371185 0.12017442 -0.12819375 -0.094375454
0.1472728 -0.105219685 -0.42168927 -0.4264283 -1.3052009 -1.0501658 -0.08814281 -0.533532
0.19852333 -0.2480302 0.3236999 -0.6055857 -0.5053644 -0.329032 0.93975025 0.10413745
-0.04527673 -0.23077145 -0.24637724 -0.044250436 -0.019607913 -0.12150605 -0.07898515 -0.14411522
0.019709507 -0.051914375 -0.012249876 -0.11978914 -0.121338665 -0.10313184 -0.060510207 -0.13952647
0.08014384 0.32622012 -0.27319667 0.08748902 -0.5932764 0.4077741 -0.3394479 -0.43837556
-0.38885304 -0.19341521 0.66747195 1.1355344 0.12641582 -0.18643592 -0.5472383 -0.3237425
-0.5499452 -0.064806804 -0.15971239 -0.05015771 0.11405896 -0.14737639 0.068844125 -0.08714753
0.014286913 -0.057310183 0.16101858 -0.12974533 0.094478525 0.06212633 0.057444636 -0.09557365
0.3143822 -0.14528142 -0.27988204 -0.01787893 1.0172985 -0.11633218 -0.072623536 0.14780648
-0.024170367 -0.03972609 -0.3018927 -1.0991684 -0.28920248 0.022865126 0.6401862 -0.22560625
0.086636476 -0.17822832 0.25260645 -0.17990558 -0.035144445 -0.0695981 -0.049847234 0.022085842
-0.013731353 -0.003819258 0.06610162 -0.031063449 -0.04681069 0.018911732 -0.031228328 -0.05267964
0.16015558 0.2453808 -0.9544485 0.07873579 -0.041994475 -0.3443713 -0.038540084 -0.41858757
-0.40758565 -0.03741399 0.29081622 -0.9069608 -0.7122125 -0.4262575 0.4654884 -0.31551123
-0.15648319 0.33024114 -0.044093456 0.16615461 -0.23424822 0.09156282 -0.1296991 0.08308723
0.023076043 -0.14352724 0.07313521 -0.06733098 -0.11441971 0.12902705 -0.08038068 -0.03543785
-0.17388237 0.33209828 0.17818636 0.052889157 0.4986147 -2.4441712 -0.10901366 0.13604341
0.036568385 0.058815558 -0.5361242 -1.0086025 -0.2724528 -0.45296368 0.47392502 -0.12651564
0.5038068 -0.31451204 0.10346747 0.105624564 0.00735392 -0.013958743 -0.23941869 -0.033832446
-0.114760116 0.06981038 -0.056711514 -0.1296776 -0.03119029 -0.08569204 -0.05408334 -0.16829063
0.09509615 -0.19902845 0.13918771 0.034037065 0.38010693 0.23831975 0.17013358 0.12969494
0.027054144 0.03914377 -0.29465774 -1.0702163 -0.01856545 -0.3768413 0.2645843 -0.36473274
0.28320014 -0.1832769 0.2662826 -0.15654407 -0.13418655 0.12192371 -0.07960403 -0.23387776
0.05482842 -0.1319627 -0.01546155 -0.08701187 -0.07226058 -0.05611933 -0.16799161 0.1450466

a2c_network.actor_mlp.0.bias f4 [256]
00000000: 5b2e 2a3e 7470 a03e d264 b43d 1be7 99be
00000010: 3054 633d 2e93 4e3e 2d21 5dbe 40d9 a5be
00000020: 8faf 21bd 4936 8ebe 444f a3bd cc11 58bb
00000030: 3a91 f43b f0a8 06be a039 f53d 19e6 10be
00000040: 91c8 003e 7502 323e f4c0 593d 258c e63d
00000050: 9682 2f3e 67ca 97be 23df 23be 3cb3 8f3e
00000060: f026 b03e bbd7 28be 59a5 2fbe 6183 c7be
00000070: 7903 adbe a265 17be e8d3 b6be 73e8 9dbd
00000080: bbcf 20be 0863 70be 89a1 c8be e4f5 963e
00000090: 5fd6 673c 9616 053e 4631 53be eb23 b0be
000000a0: c124 0b3d b8ff f0bd 4ba9 ac3e 2799 0ebe
000000b0: c8fb 4bbe 752b aa3d 36da 15bd 9c60 1d3e
000000c0: e515 913e 0591 d9bd acef edbd bd70 3fbe
000000d0: 1bd7 23be cc10 9f3e 191c 11be e73d 843e
000000e0: e6c4 8ebe 104d debc e64a 203e dcb1 6e3e
000000f0: dd6f 363e 9bdb 4d3e 5e9e b43e 7c79 19be
00000100: 690b df3d 2f5a 10bf 3bd1 ca3d 88f6 a53c
00000110: a6e2 18be 3d92 4e3e 39dc 52be 1103 00be
00000120: 5dc4 cc3e a215 6fbc af81 e13d 6c99 093e
00000130: f253 0a3e a9eb 6d3e 34db 0b3f 3c2b 35be
00000140: 4edd 3ebe b485 7e3e ee70 c63d 3ca1 a5bd
00000150: 0739 123e e012 e13e 420a f23d 6c9b 22bd
00000160: 3f0d 113e bd6a 9bbd 3ae5 1f3e 72aa 163e
00000170: 09d2 16be 9941 90be 3e14 e63e 43d9 c13d
00000180: add0 083d 52fd 03bc d261 c03c d343 81bd
00000190: 4e13 12be 9a00 42be 158f aebd 9b10 61be
000001a0: 725f a0be a514 143e 00df 33bd 5821 fabe
000001b0: 33a8 cc3e b912 663c 5ed6 92bd 6e7f 42be
000001c0: 8ac3 07be 2fb4 d5bd ff04 8d3e cec3 b3be
000001d0: 9d6b 8f3e fa53 863e 932b 1b3e 7a64 573e
000001e0: 925d 48be 653f 78be bd8d 49be 91bb d7bd
000001f0: 9205 483e 6c10 ea3e 7926 a63e 8f3d c5bc
00000200: dfdd 64be 61c3 f63d 53cc ce3e 6cc8 b2bd
00000210: 1653 a33e 2c35 4f3d fb2b 8fbe c576 70be
00000220: 745c b6be e695 c13e 64e9 c83d c528 1cbb
00000230: d1be 203e e291 d83d 489b 2bbe 4480 a4be
00000240: c49b 9f3d 94ec 943e c3b2 c83e 5ab2 093d
00000250: 3220 88be 2d2f 173e 45bc 2abe dfb8 5f3d
00000260: 7344 ad3e 6bb6 5e3e 87f1 86bc cc29 bb3c
00000270: bc5b 963d e29a 8dbe 9d40 643e 8d32 553d
00000280: 67f4 35be 6968 6e3e 540f 923e 87c8 6dbe
00000290: 5bfb 1abe e6db 30be 34b1 c2be 3e33 cfbe
000002a0: c81b 113d 3fea c9bd 1624 c4bd b5c6 323e
000002b0: b33a e6be 6a27 273e 0559 b43e badc b43e
000002c0: 452e 923d 2c2b 213e b017 88bd 8510 a1be
000002d0: 7fff 683e a114 79be 0e82 573e f472 07be
000002e0: 9f9f 0f3e c5ca 403e a114 e1bd 2ddf bc3e
000002f0: 7ca8 4abe 7c5d 41be 8f1b 7abe a05c 9abd
00000300: db6c 233e 8deb 5abd 5caf 54be 5625 c53b
00000310: 3261 363e 26d3 d73c 822d 373e f1d0 c4be
00000320: c160 023b ac49 b7be 6c1e 47be 4e2b 5b3e
00000330: 6983 b13e 4569 17be 5173 d9bc 39f8 a03e
00000340: 60e1 d3bd e407 0a3e 46dd 613e 9469 843e
00000350: 4873 c43d 3c8a 25bd ddb9 733e 708c 123d
00000360: 7c05 cabd c27f dbbd 11b8 75bd 2d1c 623e
00000370: d221 8ebe 0c58 2d3e 9d8c 81be de84 5dbe
00000380: 0e41 10be cc00 fc3d 9c2a 8d3a b69d 0e3d
00000390: ced0 7bbe 8b41 3bbe 9216 59be 548a a63e
000003a0: 6b4e f83d 965b 75be f5a0 ac3e 06bf 7cbd
000003b0: fd11 07be 1566 373e 725e 2d3e 95a4 a1be
000003c0: 2e1e 25be e82e 94be 8344 ae3d 2ba2 9abd
000003d0: 21cb cb3d 571f cb3d c064 ac3e 63df 8bbe
000003e0: 4de0 b83e d912 f43a 2913 08be d199 ac3d
000003f0: 1582 7ebe 95d9 103e e410 8dbd 71f6 94be
0.16619246 0.31335795 0.088082924 -0.30059132 0.05550021 0.20173332 -0.21594687 -0.3239231
-0.039474066 -0.2777579 -0.07974103 -0.0032969592 0.0074636014 -0.13150382 0.11973882 -0.14150275
0.1257651 0.1738375 0.05316253 0.11257199 0.17139658 -0.29646608 -0.16003089 0.28066432
0.34404707 -0.16488545 -0.17152919 -0.38967422 -0.33791712 -0.14784864 -0.35708547 -0.07710352
-0.15704243 -0.23475277 -0.39185742 0.29484475 0.014150231 0.12996897 -0.20624265 -0.34402403
0.033970598 -0.117675245 0.3372291 -0.1392561 -0.19920266 0.0830907 -0.036585055 0.15368885
0.28337017 -0.106233634 -0.116179794 -0.1869535 -0.16000025 0.31067502 -0.14170875 0.25828478
-0.27884597 -0.027136356 0.15653571 0.23310035 0.1781611 0.20103304 0.35277075 -0.14987749
0.10890848 -0.5638761 0.09903189 0.020259157 -0.1493021 0.20172973 -0.20591821 -0.1250117
0.39993563 -0.01459256 0.11011063 0.13437432 0.13508585 0.23234428 0.5463135 -0.17692274
-0.18639109 0.24855691 0.096895084 -0.08087394 0.14279567 0.43959713 0.11818363 -0.039699003
0.14165209 -0.07588718 0.15614787 0.14713457 -0.1472856 -0.28175047 0.4493732 0.094652675
0.033402134 -0.008056002 0.023484144 -0.063117646 -0.14265177 -0.18945542 -0.085233845 -0.2197899
-0.3132282 0.14461 -0.04391384 -0.48853564 0.39972076 0.01404255 -0.071697935 -0.18993923
-0.13258186 -0.10434758 0.27542874 -0.35110325 0.2801179 0.26235944 0.15153341 0.21034423
-0.19566944 -0.24242933 -0.19682975 -0.10533822 0.19533375 0.45715654 0.32451227 -0.024077205
-0.22350262 0.12048984 0.40390262 -0.08729634 0.31899327 0.050587818 -0.27963242 -0.23482807
-0.3561741 0.37809676 0.09810141 -0.0023828011 0.1569779 0.105747 -0.16758454 -0.3212911
0.07793382 0.29086745 0.39198884 0.033617355 -0.26587063 0.1476409 -0.16673382 0.054619666
0.33841285 0.21749274 -0.016472591 0.022847079 0.07341716 -0.2765723 0.22290273 0.052050162
-0.17769013 0.23282017 0.2852732 -0.23221026 -0.15134947 -0.17271385 -0.3802582 -0.40468782
0.035426885 -0.09859132 -0.09577195 0.17458613 -0.4496666 0.16323629 0.35224167 0.3532465
0.071377315 0.15739125 -0.06645143 -0.31457916 0.22753714 -0.24324276 0.21045706 -0.13227445
0.14025734 0.1882735 -0.10990263 0.3688902 -0.19790834 -0.18883318 -0.24424575 -0.07537198
0.15959494 -0.053447295 -0.2077002 0.0060164137 0.17810515 0.0263458 0.17888454 -0.3844066
0.0019894096 -0.35798395 -0.19445199 0.21403238 0.3467057 -0.14786251 -0.026544245 0.3143938
-0.10345721 0.13479573 0.22057065 0.258618 0.09592301 -0.040415034 0.2380137 0.035778463
-0.09864327 -0.10717727 -0.059989993 0.2208106 -0.27760178 0.16928118 -0.25302592 -0.21632716
-0.14087316 0.123048395 0.0010770145 0.034818374 -0.24591371 -0.18286721 -0.21200016 0.3252741
0.12124332 -0.23960719 0.3371655 -0.06170561 -0.13190456 0.17910035 0.1693056 -0.3157088
-0.16124794 -0.28942037 0.08509161 -0.07550462 0.09950853 0.09918087 0.33670616 -0.27318868
0.36108628 0.001862134 -0.13288559 0.08427776 -0.2485431 0.14145501 -0.06887987 -0.2909427

a2c_network.actor_mlp.2.weight f4 [128, 256]
00000000: 73aa 01bf 93a4 7f3e c7fa 593d e69e c8bd
00000010: 7214 40be 57ec d8be ae44 99be ea8d 053d
00000020: 69e3 fd3d 8640 2f3e f618 bfbe afac 2cbe
00000030: 09d8 edbd dbeb d43d 4ed5 f4bd cc3f ebbe
00000040: e9ba 61be f8fe 2fbd 91e0 a83c fe75 883d
00000050: 0277 c2bd 2879 303e 3d1d 82be 6b8c ff3d
00000060: d3db 86bd 5f56 163e bda7 0ebe 9d0a 37be
00000070: 6825 b93e fbab dc3e f8c1 a53e 69c2 433e
00000080: ee44 673c b9ab c13e 87c1 8fbe ef8f 9cbe
00000090: 8aeb 3ebe 7a59 463e a0ad 36be a344 c43e
000000a0: 74f8 6e3d 7076 113e 9531 88be 1f85 1dbe
000000b0: 9260 c73e dbb5 77be 3eac bdbe 29bd 7abe
000000c0: 3f16 653e e5c7 e33e 7551 5a3e afb5 57be
000000d0: 8425 f93e 5eec 02bf 5e42 103e 8344 a63d
000000e0: bd3c 01bc 9f6f 8cbe 15d6 643e e787 61be
000000f0: 35ff 143f e583 95be 9eb8 98be 670a 0abe
00000100: d36f fabc 9f89 27be c168 a5be e562 073e
00000110: 4309 0fbe 8280 ca3c 9a15 4e3e 5150 c1bd
00000120: f420 63be 9482 163e 1084 80be 7f29 38be
00000130: 8be9 f1be 9333 be3d dc10 b7be 1318 843c
00000140: f2bc 16bc fe3a 34be 4c35 863e 93d5 97bd
00000150: 38ea 81bd 0c50 cfbd 5fe3 e13b bbb2 d9be
00000160: 1a26 9ebd e99d da3b 9955 c53d 512c 90bd
00000170: 946e 71be aa0e 88bd f7e8 a2bd d8b3 5c3e
00000180: 7287 cdbd 8935 ebba cd27 c9be 7cf6 a73e
00000190: b9ba 2ebe 3678 253e 8817 173e 6439 2d3e
000001a0: 5cd9 943e 1f4e c8be 219f abbc ee74 973e
000001b0: c851 07be 16cc 193e 7e38 2e3e 6bb3 ce3d
000001c0: 4293 323e 599c 8d3e 5a22 b13e 4962 fc3e
000001d0: 9b1a 203c 265f a53d bb05 6c3d a030 543c
000001e0: 0912 043e afeb 6ebd 7765 9f3e e984 dc3d
000001f0: e80f 3f3d 7672 06be c7f7 6fbe 3174 d43d
00000200: 0c57 8b3e 8ed0 8cbd c4f9 813e c31c c7be
00000210: 7bf0 4dbe 9d2d 3dbe ffc1 a33e c276 703e
00000220: f611 f6bd d2c8 35bc b1fe 303e 7583 ba3e
00000230: d168 00be 38a6 893e 9c7e a13e 9593 013b
00000240: 68bd f63c 2e3d 77be d0c5 d8bc 3e2c 93bb
00000250: bd17 313e 819a adbe f388 603e db58 253e
00000260: e2ee 4a3e 66e4 2cbd 8bf2 37be 8385 b23c
00000270: 795e 19be 5d1e a2be 9f54 2fbe badf 83bf
00000280: e718 b1bd bdcb bdbe 9c44 0ebf 9610 b5be
00000290: 2dd2 8bb9 9187 843e d7ce 9cbe 06f1 f4bc
000002a0: c013 5ebe 0ca8 293e 9934 07be 3596 99bf
000002b0: 8f13 a13e 34b5 37be 4822 2dbe b1cd 55be
000002c0: 2529 81be 46fa e83d 956e 9cbd 428f 3a3d
000002d0: 36f8 b53d 7eb6 bcba fa17 5b3d e68b e53d
000002e0: 4257 09be cc4b 293d 25e1 75be 30ab 6ebd
000002f0: 72f4 1b3e 4aa2 023e e65b c23e d1db df3c
00000300: e084 273e 60a5 913c c7fd 3c3e a70d d83d
00000310: 60b8 7e3e d7ee 503e 65c7 f3be a036 023e
00000320: df11 183d c25f 893e f4ba 543e 1e11 f6bd
00000330: e992 5abe a9ef 6e3e a114 6fbe bc91 b3be
00000340: 4045 2c3f 382a 6a3e 4f24 82bf 8d84 babe
00000350: cc84 0b3d e2ae 363e b0ca b2bb 8548 0bbe
00000360: 8b86 933d 2184 69be 92a4 2dbe 3296 c2be
00000370: 202f 333e 0b82 f4be d13b 56be 442e 4d3c
00000380: 3729 203e 32e9 65be 9574 813d 6091 a2be
00000390: ec0c b2bd 8d58 24bf a104 233d fd04 dabe
000003a0: eae8 69bc 5f87 6bbe bf2d bf3d e9a0 94bd
000003b0: 144d ba3e 753e ffbd 82c8 9abd 270c 02be
000003c0: d415 973d eb6d 483c 105a f53d 9f8d a3bd
000003d0: 1c22 4cbd 989b 1ebe e6ce eabd 706b 24be
000003e0: 905b 5ebe 9793 81be 7a79 083e c074 21bf
000003f0: e313 55be 66d1 7c3d 9594 0c3d de58 cd3c
-0.5065071 0.24965124 0.053217676 -0.097959325 -0.187578 -0.42367813 -0.2993521 0.032606043
0.12396891 0.17114457 -0.3732373 -0.16862749 -0.11613471 0.10396548 -0.11954747 -0.4594711
-0.22043957 -0.042967767 0.020614894 0.0666313 -0.09495355 0.17233717 -0.25412932 0.124779545
-0.06584897 0.14681385 -0.13931175 -0.17875142 0.3616135 0.4309996 0.3237455 0.1911713
0.014115555 0.37826326 -0.28077337 -0.30578563 -0.18644539 0.1937007 -0.1783967 0.38333616
0.058342412 0.14205337 -0.26600328 -0.15382813 0.38940865 -0.24190466 -0.37045473 -0.24486221
0.22371767 0.44488445 0.21320136 -0.210654 0.48661435 -0.5114192 0.14087817 0.08118536
-0.007888016 -0.2742891 0.22347291 -0.22024499 0.58201915 -0.2920219 -0.29828352 -0.1348053
-0.0305709 -0.16361092 -0.32306483 0.13221319 -0.13968377 0.02471948 0.20125428 -0.09439147
-0.2218054 0.14698249 -0.25100756 -0.1798458 -0.47248492 0.09287181 -0.3575505 0.01612476
-0.0092003215 -0.17600629 0.26212537 -0.07413783 -0.06343502 -0.101226896 0.00689356 -0.42519173
-0.07722111 0.0066716564 0.09635467 -0.07039703 -0.23577338 -0.06643422 -0.07954591 0.2155298
-0.100356 -0.0017945032 -0.39288178 0.3280524 -0.17063417 0.16159138 0.1475507 0.16916424
0.29072082 -0.39122102 -0.020949902 0.29581398 -0.13214791 0.15019259 0.17013738 0.10092815
0.17438987 0.27658346 0.3459652 0.49293736 0.009771968 0.08074789 0.057622653 0.012951046
0.12897505 -0.058330234 0.311321 0.10767538 0.04664603 -0.13129601 -0.23434363 0.10373724
0.2721485 -0.06875716 0.2538587 -0.3888913 -0.20111267 -0.18474431 0.31983945 0.23482803
-0.120151445 -0.011095243 0.17284657 0.3642842 -0.12539984 0.26884627 0.31541908 0.0019771804
0.030119613 -0.24144432 -0.026461512 -0.004491358 0.17294212 -0.3390694 0.21927242 0.16147177
0.19817689 -0.042210005 -0.17963617 0.021792179 -0.14977445 -0.3166379 -0.17122124 -1.0302651
-0.08647328 -0.37069502 -0.5557344 -0.35364217 -0.0002666874 0.2588468 -0.30626556 -0.029900085
-0.21687222 0.16568011 -0.13203658 -1.1998965 0.31460235 -0.17940217 -0.16907609 -0.20879246
-0.25226703 0.11375861 -0.07638279 0.045546778 0.08885233 -0.0014397649 0.053489663 0.11208324
-0.13412192 0.04133205 -0.24011667 -0.058268726 0.15229967 0.12757221 0.37960738 0.027326496
0.16359282 0.017779052 0.18456183 0.10549479 0.24875021 0.2040361 -0.47613063 0.1271615
0.03712642 0.2683087 0.20774442 -0.120149836 -0.21345104 0.2333361 -0.23347713 -0.35072124
0.6729317 0.22867668 -1.016733 -0.36429253 0.03406219 0.1784015 -0.005456291 -0.13601883
0.072033964 -0.2280431 -0.1695731 -0.38005215 0.17498446 -0.47755465 -0.20921256 0.012523238
0.15640722 -0.22452238 0.063210644 -0.31751537 -0.08693871 -0.6419762 0.039799336 -0.4258193
-0.014276722 -0.23000859 0.09334897 -0.07257254 0.3638693 -0.124630846 -0.07557775 -0.12699948
0.0737721 0.012233238 0.11980069 -0.079859965 -0.049837217 -0.15489042 -0.11465244 -0.16056609
-0.21714616 -0.25307915 0.1332759 -0.6306877 -0.20808367 0.061723135 0.034321386 0.02506679

a2c_network.actor_mlp.2.bias f4 [128]
00000000: 7aea 91bd dfa6 ae3d 861c 833e bb8e 17be
00000010: e12a 213e 61e2 76be e625 22be 6ab0 aabd
00000020: 580f 25bf 5d18 76bc e04a 13bf e01d 953c
00000030: aa8a 9ebe 9937 c8be c20b 1abe 0120 5dbe
00000040: 7d9c 0cbe 15dd 63bd 4d5c b6bd 6e0b aebe
00000050: 327f d5bb aaf1 12be ae9a 99be e272 1a3e
00000060: 1f07 2bbe d621 61bb 0a45 62be bd48 5cbf
00000070: 3e4a 76be d2e3 61bd a12a 73bd 645e 41bf
00000080: e7b4 51be 4cc0 b9be e4b2 babe 5b0a ac3d
00000090: 8996 cebe 6930 1cbf 742b 43be da02 31bf
000000a0: c996 163d e163 f3bd dc33 a7bb 02e0 f6be
000000b0: 07b7 edbd 750a a83d 7eac e0be fadc 58bd
000000c0: f3c8 94be 0d04 dbbc 9c8c 13be 46d2 9e3a
000000d0: cf81 8e3c 2a28 0ebe ee48 3a3e 68c4 ffbd
000000e0: 87c4 b5be 8336 9ebe 45bc 68be 86a8 b3be
000000f0: d536 3f3d f521 29be c20c 68be 4136 133d
00000100: 9e2d b5bd 7d98 01bd 7995 4bbd 930f 30bf
00000110: 621d b73c 7ee4 87be 465b 423c 4c42 92be
00000120: 5a8f 32bf 4677 e3be f48a a03c bab2 9fbd
00000130: e3a8 acbe a815 dbbe 4757 3abe cd47 87be
00000140: 6011 5dbf b6a6 d4be ed50 e73d ed62 26bc
00000150: 41b2 fabe 970d dabe fb31 c2be 530d 05bf
00000160: 9823 f8bd 1961 e9be 60a9 aebe 4422 34be
00000170: c824 5dbe 5109 06be 9a19 c1be d393 133e
00000180: 1ba6 673d a445 593d 0f27 32be d6da 603d
00000190: 9e7e 99be 9b75 a5be c307 553d cf63 67bd
000001a0: 811f b6be 9d94 c7be d352 99be 2d26 4d3d
000001b0: 004b 2dbf 25e7 d7bd b14c 7f3e 50e2 2fbd
000001c0: d5fd 25bf b124 29be 2b23 7b3d 71c9 bbbe
000001d0: a7f3 a6bd 3435 26bf 124e f23d d78f 30be
000001e0: 4fc6 c9be 32fc b5be 8271 79be 9559 34bc
000001f0: ab76 83be fbaf 103d 12d9 a3be f6b1 e0bc
-0.07124801 0.08527922 0.256077 -0.14800541 0.15739013 -0.24109794 -0.1583477 -0.083344296
-0.6447654 -0.015020457 -0.57536125 0.018202722 -0.30965167 -0.39104918 -0.15043548 -0.2159424
-0.1373157 -0.055630762 -0.08904324 -0.33993095 -0.006515407 -0.1435 -0.30000824 0.15082887
-0.16701935 -0.0034352443 -0.22096649 -0.8604849 -0.24051759 -0.055148907 -0.059366826 -0.75534654
-0.20479165 -0.36279523 -0.36464608 0.08400413 -0.40349224 -0.6101137 -0.19059545 -0.69144976
0.036764894 -0.11884285 -0.0051026177 -0.4821778 -0.11607175 0.082051195 -0.438816 -0.052945115
-0.29059562 -0.02673533 -0.14409107 0.001211711 0.017395882 -0.13882509 0.18191883 -0.124886334
-0.355015 -0.30900964 -0.22728069 -0.3508951 0.04668315 -0.1651686 -0.22661117 0.035940412
-0.088465914 -0.031639565 -0.049703095 -0.68773764 0.022352878 -0.26541513 0.011862582 -0.28566206
-0.6974999 -0.44426936 0.019597508 -0.07797761 -0.337226 -0.4278996 -0.18197356 -0.26421967
-0.8635464 -0.4153344 0.11294732 -0.010155422 -0.48964122 -0.42588493 -0.37928757 -0.51973456
-0.12116164 -0.45581892 -0.34113598 -0.17591196 -0.21596062 -0.13089491 -0.37714845 0.14411859
0.056554895 0.05304493 -0.17397712 0.0548962 -0.29979414 -0.32316288 0.052009355 -0.05649167
-0.3557091 -0.3898057 -0.29946002 0.050085235 -0.67692566 -0.10542134 0.24931599 -0.042940438
-0.6484044 -0.16517903 0.061312836 -0.36677125 -0.08151942 -0.6492493 0.11831297 -0.1724237
-0.3940911 -0.35543972 -0.24359706 -0.011007686 -0.25676474 0.035324078 -0.3200155 -0.027428608

a2c_network.actor_mlp.4.weight f4 [64, 128]
00000000: 9939 41bd 264c b1be e184 883d 9886 f539
00000010: bbcc 20bf 6cb5 993c 77a9 0e3e c2b3 183c
00000020: 884c 553e a84e 683e f28c a13b d44a 8f3d
00000030: 5484 c8bd 58e3 60be d97a 46be 571b 313d
00000040: 40cf 8f3d 1a23 a3bd bf88 b13d 5019 e6bd
00000050: 9edf b23b 7ec9 08be 01f9 5ebd 6737 293d
00000060: f5fe 2a3e 1cf7 00be 4f7d e0bc d3cc 153e
00000070: 56b2 cebd 6495 53bd d17b 8d3d f75e d23d
00000080: 3a3b f73c 6b24 17bd 83e5 2eb9 0433 02be
00000090: b47e 20bb 77bd 723c 09c8 01be 7d3c 223e
000000a0: 5b12 ddbd 45a3 afbb bca9 47bd f55a 94bd
000000b0: 5a6c e2bd d885 163e 05f6 febc 150a 0cbe
000000c0: 6ffe 1b3e ef97 e3bd 407f 37be 5352 31be
000000d0: 86c8 af3d b022 bbbb 50a6 74be 167c c6be
000000e0: f9e5 2d3e ce4a 093e 7f83 ee3d 3789 183e
000000f0: caba 3b3e 336c 1cbe 62cc 8fbd 9796 4c3d
00000100: 35b5 b2bc 18b6 20be 0d70 ae3d feac 023e
00000110: 8edb 7fbe b028 5f3d 024d 85be 8667 53be
00000120: 9e9c 743e e0cc a8bd 5180 9b3d 711e 17be
00000130: 4918 e33c ee11 1d3e 0aac 77be af96 413c
00000140: 4965 cf3c 5b35 753d 96a5 cfbd 5c06 bdbc
00000150: 957c 453d fc25 513d 436b 103e 9479 273d
00000160: 715f 9c3d 33ee 683d fa45 56bd 3859 7b3b
00000170: 68b3 a9bd 2a49 83bd 88b0 b13b b395 3e3d
00000180: 9b5a e13c 99dd 983c 74df 5dbd 13d6 31be
00000190: ee82 d33d 05e9 4d3e bb3e b43c 95e1 723e
000001a0: b51c 55be 0a9f d93d 8487 2c3d 59d4 1e3e
000001b0: eb9b 3d3e 4ff1 2ebd c090 b53d cf1f 613b
000001c0: a462 523e b976 873d 20b4 a4bd 9d9f b2bd
000001d0: 26ac 82bb 924a e43d 22cc 82bd 021b 203e
000001e0: 0889 11be bf08 0dbd 035d 41bb e86f 293c
000001f0: 15e9 b0bd 4994 50be fae8 6ebd 8d9b a33d
00000200: 6ddc 8d3c b93f e7bc b6bf eabd 11b2 2b3e
00000210: 1dee 63be c401 40be f33f 06be 62fd e63d
00000220: 3e05 4c3e 2c0d f9bd da57 1cbe 9ac9 353e
00000230: b359 32bd 1304 e2bd 3386 41be f3e2 11bd
00000240: fcaf 1abd 32c3 87bd 3390 283e a151 33bb
00000250: 6bbb 31bd 7ae1 a1bd b185 023e 104d 56bc
00000260: 5771 c93c 4f46 963d aac0 4ebc 8ac9 75bd
00000270: 19e5 6abd 9f03 e73d fb7d 2bbe 1fed 653d
00000280: 2ef2 d53c 2edb 4d3d 82c9 bdbe 4499 5fbe
00000290: c892 98be 7b00 dd3c 97fd a13c 8700 853e
000002a0: d13f ad3d 80e1 60be 808a ed3d 9a4b 283e
000002b0: db06 25bd a059 e13b c703 84bd 0bb6 a4be
000002c0: fa6f 9fbd c122 1fbe 7a2b 34bc 2f0c 71bd
000002d0: 32ff 14be 2b0a 1abd 03d9 963d a7b7 80be
000002e0: 2d16 54ba 7b1e a83d 09b8 2d3e 9b7a 663d
000002f0: c69b 0abc 4960 a9bd 642d 8ebb e871 28bd
00000300: 1118 60bd b70d b5bd e2ff ee3c 79dd 213e
00000310: 8583 fabc 4e01 85bd aa25 ccbc 8d98 30be
00000320: 2aa5 0fbe 3a4a d1bb e27d 743d 65bc db3d
00000330: b662 fc3c b53f 593e 27d3 8abd e5c2 483e
00000340: e987 4e3e 2323 4f3e abde 033e c114 7ebd
00000350: 2d63 7d3d 426a 9d3d 249e e9bd 3c71 00bb
00000360: 6576 c83d a05a 0fbe c04e 86be 89a5 90be
00000370: 7391 d9bb 0f9a 5bbd 0b85 a0bd 89b4 13be
00000380: ade5 9e3d 4199 ce3b 8d78 ac3d 238b 133e
00000390: c6ff 8e3c 63cc 373d 2e26 ffbd c80a 2a3b
000003a0: 7baa 2f3d e4de 72bd fc6b 60bd 64ee ea3d
000003b0: 0d05 ca3d a2c1 dfbd 1854 f73d 9503 2fbe
000003c0: f805 06be 3452 9f3d 4e9b e2bd e29d ff3c
000003d0: ce3c cd3d 13f0 043c ee36 99be c4b9 67bd
000003e0: 26c3 c03c 192e 1c3e 00de b0bd ec92 b23c
000003f0: 6a53 8dbe 8553 db3c e073 0b3d f1a4 023e
-0.04717407 -0.3462841 0.0666597 0.00046830322 -0.62812394 0.018763267 0.13931833 0.009320201
0.20829976 0.22686255 0.004930132 0.06996694 -0.097908646 -0.21961725 -0.193828 0.043238964
0.07021952 -0.079656795 0.0866866 -0.11235297 0.005458786 -0.13358113 -0.054436687 0.0413126
0.16698821 -0.12594265 -0.027403502 0.14628915 -0.10092609 -0.051656142 0.06908382 0.10272019
0.030179609 -0.036899965 -0.00016679433 -0.12714773 -0.0024489583 0.01481568 -0.12673964 0.15843387
-0.10794517 -0.0053600394 -0.048745856 -0.07243911 -0.11055823 0.14699495 -0.03112317 -0.13675721
0.15233777 -0.111129634 -0.17919636 -0.1731656 0.08583169 -0.005710922 -0.23891568 -0.38766545
0.16982259 0.13407442 0.11646175 0.14896093 0.18332973 -0.1527565 -0.07021405 0.0499483
-0.021814922 -0.15694463 0.08517466 0.12761304 -0.24986097 0.054482162 -0.26035315 -0.2064496
0.2388787 -0.08242202 0.07592834 -0.14757706 0.027721541 0.15338871 -0.24186721 0.011815711
0.025316851 0.059865337 -0.10139005 -0.023074321 0.048214514 0.051061615 0.14103417 0.04088743
0.076353915 0.05686779 -0.05231283 0.003835274 -0.08286172 -0.06410439 0.0054226555 0.046529483
0.027509024 0.018660353 -0.05416818 -0.17366819 0.10327707 0.20108421 0.022002568 0.23718865
-0.20811732 0.106260374 0.042121425 0.15510692 0.18516509 -0.0427106 0.088654995 0.0034351235
0.20545441 0.066144414 -0.080421686 -0.0872185 -0.003987807 0.11147036 -0.063865915 0.15635303
-0.1421243 -0.03443217 -0.0029504902 0.010341622 -0.08638207 -0.20369066 -0.058327653 0.07988653
0.017317021 -0.028228628 -0.11462347 0.16767146 -0.22258802 -0.18750674 -0.13110332 0.11278798
0.19923875 -0.121607155 -0.15267888 0.17752686 -0.043542575 -0.11035933 -0.18898849 -0.035616826
-0.037765488 -0.066290274 0.16461258 -0.0027361887 -0.043391626 -0.07904334 0.12746312 -0.013079897
0.024590177 0.07337629 -0.012619177 -0.060006656 -0.05734739 0.112799875 -0.16747276 0.05613434
0.026116457 0.050257854 -0.370678 -0.2183581 -0.29799485 0.026977768 0.019774241 0.25976965
0.08459438 -0.21961021 0.115986824 0.1643509 -0.04028974 0.006877139 -0.06446033 -0.32170138
-0.0778503 -0.15540601 -0.010996694 -0.05884951 -0.14550474 -0.037607353 0.073656105 -0.25140116
-0.00080904627 0.08208939 0.16964735 0.05626927 -0.008459991 -0.08270318 -0.004338907 -0.041124254
-0.05471045 -0.088405065 0.029174749 0.15807141 -0.030580292 -0.064943895 -0.024920303 -0.17245694
-0.14027849 -0.0063870223 0.059690364 0.10729293 0.030808788 0.21215709 -0.06778555 0.19605596
0.20169033 0.20228247 0.1287791 -0.06203151 0.06186216 0.07686283 -0.11407116 -0.0019598743
0.09788207 -0.13999414 -0.26231956 -0.28251293 -0.0066396534 -0.05361372 -0.07837876 -0.14424337
0.07758651 0.0063048904 0.08421431 0.14408545 0.017455947 0.044872653 -0.12458454 0.0025946368
0.042887192 -0.059294596 -0.054790482 0.11471251 0.098642446 -0.109256044 0.120765865 -0.1709121
-0.13088214 0.07779351 -0.11064778 0.031203214 0.10021363 0.008113879 -0.2992472 -0.056573644
0.023530554 0.1525196 -0.08636093 0.021798573 -0.27602702 0.026773224 0.034046054 0.12758233

a2c_network.actor_mlp.4.bias f4 [64]
00000000: d309 75be 9901 27bd e6e4 4dbe 8f86 b2be
00000010: 4c65 85bd 836e fabc 57a6 b6be f648 a9bd
00000020: 2aa2 1cbf e37e 43be 62b6 05be 1a3c babd
00000030: a194 08bd 8a45 a5bd 5b01 51be 955c 2fbf
00000040: f929 d93c 7977 3bbe 7e8d 5fbd 6f18 f0be
00000050: 9148 c2bd 8737 13be 59c1 dabe 100d 76be
00000060: 87c3 e1be 7f06 8bbe 343e e9bd 46a3 7d3d
00000070: 2538 d3be a151 0bbf 24da ecbd 6494 983c
00000080: e1b0 aabe 74c0 18be 0204 edbc 8979 f6bd
00000090: d4f1 933d 314d 23bf 022e 5dbe f323 8abc
000000a0: 94d5 c4bd af4d a03b 412f a03c e4f3 c1be
000000b0: 53bc 19be 1b2c b8be 953e ef3c 9390 2bbe
000000c0: 1b67 98be 2726 6fbd a141 b8be b449 92be
000000d0: 3f68 07bf 8fc7 a7be 5b70 8f3c 0350 43be
000000e0: c419 443d 7d91 533d aefa c6be 91f0 a9bd
000000f0: e160 a4bc 1444 34be 40b5 10be c63d 26bd
-0.23929529 -0.040773008 -0.20106849 -0.34868285 -0.065134615 -0.030570274 -0.35673782 -0.08265869
-0.6118494 -0.19091372 -0.13057855 -0.09093495 -0.03334487 -0.08069904 -0.20410673 -0.68500644
0.026509272 -0.18307294 -0.054578297 -0.4689364 -0.09486497 -0.14376651 -0.42725638 -0.2402842
-0.44094488 -0.27153394 -0.113888174 0.061923288 -0.41253772 -0.5442143 -0.115650445 0.018625446
-0.33338073 -0.14917165 -0.028932575 -0.120349 0.072238594 -0.6378966 -0.21599582 -0.016862845
-0.09611049 0.004892073 0.019553782 -0.37881386 -0.15013246 -0.3597115 0.029204646 -0.1675437
-0.29766163 -0.058385994 -0.3598757 -0.28571856 -0.5289344 -0.3276944 0.01750963 -0.19073491
0.047876135 0.05165242 -0.38863128 -0.082978375 -0.020065727 -0.17604095 -0.14131641 -0.040586255

a2c_network.value.weight f4 [1, 64]
00000000: 3f4f e03b 086e f5bc 0683 bc3c 9e6f 82bc
00000010: 082d 08ba 65d8 d83c acd9 e33b 51ef a9be
00000020: e9e3 5e3c 9da2 913e aa02 c43d 0e9e 5dbb
00000030: 3e43 e8bb 7709 253c 0b74 9abc 4218 bebd
00000040: 2889 e23c 46cb 893b 14fb a7bc 99e2 d83b
00000050: de70 c53d 396d e33e f71b d0bb 116b 2fbc
00000060: 5cfe d4bc 3b4f 93bb a580 343c ad4f 9e3c
00000070: 48fa dabe aeab 49be b284 523d 7319 083d
00000080: 3749 383b bd01 a53c 6dc7 af3c e502 46ba
00000090: e71e 9cbc c0c5 28be b808 a33e a896 533d
000000a0: cb57 4e3c 9ae1 493f f422 143c 717a fcbc
000000b0: 3f7a b2bb 72b1 40be 052c 69bc c802 de38
000000c0: 4909 6b3d 23b8 b93b 5a54 07bb ab63 e6bc
000000d0: faaa 62bd 17e5 5cbc 638b aa39 40c3 433b
000000e0: 60e8 0d3c 2efb 9d3d bc16 03be cc53 4d3d
000000f0: b28c 5d3d 9511 38be d9cf 9c3c e425 693d
0.0068453844 -0.029959694 0.023011696 -0.015922364 -0.00051946985 0.026470372 0.0069534387 -0.33190396
0.013604143 0.28444377 0.09570821 -0.0033816132 -0.007088094 0.010073057 -0.018854162 -0.092819706
0.027653292 0.0042051403 -0.020505466 0.0066188094 0.09640668 0.44419268 -0.00635099 -0.010706679
-0.026000194 -0.004495529 0.011016999 0.019325102 -0.42769074 -0.19694397 0.05139608 0.033227395
0.0028119811 0.02014243 0.021457398 -0.0007553532 -0.019057704 -0.16481686 0.3184259 0.05165735
0.012594174 0.78859866 0.009041537 -0.030820103 -0.005446702 -0.1881769 -0.0142316865 0.00010586303
0.057381902 0.0056677028 -0.0020649643 -0.028123697 -0.055338837 -0.013482354 0.00032528778 0.0029871017
0.00866136 0.07713924 -0.12801641 0.050128743 0.054089256 -0.17975457 0.019142078 0.0569209

a2c_network.mu.weight f4 [12, 64]
00000000: 0980 53bd b026 97bc 0c04 7abd 9bfb 56bd
00000010: 144b 54bc 84f1 2e3b 3b95 65bc 15c5 343d
00000020: e30b 08be 5352 5cbc 6829 8e3a a3ff 02bb
00000030: c908 d53d 34ba 19bc 6ccf 913d 66be 6cbd
00000040: ea7f 2a3c 660f acbc 5841 92bc 5e90 0dbd
00000050: 78a1 8b3c cc26 ac3c ef88 2cbe b43f 1fbc
00000060: 1c88 43be 04b4 26bd 9b5c 3d3c d218 80bb
00000070: eeb4 e33b 2043 19be 6ea5 493d f82d 5b3c
00000080: 740d ac3c 09f7 d53c d1e8 d2bb 5945 f53b
00000090: 0282 9bbb 8b41 33be f3a9 4a3c e00d 32bc
000000a0: 056c 713c 57aa 34bb b162 78b9 a38f 4d3d
000000b0: 7ecd f6bc e1e6 41be c756 c73c 0aa9 5dbc
000000c0: 2c50 7fbd 08ad 183e 96a8 b9bc 21d4 06bc
000000d0: 29d0 50be 9a54 03bd 927b e3bb b70c bc3c
000000e0: 3567 fbbc 8e0c 16bc fc2a e1bd 3cc4 e3bb
000000f0: 98df 31bb b7ca 89bc d19e 293c c705 d43b
00000100: 4c48 47bd bda9 153d 99f6 8e3d 84ed de3c
00000110: 27ff 13bc c2f3 7bbc 8743 f0bc 9705 abbd
00000120: 4efa efbd f12d b43c 9b52 8f3c b8bc b23c
00000130: fa74 8d3d 25db 123c 04a8 e73d 6998 433d
00000140: 3a49 6d3c 84a6 00bd f0a9 043d 24f8 163d
00000150: 7a82 343c 1ff2 9abc 31b3 27bd af36 9abc
00000160: 06dc 1ebc 7833 12bd 60b8 4b3c b5d3 0a3c
00000170: d657 3d3c 440a d93d bdcf 98bc 0e6c 26bd
00000180: 27da 423c a308 08bd 76d0 223d e835 553d
00000190: 0167 93bc 52c5 f7bc 6a09 3ebd cf1c c63c
000001a0: 843d a73c b778 1b3c 598e 6c39 d739 2d3c
000001b0: c788 abbd 4014 e63d 2e8f 22bd c19f 6cbc
000001c0: ae44 7a3d d578 1b3e fb2a 503d 5dfd 973b
000001d0: a91c 85bd 7676 75bd c369 d33b e82f 5e3c
000001e0: caf6 b23c 04b2 aabb e60f 513c 5de3 c23a
000001f0: 6392 b53c 7d1a 673c fbea 97ba ad60 fc3a
00000200: 4f7a a23c 8999 cdbb cfb2 51bc d622 efbb
00000210: 0323 133b d8bd 0a3b 60b5 11bc 364e d53b
00000220: 7802 9d3d e1d7 e53b 5771 0abc 3ee3 653c
00000230: ed9c ae3c b66e 46bb ee82 cd3c 851c e93d
00000240: def7 6fbb fe32 a03b 8032 a9bc d0b8 903c
00000250: 85ad 53bc a02b 093b 6e1c 723d f994 aebb
00000260: fe1a 1a3d 2d05 283d 8fbc 473b 95b0 2abb
00000270: 5462 26bc 9d98 c43b 64d8 9839 2e04 81bc
00000280: d2ce a53b c7b5 a3bc b206 043b c55c 43bc
00000290: 6955 b1bb 091e d33d 6564 0d3c 143b 7f39
000002a0: 6ae1 c83b ffe3 18bc cadc 6dba c0a8 373c
000002b0: 9a29 e5bc 623e 2c3d 0335 cf3b aa57 99bc
000002c0: 4e86 bc3a 23de 08bc cefb 31bc 98df 10bb
000002d0: 4a29 c03d 5c1c f53b 120f 453a e3fb f53c
000002e0: 77a4 38bc ee36 e83b 0214 843d 88c0 dfbb
000002f0: 469c adbb 5cd6 b93b 6262 5f3a e45b 91b6
00000300: a50d db3d d1e7 36bc 6605 4cbb 789a fb3d
00000310: edfb b73c 9f0a 653c 1b2d 0a3d 8e48 e73b
00000320: 11a1 9e3d cff2 02bd 6661 073d b8fd 663c
00000330: 5f12 80bd e903 fd3b 3186 9b3c c584 1d3e
00000340: c0de 903c 360e f13d 6112 1f3d 5793 ca3d
00000350: 8e9b 9bbc 194e d33d 424f 123e 44c3 8b3d
00000360: 875a a5bc a425 3a3d bf2e 29bd 5f9d dabc
00000370: a5e9 053d 83b2 193e df44 a4bd 0167 19bd
00000380: e72a 18bd cb51 293c 6bf5 b8bc 1663 6dbd
00000390: 829d 5ebd b296 543e 3242 93bd b535 4abd
000003a0: 02fb d13a d433 5fbc 3da9 b13b 17d6 de3b
000003b0: b7b8 ce3c 5e8b c03d 3742 3c3c 4724 3b3d
000003c0: c7a9 c43b c7d9 2b3d 9b1d 2a3e c1d3 4ebc
000003d0: bf99 3b3e 85a6 b13d 4233 25bc 70c9 47bd
000003e0: 92b5 16bd 584a e4bc d9c8 533d 8a62 e4bc
000003f0: e709 9dbc 141c 7fbd a8aa b13c 3c2e 70bb
-0.051635776 -0.018451065 -0.061039016 -0.052486043 -0.012957353 0.0026694247 -0.01401263 0.044133265
-0.13285784 -0.013447362 0.001084608 -0.0019988797 0.10402066 -0.009382773 0.07119641 -0.057798766
0.010406474 -0.021003436 -0.017853424 -0.034561507 0.017044768 0.021014594 -0.16849111 -0.009719778
-0.1909489 -0.04069902 0.011557723 -0.003909209 0.0069490587 -0.14967012 0.04923003 0.013377659
0.021002509 0.026118772 -0.0064364453 0.0074850735 -0.0047457227 -0.17505471 0.012369621 -0.010867566
0.0147352265 -0.002756735 -0.00023687888 0.05018581 -0.030127283 -0.1893573 0.02433337 -0.013529072
-0.062332317 0.14909756 -0.022663396 -0.008229286 -0.20391907 -0.032063104 -0.006942221 0.022955282
-0.030688861 -0.009158267 -0.10994527 -0.006950883 -0.002714133 -0.016820295 0.010352806 0.0064704153
-0.048652932 0.03653883 0.069806285 0.027212866 -0.009033001 -0.015377941 -0.029329075 -0.083506756
-0.11717664 0.021994563 0.017495444 0.021818504 0.06907077 0.008963381 0.11311343 0.04775277
0.014482791 -0.0314088 0.032388628 0.03685774 0.011017436 -0.01891428 -0.040942375 -0.018824903
-0.009696012 -0.035693616 0.012434095 0.008473326 0.011556586 0.10597661 -0.018653745 -0.040630393
0.011892832 -0.03321136 0.039749585 0.052053362 -0.017993452 -0.030245457 -0.046395697 0.024183659
0.020415075 0.00948923 0.00022559743 0.010572872 -0.083756976 0.11234331 -0.039687328 -0.014442385
0.061100654 0.15182813 0.05082224 0.0046383576 -0.06499607 -0.059927426 0.0064518168 0.013561226
0.021846194 -0.0052092094 0.012760138 0.0014868785 0.02216453 0.014105436 -0.0011590415 0.0019254886
0.019833712 -0.0062744063 -0.012798979 -0.007297854 0.0022451289 0.0021170285 -0.008893341 0.0065095676
0.076664865 0.00701426 -0.008449874 0.01403123 0.021315062 -0.0030278391 0.025086846 0.11382393
-0.0036616246 0.0048888912 -0.020653963 0.01766625 -0.012919788 0.0020930544 0.059109144 -0.0053278175
0.037623398 0.04102056 0.003047738 -0.0026045192 -0.010155279 0.0059996382 0.00029152923 -0.015749063
0.0050600553 -0.01998414 0.0020145592 -0.011923973 -0.005411793 0.10308463 0.008629893 0.00024340703
0.006130387 -0.009331702 -0.00090737327 0.011209667 -0.027973939 0.04205168 0.006323458 -0.01871856
0.0014383288 -0.008353743 -0.010863258 -0.0022105929 0.09382875 0.0074801873 0.0007517199 0.030027336
-0.01126968 0.0070866263 0.06449129 -0.0068283714 -0.0052981703 0.0056713056 0.0008521435 -4.332034e-06
0.10695962 -0.011163668 -0.0031131147 0.12285322 0.022458995 0.013979583 0.033734422 0.0070582097
0.07745565 -0.03196984 0.03305187 0.014098577 -0.06253504 0.0077214134 0.018984886 0.15382679
0.01768434 0.11770289 0.038835887 0.09891384 -0.018995073 0.1031763 0.14288047 0.06824353
-0.020184768 0.045446053 -0.041304346 -0.026686369 0.032693524 0.15009503 -0.080209486 -0.037451748
-0.03715029 0.010334442 -0.022577962 -0.057955824 -0.05434943 0.2076061 -0.0719036 -0.049367625
0.0016020241 -0.013623197 0.005421786 0.006800424 0.025234563 0.09401582 0.011490396 0.045688894
0.0060016843 0.041955736 0.16612856 -0.012623728 0.18320368 0.08674339 -0.010083022 -0.04877609
-0.036794253 -0.027867481 0.051705215 -0.027879018 -0.01916976 -0.062282637 0.02168782 -0.0036648652

a2c_network.mu.bias f4 [12]
00000000: db6d 583e b3de f73d bc0f a7be dddb 63be
00000010: 6688 9b3d efcf 64bb 4c1f 183e d32d 8f3d
00000020: 0e61 c3bd 8573 433e 4992 323d 1d0f 50bd
0.21135657 0.121030234 -0.32629192 -0.2225184 0.07594375 -0.0034913977 0.14855689 0.06991162
-0.09539996 0.19087036 0.04359654 -0.050795663

exp_avg f4 [12]
00000000: 01b6 e2bb 5846 bd3c aa58 033b 6f98 613c
00000010: 61b4 a7bc 3e23 86bc f8bd 933c 678f 5e3b
00000020: 9b3f 7b3c 0dd9 77bc a7f6 7fbb 8717 823b
-0.006918669 0.023104832 0.0020041862 0.013769253 -0.020471754 -0.016374227 0.01803492 0.0033959986
0.015334989 -0.0151274325 -0.0039056928 0.00397009

exp_avg_sq f4 [12]
00000000: 8467 753b 612a 7f3b 2431 7e3b d671 303b
00000010: 73ff 583b 04f0 f23b 6188 8a3b 41af 443b
00000020: 26c0 4b3b 33bb 763b 209e 613b 5c81 513b
0.0037445733 0.0038935172 0.0038786614 0.002692332 0.0033111244 0.007413866 0.0042276834 0.0030011686
0.0031089871 0.00376482 0.0034426525 0.0031967973

exp_avg f4 [256, 32]
00000000: 21c1 d4bc cff7 86bc 2e6a fb3a 5fbe f03c
00000010: ace3 1bbc 2b22 b738 e1f0 89bc 5619 6aba
00000020: 8324 90b9 b904 71ba 67d0 4f36 96c4 16b6
00000030: cf33 7bb7 2dcb a6b9 fac3 94b7 114e 83bc
00000040: 769d c23b 235d c7ba de08 e839 f56a a3bc
00000050: a9ff 0ebd 2c32 f4bb 652b 043a 7313 b83b
00000060: c2ce d9bc e4a7 2d3c 0000 0000 0000 0000
00000070: 0000 0000 0000 0000 0000 0000 0000 0000
00000080: 5fb9 abbb 8c4a a2bb 614d b139 53f1 d43b
00000090: 031c beba 3250 c9b7 32ee 54bb 0544 64b9
000000a0: 2073 a1b8 bb93 53b9 fffd bf35 ac5b 8eb6
000000b0: b812 5cb7 e3d0 43b8 cd31 c9b7 a1b6 58bb
000000c0: 62df e53a 44a9 87b9 ed4b 8539 b5a4 7ebb
000000d0: 658b 493b e09c f83b 9a81 baba 8d9b d6bb
000000e0: 93b6 d53a bcd3 213b 0000 0000 0000 0000
000000f0: 0000 0000 0000 0000 0000 0000 0000 0000
00000100: 0596 98b8 bbf3 86ba 08f5 a8b7 9f78 4c39
00000110: 034e 76b8 2a78 6039 6a55 b938 02b8 2338
00000120: 1595 35b8 2e01 dc36 e1ee 1a36 197a 9eb6
00000130: 924e 4338 7770 73b4 fb4a a4b7 1191 9438
00000140: 4af0 35b9 6e7b 43b9 5d27 3439 6b2f 7bb9
00000150: ae01 813c e837 5a3c 0429 633a 6a5d 20bc
00000160: b39e 4a3c 0e5a 903b 0000 0000 0000 0000
00000170: 0000 0000 0000 0000 0000 0000 0000 0000
00000180: 600b 083c 13ef e73b ed85 9d38 5b40 15bc
00000190: 77c3 933a 2b0e ac3a f68e 8e3b 4c25 023a
000001a0: b256 8a39 8f74 6639 1088 d337 e977 9ab8
000001b0: 8c6b b3b8 0e9e d8b7 d364 4b38 41d0 ad3b
000001c0: 24bc bbba fb71 9cb9 19c9 5539 65a2 de3b
000001d0: 5510 bb3c de8c 0d3c 950c 17bc 4777 3dbc
000001e0: 8508 ec3c a368 4abb 0000 0000 0000 0000
000001f0: 0000 0000 0000 0000 0000 0000 0000 0000
00000200: bbc4 14ba 3baf cbb9 58ad 5bb9 7ae3 023a
00000210: b562 e738 3969 9eb9 a09c 8eb9 fa69 9bb6
00000220: 6498 2db8 fb22 8637 e645 97b6 3388 8d37
00000230: 61b7 6a38 50fc bf37 552d 80b7 8339 90b9
00000240: 28ce d9b8 c213 4239 55cc 7eb9 afdc 01ba
00000250: bb30 3bbc 2b8a dabb 0a7c b53a 9503 ae3b
00000260: 3a22 1cbc 027d 723b 0000 0000 0000 0000
00000270: 0000 0000 0000 0000 0000 0000 0000 0000
00000280: ce66 cebc 9993 7cbc 051c fc3a 708d e43c
00000290: 1608 f5bb 62da 16ba eca9 8ebc a5f5 67ba
000002a0: 4259 b7b9 f6be 6fba 432d d8b6 d4e0 9c34
000002b0: 231a 8937 78fe 57b9 ae20 7f38 c8e0 74bc
000002c0: 66ed 0f3c 9373 6bba c96a 6b3a b18e 8abc
000002d0: c525 dab9 64ce 8cba f27e b1bb 0a6b 883a
000002e0: 620d 4b3b 11da 553b 0000 0000 0000 0000
000002f0: 0000 0000 0000 0000 0000 0000 0000 0000
00000300: c417 b1bc c034 81bc 33a3 bd3a 209b c93c
00000310: 5dc5 b1bb 3212 a9ba 50e8 69bc 0d76 6bba
00000320: 0862 beb9 63d5 53ba 5546 67b7 6382 7837
00000330: d814 92b5 ecc1 acb8 f874 be37 231f 56bc
00000340: e31b 1b3c 0121 42b8 964f 4c3a a532 5ebc
00000350: 8b05 75bb ad98 af3b a660 a3bb f766 48bb
00000360: a3e2 073a f53e 2b3b 0000 0000 0000 0000
00000370: 0000 0000 0000 0000 0000 0000 0000 0000
00000380: 59ef b83b c8cb 543b 0394 23ba cf2c d5bb
00000390: 5bd1 e03a 68a8 feb8 5856 8c3b df83 2739
000003a0: 1f0b ab37 d742 8739 5ed3 f1b6 0c48 e037
000003b0: 60ad 2838 17f0 e138 8ce7 09b8 dd28 5f3b
000003c0: dc46 40bb 21da 073a 4e96 e9b9 9b88 4e3b
000003d0: 5c3a 9ebb 87cd e5ba d6dc 1a3c c699 d13b
000003e0: a6db fdbb 814b ab3b 0000 0000 0000 0000
000003f0: 0000 0000 0000 0000 0000 0000 0000 0000
-0.025970997 -0.016475586 0.0019181424 0.029387651 -0.00951473 8.732484e-05 -0.016838493 -0.0008930167
-0.00027493024 -0.0009194124 3.096671e-06 -2.246617e-06 -1.49728285e-05 -0.00031813365 -1.7734234e-05 -0.016028436
0.005939181 -0.0015210252 0.00044257095 -0.019948462 -0.034911785 -0.00745227 0.00050418667 0.005617553
-0.026587848 0.01059911 0.0 0.0 0.0 0.0 0.0 0.0
-0.005240604 -0.0049527343 0.00033817723 0.0064984947 -0.0014504198 -2.3998411e-05 -0.0032490608 -0.00021769114
-7.698522e-05 -0.00020177562 1.4304532e-06 -4.242602e-06 -1.311738e-05 -4.6686164e-05 -2.3984257e-05 -0.003306784
0.0017537887 -0.0002587532 0.00025424306 -0.0038855497 0.0030753252 0.0075870603 -0.0014229298 -0.006549305
0.0016305022 0.0024692854 0.0 0.0 0.0 0.0 0.0 0.0
-7.275868e-05 -0.0010296026 -2.0141262e-05 0.00019499891 -5.8723625e-05 0.0002140707 8.837397e-05 3.90336e-05
-4.3292606e-05 6.5566483e-06 2.3086834e-06 -4.722981e-06 4.6564797e-05 -2.2672053e-07 -1.9585239e-05 7.084211e-05
-0.0001735102 -0.0001864263 0.00017180802 -0.0002395489 0.015747871 0.013318993 0.00086654746 -0.009787897
0.012366938 0.0044052666 0.0 0.0 0.0 0.0 0.0 0.0
0.008303493 0.0070780604 7.511289e-05 -0.009109582 0.0011273463 0.0013126781 0.0043505384 0.0004964664
0.00026386004 0.00021977931 2.521652e-05 -7.365627e-05 -8.555417e-05 -2.5822806e-05 4.849287e-05 0.005304367
-0.0014323038 -0.0002983956 0.00020388178 0.0067942613 0.022834936 0.008639542 -0.009219308 -0.0115640825
0.028812656 -0.0030885122 0.0 0.0 0.0 0.0 0.0 0.0
-0.0005675067 -0.00038849734 -0.00020950043 0.0004993003 0.00011033324 -0.00030214505 -0.00027201045 -4.6316973e-06
-4.138834e-05 1.5990334e-05 -4.508288e-06 1.6871933e-05 5.5960732e-05 2.2886466e-05 -1.5279898e-05 -0.0002750867
-0.00010385766 0.00018508642 -0.00024299447 -0.0004953844 -0.0114251925 -0.006669303 0.0013846171 0.0053104856
-0.009529645 0.003700078 0.0 0.0 0.0 0.0 0.0 0.0
-0.025195505 -0.015416049 0.0019234425 0.027899474 -0.0074777706 -0.00057545875 -0.01741501 -0.00088485546
-0.00034970982 -0.0009145582 -6.442571e-06 2.9220848e-07 1.6343844e-05 -0.00020598795 6.0827173e-05 -0.01494617
0.008784628 -0.00089817605 0.0008980451 -0.016913744 -0.0004160834 -0.0010742662 -0.0054167444 0.0010407877
0.0030983319 0.0032631198 0.0 0.0 0.0 0.0 0.0 0.0
-0.021617778 -0.015772223 0.0014468193 0.024610102 -0.005425139 -0.0012899099 -0.014276579 -0.00089821295
-0.00036312663 -0.00080808083 -1.3785048e-05 1.481231e-05 -1.0883914e-06 -8.23772e-05 2.2704233e-05 -0.013068947
0.009467098 -4.628394e-05 0.00077938417 -0.013561879 -0.0037387337 0.0053587765 -0.0049858866 -0.003057895
0.0005183613 0.0026130055 0.0 0.0 0.0 0.0 0.0 0.0
0.005643767 0.0032470096 -0.0006240012 -0.0065055857 0.0017152237 -0.00012143032 0.004282754 0.00015975487
2.0389967e-05 0.00025799006 -7.206966e-06 2.673643e-05 4.021579e-05 0.00010773556 -3.287899e-05 0.0034051456
-0.002933911 0.0005182345 -0.0004455321 0.0031514529 -0.0048287343 -0.0017532565 0.009452065 0.006396505
-0.0077471314 0.0052275066 0.0 0.0 0.0 0.0 0.0 0.0
