omniisaacgymenvs/runs/WEE/nn/last_WEE_ep_1900_rew_630.46185.pth (torch, 623514 bytes, 36 tensors)

value_mean_std.running_mean f8 [1]
0	0xc0009a579b511df4	-2.0753624090318628

value_mean_std.running_var f8 [1]
0	0x40b49e25d14712bb	5278.147724573205

value_mean_std.count f8 []
0	0x41bdb00001000000	498073601.0

running_mean_std.running_mean f8 [32]
0	0xbf56eee733934b8c	-0.0013997323824710165
1	0x3f80b4b1a72f2da5	0.008157146372375143
2	0x3fde3187e778e78e	0.4717731247397915
3	0xbf821eb79ccd2bc5	-0.008847650978756403
4	0x3f8c3cd750aa0de7	0.013787920140436461
5	0xbf7d456022eb73b5	-0.007146239788849697
6	0x3fda7b05722670c1	0.41375862262226454
7	0x3fa02acab98a572e	0.03157647623917935
8	0x3f823521cac91a02	0.008890403748535117
9	0x3f9e2a31682021e3	0.02945782850295754
10	0x3f69dec59c2894e6	0.0031579837389182795
11	0xbf440c023f84112d	-0.0006117831208319095
12	0x3fab07ffc5dc3bd2	0.05279540338789669
13	0xbee24b94756ae388	-8.723847412782514e-06
14	0xbef62d70ab9fb837	-2.115011259456336e-05
15	0x3fdb5f2d7d1ab796	0.42768418519232776
16	0x3fde214e4c1fe9a2	0.47078282770203306
17	0xbf27b2b2ef5055a4	-0.00018080171835836462
18	0x3f1ee74b8e69025c	0.00011788748415942615
19	0xbfd0bd58ba917164	-0.2615567991213281
20	0x3f6af6584fbe5388	0.0032912945589011512
21	0x3f6c841ddf439eb1	0.003480966896052561
22	0xbf7b6f28d152c6ea	-0.006697806781788643
23	0xbfcce3bb2fc28c00	-0.2256998046114802
24	0x3fcad886135eef69	0.20973277994005038
25	0xbf905d9eaaedc00d	-0.015982131178532245
26	0x0000000000000000	0.0
27	0x0000000000000000	0.0
28	0x0000000000000000	0.0
29	0x0000000000000000	0.0
30	0x0000000000000000	0.0
31	0x0000000000000000	0.0

running_mean_std.running_var f8 [32]
0	0x3f67e8a9cdb21846	0.002918559691866415
1	0x3f56f04739be80ae	0.0014000602304591703
2	0x3f52935ff5a8323b	0.0011337697129675378
3	0x3fe52b95206d2b29	0.6615701325730231
4	0x3f8169d03c24ad99	0.008502604327609119
5	0x3f98d9433e47c355	0.02426629130963261
6	0x3fc13af70a7f865a	0.1346119691143482
7	0x3fe2213b92616eec	0.5665567263599462
8	0x3fe2c300e162b85a	0.586304130750942
9	0x3fe155365c3ab279	0.5416518975594747
10	0x40664984043d61f9	178.29736530293283
11	0x405b1e784e36d1f7	108.47609286645444
12	0x40642dbece4704f4	161.42954172011343
13	0x3ecb2009468ad016	3.2335688512023185e-06
14	0x3ed03da42cef8f72	3.872105209776785e-06
15	0x3ef7958c1eefbc87	2.2491616558481294e-05
16	0x3fd14be19e349565	0.27025642823931256
17	0x3f278423129eee31	0.0001794140637779592
18	0x3f2ab25046c9eca2	0.00020367841661426018
19	0x3fdc1e26703ee569	0.439340219130449
20	0x3f74ca5ed5569095	0.005075807993680699
21	0x3f74a060c21ca4b3	0.005035760843193393
22	0x3f685dea363b4950	0.002974469609264542
23	0x402888d590644a53	12.267254364244911
24	0x402c754d61afbaf8	14.229105999661883
25	0x401a0799275fdecd	6.507420172907314
26	0x3e313f0e8c0ad6c7	4.0154707897968564e-09
27	0x3e313f0e8c0ad6c7	4.0154707897968564e-09
28	0x3e313f0e8c0ad6c7	4.0154707897968564e-09
29	0x3e313f0e8c0ad6c7	4.0154707897968564e-09
30	0x3e313f0e8c0ad6c7	4.0154707897968564e-09
31	0x3e313f0e8c0ad6c7	4.0154707897968564e-09

running_mean_std.count f8 []
0	0x41adb00002000000	249036801.0

a2c_network.sigma f4 [12]
0	0xbfddfa04	-1.7341924
1	0xbfc6de83	-1.5536655
2	0xc03563d0	-2.834217
3	0xbf9a2b80	-1.2044525
4	0xbfa6d0f1	-1.3032514
5	0xc06d1d1c	-3.7049017
6	0xbfa3e257	-1.2803448
7	0xbf6ba8c6	-0.920544
8	0xbf877018	-1.0581083
9	0xbf635522	-0.8880178
10	0xbfac3e1b	-1.3456453
11	0xbf913ae5	-1.1346098

a2c_network.actor_mlp.0.weight f4 [256, 32]
0	0x3e219cb6	0.15782437
1	0x3da5326f	0.0806626
2	0xbf4331c1	-0.76247793
3	0x3e3dc365	0.18531568
4	0x3f1b4dd1	0.60665613
5	0x401986d3	2.398854
6	0x3d6c27ba	0.057655074
7	0xbd60e3d9	-0.054904792
8	0xbbf1a9f7	-0.0073749977
9	0xbe5c508d	-0.21515103
10	0x3eb80edc	0.35948837
11	0xbe382e86	-0.17986497
12	0xbe8e4f03	-0.27794656
13	0xbe047010	-0.12933373
14	0x3e0f1c49	0.13975634
15	0xbe21891f	-0.15774964
16	0xbe53324d	-0.20624657
17	0xbe905006	-0.28186053
18	0xbe8e3e4d	-0.27781907
19	0xbe1c258a	-0.15248695
20	0xbe0234e0	-0.12715483
21	0x3ddc3dd7	0.107539825
22	0x3ccea5d9	0.025225567
23	0x3dccbf19	0.099973865
24	0x3dacd639	0.08439297
25	0xbcc4f5b8	-0.02404295
26	0x3e0daacf	0.1383469
27	0xbe009de0	-0.12560225
28	0x3c365cc8	0.011130519
29	0xbdf71b1f	-0.1206572
30	0x3d5f454c	0.054509446
31	0xbd795c02	-0.06087876
32	0x3d5cf27a	0.05394218
33	0x3bc1dd18	0.005916249
34	0x3f054496	0.5205778
35	0xbe55f987	-0.20895968
36	0xbf39a5da	-0.72518694
37	0xbfb3e883	-1.4055332
38	0x3e3491f8	0.17633808
39	0x3ea901ef	0.33009288
40	0x3ee55082	0.44787985
41	0xbe7adf20	-0.24499178
42	0xbf209214	-0.627229
43	0x3d86b49b	0.065774165
44	0x3e9a61d0	0.3015275
45	0x3ebb8cd5	0.36630884
46	0xbe2b3836	-0.16720662
47	0x3e8a477a	0.27007657
48	0xbdc61961	-0.096728094
49	0xbe184b32	-0.14872435
50	0xbbb20e73	-0.0054338514
51	0xbe13e1d8	-0.14441621
52	0x3e2068a3	0.15664916
53	0xbdc63bc8	-0.09679371
54	0x3e00de93	0.12584905
55	0xbd63c96f	-0.055612024
56	0xbd7da707	-0.061926868
57	0x3d3bb1a9	0.045823727
58	0x3d19134e	0.037371926
59	0xbd389c1f	-0.045070764
60	0x3dd7ccd9	0.105371185
61	0x3df61e02	0.12017442
62	0xbe034539	-0.12819375
63	0xbdc147eb	-0.094375454
64	0x3e100c13	0.14067106
65	0xbde887d5	-0.11354033
66	0xbecec739	-0.4038637
67	0xbed9174f	-0.42400596
68	0xbfa99b02	-1.325043
69	0xbf774ff9	-0.96606404
70	0xbdbc8bbd	-0.092063405
71	0xbf0cea85	-0.5504535
72	0x3e47ee9b	0.19524615
73	0xbe83bcdc	-0.25730026
74	0x3ec4e30e	0.3845448
75	0xbf19de19	-0.6010452
76	0xbf07217c	-0.5278547
77	0xbeab66e4	-0.33476937
78	0x3f647b70	0.8925085
79	0x3dc14292	0.094365254
80	0xbd1e6d7b	-0.038678627
81	0xbe8ce72f	-0.2752013
82	0xbe7709e9	-0.24124874
83	0xbd573fdc	-0.052551135
84	0xbced10d3	-0.028938686
85	0xbdea814e	-0.11450444
86	0xbdb50dc0	-0.08840513
87	0xbe24cca7	-0.16093694
88	0x3b93520e	0.0044958657
89	0xbd6d94f6	-0.05800339
90	0xbc48b3b4	-0.012249876
91	0xbdf55402	-0.11978914
92	0xbdf88068	-0.121338665
93	0xbdd336c9	-0.10313184
94	0xbd77d98d	-0.060510207
95	0xbe0ee007	-0.13952647
96	0x3dcd6a9f	0.10030102
97	0x3eaa2349	0.33230045
98	0xbe930625	-0.28715625
99	0x3d8dc302	0.069219604
100	0xbf1189af	-0.56850713
101	0x3ee32f57	0.44372055
102	0xbe9f1d95	-0.31077257
103	0xbebe6403	-0.37185678
104	0xbeaca733	-0.33721313
105	0xbe40980b	-0.18808
106	0x3f217983	0.6307604
107	0x3f7b46e8	0.9815507
108	0x3df814cc	0.12113342
109	0xbe5b7071	-0.21429612
110	0xbebff7d8	-0.37493777
111	0xbe9add52	-0.3024698
112	0xbf0ee96c	-0.55824924
113	0xbcc4ab87	-0.024007572
114	0xbe0b1609	-0.13582624
115	0xbcece7f5	-0.0289192
116	0x3decd0ea	0.11563285
117	0xbe11fcb0	-0.14256549
118	0x3dac8a67	0.08424836
119	0xbdb8e2e7	-0.09027653
120	0x3c4c2bc8	0.01246161
121	0xbd994266	-0.074833676
122	0x3e24e20e	0.16101858
123	0xbe04dbf6	-0.12974533
124	0x3dc17df5	0.094478525
125	0x3d7e782e	0.06212633
126	0x3d6b4b11	0.057444636
127	0xbdc3bc1e	-0.09557365
128	0x3e9d4090	0.3071332
129	0xbe1bce30	-0.15215373
130	0xbe84df7a	-0.2595175
131	0xbb856568	-0.0040709265
132	0x3f8327cd	1.0246521
133	0xbe4d59dc	-0.2005381
134	0xbdb0b757	-0.08628719
135	0x3e01aead	0.1266429
136	0xbd306a83	-0.043070327
137	0xbd003b01	-0.03130627
138	0xbe7f052b	-0.24904315
139	0xbf8782fd	-1.058685
140	0xbe92da43	-0.28682145
141	0xbb05dc80	-0.0020425618
142	0x3ef86259	0.48512533
143	0xbe6edcd2	-0.23326424
144	0x3dabe081	0.0839243
145	0xbe5b04d2	-0.21388558
146	0x3e6ae446	0.22938642
147	0xbe3c1a83	-0.18369488
148	0xbd28ca51	-0.04120857
149	0xbdad55bb	-0.084636174
150	0xbd90d407	-0.07071691
151	0x3d1389e2	0.036020167
152	0xbcabc1c9	-0.020966427
153	0x3b1f70cd	0.002432871
154	0x3d876049	0.06610162
155	0xbcfe78c6	-0.031063449
156	0xbd3fbc91	-0.04681069
157	0x3c9aecc7	0.018911732
158	0xbcffd28d	-0.031228328
159	0xbd57c69b	-0.05267964
160	0x3e245324	0.1604734
161	0x3e7cce7c	0.24688143
162	0xbf71b4f5	-0.94416744
163	0x3d96ec74	0.073693186
164	0xbd207937	-0.0391781
165	0xbea8622b	-0.32887396
166	0xbd25acb2	-0.0404479
167	0xbed6b536	-0.41935128
168	0xbeb9575a	-0.36199456
169	0xbd25f7d0	-0.040519536
170	0x3e86a0d5	0.2629458
171	0xbf717305	-0.9431613
172	0xbf3ea2c2	-0.744671
173	0xbef11834	-0.47088778
174	0x3f0f001f	0.5585956
175	0xbe9dee0b	-0.30845675
176	0xbe192723	-0.14956336
177	0x3eb57196	0.35438222
178	0xbd39359b	-0.045217138
179	0x3e26a42a	0.16273561
180	0xbe78fc1c	-0.24314922
181	0x3d96877b	0.073500596
182	0xbe330594	-0.17482597
183	0x3dcdb6df	0.100446455
184	0x3a7f2a6d	0.00097338
185	0xbe1c703b	-0.15277188
186	0x3d95c7ea	0.07313521
187	0xbd89e4d3	-0.06733098
188	0xbdea54e2	-0.11441971
189	0x3e041fab	0.12902705
190	0xbda49ea0	-0.08038068
191	0xbd112747	-0.03543785
192	0xbe37dcd2	-0.1795533
193	0x3ea1d756	0.316096
194	0x3e2f52c3	0.17121415
195	0x3d761437	0.060077872
196	0x3eff7c5c	0.49899566
197	0xc0194299	-2.3946898
198	0xbddbdfbd	-0.10736034
199	0x3de31b7e	0.11089228
200	0xbb4fba72	-0.0031696823
201	0x3d640b8a	0.055675067
202	0xbf073019	-0.52807766
203	0xbf859e71	-1.0438977
204	0xbe69229d	-0.2276711
205	0xbed9f4b5	-0.4256951
206	0x3e6a7aa2	0.22898343
207	0xbe061a3b	-0.13095944
208	0x3efb295a	0.49054986
209	0xbe9998fb	-0.29999527
210	0x3d45290a	0.04813484
211	0x3dbb1eee	0.09136759
212	0xbbe6b6f8	-0.0070408545
213	0xbc44be20	-0.01200822
214	0xbe6ee9a7	-0.23331319
215	0xbcad14e4	-0.021128125
216	0xbdf0e2f8	-0.11762041
217	0x3d882207	0.06647115
218	0xbd684a55	-0.056711514
219	0xbe04ca34	-0.1296776
220	0xbcff82c7	-0.03119029
221	0xbdaf7f4f	-0.08569204
222	0xbd5d867e	-0.05408334
223	0xbe2c5461	-0.16829063
224	0x3dbdb7f7	0.09263604
225	0xbe40b149	-0.18817629
226	0x3e0b5172	0.13605288
227	0x3d3ccc81	0.046093468
228	0x3ec55be1	0.3854666
229	0x3e3d27f6	0.18472275
230	0x3e250c59	0.16117992
231	0x3dbf886a	0.09352191
232	0x3cf364e5	0.029711196
233	0x3d8b0054	0.06787172
234	0xbeb3b474	-0.35098612
235	0xbf750618	-0.95712423
236	0xbce69493	-0.028147018
237	0xbeb6198b	-0.35566363
238	0x3e63f53b	0.22261517
239	0xbeb8b6d5	-0.3607699
240	0x3e91c74e	0.2847237
241	0xbe3987fb	-0.18118279
242	0x3e7b4623	0.24538474
243	0xbe2201b7	-0.15820967
244	0xbe14d2e6	-0.14533576
245	0x3df9ff4f	0.122068994
246	0xbd36c71c	-0.04462348
247	0xbe67b2c8	-0.22626793
248	0x3d27d38e	0.04097324
249	0xbe1ab3e6	-0.15107688
250	0xbc7d5271	-0.01546155
251	0xbdb23348	-0.08701187
252	0xbd93fd5b	-0.07226058
253	0xbd65dd62	-0.05611933
254	0xbe2c05fe	-0.16799161
255	0x3e148719	0.1450466

a2c_network.actor_mlp.0.bias f4 [256]
0	0x3e25a631	0.16176678
1	0x3ea5a976	0.3235585
2	0x3dc45557	0.0958659
3	0xbea3fd66	-0.32029265
4	0x3d668d5d	0.05628716
5	0x3e5546f0	0.20827842
6	0xbe531a01	-0.20615388
7	0xbea568e0	-0.32306576
8	0xbd1061eb	-0.03524963
9	0xbe8814de	-0.2657842
10	0xbdcc13f7	-0.099647455
11	0xbb8727d1	-0.0041246195
12	0x3beb599b	0.0071823127
13	0xbe0113fc	-0.1260528
14	0x3df75ced	0.12078271
15	0xbe164fd8	-0.14678895
16	0x3e02c145	0.12769039
17	0x3e370b3d	0.17875381
18	0x3d6124c6	0.05496671
19	0x3e038e00	0.12847137
20	0x3e2484d7	0.160663
21	0xbe9325cd	-0.28739777
22	0xbe13e39d	-0.14442296
23	0x3e9750dd	0.2955388
24	0x3ead4cb1	0.33847573
25	0xbe233fe4	-0.15942341
26	0xbe40dd63	-0.18834452
27	0xbec451c1	-0.38343623
28	0xbeaafc1d	-0.33395472
29	0xbe20739f	-0.15669106
30	0xbeb45a0b	-0.35224947
31	0xbd959ccc	-0.07305297
32	0xbe21b8d7	-0.15793167
33	0xbe66cfd5	-0.22540219
34	0xbec95a17	-0.39326546
35	0x3e92c669	0.28667
36	0x3cc8161a	0.024424601
37	0x3e073a4e	0.13205835
38	0xbe4ab428	-0.19795287
39	0xbead4a99	-0.33845976
40	0x3cb7bc32	0.022428606
41	0xbdeb5317	-0.114904575
42	0x3ea509d7	0.3223407
43	0xbe0d50c9	-0.13800348
44	0xbe44a694	-0.1920417
45	0x3d8dda77	0.069264345
46	0xbcd58518	-0.02606444
47	0x3e2c9b14	0.16856033
48	0x3e95903f	0.29211614
49	0xbdf56c0a	-0.119834974
50	0xbddc92e0	-0.10770202
51	0xbe3899ea	-0.18027464
52	0xbe1ff1f5	-0.15619643
53	0x3ea320c4	0.31860936
54	0xbe02139f	-0.12702797
55	0x3e8b085b	0.27154812
56	0xbe8dfe39	-0.2773302
57	0xbcc9a052	-0.02461258
58	0x3e1ff9fa	0.15622702
59	0x3e74cdad	0.23906584
60	0x3e34cb2d	0.1765563
61	0x3e4f8b0a	0.20267883
62	0x3eb2d22a	0.34925967
63	0xbe1e9417	-0.1548618
64	0x3dd29b10	0.10283482
65	0xbf1522a4	-0.5825598
66	0x3db25c03	0.08708956
67	0x3cab950b	0.020945093
68	0xbe1a911f	-0.15094422
69	0x3e517a3f	0.2045679
70	0xbe565ab3	-0.20933037
71	0xbde7cf8b	-0.113188826
72	0x3ec7c582	0.39017874
73	0x3b221b94	0.0024735676
74	0x3de702ea	0.11279853
75	0x3e0ceb29	0.13761581
76	0x3e11966e	0.1421754
77	0x3e5d8804	0.21633917
78	0x3f096a20	0.5367756
79	0xbe376d1b	-0.17912714
80	0xbe45650d	-0.19276829
81	0x3e7abcf8	0.24486148
82	0x3dc92d76	0.09823124
83	0xbda323b6	-0.07965796
84	0x3e148e80	0.14507484
85	0x3edbdbbb	0.4294108
86	0x3dd3709d	0.10324214
87	0xbcba48c2	-0.022739772
88	0x3e0ba3dd	0.13636728
89	0xbd8aee3d	-0.067837216
90	0x3e2b7b9c	0.16746372
91	0x3e179cf5	0.14805968
92	0xbe157c1f	-0.1459813
93	0xbe8d5f6b	-0.2761186
94	0x3eef21bb	0.46705422
95	0x3dd2798b	0.10277089
96	0x3d0dabbb	0.034587603
97	0xbc02c0ab	-0.007980506
98	0x3d00f075	0.031479318
99	0xbd956ff9	-0.07296748
100	0xbe12e58d	-0.14345379
101	0xbe43bc2d	-0.19114752
102	0xbdadb960	-0.08482623
103	0xbe632275	-0.22181113
104	0xbe9b3157	-0.3031108
105	0x3e27fbbe	0.16404626
106	0xbd339de1	-0.043851737
107	0xbef939e8	-0.4867699
108	0x3ec71983	0.3888665
109	0x3ca55668	0.020182803
110	0xbd92f628	-0.07175857
111	0xbe31f8dc	-0.17380089
112	0xbe052b39	-0.1300477
113	0xbde847cc	-0.11341819
114	0x3e8eda4b	0.2790092
115	0xbeb90467	-0.3613617
116	0x3e8fe428	0.28103757
117	0x3e857dd8	0.26072574
118	0x3e18dc4b	0.14927785
119	0x3e52aa64	0.20572811
120	0xbe53a059	-0.20666637
121	0xbe65031b	-0.22364466
122	0xbe483e58	-0.19555032
123	0xbdec2065	-0.11529616
124	0x3e49c217	0.19702946
125	0x3eebb82d	0.46038952
126	0x3ea66277	0.32496998
127	0xbcf882ed	-0.030335868
128	0xbe5c8b4f	-0.21537517
129	0x3de3872e	0.11109768
130	0x3ecc6405	0.3992006
131	0xbd96698a	-0.07344349
132	0x3e9fc4c2	0.31204802
133	0x3d21616c	0.03939955
134	0xbe921a56	-0.28535718
135	0xbe6f122e	-0.23346779
136	0xbeb490ad	-0.3526663
137	0x3ec453e8	0.38345265
138	0x3dd486ea	0.10377295
139	0xbc1dc5f6	-0.009629717
140	0x3e265538	0.16243446
141	0x3de26546	0.110544726
142	0xbe31cdba	-0.17363635
143	0xbea61941	-0.32441142
144	0x3da6c497	0.08142965
145	0x3e8d7d4a	0.2763465
146	0x3ec57256	0.38563794
147	0x3cdd4db6	0.027014595
148	0xbe85c614	-0.26127684
149	0x3e10047e	0.14064214
150	0xbe28fa46	-0.16501722
151	0x3d5e0992	0.054208346
152	0x3eb3caa4	0.3511554
153	0x3e67fdb8	0.2265538
154	0xbc0c6338	-0.0085685775
155	0x3c624822	0.013811143
156	0x3d97f4f5	0.07419769
157	0xbe9756ec	-0.29558504
158	0x3e6a79ec	0.22898072
159	0x3d7687f4	0.06018825
160	0xbe2af475	-0.16694815
161	0x3e6e1b95	0.23252709
162	0x3e8de0fe	0.27710718
163	0xbe75b1d3	-0.23993616
164	0xbe1a7891	-0.15085055
165	0xbe28dbbd	-0.16490074
166	0xbec5bbe0	-0.386199
167	0xbecf164f	-0.40446708
168	0x3d0e3e0c	0.03472714
169	0xbdb626e9	-0.0889414
170	0xbdb5cb05	-0.088766135
171	0x3e4029e7	0.18765984
172	0xbeec25ff	-0.4612274
173	0x3e25f585	0.1620694
174	0x3eb0dec4	0.34544957
175	0x3eb47084	0.35242093
176	0x3d83264d	0.0640379
177	0x3e22bda0	0.15892649
178	0xbda2e176	-0.079531595
179	0xbe9c2c16	-0.30502385
180	0x3e71bebd	0.23607917
181	0xbe756eb6	-0.23968014
182	0x3e5f9cf7	0.21837221
183	0xbe0af1cd	-0.13568802
184	0x3e00233b	0.1251344
185	0x3e3feaf0	0.18741965
186	0xbdef3508	-0.11680037
187	0x3ec22dce	0.3792557
188	0xbe53251b	-0.20619623
189	0xbe3c9e30	-0.18419719
190	0xbe70fa7b	-0.2353305
191	0xbd85a7c4	-0.065261394
192	0x3e2484c3	0.1606627
193	0xbd2fe409	-0.04294208
194	0xbe48f7d8	-0.19625795
195	0x3c21b072	0.009868728
196	0x3e3028f9	0.1720313
197	0x3cc5fae7	0.024167491
198	0x3e29007e	0.16504094
199	0xbec69fa1	-0.38793662
200	0x3a9ef816	0.0012128379
201	0xbeb4f791	-0.35345128
202	0xbe4f1c7e	-0.20225713
203	0x3e542ac6	0.20719442
204	0x3ead28d8	0.33820224
205	0xbe1353b0	-0.14387393
206	0xbccf2c41	-0.025289657
207	0x3e989e1f	0.29808137
208	0xbddb26f4	-0.10700789
209	0x3e0ffec5	0.1406203
210	0x3e67dc15	0.22642548
211	0x3e78da95	0.24302132
212	0x3db43e07	0.08800893
213	0xbd513208	-0.051073104
214	0x3e812c83	0.25229272
215	0x3cf99141	0.03046477
216	0xbdcf2016	-0.10113542
217	0xbdd45a06	-0.10368733
218	0xbd8b17c7	-0.067916445
219	0x3e5ea512	0.21742657
220	0xbe97bddb	-0.29637036
221	0x3e28c561	0.16481544
222	0xbe845e60	-0.25853252
223	0xbe5dc95e	-0.21658847
224	0xbe09ab33	-0.13444214
225	0x3dd11ab1	0.10210169
226	0x3b027272	0.001990464
227	0x3d108cca	0.035290517
228	0xbe79880c	-0.24368304
229	0xbe2fa966	-0.17154464
230	0xbe51863c	-0.20461363
231	0x3ea55530	0.32291555
232	0x3e03a20e	0.12854788
233	0xbe789c57	-0.24278389
234	0x3eaa8200	0.33302307
235	0xbd5213bb	-0.051288348
236	0xbe01704c	-0.12640494
237	0x3e318444	0.17335612
238	0x3e310aa1	0.17289211
239	0xbe9faea8	-0.3118794
240	0xbe29c6a4	-0.16579682
241	0xbe8de7e3	-0.27715978
242	0x3da5158b	0.080607496
243	0xbd935748	-0.07194382
244	0x3d9eb7ad	0.07749877
245	0x3dcd482f	0.100235336
246	0x3ebc9874	0.36835063
247	0xbe8a8128	-0.27051663
248	0x3ebed164	0.37269127
249	0x3acd556b	0.0015665715
250	0xbe08fc5c	-0.13377517
251	0x3daa1dde	0.08306478
252	0xbe7bdebb	-0.24596684
253	0x3e08cee3	0.13360171
254	0xbd8596b8	-0.06522888
255	0xbe976c03	-0.29574594

a2c_network.actor_mlp.2.weight f4 [128, 256]
0	0xbf0d794f	-0.5526323
1	0x3e8bc6d2	0.27300125
2	0x3d03ed57	0.032208767
3	0xbe1f0978	-0.15530956
4	0xbe482ae9	-0.19547619
5	0xbee8a04e	-0.45434803
6	0xbe9e3d57	-0.30906174
7	0x3cc91072	0.024543975
8	0x3dcaa907	0.09895521
9	0x3e3522d1	0.17689063
10	0xbee0de16	-0.43919438
11	0xbe2c8597	-0.16847835
12	0xbe04edb2	-0.12981299
13	0x3ddeb5a2	0.108744875
14	0xbdfe4201	-0.12414933
15	0xbee1b453	-0.4408289
16	0xbe4bac3b	-0.1988992
17	0xbd6c1cf8	-0.057644814
18	0x3c821952	0.015881214
19	0x3d813245	0.06308416
20	0xbe1c497e	-0.1526241
21	0x3e3a639e	0.18202063
22	0xbe89d14b	-0.2691749
23	0x3db3d21d	0.0878031
24	0xbd18ea50	-0.037332833
25	0x3e6d04e1	0.23146392
26	0xbe2cea54	-0.16886264
27	0xbde9b5b6	-0.11411612
28	0x3eba8085	0.36426178
29	0x3edc231a	0.4299553
30	0x3eaa8bb1	0.333097
31	0x3e1a0438	0.15040672
32	0x3ccb0028	0.024780348
33	0x3ed1ec69	0.4100068
34	0xbe84bdb8	-0.25925994
35	0xbea20a4b	-0.31648478
36	0xbe4e7129	-0.20160355
37	0x3e4ddf4b	0.20104711
38	0xbe13c8c2	-0.14432052
39	0x3eb30e51	0.3497186
40	0x3d78e859	0.06076846
41	0x3e0e6a93	0.13907842
42	0xbe8b3077	-0.27185413
43	0xbe149f4f	-0.14513896
44	0x3ed2829e	0.41115278
45	0xbe7c82aa	-0.2465922
46	0xbeb10a97	-0.34578392
47	0xbe633bf5	-0.2219084
48	0x3e7a4de4	0.24443775
49	0x3eedea29	0.46467713
50	0x3e46cf7d	0.19415088
51	0xbe6b7b38	-0.22996223
52	0x3ededf7c	0.4352988
53	0xbf001e37	-0.50046104
54	0x3e16212e	0.14661095
55	0x3e180fb3	0.14849739
56	0xbd12ae73	-0.0358109
57	0xbe50db63	-0.2039619
58	0x3e6a7b33	0.2289856
59	0xbe4ef0ce	-0.20209047
60	0x3f1973bf	0.5994224
61	0xbe9a57f5	-0.3014523
62	0xbeac224d	-0.3361992
63	0xbe1ec36d	-0.15504237
64	0x3c834bce	0.016027357
65	0xbe2d2226	-0.16907558
66	0xbe9a79bb	-0.30170998
67	0x3e1872d8	0.1488756
68	0xbe1b6a73	-0.15177326
69	0x3d07005f	0.03295934
70	0x3e2f0c77	0.17094599
71	0xbd9d3d4b	-0.07677706
72	0xbe72a9ca	-0.23697582
73	0x3e0fcabc	0.14042181
74	0xbe879d45	-0.26487175
75	0xbe2a583e	-0.16635224
76	0xbeea6e7f	-0.45787427
77	0x3da083b8	0.07837623
78	0xbeb56b46	-0.35433406
79	0xbd0f3cb8	-0.034970015
80	0x3b934614	0.004494438
81	0xbe34cb35	-0.17655642
82	0x3e9631ac	0.29334772
83	0xbdb9ad87	-0.09066301
84	0x3b8ec1c9	0.004356597
85	0xbdec9a4c	-0.11552867
86	0xbc55a16f	-0.013038977
87	0xbee45a82	-0.44600302
88	0xbdc84751	-0.097792275
89	0x3b600a40	0.0034185797
90	0x3ded78a1	0.11595274
91	0xbd7e7507	-0.062123325
92	0xbe7ed752	-0.24886826
93	0xbd87cf3f	-0.06631326
94	0xbd12a37b	-0.03580044
95	0x3e7b12ef	0.24518941
96	0xbdeca005	-0.11553959
97	0xbc90d052	-0.01767746
98	0xbecc5963	-0.39911947
99	0x3e9db536	0.30802315
100	0xbe2e26c8	-0.17006981
101	0x3e1d7723	0.15377478
102	0x3e20a7a1	0.15688945
103	0x3e23f97c	0.1601314
104	0x3e98c7f1	0.29840043
105	0xbecb03f4	-0.39651453
106	0xbbaa9db3	-0.0052067875
107	0x3e93e165	0.288829
108	0xbdf6b736	-0.120466635
109	0x3df96365	0.12177161
110	0x3e65ab78	0.22428691
111	0x3e1d3682	0.15352824
112	0x3e1ab4fe	0.15108106
113	0x3e89920a	0.2686923
114	0x3ea1a858	0.3157375
115	0x3efab52a	0.48966342
116	0x3c6905e7	0.014222599
117	0x3dba9d95	0.09112088
118	0x3d0eb592	0.034841128
119	0x3cf8727e	0.030328032
120	0x3e10db3a	0.14146128
121	0xbd0671f1	-0.032823507
122	0x3e9c72a1	0.30556205
123	0x3dc3c3ef	0.09558856
124	0x3cc65201	0.024209024
125	0xbe0ab69a	-0.1354622
126	0xbe5cac29	-0.21550049
127	0x3ddc4c4d	0.10756741
128	0x3ea31d06	0.3185808
129	0xbd48578e	-0.048911624
130	0x3e54fa16	0.20798525
131	0xbecc2bc6	-0.39877146
132	0xbe8047b2	-0.250547
133	0xbe841aa5	-0.25801578
134	0x3e89973d	0.26873198
135	0x3e82d476	0.2555272
136	0xbdda70e7	-0.10666066
137	0xbbfd00c9	-0.007721041
138	0x3e310aca	0.17289272
139	0x3e9b4228	0.3032391
140	0xbe12e53f	-0.14345263
141	0x3e8b8bf3	0.2725521
142	0x3e9dd33d	0.30825225
143	0xbcb4e8ee	-0.022083726
144	0x3da4352b	0.080179535
145	0xbe9aa483	-0.30203637
146	0xbcae87d1	-0.021304997
147	0x3b067694	0.0020517455
148	0x3e46b6af	0.19405626
149	0xbebbc605	-0.36674514
150	0x3e6c7fa1	0.23095562
151	0x3e31a87a	0.17349425
152	0x3e4d6518	0.20058095
153	0xbd333b6f	-0.043757852
154	0xbe214b1a	-0.15751305
155	0x3bb4def5	0.0055197426
156	0xbe04a0b6	-0.12951931
157	0xbeb4c073	-0.35303077
158	0xbe175bd6	-0.14781126
159	0xbf7f283d	-0.99670774
160	0xbdb5cdf2	-0.088771716
161	0xbeaf9da5	-0.3429996
162	0xbf0dcf04	-0.55394006
163	0xbecd1b2d	-0.40059796
164	0x3c971115	0.018440763
165	0x3e8309ad	0.2559332
166	0xbe9b80f6	-0.30371827
167	0xbc86325d	-0.016381437
168	0xbe801e04	-0.250229
169	0x3e4f4013	0.20239286
170	0xbe287548	-0.16450989
171	0xbf9a2583	-1.2042698
172	0x3e961760	0.2931471
173	0xbe40f9bb	-0.18845265
174	0xbe435777	-0.19076334
175	0xbe784237	-0.24244009
176	0xbe70b2a6	-0.23505649
177	0x3de0030d	0.10938082
178	0xbdce793d	-0.10081718
179	0x3d1d2749	0.038367543
180	0x3e179401	0.14802553
181	0x3b884157	0.0041581797
182	0x3d4bf1ad	0.049791027
183	0x3e2a95f8	0.16658771
184	0xbde306ac	-0.11085257
185	0x3d9e7191	0.07736505
186	0xbe6e3a7e	-0.232645
187	0xbd51f6e6	-0.05126085
188	0x3e1ebe0a	0.15502182
189	0x3e04ef7a	0.12981978
190	0x3eb71d27	0.3576443
191	0x3caf9f77	0.021438343
192	0x3e178877	0.14798151
193	0x3c4e7a2c	0.01260237
194	0x3e26e64d	0.1629879
195	0x3dcb8591	0.09937585
196	0x3e830050	0.25586176
197	0x3e4917b7	0.19637953
198	0xbef5e558	-0.48026538
199	0x3d9de70c	0.07710084
200	0x3d371f49	0.04470757
201	0x3e6dfe28	0.23241484
202	0x3e7b9017	0.24566685
203	0xbdf41643	-0.119183086
204	0xbe36b268	-0.17841494
205	0x3e782b4e	0.2423527
206	0xbe599d9a	-0.21251526
207	0xbec442b0	-0.3833213
208	0x3f2a4b8b	0.6652152
209	0x3e79ec73	0.24406604
210	0xbf84a51f	-1.0362891
211	0xbec3b513	-0.38224086
212	0xbc1b2099	-0.009468221
213	0x3e2fd1fe	0.1716995
214	0xbaa2a4c4	-0.0012408723
215	0xbdc93427	-0.098244004
216	0x3d8bdddf	0.06829428
217	0xbe2797be	-0.16366479
218	0xbe533498	-0.20625532
219	0xbebeb6f6	-0.37248963
220	0x3e45fce9	0.19334759
221	0xbefa2f91	-0.48864415
222	0xbe43fd8d	-0.1913969
223	0xbd32d00d	-0.043655444
224	0x3e05e332	0.1307495
225	0xbe63eaff	-0.22257613
226	0x3dbcd003	0.092193626
227	0xbea87c8e	-0.32907528
228	0xbdc66f4d	-0.09689198
229	0xbf234765	-0.63780814
230	0x3d3733c4	0.044727102
231	0xbed0237d	-0.40652075
232	0xbc4cfc7c	-0.012511369
233	0xbe80a173	-0.25123176
234	0x3dc011f2	0.09378423
235	0xbdcc949c	-0.099892825
236	0x3ec4c1be	0.38429064
237	0xbe0256c1	-0.12728406
238	0xbdaf5cf3	-0.085626505
239	0xbdfb3749	-0.12266404
240	0x3cc8d717	0.024516625
241	0x3d5b9b24	0.05361475
242	0x3e0c97f8	0.13729846
243	0xbd4a4510	-0.04938227
244	0xbdb3fb08	-0.08788115
245	0xbe3d3ac1	-0.18479444
246	0xbe033c1d	-0.128159
247	0xbded8ba5	-0.11598901
248	0xbe428af6	-0.18998322
249	0xbe874cbd	-0.26425734
250	0x3dfb477d	0.12269495
251	0xbf268d27	-0.6505913
252	0xbe69a94d	-0.2281849
253	0x3cc4835a	0.023988415
254	0x3d7307fc	0.059333786
255	0x3cc04c79	0.023473965

a2c_network.actor_mlp.2.bias f4 [128]
0	0xbdb1ffcc	-0.086913675
1	0x3dca3ec6	0.09875254
2	0x3e7d4acc	0.24735564
3	0xbdc8e26e	-0.09808813
4	0x3e37e961	0.1796012
5	0xbe85fb96	-0.26168507
6	0xbe1f6e5d	-0.15569444
7	0xbdd47b80	-0.10375118
8	0xbf272e29	-0.6530481
9	0xbc6ffc59	-0.014647567
10	0xbf137ad8	-0.5760932
11	0x3c9a8ea3	0.018866843
12	0xbe9400e9	-0.28906944
13	0xbec81d61	-0.39084914
14	0xbe3bd731	-0.18343808
15	0xbe4c4413	-0.19947843
16	0xbe1a9a09	-0.15097822
17	0xbd1ed661	-0.038778666
18	0xbdcfa33b	-0.101385556
19	0xbeb92706	-0.36162585
20	0xbb16e767	-0.002302611
21	0xbe286201	-0.16443636
22	0xbe91da1e	-0.28486723
23	0x3e1f3e97	0.1555122
24	0xbe217760	-0.15768194
25	0xbd030620	-0.031988263
26	0xbe72475a	-0.23660031
27	0xbf5a2b68	-0.8522248
28	0xbe660b4c	-0.22465247
29	0xbd2a2a43	-0.04154421
30	0xbd29c649	-0.041448865
31	0xbf3c75d7	-0.7361731
32	0xbe335221	-0.17511798
33	0xbeb55fe7	-0.3542473
34	0xbebbf90b	-0.36713442
35	0x3dc9c5dd	0.098521926
36	0xbec0b9c8	-0.3764174
37	0xbf19034d	-0.5977066
38	0xbe54fb39	-0.20798959
39	0xbf2bf6e0	-0.67173576
40	0x3c33a4b8	0.010964565
41	0xbddd0470	-0.10791862
42	0xbb473e28	-0.0030402038
43	0xbeda2cda	-0.42612344
44	0xbdb07447	-0.08615928
45	0x3db7f1c3	0.08981659
46	0xbee8cdff	-0.45469663
47	0xbd0845d1	-0.033269707
48	0xbe890312	-0.26760155
49	0xbd142528	-0.036168247
50	0xbe0f5338	-0.13996589
51	0x3b29726b	0.0025855552
52	0x3d0f841f	0.03503811
53	0xbdde317f	-0.108492844
54	0x3e318102	0.17334369
55	0xbdec8968	-0.11549646
56	0xbeb28a80	-0.34871292
57	0xbe98df3b	-0.2985781
58	0xbe7e9bca	-0.24864116
59	0xbeac4822	-0.33648783
60	0x3d695795	0.05696829
61	0xbe32a733	-0.17446594
62	0xbe6a827e	-0.22901341
63	0x3d0b0a8f	0.033945616
64	0xbdd61170	-0.10452545
65	0xbc7bae70	-0.015361413
66	0xbd3140f7	-0.043274846
67	0xbf2f3d02	-0.68452466
68	0x3cfcfc5a	0.03088205
69	0xbe8a3e9b	-0.2700089
70	0x3d059618	0.032613844
71	0xbe902a13	-0.281571
72	0xbf3204c2	-0.6953851
73	0xbeebb7a1	-0.46038535
74	0x3ca4519d	0.020058447
75	0xbdaf0aa7	-0.08546954
76	0xbeb0a088	-0.34497476
77	0xbee969a7	-0.4558842
78	0xbe35d39c	-0.17756504
79	0xbe8a1799	-0.2697113
80	0xbf5985b3	-0.84969634
81	0xbed2ba4f	-0.41157767
82	0x3dd8f161	0.105929144
83	0xbaf89d54	-0.0018967786
84	0xbefb7138	-0.49109817
85	0xbee4026c	-0.44533098
86	0xbed1792f	-0.40912768
87	0xbf03f503	-0.51545733
88	0xbe02446a	-0.1272141
89	0xbee8e88a	-0.45489913
90	0xbeac9225	-0.3370525
91	0xbe2e4e47	-0.17022048
92	0xbe5632f4	-0.20917875
93	0xbe1ec167	-0.15503465
94	0xbec2804e	-0.37988514
95	0x3e10fba4	0.14158493
96	0x3d3a4262	0.045473464
97	0x3d94e98e	0.072711095
98	0xbe30ecf5	-0.17277892
99	0x3d299ec5	0.04141118
100	0xbe980100	-0.29688263
101	0xbea2e2f6	-0.31813782
102	0x3d3d5fb9	0.046233866
103	0xbd595a04	-0.05306436
104	0xbea2a9f2	-0.31770283
105	0xbec1f93b	-0.3788546
106	0xbe811e6f	-0.2521853
107	0x3cdebc86	0.027189504
108	0xbf243fdf	-0.6415996
109	0xbdc95150	-0.09829962
110	0x3e60b428	0.21943724
111	0xbd1b1bc0	-0.03786826
112	0xbf1a3c77	-0.6024851
113	0xbe2c193e	-0.16806504
114	0x3d9ef5ea	0.07761748
115	0xbec1730f	-0.37783095
116	0xbda4de2c	-0.080501884
117	0xbf2361ce	-0.63821113
118	0x3de53c94	0.11193195
119	0xbe2ec275	-0.17066367
120	0xbecf913b	-0.4054049
121	0xbea61e71	-0.324451
122	0xbe856ae8	-0.26058125
123	0xbc942611	-0.018084558
124	0xbe8b5101	-0.2721024
125	0x3c9040c3	0.017609006
126	0xbea8c92e	-0.32965988
127	0xbd2529db	-0.04032312

a2c_network.actor_mlp.4.weight f4 [64, 128]
0	0xbad5206c	-0.0016260273
1	0xbe9d5ec8	-0.30736375
2	0x3cede1d4	0.029038347
3	0x3ca3d6df	0.01999992
4	0xbf2872c0	-0.65800095
5	0x3c4f20f0	0.01264213
6	0x3e172c6f	0.14763044
7	0x3d0c3735	0.034232337
8	0x3e3adceb	0.18248336
9	0x3e5c757a	0.21529189
10	0xbaa46929	-0.0012543547
11	0x3d86151a	0.065469936
12	0xbdd54869	-0.10414202
13	0xbe53b003	-0.20672612
14	0xbe45eb0d	-0.19327946
15	0x3d1f4a6f	0.038889345
16	0x3d9b9b74	0.0759801
17	0xbdaf45b0	-0.08558214
18	0x3da99d7e	0.082819924
19	0xbdc37a76	-0.09544842
20	0x3bb0de1f	0.0053975726
21	0xbde1d600	-0.110271454
22	0xbd24d27c	-0.040239796
23	0x3d6f59e6	0.058435343
24	0x3e25609c	0.16150135
25	0xbdbc4ae0	-0.09193969
26	0xbd85c245	-0.065311946
27	0x3e10de76	0.14147362
28	0xbdcfbbdd	-0.10143254
29	0xbce18a2b	-0.027531704
30	0x3d570a34	0.052499965
31	0x3df56185	0.11981491
32	0x3c260ad5	0.0101344185
33	0xbd655d5e	-0.055997245
34	0xbd73283f	-0.059364554
35	0xbe225645	-0.15853222
36	0xbccfa470	-0.025346965
37	0x3c993761	0.018703165
38	0xbddacfe4	-0.10684183
39	0x3e14efef	0.14544652
40	0xbdd22423	-0.10260799
41	0xbbd242d7	-0.0064166593
42	0xbd85eb08	-0.06538969
43	0xbd9b9303	-0.075964
44	0xbdd7b2d6	-0.10532157
45	0x3e16a065	0.14709623
46	0xbcd80be0	-0.02637285
47	0xbe227c7a	-0.15867797
48	0x3e168a8a	0.14701286
49	0xbde3133a	-0.110876516
50	0xbe2d6c63	-0.16935878
51	0xbe19fe6b	-0.15038459
52	0x3d7daa19	0.061929796
53	0xbd75b8c8	-0.059990674
54	0xbe65f5e0	-0.22457075
55	0xbeca0f7d	-0.39464942
56	0x3e2ec345	0.17066677
57	0x3e04f18e	0.12982771
58	0x3e2897e1	0.16464187
59	0x3e07c809	0.13259901
60	0x3e191058	0.14947641
61	0xbdf23086	-0.11825661
62	0xbdb255c8	-0.08707768
63	0x3b9902c7	0.0046695205
64	0xbca8eab8	-0.020619735
65	0xbe2826d5	-0.16421063
66	0x3da565c6	0.08076052
67	0x3e0049ba	0.12528124
68	0xbe74e83c	-0.23916715
69	0x3d63ee0f	0.055646952
70	0xbe767a78	-0.24070156
71	0xbe50a4fd	-0.20375438
72	0x3e758fbb	0.2398061
73	0xbd25bc58	-0.04046282
74	0x3d43e1f3	0.047822904
75	0xbe1d62ae	-0.15369675
76	0x3cada715	0.021197835
77	0x3e1f43e3	0.1555324
78	0xbe7ca047	-0.24670516
79	0x3c71d70d	0.014760745
80	0x3c8e4381	0.017366173
81	0x3d657ecd	0.05602913
82	0xbda795fd	-0.08182905
83	0xbda9a1b9	-0.08282799
84	0x3ddafcc1	0.1069274
85	0x3db04521	0.08606935
86	0x3e0c46f4	0.13698941
87	0x3d2550df	0.040360328
88	0x3d744c4a	0.059643067
89	0x3de4f659	0.111797996
90	0xbd2c6dca	-0.04209689
91	0xbbaf0216	-0.005340825
92	0xbdcaa0d5	-0.098939575
93	0xbd66ba13	-0.056329798
94	0x3bbe5789	0.005808775
95	0x3d980f6e	0.07424818
96	0x3cef5a2f	0.029217808
97	0x3d1029b0	0.035196006
98	0xbd149a66	-0.03628006
99	0xbe510240	-0.20411015
100	0x3e16a901	0.14712907
101	0x3e661d65	0.2247215
102	0x3c2ad651	0.010427074
103	0x3e6e0364	0.23243481
104	0xbe56f8c3	-0.20993333
105	0x3e1d9452	0.15388611
106	0x3d21babf	0.039484736
107	0x3e276092	0.16345432
108	0x3e393495	0.18086465
109	0xbd4f1e01	-0.050565723
110	0x3d73f206	0.059556983
111	0xbc741125	-0.014896666
112	0x3e56cd86	0.20976838
113	0x3cf106d7	0.029422207
114	0xbda62bd6	-0.0811383
115	0xbd33bb12	-0.043879576
116	0x3d11e379	0.035617325
117	0x3dda7303	0.10666468
118	0xbd2f3ad1	-0.0427807
119	0x3e157808	0.1459657
120	0xbe211aec	-0.15732926
121	0xbd4e7efa	-0.050414063
122	0xbb20d997	-0.0024543756
123	0xbb64f26a	-0.003493453
124	0xbdb93977	-0.09044164
125	0xbe61f5b9	-0.22066392
126	0xbd8dd004	-0.069244415
127	0x3d9f632c	0.077825874
128	0x3c94ea1e	0.018178042
129	0xbd185fcb	-0.03720073
130	0xbe14e8e0	-0.1454196
131	0x3e17851a	0.14796868
132	0xbe6adc04	-0.22935492
133	0xbe4f2084	-0.20227247
134	0xbde75551	-0.1129557
135	0x3daca2ae	0.08429466
136	0x3e5a83b9	0.2133931
137	0xbdc4fc8d	-0.09618483
138	0xbe0b0caf	-0.13579057
139	0x3e442984	0.19156462
140	0xbd5c73e4	-0.05382146
141	0xbdafb22a	-0.08578904
142	0xbe6adaf3	-0.22935085
143	0xbd16c2f8	-0.03680703
144	0xbcaaada7	-0.020834757
145	0xbdac2d90	-0.08407128
146	0x3de48d04	0.11159709
147	0x3c054721	0.008134634
148	0xbd9c5217	-0.07632845
149	0xbd89f148	-0.06735474
150	0x3d29163b	0.041280966
151	0x3aa7bd28	0.0012797462
152	0x3d175349	0.03694466
153	0x3ba12489	0.0049176854
154	0x3c26d12f	0.010181709
155	0xbd57f07c	-0.05271958
156	0xbd508269	-0.05090562
157	0x3dabfa02	0.083972946
158	0xbe134250	-0.14380765
159	0x3d867419	0.065651126
160	0x3d87fc5e	0.06639932
161	0x3d823047	0.063568644
162	0xbee0058a	-0.43754226
163	0xbe3ad3c8	-0.1824485
164	0xbe92980e	-0.28631634
165	0x3cad79eb	0.0211763
166	0x3d85dc80	0.06536198
167	0x3e84fe87	0.2597544
168	0x3da9ded0	0.08294451
169	0xbe78d846	-0.24301252
170	0x3dd14d82	0.102198616
171	0x3e3733d1	0.1789086
172	0xbd5ada53	-0.053430866
173	0x3d4ebdc5	0.050473947
174	0xbd5af19a	-0.053453065
175	0xbebd8f59	-0.37023428
176	0xbd939861	-0.07206798
177	0xbe1f6546	-0.15565977
178	0x3cddc631	0.027072044
179	0xbd2bce12	-0.04194457
180	0xbe00b524	-0.125691
181	0xbd4ca836	-0.049965106
182	0x3d918ce4	0.07106951
183	0xbe81d105	-0.25354782
184	0x3d0b3877	0.033989396
185	0x3d692f56	0.05692991
186	0x3e3d51c6	0.18488225
187	0x3d16ecf9	0.03684709
188	0xbd70e976	-0.058816396
189	0xbdbaea57	-0.09126728
190	0xba91364f	-0.0011078807
191	0xbc80110e	-0.015633132
192	0xbd8cb632	-0.068706885
193	0xbdbdb855	-0.09263674
194	0x3d19da66	0.037561797
195	0x3e2d6a4e	0.16935083
196	0xbcc6ba49	-0.02425875
197	0xbdc02be3	-0.09383371
198	0x3af8f3ea	0.001899359
199	0xbe3892bd	-0.18024726
200	0xbe06d1ba	-0.13165942
201	0xbb969218	-0.0045950525
202	0x3d48148e	0.048847727
203	0x3de80ac0	0.113301754
204	0xbcd92eaf	-0.026511518
205	0x3e5f3330	0.2179687
206	0xbd18b6fb	-0.03728388
207	0x3e3d5373	0.18488865
208	0x3e5ccbee	0.21562168
209	0x3e55526a	0.2083222
210	0x3e09ea40	0.13468266
211	0xbd9daefb	-0.076993905
212	0x3c63363d	0.013867912
213	0x3daacdcb	0.08340033
214	0xbe1e6c6c	-0.15471047
215	0x3bbb75eb	0.005720844
216	0x3de1b2d2	0.110204354
217	0xbe2492dc	-0.16071647
218	0xbe600278	-0.21875942
219	0xbe8141a9	-0.25245407
220	0xb94a16ee	-0.00019272763
221	0xbdbddac1	-0.092702396
222	0xbd9ef8f7	-0.0776233
223	0xbe0f5b43	-0.13999657
224	0x3d94d205	0.072666205
225	0x3d7d9b2c	0.06191556
226	0x3d9cca98	0.07655829
227	0x3e09ce62	0.13457635
228	0xbbf54888	-0.007485453
229	0x39e82c20	0.00044283364
230	0xbdd5bf02	-0.104368225
231	0x3d2a4ed8	0.041579098
232	0x3daddba8	0.08489162
233	0xbdb7f03b	-0.08981367
234	0xbd437fa9	-0.047729168
235	0x3dec98bc	0.11552569
236	0x3df40a1d	0.119159915
237	0xbdb9e4ed	-0.09076867
238	0x3e0be4b3	0.1366146
239	0xbe08f304	-0.13373953
240	0xbe2228e3	-0.1583591
241	0x3dc081fc	0.093997926
242	0xbdd41145	-0.103548564
243	0x3c62374b	0.013807128
244	0x3e036129	0.12830032
245	0x3cae9874	0.02131293
246	0xbe952094	-0.29126418
247	0xbddd62d6	-0.10809867
248	0x3d1c3a93	0.0381418
249	0x3e1e0535	0.15431674
250	0xbd936002	-0.071960464
251	0x3b4d9441	0.0031368884
252	0xbe97705c	-0.2957791
253	0x3d1fa29e	0.038973443
254	0xbb3c4e17	-0.0028733069
255	0x3e0ef7e5	0.13961752

a2c_network.actor_mlp.4.bias f4 [64]
0	0xbe6ce827	-0.23135434
1	0xbd57575c	-0.052573547
2	0xbe4a3053	-0.19744997
3	0xbeb1dad3	-0.34737262
4	0xbd8f39ea	-0.06993468
5	0xbcd846b2	-0.026400898
6	0xbebd83cc	-0.37014616
7	0xbd920f1d	-0.07131789
8	0xbf168a9e	-0.58805263
9	0xbe4301fc	-0.19043726
10	0xbe039cff	-0.12852858
11	0xbdc20ff1	-0.09475697
12	0xbd117b2d	-0.03551786
13	0xbda36d00	-0.079797745
14	0xbe51b2d1	-0.2047837
15	0xbf302c9d	-0.68818074
16	0x3c9eadf4	0.019370057
17	0xbe36ff0a	-0.17870727
18	0xbd4e85e5	-0.05042066
19	0xbedacd63	-0.42734823
20	0xbdbf1ae5	-0.093313016
21	0xbe0f28e0	-0.13980436
22	0xbeccc940	-0.39997292
23	0xbe66b8c5	-0.22531421
24	0xbed15e5d	-0.40892306
25	0xbe87081d	-0.26373377
26	0xbdef23cd	-0.1167675
27	0x3d72ea7d	0.059305657
28	0xbed73602	-0.42033392
29	0xbf098f6d	-0.53734475
30	0xbde93292	-0.11386599
31	0x3ca6f3fc	0.020380013
32	0xbeaea8da	-0.341132
33	0xbe19152c	-0.14949483
34	0xbd2b30ed	-0.041794706
35	0xbde0e6e3	-0.10981538
36	0x3d8b9c4f	0.06816923
37	0xbf1594bc	-0.58430076
38	0xbe5b6da6	-0.21428546
39	0xbc8319a8	-0.016003445
40	0xbdc11ef8	-0.09429735
41	0x3babdf0a	0.005245094
42	0x3d0cc99d	0.03437196
43	0xbeb8db27	-0.361047
44	0xbe0d2b91	-0.1378615
45	0xbe9df8c9	-0.3085387
46	0x3cb98400	0.02264595
47	0xbe3334c4	-0.17500597
48	0xbe95c49b	-0.2925156
49	0xbd905820	-0.070480585
50	0xbebaff07	-0.36522695
51	0xbe8feec4	-0.2811185
52	0xbf00c1bf	-0.50295633
53	0xbe9ddab4	-0.3083092
54	0x3ca8e59c	0.020617299
55	0xbe3fcec7	-0.18731223
56	0x3d5d322d	0.05400293
57	0x3d81795e	0.06321977
58	0xbeba58f0	-0.3639598
59	0xbda3525f	-0.079746954
60	0xbc8be0de	-0.017074998
61	0xbe2122c4	-0.15735918
62	0xbe0a90f8	-0.13531864
63	0xbd0838ec	-0.03325741

a2c_network.value.weight f4 [1, 64]
0	0x3c71b967	0.014753676
1	0xbc86858b	-0.0164211
2	0x3cfa8377	0.030580265
3	0xbc9ff29d	-0.019524867
4	0xbbb6a36f	-0.005573682
5	0x3d4873b0	0.048938453
6	0xbc310419	-0.0108042
7	0xbe990bc9	-0.29891804
8	0x3be752bb	0.007059423
9	0x3e89eb8a	0.26937515
10	0x3d023a7c	0.031794056
11	0xbc10bc40	-0.008833945
12	0xbb9e8f65	-0.0048388713
13	0x3c8fcd9c	0.017554097
14	0xbbaad0cd	-0.0052128793
15	0xbdcc4ad8	-0.09975213
16	0x3d18683b	0.037208777
17	0xbbdb4510	-0.0066915825
18	0xbc42fa69	-0.011900523
19	0x3c57e424	0.013176952
20	0x3d79576b	0.060874384
21	0x3f0756cc	0.52866817
22	0xbbf4a4d0	-0.0074659362
23	0x3baca619	0.005268824
24	0xbcd301f1	-0.025757762
25	0xbb94f185	-0.004545393
26	0x3cbfbf98	0.023406789
27	0x3b70bdd2	0.0036734235
28	0xbeb6ed4c	-0.35727918
29	0xbe993b28	-0.29927945
30	0x3d0f4e7e	0.034986965
31	0x3d14a0ed	0.036286283
32	0xbbc3b5eb	-0.005972614
33	0x3ccd4288	0.025056139
34	0x3c72cb78	0.014819019
35	0x3bd37d16	0.0064541204
36	0xbc31bf5f	-0.010848849
37	0xbe26d352	-0.1629155
38	0x3ea5d3fa	0.32388288
39	0x3d359814	0.044334486
40	0x3c5e135f	0.013554423
41	0x3f51e3df	0.8198833
42	0xbb85c4a0	-0.0040822774
43	0xbd05adb3	-0.032636356
44	0xbb00d42b	-0.0019657712
45	0xbe399e58	-0.1812681
46	0xbb678f46	-0.00353332
47	0xbc0b58c3	-0.008505049
48	0x3d32e637	0.04367658
49	0x3bce68a0	0.0062990934
50	0x3b115db1	0.0022181089
51	0x3904098a	0.00012592055
52	0xbd75aef0	-0.059981287
53	0xbcb4eae0	-0.022084653
54	0xbc09d14d	-0.008411718
55	0x3afb55f1	0.0019175393
56	0x3c0133b5	0.007885863
57	0x3d5b133f	0.05348515
58	0xbe02044e	-0.12696955
59	0x3d02e5f1	0.03195757
60	0x3c41befc	0.011825319
61	0xbdc20e35	-0.09475366
62	0xbb98d685	-0.0046642446
63	0x3cc0eb63	0.023549741

a2c_network.mu.weight f4 [12, 64]
0	0xbd8796e6	-0.066205785
1	0x3be7cbc3	0.007073851
2	0xbd983207	-0.07431417
3	0xbd95dd70	-0.073176265
4	0xbc737d04	-0.014861349
5	0x3b8c5140	0.0042821467
6	0xbd3798b7	-0.044823375
7	0x3d63b975	0.055596787
8	0xbdfcd2f5	-0.12344924
9	0xbc2c06db	-0.010499681
10	0xbb01137d	-0.0019695454
11	0xbcae4021	-0.021270813
12	0x3db2eb32	0.08736266
13	0x3babed09	0.0052467627
14	0x3d91961a	0.07108708
15	0xbd7e2ee7	-0.06205645
16	0xbbd4ff55	-0.0065001645
17	0xbd145ad1	-0.03621942
18	0x3c93205e	0.01795977
19	0xbd0e1d81	-0.034696106
20	0x3d125120	0.035721898
21	0x3cc456db	0.023967197
22	0xbe2cfea0	-0.16894007
23	0xbc9275dd	-0.017878467
24	0xbe58e04d	-0.21179314
25	0xbd12ead0	-0.035868466
26	0xbc3ed911	-0.011648432
27	0xbadf18f5	-0.0017020988
28	0xbb85e1e1	-0.0040857648
29	0xbe251981	-0.1612301
30	0x3c0f678b	0.008752714
31	0x3c8bdab6	0.017072063
32	0xbc13f904	-0.009031538
33	0x3c0a5aea	0.008444527
34	0xbd0199a3	-0.03164066
35	0xbc9e374f	-0.019313483
36	0x3a8f50ea	0.0010934148
37	0xbe31275f	-0.17300175
38	0x3cf3d289	0.029763477
39	0x3c54b543	0.012982669
40	0xbbe2134c	-0.006899273
41	0xbb780656	-0.0037845573
42	0xb8e81b41	-0.000110676985
43	0x3d40f543	0.0471089
44	0xbd38e444	-0.045139566
45	0xbe401273	-0.18757038
46	0x3d0c37cb	0.034232896
47	0xbd15bb07	-0.036555316
48	0xbdc1fda8	-0.09472209
49	0x3e17576f	0.14779447
50	0xbcfb45a9	-0.030672865
51	0xbc1d0211	-0.009583012
52	0xbe515920	-0.20444155
53	0xbd0e384d	-0.03472166
54	0xba87b547	-0.0010353707
55	0x3cf764a3	0.030199355
56	0xbd215f0f	-0.039397296
57	0xbb2da916	-0.0026498488
58	0xbddca50c	-0.10773668
59	0x3c43836b	0.011933188
60	0xbb3662f0	-0.0027829967
61	0xbb913d83	-0.0044323816
62	0xbbb0702d	-0.005384466
63	0x3cae974e	0.021312382
64	0xbcb7fda8	-0.02245982
65	0x3d5989ae	0.053109817
66	0x3d8b045d	0.067879416
67	0x3d4094fb	0.04701708
68	0xbc576a01	-0.013147832
69	0x3c5abd4b	0.013350795
70	0xbcd4d0cd	-0.02597847
71	0xbd8b6dbf	-0.06808042
72	0xbde14a75	-0.1100053
73	0xbca5d1e2	-0.020241681
74	0xbc108f56	-0.008823236
75	0x3d18e984	0.037332073
76	0x3d4ea4f3	0.050450277
77	0xbb9b7f54	-0.0047454033
78	0x3dc10afa	0.09425922
79	0x3d7ab287	0.061205413
80	0xbc291865	-0.0103207575
81	0xbcdff29d	-0.027337367
82	0x3cbab793	0.022792613
83	0x3d17a16d	0.037019182
84	0x3c5ab83a	0.013349587
85	0xbcc797de	-0.024364408
86	0xbd07aa0c	-0.033121154
87	0xbaf310ae	-0.00185444
88	0xbb4a56be	-0.0030874456
89	0xbcae0ef9	-0.021247374
90	0x3b0f784b	0.0021891769
91	0x3d0c4d30	0.0342533
92	0xbc0e5b70	-0.008688793
93	0x3de17894	0.110093266
94	0xbc48219b	-0.012215043
95	0xbc297ea0	-0.010345131
96	0x3cd96886	0.026539098
97	0xbd439707	-0.047751453
98	0x3c6fbc19	0.014632248
99	0x3d7326f2	0.059363313
100	0xbca63d52	-0.020292912
101	0xbcb370b1	-0.021904321
102	0xbd1f6257	-0.038912144
103	0xbc4fa74f	-0.012674167
104	0x3c328a48	0.010897227
105	0x3d020b55	0.03174909
106	0x3aed7367	0.0018116058
107	0x3a402c9b	0.00073308655
108	0xbdc3f929	-0.09569008
109	0x3df1b8a8	0.118027985
110	0xbd63dcca	-0.055630483
111	0xbd281d0d	-0.04104333
112	0x3da5f3cc	0.08103141
113	0x3e20b373	0.15693454
114	0x3d7666a6	0.060156487
115	0x3bb0bfd3	0.005393961
116	0xbd8630a1	-0.06552244
117	0xbd620757	-0.05518278
118	0xba5aae90	-0.0008342052
119	0x3ce88db7	0.028387887
120	0x3c5b7039	0.013393455
121	0x3c13f5bc	0.009030756
122	0x3c92f462	0.017938796
123	0xbb25f7e1	-0.002532475
124	0x3bc5082a	0.006012936
125	0x3bb5fe00	0.005553961
126	0x3c4dcb5e	0.012560694
127	0xbbb3f713	-0.0054921
128	0x3c3921ac	0.011299532
129	0xbc02126c	-0.007938962
130	0xbc3d1275	-0.011540045
131	0xbbbbb4d2	-0.0057283426
132	0xb9314954	-0.00016907352
133	0x3c01fffc	0.007934567
134	0x3af0b563	0.0018364604
135	0x3c07716c	0.008266788
136	0x3d9d3ed9	0.07678003
137	0x3c7bcd47	0.015368766
138	0xbbe37d1f	-0.006942406
139	0x3c8a8c84	0.016912706
140	0x3cbfd33c	0.023416154
141	0xb95c2f62	-0.00020998486
142	0x3c4f1efa	0.012641663
143	0x3de50e71	0.11184395
144	0x3aadc838	0.0013258522
145	0xba1b65d7	-0.0005927956
146	0xbcb3aade	-0.021932062
147	0x3c8664fd	0.016405577
148	0xbab28ef3	-0.0013622924
149	0xbb48ce6c	-0.0030640615
150	0x3d5b8e01	0.053602222
151	0x390cc774	0.00013425743
152	0x3d16b048	0.03678921
153	0x3d07c7be	0.033149473
154	0xba262986	-0.0006338585
155	0xbadf3760	-0.0017030053
156	0xbc7f23ce	-0.015572501
157	0x3c8440cf	0.016144184
158	0x3b635f37	0.0034694204
159	0xbc304d7f	-0.010760664
160	0xbc461515	-0.012089987
161	0xbbbd77f8	-0.0057821237
162	0x3b61a9e7	0.0034433545
163	0xbc9dc2c7	-0.019257916
164	0xba8c9448	-0.0010725344
165	0x3dd2bee6	0.10290317
166	0x3b52e184	0.0032177875
167	0xbac7c76c	-0.0015241927
168	0x3ba25644	0.0049541313
169	0xbb41d307	-0.0029575245
170	0x37e935b9	2.7800781e-05
171	0x3c95b3c9	0.018274205
172	0xbce50da7	-0.027960612
173	0x3d41d487	0.047321822
174	0x3b981569	0.004641224
175	0xbcf851fb	-0.030312529
176	0xbb54359a	-0.0032380582
177	0xbc497102	-0.01229501
178	0xbc5b0d4f	-0.013369872
179	0xbb705311	-0.0036670605
180	0x3dc51efe	0.09625052
181	0x3c0062a4	0.007836018
182	0x3aae45ef	0.0013295988
183	0x3d0c212a	0.034211315
184	0xbc37d8a5	-0.011221086
185	0x3b2ec284	0.0026666233
186	0x3d885430	0.066566825
187	0x3b4da138	0.0031376611
188	0x3a43b4b5	0.0007465587
189	0x3c87d0b5	0.016579011
190	0x3ac38d9d	0.0014919523
191	0xbc25ae15	-0.010112305
192	0x3de970af	0.11398446
193	0xbc9ab99b	-0.018887332
194	0x3c6aedfe	0.014338968
195	0x3e05a36d	0.13050623
196	0xbc9d77f8	-0.019222245
197	0xbc8a63b5	-0.016893247
198	0x3cadffbe	0.021240111
199	0x3c410bed	0.0117826285
200	0x3d9fec03	0.078086875
201	0xbc696a47	-0.01424653
202	0xbbcad1f8	-0.006189581
203	0x3c0b3f86	0.008499032
204	0xbd22eb35	-0.039775092
205	0x3b0677ad	0.002051811
206	0x3d120340	0.03564763
207	0x3e1b0537	0.15138708
208	0x3b9049ed	0.004403344
209	0x3ddd13bb	0.10794779
210	0x3d0336bb	0.032034617
211	0x3daac9b5	0.08339254
212	0xbc05eb48	-0.008173771
213	0x3da83ca6	0.08214693
214	0x3e08f24e	0.13373682
215	0x3d34f791	0.04418141
216	0xbd099178	-0.033585995
217	0x3d622045	0.055206556
218	0xbc38386c	-0.011243921
219	0xbd27915d	-0.040910114
220	0x3d238882	0.039925106
221	0x3e1b1283	0.1514378
222	0xbd3ee7ab	-0.046607655
223	0xbd59bc05	-0.053157825
224	0xbb30ff21	-0.0027007537
225	0x3b6e48c8	0.00363593
226	0xbcbbc206	-0.022919666
227	0xbda5594b	-0.08073672
228	0xbd2943b3	-0.04132433
229	0x3e443b98	0.19163358
230	0xbd520f03	-0.051283848
231	0xbd2dd7c2	-0.04244209
232	0x3aaa6a73	0.0013001695
233	0xbd427166	-0.047471426
234	0x3bcc018e	0.0062257713
235	0x3cd32cbf	0.025778173
236	0x3cd890e9	0.026436286
237	0x3da2bff7	0.07946771
238	0x3c16e37d	0.009209511
239	0x3d8b3c70	0.06798637
240	0x3ccb1124	0.024788447
241	0x3cfdbe02	0.030974392
242	0x3e2b9965	0.16757734
243	0xbc874350	-0.01651159
244	0x3e2af717	0.1669582
245	0x3ddb984a	0.10722406
246	0xbca9197c	-0.020642035
247	0xbd1fc2e9	-0.03900424
248	0xbd49860e	-0.04920011
249	0x3c075a1b	0.008261229
250	0x3d194964	0.037423506
251	0xbcca383e	-0.024685021
252	0x3c85796b	0.016293248
253	0xbd340d24	-0.043957844
254	0x3c73fa2d	0.0148911895
255	0x3bbd3b03	0.005774857

a2c_network.mu.bias f4 [12]
0	0x3e56552f	0.20930932
1	0x3def50ee	0.11685358
2	0xbea8bc1d	-0.3295602
3	0xbe52102e	-0.20513985
4	0x3db56c8b	0.088585936
5	0xbb718635	-0.0036853675
6	0x3e0551f0	0.13019538
7	0x3d857e68	0.06518251
8	0xbdc7fde2	-0.09765221
9	0x3e439775	0.19100745
10	0x3d696c7c	0.056988224
11	0xbd900583	-0.07032301

exp_avg f4 [12]
0	0x3ccc00db	0.024902752
1	0x3bd145df	0.006386503
2	0xbb99f39b	-0.0046982295
3	0x3aac95b5	0.0013167175
4	0x3b0564a0	0.0020354167
5	0xb8d371a1	-0.00010082429
6	0x3bf3b8c0	0.0074377954
7	0x3c431974	0.011907924
8	0xbb74848e	-0.0037310454
9	0x3a43c666	0.00074682233
10	0xbba296c8	-0.004961822
11	0x3c39d950	0.011343315

exp_avg_sq f4 [12]
0	0x3b7048d5	0.0036664505
1	0x3b9b2b9d	0.0047354237
2	0x3b8d9367	0.0043205502
3	0x3b80fdd9	0.003936511
4	0x3b97b2e2	0.004629479
5	0x3bb6b262	0.005575464
6	0x3b3749a9	0.002796749
7	0x3b8b30a6	0.0042477427
8	0x3b832190	0.0040018037
9	0x3b2ab5a9	0.002604822
10	0x3b48af86	0.0030622198
11	0x3b561c7c	0.0032670787
