omniisaacgymenvs/runs/WEE/nn/last_WEE_ep_1400_rew_788.8491.pth (torch, 623460 bytes, 36 tensors)

value_mean_std.running_mean f8 [1]
000000 54 fd 1a da ea 13 32 c0
       -18.077802306737183

value_mean_std.running_var f8 [1]
000000 81 9c 29 20 5e 86 a0 40
       2115.1838391307397

value_mean_std.count f8 []
000000 00 00 00 01 00 e0 b5 41
       367001601.0

running_mean_std.running_mean f8 [32]
000000 8b 58 f7 b1 a8 82 7e 3f 1b e4 ab b3 3f e1 88 3f
       0.0074488248496519345 0.012148378058087819
000010 5f df a9 86 c0 0f de 3f fd 13 fb 7a d7 ab b6 bf
       0.4697114291261552 -0.08855959656200692
000020 ef 03 f4 21 9b 8f 92 3f 4f 9c 36 69 95 10 7f bf
       0.018125938365304902 -0.007584174763372322
000030 43 f6 f9 fd 61 12 db 3f f8 76 04 ee a8 35 a6 3f
       0.42299699594864054 0.0433781424091943
000040 dd 98 6d 4f 09 ff 88 3f a2 b1 cc 71 0e 71 a4 3f
       0.012205193268254916 0.03992505206256004
000050 c6 94 ff 20 85 cb 6d 3f 05 02 7c e4 7c 7d 52 bf
       0.003637084977514779 -0.0011285514501083737
000060 b3 59 71 fe 9b 1c b5 3f 68 6f 5a 21 15 c6 cc be
       0.08246779405576525 -3.430099478075465e-06
000070 15 a2 f7 32 b2 4b f6 be 91 c7 06 3c 18 6b db 3f
       -2.1262824871389337e-05 0.4284115396686668
000080 6a 9e 5a 90 01 d3 df 3f af 93 e6 d9 08 72 20 bf
       0.49725379082744914 -0.00012546880766453386
000090 b7 53 5c 4e 8b 1f 07 3f 92 f3 63 40 27 ca c4 bf
       4.4104040894200396e-05 -0.1624192299276755
0000a0 18 37 0b 50 46 7e 56 3f 3a b3 5d ad b9 6b 66 3f
       0.0013728796622447022 0.0027369143016841265
0000b0 c4 55 33 b5 be 1d 71 bf fa 56 f0 3c 1c ae c7 bf
       -0.0041787576221472035 -0.18500092483071012
0000c0 48 ad e4 93 4d fb b0 3f 9e cc 2a f1 f3 71 9a bf
       0.06633458004642023 -0.02582532081096344
0000d0 00 00 00 00 00 00 00 00 00 00 00 00 00 00 00 00
       0.0 0.0
0000e0 00 00 00 00 00 00 00 00 00 00 00 00 00 00 00 00
       0.0 0.0
0000f0 00 00 00 00 00 00 00 00 00 00 00 00 00 00 00 00
       0.0 0.0

running_mean_std.running_var f8 [32]
000000 73 06 5d d8 bc e2 67 3f 5a 55 4a 15 29 94 57 3f
       0.0029157341367927413 0.0014391328051364866
000010 7d b0 6c ed c3 81 58 3f 30 7d ae 0d 05 66 e4 3f
       0.0014957822183516982 0.6374535815447526
000020 7f ba f8 e5 33 cf 86 3f 78 70 bd a5 fd c8 a0 3f
       0.011137395339656962 0.03278343818848922
000030 06 64 6a d0 71 e5 c0 3f 68 82 5e e5 9e b3 e6 3f
       0.13200209309141558 0.7094263534418817
000040 22 47 7b f8 c2 31 e7 3f 2a de b7 7f 87 4b e5 3f
       0.7248244145541529 0.6654698843476059
000050 01 19 6a 51 76 6c 6a 40 f7 43 ae e6 d7 5f 61 40
       211.38944311830713 138.99510511432865
000060 60 26 09 86 72 de 69 40 a9 bf eb 42 54 b1 d1 3e
       206.95147992884722 4.218266481656389e-06
000070 f3 0d a8 b3 26 3a d5 3e e5 7c 94 19 7f 8c fa 3e
       5.060947666727072e-06 2.5318922415637572e-05
000080 a8 a1 08 20 4e 25 d1 3f b7 88 fb 89 15 8a 2e 3f
       0.2679019272641434 0.0002329970638959616
000090 b7 16 64 8b 34 0a 31 3f fc 38 10 dd b4 4f dd 3f
       0.00026000769447907405 0.45798989856929473
0000a0 4d a5 0b c9 eb a7 77 3f b8 a0 5e ef dc 0e 78 3f
       0.005775376354656925 0.005873549487582057
0000b0 1f d9 2f d8 5c 5a 6d 3f c7 f5 5b a0 f7 15 2c 40
       0.003583127343058781 14.042904864526362
0000c0 83 b8 9f 1b 9a b6 2f 40 75 76 35 02 53 a4 1e 40
       15.85664450001446 7.660472902787309
0000d0 c1 d5 10 e2 dc 67 37 3e c1 d5 10 e2 dc 67 37 3e
       5.44956749262362e-09 5.44956749262362e-09
0000e0 c1 d5 10 e2 dc 67 37 3e c1 d5 10 e2 dc 67 37 3e
       5.44956749262362e-09 5.44956749262362e-09
0000f0 c1 d5 10 e2 dc 67 37 3e c1 d5 10 e2 dc 67 37 3e
       5.44956749262362e-09 5.44956749262362e-09

running_mean_std.count f8 []
000000 00 00 00 02 00 e0 a5 41
       183500801.0

a2c_network.sigma f4 [12]
000000 b9 3e bb bf 66 e3 9b bf 6d 8c 29 c0 b7 14 86 bf
       -1.4628516 -1.2178771 -2.649196 -1.0475072
000010 0e 8a 87 bf 1d 4e 6c c0 65 bc 88 bf 98 a0 57 bf
       -1.0589006 -3.6922677 -1.0682493 -0.8422942
000020 65 c4 77 bf cc 8c 4e bf 22 d7 85 bf e4 e6 7b bf
       -0.9678405 -0.8068359 -1.0456278 -0.98399186

a2c_network.actor_mlp.0.weight f4 [256, 32]
000000 77 0a 12 3e 88 4d 13 3e 2f cf 03 bf 16 29 ed 3d
       0.14261805 0.14385045 -0.5148801 0.11580102
000010 42 f7 30 3f 24 3a c1 3f 82 88 ca 3c cd be 9f bd
       0.69127285 1.5095868 0.024723295 -0.07800064
000020 d4 bc fa bd df 9d 1a be dc 90 36 3d 24 b2 05 3f
       -0.12243047 -0.15099286 0.044571742 0.52224946
000030 96 8c 34 3d 2e 12 7b be b5 ea 7b be 83 ae 0d be
       0.044079386 -0.24518654 -0.24601252 -0.13836102
000040 37 f5 e9 3d c8 e8 9e be 71 c9 46 be 23 ca c4 bd
       0.11423724 -0.31036973 -0.19412781 -0.09608867
000050 92 c7 1c be 57 14 14 3e 04 70 0d 3d 42 88 f8 3d
       -0.15310505 0.14460884 0.034530655 0.12135364
000060 94 77 a2 3d bb ea 18 bc cf aa 0d 3e e0 9d 00 be
       0.07932964 -0.009333308 0.1383469 -0.12560225
000070 c8 5c 36 3c 1f 1b f7 bd 4c 45 5f 3d 02 5c 79 bd
       0.011130519 -0.1206572 0.054509446 -0.06087876
000080 0f 37 93 3d ef 06 2e 3c be 54 d8 3e 60 f2 04 be
       0.07188236 0.01062177 0.42252153 -0.12983084
000090 b5 ce 46 bf 0c 8d 96 bf b4 bd 17 3e f9 67 a5 3e
       -0.7765916 -1.1761794 0.1481846 0.32305887
0000a0 8b 0d 86 3e b3 fc 9a be 1e 32 ca be a8 bf 08 bf
       0.26182207 -0.3027092 -0.3949136 -0.53417444
0000b0 2a a7 ce 3d 64 dd 93 3e 43 24 eb 3e cf dc 82 3e
       0.10090478 0.28879845 0.45926103 0.2555909
0000c0 e9 88 5d be 70 7e 46 bd 8b aa b8 3d 8f 79 13 be
       -0.21634258 -0.048460424 0.090169035 -0.1440184
0000d0 0d 1c 0e 3e bc 79 da bd 56 21 05 3e 7d 99 43 bd
       0.13877888 -0.1066775 0.13000998 -0.0477538
0000e0 7e 2f 71 bd f4 e6 09 39 4e 13 19 3d 1f 9c 38 bd
       -0.058883183 0.00013151375 0.037371926 -0.045070764
0000f0 d9 cc d7 3d 02 1e f6 3d 39 45 03 be eb 47 c1 bd
       0.105371185 0.12017442 -0.12819375 -0.094375454
000100 6e e4 0c 3e 71 34 0c be bc 67 a4 be 88 e9 d8 be
       0.13759014 -0.1369188 -0.32110393 -0.4236567
000110 48 9b a1 bf e0 cd 45 bf a6 5b f8 bd 39 bf da be
       -1.2625513 -0.77267265 -0.121268556 -0.42724016
000120 75 6f d7 3d 91 2b ac be 1c 8d ae 3d f5 0b 64 bf
       0.105193056 -0.3362699 0.08523008 -0.89080745
000130 fb 94 d8 be 4e 2b 68 be d4 e8 6c 3f 39 73 61 3d
       -0.42301163 -0.2267277 0.9254277 0.055041526
000140 30 d3 9c 3c 05 3d 61 be 1c 55 4b be 88 a8 aa bd
       0.01914367 -0.21995933 -0.19856685 -0.08332926
000150 f3 3f 36 bd 54 41 da bd a7 57 fa bd c9 e4 0b be
       -0.04449458 -0.106569916 -0.122237496 -0.13661493
000160 b1 99 71 bb 96 f7 5b bd b4 b3 48 bc 02 54 f5 bd
       -0.003686529 -0.053702913 -0.012249876 -0.11978914
000170 68 80 f8 bd c9 36 d3 bd 8d d9 77 bd 07 e0 0e be
       -0.121338665 -0.10313184 -0.060510207 -0.13952647
000180 7a e5 d0 3d 92 d8 86 3e ae ae 1e be b2 f7 ef 3b
       0.10200019 0.26337105 -0.15496323 0.0073232288
000190 59 66 ed be 33 54 4a be 85 4f 8f be 9f a2 81 be
       -0.46367148 -0.19758682 -0.27990356 -0.25319383
0001a0 b3 2c 8a be b4 80 48 be 6d 30 05 3e 11 d2 07 3d
       -0.26987228 -0.19580346 0.13006754 0.03315932
0001b0 7b 33 79 bd 0b 34 2c be 7f 7e 8b be 3c f5 93 be
       -0.06084011 -0.16816728 -0.27244946 -0.28898036
0001c0 37 91 be bd 36 14 c5 bd 5a 03 e7 bd d5 2c 22 3d
       -0.09305041 -0.096229956 -0.11279936 0.039593536
0001d0 d8 80 30 3e 5b 63 f1 bd 27 39 b9 3d 30 70 dd bd
       0.1723665 -0.11786529 0.09044104 -0.10812414
0001e0 5e 11 2a 3c 07 78 d5 bd 0e e2 24 3e f6 db 04 be
       0.010380117 -0.10423284 0.16101858 -0.12974533
0001f0 f5 7d c1 3d 2e 78 7e 3d 11 4b 6b 3d 1e bc c3 bd
       0.094478525 0.06212633 0.057444636 -0.09557365
000200 50 50 94 3e 6a e0 46 bd 56 c6 67 be b2 28 ea bd
       0.28967524 -0.04855386 -0.22634253 -0.11433543
000210 67 f3 72 3f fc ea 8a 3b aa 65 a6 bd 45 b2 df 3d
       0.9490265 0.004239438 -0.0812486 0.10922674
000220 f4 23 cd bd 09 f5 c4 3c 66 d3 8f 3d 8c 6b 99 3d
       -0.10016623 0.024042623 0.07022743 0.07491216
000230 da 63 a7 bd 30 b9 02 be 4d 46 f7 bd db 6d 37 be
       -0.08173342 -0.12765956 -0.12073956 -0.17913
000240 80 e3 bb 3c 68 30 09 be db 25 d4 3e 84 8f c1 bd
       0.022935629 -0.13397372 0.4143513 -0.094512016
000250 31 8b 88 bd d7 2a 85 bb 42 aa 07 bd 37 46 42 3c
       -0.06667174 -0.004063945 -0.033121355 0.011857561
000260 e3 b8 a0 bc 1d d3 1d 3c 49 60 87 3d c6 78 fe bc
       -0.01961941 0.009632853 0.06610162 -0.031063449
000270 91 bc 3f bd c7 ec 9a 3c 8d d2 ff bc 9b c6 57 bd
       -0.04681069 0.018911732 -0.031228328 -0.05267964
000280 e9 f9 0f 3e c5 d2 92 3e 5c d6 4f bf 21 40 ce 3c
       0.14060177 0.2867643 -0.8118646 0.025177063
000290 e3 45 a6 bb 27 45 82 be f4 6b 84 bd de 79 b4 be
       -0.005074249 -0.25443384 -0.06465903 -0.35249227
0002a0 db 26 96 be f8 ed 93 bc 04 fb 5b 3c 1b fa 88 3d
       -0.2932652 -0.018057808 0.013426546 0.06688329
0002b0 66 95 1a bf 63 48 b4 be 6e c2 ff 3c 84 ff a4 be
       -0.60384214 -0.35211477 0.031220641 -0.32226193
0002c0 b2 db 49 3d 3f 68 0d 3e 5c b0 00 3d e5 11 0f 3e
       0.049281783 0.13809298 0.03141819 0.1397167
0002d0 38 6d 89 be 82 07 84 3d 9e 14 68 be e7 e4 f3 3d
       -0.2684114 0.064467445 -0.22664115 0.11908894
0002e0 d1 8f 5c 3c de bf 11 be ea c7 95 3d d3 e4 89 bd
       0.013462023 -0.14233348 0.07313521 -0.06733098
0002f0 e2 54 ea bd ab 1f 04 3e a0 9e a4 bd 47 27 11 bd
       -0.11441971 0.12902705 -0.08038068 -0.03543785
000300 54 b4 42 be 93 d8 97 3e 5e 88 4a 3d b1 ad ac 3d
       -0.19014102 0.2965742 0.049446456 0.084315665
000310 4d 3b be 3e bb a3 9f bf c1 81 c9 bd a0 29 01 3d
       0.37154618 -1.2471842 -0.09839202 0.031533837
000320 77 7e 8a 3c 8a 85 5f 3d 8e b1 04 3e 32 4c 9b be
       0.016906006 0.054570712 0.12958357 -0.3033157
000330 eb c2 a4 be 4c 9e ab be 89 65 1c bd d1 27 1f be
       -0.3217996 -0.33519208 -0.03818277 -0.15542533
000340 8b 9b 29 3e 5b df 84 be 1e fe 85 3c 78 87 11 3d
       0.16563241 -0.25951657 0.016356524 0.035529584
000350 83 f7 1e bd 92 15 ee bc 50 c0 72 be dc ad 42 3c
       -0.038810264 -0.02906302 -0.23706174 0.011882272
000360 9e 7f f3 bd ac cd e7 3d 55 4a 68 bd 34 ca 04 be
       -0.118895754 0.11318526 -0.056711514 -0.1296776
000370 c7 82 ff bc 4f 7f af bd 7e 86 5d bd 61 54 2c be
       -0.03119029 -0.08569204 -0.05408334 -0.16829063
000380 8d 1b 88 3d 9c 5a 70 be cf af 27 3e a8 4d 5f 3d
       0.0664588 -0.23472065 0.1637566 0.05451742
000390 e6 10 97 3e e0 80 cf 3e ab ed 20 3e b6 be 01 bd
       0.2950508 0.4052801 0.15715663 -0.031676017
0003a0 ff 24 a9 3d cc be 12 3e a6 c3 17 be d1 2d 0d be
       0.082590096 0.14330596 -0.14820728 -0.13787009
0003b0 ec 7b 3d bb cb f9 d7 be 56 5f 10 be af 40 b2 be
       -0.0028912975 -0.42182764 -0.14098868 -0.34814975
0003c0 15 93 58 3e 88 bf e3 bc 38 b7 47 3e 26 37 02 be
       0.21149857 -0.02780129 0.19503486 -0.1271635
0003d0 20 e9 30 be cd 39 42 3d 8b ee d7 bc 05 7c 4a be
       -0.1727643 0.047418404 -0.026358863 -0.19773872
0003e0 7e d2 ee 3c b7 12 63 be 71 52 7d bc 48 33 b2 bd
       0.029153105 -0.22175108 -0.01546155 -0.08701187
0003f0 5b fd 93 bd 62 dd 65 bd fe 05 2c be 19 87 14 3e
       -0.07226058 -0.05611933 -0.16799161 0.1450466

a2c_network.actor_mlp.0.bias f4 [256]
000000 92 6b 17 3e 32 89 9f 3e 60 1b 13 3e 67 47 9c be
       0.14787129 0.3115936 0.14365911 -0.30523226
000010 d2 56 a5 3c fb 32 7b 3e 85 9e 3a be c4 fe 9d be
       0.020183 0.24531166 -0.18224533 -0.30858433
000020 f4 28 3c bc fe 0d 5d be 11 19 ee bd 0b d3 5c 3c
       -0.011484373 -0.21587369 -0.11625875 0.013478051
000030 57 54 1b 3d f2 ba 9c bd fe 60 ea 3d 2f 20 27 be
       0.03792223 -0.076528445 0.11444281 -0.16320871
000040 4a 07 20 3e ee b3 f9 3d e5 8c b0 3d bf 11 b5 3d
       0.1562778 0.12192522 0.086206235 0.088412754
000050 8e d3 1c 3e 9d a6 6d be 45 21 c9 bd c2 e1 98 3e
       0.15315077 -0.23208089 -0.09820799 0.2985974
000060 2e 88 a7 3e 27 d4 f9 bd be f8 54 be 03 ad b8 be
       0.32721084 -0.12198668 -0.20798013 -0.36069497
000070 a9 f3 ab be ae ce 2d be 7f 23 a9 be 56 d6 8c bd
       -0.33584335 -0.16973373 -0.33034894 -0.06876819
000080 61 09 15 be 02 4c 32 be 3a 07 d1 be db ae 98 3e
       -0.14554359 -0.17411807 -0.40825826 0.29820904
000090 17 f3 26 3d cb 7a 41 3e e9 e8 29 be 1a 2a b4 be
       0.040759172 0.18894498 -0.16592754 -0.3518837
0000a0 39 dd 6d bc bf 7b b1 bd 23 8e 96 3e 3d f1 21 be
       -0.014518076 -0.08666181 0.29405317 -0.15814681
0000b0 db c0 21 be f3 ac a2 3d ba 4f 07 3d b2 0a 52 3e
       -0.15796225 0.07943144 0.033035018 0.20511892
0000c0 9b f3 9f 3e bc f3 02 be de ce a2 bd d6 89 1f be
       0.31240544 -0.1278829 -0.07949613 -0.15579924
0000d0 b0 7e 17 be dd 3f ae 3e 5a d3 02 be 5c 6a 91 3e
       -0.14794421 0.340331 -0.12775937 0.28401458
0000e0 77 e3 8a be d1 0b cb bc de b1 3c 3e 9f 9c a6 3e
       -0.27126667 -0.024785908 0.18427226 0.32541367
0000f0 74 8a 4f 3e d0 9e 3c 3e b6 19 a2 3e 5e 6c 0f be
       0.2026766 0.18419957 0.3166024 -0.14006183
000100 c3 c9 fb 3d 04 0b 15 bf bc 4c de 3b 19 7e 2f 3d
       0.12294342 -0.58219934 0.00678405 0.042844865
000110 73 a3 6d bd 37 3c 51 3e 2a 1a 65 be 44 96 b5 bd
       -0.058017205 0.20433126 -0.22373262 -0.088665515
000120 8c 07 bf 3e 1b 9a 44 3c f0 50 f6 3d b8 0b c8 3d
       0.37310445 0.011999632 0.12027156 0.0976786
000130 42 68 fc 3d cd dc 3e 3e c3 1d 03 3f 39 63 28 be
       0.12324573 0.18638916 0.5121729 -0.164441
000140 16 0e 8a be c1 89 63 3e bd b5 bb 3d 56 1f a1 bd
       -0.26963872 0.22220518 0.09165523 -0.07867305
000150 2b 6d 03 3e 8d 80 bc 3e 7d 40 de 3d ef 30 bf 3b
       0.12834613 0.36816826 0.10852144 0.0058346908
000160 56 2c e2 3d 2d fa 46 3c c8 20 6b 3e 8a 48 16 3e
       0.11043613 0.0121446075 0.22961724 0.14676109
000170 39 55 05 be 10 1c 40 be 1a a1 f7 3e 11 67 db 3d
       -0.13020791 -0.18760705 0.48365098 0.10713018
000180 d5 27 b4 3d 0d 8c 20 bc 13 9d f9 3c c6 88 22 bd
       0.0879666 -0.009799016 0.030470407 -0.03968122
000190 cf dd 96 bd 3f 92 56 be 86 70 0d be 9e 0c 5f be
       -0.073665254 -0.20954226 -0.13812456 -0.21782157
0001a0 89 60 7e be 42 0a 3d 3e 45 7b 90 bd 75 c6 f0 be
       -0.24841513 0.18460944 -0.07054762 -0.4702641
0001b0 49 7a a9 3e e4 d0 5f 3a 1e 1c b3 bc a7 e0 12 be
       0.3310111 0.0008537902 -0.021863993 -0.1434351
0001c0 36 4f c6 bd e4 a9 3c be f2 1c 95 3e b1 a0 be be
       -0.09683077 -0.18424183 0.29123646 -0.37231973
0001d0 ee d1 8d 3e 96 f2 80 3e f3 9d 19 3e a5 12 6d 3e
       0.27699226 0.25185078 0.15001659 0.23151644
0001e0 c6 7b 57 be 93 51 68 be 04 64 2c be 13 d6 e0 bd
       -0.2104331 -0.22687368 -0.16835028 -0.109783314
0001f0 57 8c 4b 3e ae c4 e5 3e 73 b4 ae 3e e4 11 e2 bc
       0.19877754 0.44876617 0.34122047 -0.027596422
000200 95 69 35 be 30 28 b5 3d 8b 08 d0 3e 7e 0b 8e bd
       -0.17716058 0.08845556 0.40631518 -0.06935786
000210 6a bc 95 3e 6e f0 54 3d c8 df 9a be 02 e0 57 be
       0.2924531 0.051987104 -0.30248857 -0.21081546
000220 eb d1 ad be 1d 73 c1 3e 2b 3b d9 3d 13 e7 2c bd
       -0.33949217 0.37783137 0.106069885 -0.042212557
000230 20 04 ed 3d 54 02 07 3e b5 2d 76 be bb 3b b4 be
       0.115730524 0.13184482 -0.24040873 -0.3520182
000240 c8 94 d2 3d 65 56 7c 3e 63 de c8 3e aa 62 e4 bc
       0.10282284 0.24642332 0.39232168 -0.027879078
000250 ca c8 89 be 7e 4f 22 3e 6f 87 36 be b1 6a b0 3d
       -0.26911002 0.15850636 -0.17825101 0.086141
000260 10 8e ba 3e 8f 1b 9c 3e c6 e0 de 3b cb 22 7e 3c
       0.3643651 0.30489776 0.0068016974 0.015511225
000270 73 be d4 3d 61 d7 97 be b6 cb 82 3e a6 c0 49 3d
       0.10387888 -0.2965651 0.25546044 0.04925599
000280 77 e1 37 be 5d 2b 81 3e 4c 24 80 3e ad 45 83 be
       -0.17957102 0.25228396 0.25027692 -0.25639096
000290 5a 89 1b be 40 15 fc bd b2 ca c8 be 15 1f c8 be
       -0.15189114 -0.123087406 -0.39217144 -0.39086214
0002a0 44 0c ba bc 91 61 b4 bd e7 72 58 bd fb 9d 3e 3e
       -0.022710927 -0.08807672 -0.052843954 0.18614952
0002b0 e5 e2 d2 be e1 f2 59 3e c2 52 af 3e d5 c4 c3 3e
       -0.41188732 0.21284057 0.34242827 0.38236108
0002c0 20 22 40 3d ab 17 37 3e 9c 67 95 bd a1 70 78 be
       0.046907544 0.17880122 -0.072951525 -0.24261715
0002d0 34 8f 5d 3e 3d e6 6d be 38 d2 6d 3e 45 d1 e4 bd
       0.21636659 -0.2323236 0.23224723 -0.111727275
0002e0 1a 3b d2 3d 29 3f 5e 3e 12 7f 1d be 21 1c bd 3e
       0.10265179 0.21703781 -0.15380505 0.36935523
0002f0 89 97 48 be aa aa 05 be a9 50 61 be a8 de 5d bd
       -0.19589056 -0.13053384 -0.22003426 -0.05416742
000300 29 b3 1a 3e 63 36 fb bb 1b 8d 16 be a3 15 6d 3d
       0.15107407 -0.0076663955 -0.14702265 0.057881963
000310 b6 1a 55 3e 4a 19 dc 3b 5b 88 2b 3e 93 7e cc be
       0.2081097 0.006716882 0.16751234 -0.39940318
000320 e0 d6 55 3c 3b 94 a8 be fb 7a 32 be 41 37 4e 3e
       0.0130517185 -0.3292559 -0.17429726 0.20138265
000330 99 aa 8e 3e 83 c1 04 be 91 73 f4 ba 44 64 86 3e
       0.2786453 -0.12964444 -0.0018650164 0.26248372
000340 8b 28 b2 bd c5 55 44 3e 37 0a 43 3e 6b f5 75 3e
       -0.08699139 0.19173343 0.19046865 0.24019401
000350 a7 e0 d2 3d 3f 02 b7 bd b8 c3 5e 3e 00 1b 5a 3b
       0.10296755 -0.08935975 0.21754348 0.0033280253
000360 fe 1b c3 bd 98 a3 be bd c9 9b b1 bc 40 69 2a 3e
       -0.095268235 -0.09308547 -0.02168073 0.16641712
000370 66 00 9e be b2 4d 2e 3e b1 a0 7e be ea 82 36 be
       -0.3085968 0.17021826 -0.24865986 -0.17823377
000380 25 3c df bd 5b 8d 9a 3d c4 ed bd 3b ff 87 44 3c
       -0.109001435 0.07546493 0.005796166 0.011995315
000390 ce 55 5f be e5 2c fb bd 4c d1 62 be e7 f7 ad 3e
       -0.21810076 -0.12264422 -0.22150153 0.33978197
0003a0 66 94 04 3e 23 87 6f be 50 d6 ab 3e d4 2d 13 bc
       0.12947235 -0.23391394 0.33561945 -0.008983094
0003b0 3b 36 b6 bd fe 15 56 3e e7 92 62 3e 59 38 65 be
       -0.088970624 0.20906827 0.22126351 -0.22384776
0003c0 65 95 25 be 2f 16 7c be 65 e4 a4 3d a7 c0 0d be
       -0.1617027 -0.24617837 0.08051375 -0.13843022
0003d0 90 b2 45 3d 01 51 06 3e a0 a2 b5 3e d6 28 49 be
       0.048265994 0.13116838 0.35475636 -0.19644484
0003e0 95 7b b5 3e c0 54 34 bd 6e e3 bc bd 2d ac 87 3d
       0.35445848 -0.044026136 -0.09223066 0.06624637
0003f0 a4 1e 70 be bf 94 ff 3d c7 67 1b bd a4 e9 8a be
       -0.23449188 0.12479543 -0.037940767 -0.2713138

a2c_network.actor_mlp.2.weight f4 [128, 256]
000000 9b f3 46 bf ac 8f ae 3e d8 b1 39 bc 88 d2 e7 bd
       -0.7771546 0.34093988 -0.011333905 -0.113194525
000010 bc 9e 1f be 5f 2a aa be d4 df 12 be 4e e3 0f bd
       -0.15587896 -0.33235452 -0.14343196 -0.035128884
000020 fd 02 01 3e c1 a0 81 3e 7c b1 ad be bb 20 0c be
       0.12598796 0.25317958 -0.33924472 -0.1368436
000030 04 e8 03 be 22 3b 49 3d 52 0e 0c be f7 bf d3 be
       -0.12881476 0.04912866 -0.13677338 -0.41357395
000040 18 f7 f8 bd 55 23 b0 bd 77 ca 58 3d 23 b7 84 3e
       -0.121565044 -0.08600489 0.05292746 0.25920972
000050 40 c4 21 be 77 6b 6d 3e 42 96 88 be 2f 6f d4 3d
       -0.1579752 0.23185526 -0.26677138 0.10372769
000060 9a 72 9d 3d a8 6c ab 3d 18 18 a5 bd fc 11 73 be
       0.07687874 0.08370334 -0.08061236 -0.23737329
000070 fc 9b b2 3e ab 3a ee 3d fd 07 94 3e 75 e5 0d 3e
       0.34884632 0.11632284 0.28912345 0.13857062
000080 d7 7d 41 bd 77 15 9a 3e 36 df 82 be 88 e1 ab be
       -0.04723915 0.300945 -0.2556092 -0.33570504
000090 df fd 82 be 50 64 68 3e ff b6 55 bc 43 9d 89 3e
       -0.25584313 0.22694516 -0.013044118 0.26877794
0000a0 82 d2 dc 3c 08 f8 a8 3d 5a 12 68 be 40 a9 77 be
       0.026955847 0.08250433 -0.2266325 -0.24185658
0000b0 fe 83 e2 3e a1 6f 4a be da 7b 8e be 40 5d 3e be
       0.44241327 -0.19769146 -0.27828866 -0.1859026
0000c0 11 d3 86 3e 9d e4 b2 3e 41 9d a9 3d c2 17 50 be
       0.26332906 0.34940043 0.08281947 -0.20321563
0000d0 87 53 b9 3e d7 11 f6 be 22 de 59 3d 6c 69 e7 3d
       0.3619654 -0.48060486 0.053190358 0.112994045
0000e0 dd c4 29 3a 14 8d 91 be 4a 35 61 3e 90 57 59 be
       0.00064761733 -0.28427947 0.21992984 -0.21224809
0000f0 20 38 16 3f 93 de a3 be 92 e1 bf be 34 88 1c be
       0.5867939 -0.32005748 -0.37476784 -0.15286332
000100 c0 6e 60 bd 8a 19 00 be 12 28 8f be ae 87 e1 3d
       -0.05479312 -0.12509742 -0.2796026 0.11012207
000110 1d 2f 42 be 21 3b 77 3d 4b 67 94 3e 05 2d 47 be
       -0.18963285 0.060359124 0.28985056 -0.19450767
000120 47 75 92 be 1e 7f 4d 3e e5 73 6a be b2 49 5d be
       -0.286051 0.20068023 -0.22895773 -0.21610144
000130 79 40 13 be c4 9f 5f 3d 85 5e 49 be a6 d1 e3 3b
       -0.14380063 0.054595724 -0.19664963 0.0069524823
000140 ce f0 56 3b ec a1 e5 bd 39 f4 8d 3e 0a b3 22 be
       0.003279734 -0.11212525 0.2772539 -0.1588861
000150 47 70 94 3d f9 d5 98 bd 51 36 70 3d e7 19 d3 be
       0.07247978 -0.07462687 0.05864555 -0.412307
000160 9e 51 9b bd 9a d2 2b bd d9 16 5f 3d cd fa 56 bd
       -0.075839266 -0.041948892 0.05446515 -0.052485276
000170 ea ee ab be 24 33 4e be c9 0c 11 bd e1 69 37 3e
       -0.33580714 -0.20136696 -0.035412584 0.17911483
000180 e6 62 ed bd 59 c4 a1 3d a2 17 c7 be 3d b0 64 3e
       -0.11591129 0.078987785 -0.38885218 0.22332855
000190 73 29 4d be 44 ee 4c 3e 08 f2 fe 3d f0 65 3d 3e
       -0.20035343 0.20012766 0.124485075 0.18495917
0001a0 f4 75 7a 3e df b8 c4 be f5 0f 4b bd fc 2d 6a 3e
       0.24459058 -0.38422295 -0.049575765 0.22869104
0001b0 3c be 35 be 26 35 c0 3d 79 60 ec 3d be 9c a4 bb
       -0.1774835 0.09385137 0.11541838 -0.005023568
0001c0 23 cf 4f 3d 3b d7 20 3e 01 af 94 3e 08 df db 3e
       0.05073465 0.15707104 0.29039767 0.42943597
0001d0 f8 47 92 bd 3c 34 78 3d 25 8c b9 3d 4b f7 fc 3c
       -0.07142633 0.06059669 0.090599336 0.030879637
0001e0 13 84 70 bd 97 f3 f2 bd e2 f9 40 3e f5 c6 d1 3d
       -0.058719706 -0.11862867 0.18845323 0.10243026
0001f0 1d 82 9a bc f8 88 c8 bd c1 14 2e be 78 55 e7 3d
       -0.018860871 -0.0979175 -0.17000104 0.11295599
000200 b0 e4 10 3d ea 44 f3 bd 2b 1a 2d 3e 54 03 6d be
       0.035374343 -0.11878379 0.16904514 -0.23145801
000210 e4 22 1e be 7f 23 8f be 4d 4a 4f 3e 53 17 1e 3e
       -0.15442997 -0.2795677 0.20243187 0.15438585
000220 e2 99 51 be af 6b 91 3d db 7a 34 3e 48 f5 46 3e
       -0.20468858 0.07100617 0.1762499 0.19429505
000230 a1 8b 56 bd fe 2d 85 3e 5c 7f 84 3e 96 e2 7f bd
       -0.052379254 0.26011652 0.25878417 -0.06247195
000240 24 3f 00 3e e6 23 71 be 72 40 97 3d 77 44 be bd
       0.12524086 -0.2354885 0.07385339 -0.092904024
000250 21 e4 97 3d 45 c3 cf be 21 9d 0d 3d 17 e7 7f 3e
       0.07416559 -0.40578666 0.034573678 0.24990498
000260 ec d1 82 3e 8c 5b 8e bd e0 90 2d be dc b0 20 bd
       0.25550783 -0.06951055 -0.16949797 -0.039231166
000270 e9 55 e0 bd 56 56 2e be 11 bf a2 bd 2d a9 66 bf
       -0.10953886 -0.17025122 -0.07946599 -0.9010189
000280 f6 54 cc bd 3e f8 d1 be 76 b1 09 bf 5d 08 f7 be
       -0.099771425 -0.41009706 -0.5378641 -0.48248568
000290 b9 df c4 3c 22 07 6f 3e a9 f6 bc be 03 a7 3b be
       0.02403246 0.23342565 -0.36906937 -0.18325429
0002a0 35 44 81 be 2d 27 d2 3d 10 92 4e be 6f 5f 9a bf
       -0.2524735 0.102613784 -0.20172906 -1.2060374
0002b0 fb e8 37 3e 7f ea 4d be e7 9a 72 be ba 6c 60 be
       0.17959969 -0.20108984 -0.23691903 -0.21916476
0002c0 df 11 95 be 1f 50 dc 3d 24 98 e5 bc ea 59 af 3d
       -0.29115197 0.107574694 -0.028026648 0.085620716
0002d0 f7 4f c7 3d de 96 c4 bd 79 1e 8e 3d 10 73 3c 3d
       0.09732049 -0.09599088 0.06939406 0.04600817
0002e0 b6 3a e2 bd 7b 69 36 3e 54 04 71 be a4 ac f1 3c
       -0.110463545 0.17813675 -0.23536807 0.029501267
0002f0 84 73 91 3e 96 a3 2d 3e 10 3b aa 3e a3 ab d8 3b
       0.28408444 0.16956934 0.33248186 0.0066122576
000300 50 a8 48 3e 68 7b 2b bd 4a 0d 50 3e aa 72 c2 3d
       0.19595456 -0.041865736 0.2031757 0.09494527
000310 e0 1d 61 3e fe 92 1b 3e 4f 59 c7 be 52 a9 40 3d
       0.21984053 0.15192792 -0.38935325 0.047036476
000320 86 91 ab bd 9b 31 79 3e 25 0b d2 3d da f8 1b 3b
       -0.08377366 0.24335329 0.10256032 0.002379945
000330 d9 80 15 be 86 f0 70 3e 48 64 8d be 5e 69 8e be
       -0.14599933 0.23529252 -0.2761557 -0.27814764
000340 fe f0 29 3f 55 cd 74 3e 92 ff 6f bf 40 3e 4c be
       0.6638335 0.23906453 -0.93749344 -0.19945621
000350 4e 9f a1 3b f7 39 11 3e e2 3a e1 3c f8 54 69 bd
       0.0049323207 0.14182268 0.027493898 -0.0569658
000360 39 4c f4 3c 4c cf 21 be 23 d5 0a be 1d a7 c2 be
       0.029821502 -0.15801734 -0.13557868 -0.38018122
000370 2d 8b 74 3e be 06 d9 be 3a c3 52 be 59 b5 62 bc
       0.23881216 -0.42387956 -0.20582286 -0.013837182
000380 89 4b 3f 3d 0e d1 83 be 23 a3 2d 3d 84 52 a0 be
       0.046702895 -0.25745434 0.042391907 -0.31312954
000390 90 25 aa bd 1e e8 27 bf 91 eb 98 bc 7c f3 b4 be
       -0.08307946 -0.6558856 -0.018667014 -0.35342014
0003a0 cf 26 bb 3c 18 de b1 be 10 7b 57 3c 28 f1 00 be
       0.022845654 -0.34739757 0.013151899 -0.12591994
0003b0 51 23 a0 3e 84 91 77 3c 34 4d e3 bd 98 2a 29 be
       0.31276944 0.015110377 -0.1109871 -0.16520154
0003c0 ee ad af 3d 1f aa db 3d 5f 0a 0c bd 51 ff 4c 3b
       0.08578096 0.107258074 -0.03418958 0.003128011
0003d0 0d 78 29 be a9 1b 6d be 11 91 b2 bd 1d 45 13 be
       -0.16549702 -0.23155083 -0.087190755 -0.14381833
0003e0 8d f4 2d be 4e 9d 12 be fe f4 ac 3d d0 c9 2a bf
       -0.1698782 -0.1431782 0.08445166 -0.6671419
0003f0 5f a0 91 be 0e 69 d0 39 33 c0 24 3e 8f 1e d4 3c
       -0.28442666 0.00039751123 0.16088943 0.025893478

a2c_network.actor_mlp.2.bias f4 [128]
000000 bf 15 bf bd 22 04 a8 3d 8e d1 62 3e 4a c0 6d bd
       -0.093303196 0.08203913 0.22150251 -0.05804471
000010 56 e2 85 3e a3 9c 9e be cc 25 2f be 28 0e 3b be
       0.26149243 -0.3097888 -0.17104262 -0.18267119
000020 7d 44 21 bf 2e 2c 8e 3b 67 78 0e bf 39 7b 84 bc
       -0.6299513 0.0043387627 -0.5565247 -0.016172038
000030 4a 14 56 be 4d c5 b6 be 27 c5 75 be 4b 6d 33 be
       -0.20906177 -0.35697404 -0.24000989 -0.1752216
000040 c8 20 63 bd 33 fb f6 bc 48 0d fc bd c9 c2 ca be
       -0.055451185 -0.030149078 -0.12307221 -0.39601734
000050 55 10 79 bc 85 52 b4 bd e7 d1 ad be eb b8 2d 3e
       -0.015201648 -0.08804802 -0.33949205 0.16965072
000060 83 24 18 be a7 d7 39 bd a1 fe 8c be d7 9a 33 bf
       -0.14857678 -0.045371678 -0.27538016 -0.7015814
000070 fc 69 5c be 6d 27 fc 3c 52 9a ec 3b c0 36 32 bf
       -0.21524805 0.030780518 0.007220545 -0.6961479
000080 1a c6 5e be da 30 ba be 03 90 a9 be c3 ca 1b 3e
       -0.21755257 -0.36365396 -0.33117685 0.15214066
000090 c7 e5 97 be 73 4c 1c bf de db 52 be 9e 36 25 bf
       -0.29667494 -0.6105415 -0.20591685 -0.64536464
0000a0 14 37 83 3d 8e 98 c9 bd 57 cd f6 bb 70 a9 b0 be
       0.0640699 -0.098435506 -0.0075318026 -0.3450427
0000b0 24 7d 2f bd 97 cb 86 3d ca fc ab be e8 9b 32 3c
       -0.042843953 0.065818004 -0.335913 0.010901429
0000c0 c5 29 31 be 47 75 7a bd b9 7a 78 be 00 a4 b7 bb
       -0.1730109 -0.061147 -0.24265565 -0.005604267
0000d0 c6 04 9c 3d be a2 18 bc 23 e9 2e 3e 6b 40 89 bd
       0.07618098 -0.0093161445 0.17081122 -0.0670174
0000e0 6c 6d a3 be e9 80 a0 be 43 5d 7b be ce 97 96 be
       -0.3191942 -0.3134835 -0.24547295 -0.29412693
0000f0 fb 0e df 3c 57 c8 54 be 4f 0e 5e be c4 1c fe 3c
       0.027228823 -0.20779549 -0.21685146 0.031019576
000100 6e 11 22 be 8d 00 97 3d a3 47 0b bd 11 71 16 bf
       -0.15826961 0.07373152 -0.034003865 -0.58766276
000110 b4 43 d5 3c 8d 61 87 be 0d 3b a8 3d b0 d6 81 be
       0.02603326 -0.26441613 0.08214388 -0.25359106
000120 c7 7a 18 bf 7b 34 09 bf ba 8a 2c 3d 34 c8 9f bd
       -0.59562343 -0.53595704 0.042124487 -0.078018576
000130 08 62 a1 be 25 7c b7 be eb 8b 0f be e8 d0 88 be
       -0.31520104 -0.35836902 -0.14018218 -0.26721883
000140 91 20 38 bf a8 70 63 be 59 44 4f 3d a7 da 06 3d
       -0.7192469 -0.22210944 0.05060229 0.032923367
000150 91 73 f3 be 02 ea ea be 13 07 d9 be 7a ca c1 be
       -0.47549108 -0.4588166 -0.4238821 -0.3784979
000160 93 80 ec bd 7d bf e7 be bc 6b a7 be e2 9e f8 bd
       -0.11547961 -0.4526328 -0.32699382 -0.121396795
000170 f0 65 3b be 2a 70 43 be 28 ec 84 be 51 02 2a 3e
       -0.18300605 -0.19085756 -0.25961423 0.16602446
000180 80 f8 99 bc e4 68 90 3d a6 c1 e6 bd 85 12 b8 3c
       -0.018795252 0.07051256 -0.11267404 0.022469768
000190 e3 c1 a6 be 38 c5 97 be 10 78 c9 3d 1f ac 16 bd
       -0.325698 -0.29642653 0.09837353 -0.03678524
0001a0 55 5b 76 be a4 8b b4 be 99 1e 65 be 6c 3a 55 bc
       -0.24058278 -0.35262787 -0.22374953 -0.013014417
0001b0 c6 f6 fd be 8c 16 dc bd 9e 45 3a 3e 87 5a 23 bd
       -0.49602336 -0.10746488 0.1819062 -0.039881255
0001c0 3f 4a c3 be 92 15 52 be ef 68 cc 3d 9c a1 c0 be
       -0.38142583 -0.20516041 0.09980952 -0.37623298
0001d0 30 2b fb bd 89 30 fe be 04 e5 01 3e 32 45 5c be
       -0.12264097 -0.49646404 0.12685019 -0.21510771
0001e0 e9 b0 d7 be cf fc 96 be d1 2d 38 be 2e 50 11 bb
       -0.4212716 -0.29489753 -0.17986228 -0.0022173035
0001f0 4c 86 78 be 68 e1 7b ba 8c a6 96 be 33 79 78 bd
       -0.2426998 -0.0009608478 -0.2942394 -0.06066246

a2c_network.actor_mlp.4.weight f4 [64, 128]
000000 89 cf 8b bc d0 bd 82 be 0a af 73 bc 42 d3 ca 3c
       -0.017066734 -0.2553544 -0.0148732755 0.024758939
000010 0d 9e 13 bf 7d ba 6a 3d 5a 2d 07 3e 83 27 88 bd
       -0.5766304 0.057306755 0.13200894 -0.06648161
000020 29 3c 30 3e 75 b5 12 3e 15 ec 9b bc f7 4a b2 3d
       0.1721045 0.14327033 -0.019033471 0.08705705
000030 5c c6 f8 bd 06 d4 5c be c3 19 1c be 40 37 01 3c
       -0.12147209 -0.21565256 -0.15244202 0.007886708
000040 17 20 63 3d bb 6d 05 be bd 46 2e 3e 4e a3 b8 bc
       0.055450525 -0.1303014 0.17019172 -0.022538807
000050 d2 7a 91 bd 36 c0 ab bd 86 48 b1 3c 01 5c dc 3d
       -0.07103504 -0.08386271 0.021641027 0.10759736
000060 d9 98 29 3e fa b9 91 bd 2d 83 82 bd ed 52 fe 3d
       0.16562213 -0.0711555 -0.06372676 0.124181606
000070 19 8c 87 bd fa db dc bd 5c a2 da bc 57 e6 e7 3d
       -0.066185184 -0.10784145 -0.026688747 0.11323231
000080 7b 33 f7 3c bd 53 6b bd 78 aa 05 be 07 fb 15 bd
       0.030175915 -0.057452906 -0.1305331 -0.03661635
000090 89 a4 8f bc 06 a4 f1 3c a7 1a 26 bd 7e e1 fc 3d
       -0.017534511 0.029497158 -0.04055276 0.12347697
0000a0 41 1c 93 bd 43 0f 0b 3d c5 d1 fe bd 3f a7 03 bd
       -0.071831234 0.0339501 -0.12442354 -0.03214192
0000b0 b7 69 31 be 15 7e f1 3d d2 6b b0 bc 03 83 52 bd
       -0.17325483 0.11791626 -0.021535788 -0.051394474
0000c0 cf d8 ef 3d c7 66 00 be cc 5c be bd 2d 06 28 be
       0.11711275 -0.12539206 -0.09295043 -0.16408606
0000d0 86 e9 83 3d 60 96 ec bd 0f af 7a be f9 85 c0 be
       0.064410254 -0.11552119 -0.24480842 -0.37602213
0000e0 52 e3 30 3e 2e 4b 02 3e 68 6a 55 3e 12 55 33 3e
       0.17274216 0.12723991 0.20841372 0.1751292
0000f0 07 3d de bc af f0 40 bd c4 a5 7c b9 02 28 d5 3b
       -0.02712871 -0.047104534 -0.00024094345 0.0065050134
000100 d5 c7 b7 3c 58 9f 4b be 8c b5 b7 3d da 5e e5 3d
       0.022434155 -0.19885004 0.08970174 0.11199732
000110 31 7e 7f be d8 e4 50 3d dd c6 6b be 95 2e 3e be
       -0.24950482 0.050999492 -0.23025079 -0.18572457
000120 2a 73 63 3e 91 f2 ba bd 58 d5 cf 3d 4c 10 bd bd
       0.222119 -0.09128297 0.10148114 -0.09231624
000130 93 63 09 3d 10 8d db 3d c0 2e fc bd 27 4a 9f 3d
       0.033542227 0.10720265 -0.12313604 0.07777815
000140 2d 62 35 bb 7d e7 46 3d de c2 b9 bd 63 d6 cf 3c
       -0.0027676926 0.04856061 -0.09070371 0.025370782
000150 88 6d 04 3e dd 09 01 3e 35 3b 35 3d 65 9f 64 3d
       0.12932408 0.12601419 0.044245917 0.055816073
000160 cf d6 b6 3d 1e ef f6 3d 13 69 56 bd 9d 2b 4f 3c
       0.0892769 0.12057327 -0.0523463 0.012644676
000170 ad 5b 25 bb 75 f0 12 bd 69 53 73 bc 51 e3 62 3d
       -0.0025231645 -0.03587385 -0.0148514295 0.055392567
000180 f9 a7 54 3d a2 4e 0f 3e e1 2e dc 3c 8c 91 7b be
       0.051918004 0.1399484 0.026877822 -0.2456724
000190 80 94 1c 3e fc b7 0c 3e 88 e7 52 3d 92 71 83 3e
       0.15291023 0.1374206 0.051490337 0.25672585
0001a0 16 10 f7 bd 75 82 21 3e 3d 22 35 bd a3 76 1a 3e
       -0.12063615 0.15772422 -0.044222105 0.15084319
0001b0 23 49 2c 3e b8 30 13 bd 27 76 f6 3d 99 f2 79 3d
       0.16824774 -0.035935134 0.120342545 0.061022375
0001c0 78 a1 c4 3d 61 74 4a 3c 2a 29 01 bd 5d a7 87 bd
       0.0960111 0.012356848 -0.031533398 -0.06623719
0001d0 3a 09 86 3d 84 98 bb 3d aa eb cb bd ba ba 3d bc
       0.065447286 0.091599494 -0.09957059 -0.011580164
0001e0 0e 36 ea bd 54 21 86 bd ff 91 c6 3d c1 a2 c1 bd
       -0.11436091 -0.065493256 0.09695815 -0.09454871
0001f0 ca 85 9e bd 9e 3d 85 be 6b 2d 53 bd db 5c f9 3d
       -0.07740362 -0.26023573 -0.051556986 0.12175914
000200 61 b7 21 3d 59 48 95 3d 5c 5c 07 be 6c 89 af 3d
       0.039481524 0.0728919 -0.13218826 0.08571133
000210 3b ef 8e be eb a2 8b be 90 1b 23 bd 0d 36 cf 3c
       -0.27916893 -0.27272734 -0.039821208 0.025294328
000220 c0 9b 5a 3e a0 4d d6 bc be c3 82 bd b6 a9 a4 3d
       0.21348476 -0.026160061 -0.06384991 0.08040182
000230 1e 0d 1f 3b 40 7f dd bc 58 1c 4a be f4 ce a5 3b
       0.0024269293 -0.027038217 -0.19737375 0.005060071
000240 01 a7 a2 bc b5 1e 0d bd 2e 1f 06 3d f7 f2 d6 bd
       -0.019855024 -0.034453113 0.03274458 -0.104955606
000250 1a 84 09 be 9c 6b 3a 3d 0e fa 2f 3d b6 a3 bd bd
       -0.13429299 0.04551278 0.04296308 -0.09259741
000260 96 a3 b7 3c 11 9e 2d bd 32 e1 9b bd a2 12 20 bd
       0.022416871 -0.042387072 -0.07611312 -0.03908027
000270 cf 4d 28 bd 60 46 c4 bd f4 2e 26 be f3 cf d6 3d
       -0.04108983 -0.095837355 -0.16228849 0.10488882
000280 a1 f4 3b 3c 16 a1 c6 3d 13 ec 03 bf ec cc d2 bd
       0.011471898 0.096986935 -0.51532096 -0.10292992
000290 fb 1c 48 be ff af dd 3c 93 58 f4 3d f4 18 7f 3e
       -0.19542305 0.02706146 0.11930957 0.24911863
0002a0 c0 26 fb 3c 9b 92 30 be 15 f0 61 3e 71 d8 64 3e
       0.030658126 -0.17243426 0.2206424 0.22348191
0002b0 f2 25 60 bd 37 30 9d 3d 57 91 da bc 87 f3 b1 be
       -0.054723687 0.07675212 -0.026680632 -0.3475611
0002c0 8d e9 0d bd 09 c9 ac bd 17 e1 b6 3d b3 3a c8 bd
       -0.03464656 -0.08436782 0.08929651 -0.09776821
0002d0 21 10 82 3c bd d6 2a be fd 8b 5b 3d 98 33 7f be
       0.015876831 -0.16683479 0.0536003 -0.24922025
0002e0 83 bb 82 3d 4f 32 66 3d c0 42 75 3e 91 53 3c 3e
       0.06383421 0.05620032 0.23951244 0.18391253
0002f0 c7 ba 87 bd 9d 7a 09 be 4c 0c 33 bd a5 76 1e 3b
       -0.06627422 -0.1342568 -0.0437129 0.0024179604
000300 81 52 3d 3d 21 52 1c be a0 fe 7a bd 1e 3b 35 3e
       0.04622126 -0.15265705 -0.061277986 0.17698333
000310 37 a1 05 bd 6e 7a 72 bd 8a 2f 11 3d 5d 1a 86 bd
       -0.03262445 -0.05919879 0.035445727 -0.06547997
000320 c0 9a ff bd ab 39 af bc 78 b0 12 3d 18 b4 5a 3d
       -0.12480688 -0.021389803 0.035812825 0.053394407
000330 22 42 30 3d 95 ef 67 3e 38 a5 98 bd 39 b2 be 3d
       0.04303182 0.22649987 -0.07453388 0.09311337
000340 b6 c5 62 3e aa ae 3e 3e 98 5b cf 3d a4 a4 bb bc
       0.22145733 0.18621317 0.10124892 -0.022905655
000350 3c aa df 3c 99 8f 01 3e 6d 4d 9d be ae 51 b1 3d
       0.027302854 0.12652434 -0.30723134 0.08658157
000360 81 e3 b8 3d a0 1b c6 bd 34 31 21 be 51 62 54 be
       0.09027768 -0.09673238 -0.15741426 -0.2074063
000370 e0 12 45 3d b5 49 b1 bd 98 d9 26 bd 94 5a 30 bd
       0.048113704 -0.086566366 -0.040734857 -0.043055132
000380 83 e1 75 3d 29 3c 8a 3d a0 83 96 3d 35 54 f1 3d
       0.060029518 0.06749756 0.07349324 0.11783639
000390 63 97 d7 3d 41 e5 3b bd b5 71 e5 bd fc 7e bf 3d
       0.105269216 -0.04587293 -0.112033285 0.09350392
0003a0 00 22 0a 3d 05 f8 a1 bd 88 d9 1f 3c df f7 b4 3d
       0.03372383 -0.07908634 0.009756453 0.0883634
0003b0 4b eb cc 3d 65 6f 23 be 53 46 09 3d bf f2 5d bc
       0.10005816 -0.15960462 0.033514332 -0.013546645
0003c0 d4 a4 b7 bd 06 7d 5d 3c b8 56 a3 bd a4 c1 e0 bd
       -0.08966985 0.013518577 -0.07975525 -0.10974434
0003d0 73 83 19 3d d3 4f 11 3d c9 07 a9 be 8f 95 75 bd
       0.037478875 0.035476517 -0.33013752 -0.059957083
0003e0 8e c9 6f 3d d4 67 da 3d e4 ed 26 be 82 79 1f be
       0.058541827 0.10664335 -0.16301686 -0.15573695
0003f0 db 08 59 3d f8 9d 13 3d 7e 7a 28 3d 37 80 4d 3d
       0.05298696 0.036039323 0.041132443 0.050171103

a2c_network.actor_mlp.4.bias f4 [64]
000000 47 ee 52 be 72 17 80 bd e6 ca 37 be eb 2a a4 be
       -0.20598708 -0.06254472 -0.17948493 -0.32063994
000010 87 13 bc bd 60 7c 36 bd f7 b8 ce be 78 04 09 bd
       -0.09183412 -0.044552207 -0.40375492 -0.033451527
000020 1b 39 0c bf 2a 78 1f be 9d 1b 1c be 37 a3 ab bd
       -0.54774636 -0.15573183 -0.15244909 -0.0838074
000030 49 de 8f bb 65 ac a5 bd 7a fe 43 be 29 f5 16 bf
       -0.004390512 -0.08089522 -0.19140044 -0.58967835
000040 70 ee c6 3a 82 18 15 be 3a b2 16 bd 63 a8 a0 be
       0.0015177261 -0.1456013 -0.036791064 -0.3137847
000050 3a 38 ed bd b9 3e ba bd 44 78 ba be 08 5a 45 be
       -0.1158299 -0.09093995 -0.3641988 -0.19272625
000060 33 cf ca be 7e 57 88 be cc 78 f8 bd 15 58 06 3d
       -0.39611205 -0.2662925 -0.12132415 0.032798845
000070 1f 66 d2 be 90 c6 f6 be 6a 9e f8 bd 27 44 ff 3c
       -0.41093537 -0.48198366 -0.1213959 0.031160427
000080 d3 71 bd be 67 09 2a be 31 89 7f bd 0e 14 ac bd
       -0.37000903 -0.16605149 -0.062386695 -0.08402263
000090 2c bd be 3d 2f a9 de be 51 8f 4d be ca 6e c8 bc
       0.093134254 -0.43488452 -0.20074202 -0.02446689
0000a0 c1 c2 d0 bd e8 ea d9 3d 54 ea 94 3c 21 22 a7 be
       -0.10193396 0.10640508 0.018178143 -0.32643226
0000b0 13 56 13 be a6 79 8a be ef c9 21 3d 3c 65 23 be
       -0.14388303 -0.27045935 0.03949922 -0.15956587
0000c0 62 ef 88 be 13 25 07 bd d0 dd 9a be f7 8c a1 be
       -0.26745135 -0.03299434 -0.30247355 -0.3155286
0000d0 61 ac da be ef d9 81 be 52 3a d1 ba ab d3 4e be
       -0.4270964 -0.25361583 -0.0015962815 -0.20197932
0000e0 1a d2 89 3d 4a 3f fa 3c 19 5c 95 be 8b da b4 bd
       0.06729527 0.030547757 -0.29171827 -0.08830746
0000f0 3f f3 35 3b 70 58 10 be 80 07 17 be 14 8a 9f bc
       0.0027763394 -0.14096236 -0.14748955 -0.01947502

a2c_network.value.weight f4 [1, 64]
000000 80 76 79 bc fb c4 82 bc 44 f0 94 3b 5a 5e 0f bd
       -0.0152260065 -0.015963068 0.0045452435 -0.03500209
000010 be 21 c4 bc 05 c6 58 bc f2 12 da bc 40 92 1b be
       -0.02394187 -0.013230805 -0.026620362 -0.15192509
000020 a1 e9 96 3c 46 41 7c 3e 29 d6 77 bd 86 49 71 bc
       0.01842195 0.24634275 -0.060506973 -0.014727002
000030 9f ac fa bc 1c b1 6e 3c 19 37 90 bb 65 bd b3 bd
       -0.03059989 0.014568593 -0.0044010994 -0.087763585
000040 6c 39 cb 3c 52 c7 89 3c 89 18 4a bc 85 56 ce 3a
       0.024807654 0.016818676 -0.012334951 0.0015742338
000050 62 85 81 3d b4 53 33 3f 41 c3 8d bd 25 b5 67 39
       0.06324269 0.70049596 -0.06922007 0.00022097358
000060 e4 33 45 be 21 d8 70 bb b0 18 a0 bb 9e 46 13 bc
       -0.19258076 -0.0036749917 -0.0048857555 -0.008989004
000070 65 89 76 be b8 08 89 be d8 b8 1f 3c 26 69 1a bd
       -0.2407585 -0.26764464 0.00974866 -0.037697934
000080 d5 34 64 3b bb df 9b bb 3c c1 72 bd 27 d6 df 3b
       0.003482153 -0.0047568954 -0.059266314 0.006830949
000090 58 7e 81 3c d1 15 06 be ac 1a a0 3e e6 f4 4c bb
       0.015807316 -0.1309426 0.3127035 -0.00312739
0000a0 a5 ce 75 3b a7 da 4e 3f 81 fd 2c bc 69 e2 1d bd
       0.0037507203 0.80802387 -0.010558487 -0.038546
0000b0 97 d2 a0 bc 55 40 24 be 82 e1 bb bc a5 0b b0 bc
       -0.019631667 -0.16040166 -0.022934679 -0.021489928
0000c0 76 1b 4d 3d 02 4c d6 3c ca ec 5a bc 6b ec a2 bd
       0.050075017 0.02615929 -0.013362119 -0.079552494
0000d0 b3 41 7e bd 1d bc b7 3d 36 dd ff bb 44 45 a1 3a
       -0.062074374 0.08971427 -0.007808353 0.0012303968
0000e0 94 90 14 3c 3a 8f e1 bb 56 7a f8 bd 97 0c fd bb
       0.009067673 -0.006883529 -0.12132709 -0.007722448
0000f0 c6 80 f2 3c 2f ad ac bd 5e 01 fd bb 79 b5 33 bd
       0.02960242 -0.0843147 -0.0077211102 -0.043874238

a2c_network.mu.weight f4 [12, 64]
000000 f3 51 76 bd fa 7b a7 bc d5 66 9a bd 06 77 dc bd
       -0.060136747 -0.020444859 -0.07539145 -0.107648894
000010 0f 70 b0 3b f4 1e 31 3c 55 67 f0 bc 0c ed c2 3c
       0.005384452 0.010810602 -0.029346148 0.023794673
000020 4b 61 0a be 78 d6 15 bc 5a 42 73 bc 2b 4d f3 bc
       -0.13513677 -0.009145372 -0.014847362 -0.029699882
000030 27 31 10 3e 5e 25 74 bc 4f 74 8c 3d 93 18 8c bd
       0.1408125 -0.014901487 0.068581216 -0.06840625
000040 8b 99 ba 3a 90 49 83 bd d2 52 b5 3d c3 ee 06 3c
       0.0014236433 -0.06410515 0.08853687 0.008235636
000050 58 c6 a0 3d a1 4a 0c 3d 2e 36 16 be b0 c6 6f 3c
       0.07850331 0.03425086 -0.14669105 0.014634773
000060 cf ba 4e be 46 10 f0 bd 6c f2 aa bc af c6 a3 3c
       -0.2018845 -0.11721854 -0.020867549 0.0199922
000070 5f 7f b1 bc 60 bf 07 be 7a 3d 83 bb ab 26 81 3b
       -0.02166718 -0.13256598 -0.0040051313 0.003941377
000080 c8 2b b6 bd c3 02 f3 bc fe 10 d1 bc 61 1f db 3c
       -0.08895069 -0.029664403 -0.025520798 0.026748361
000090 eb c3 a1 3b d0 a7 1f be 81 f0 c1 3b 26 e9 48 bc
       0.0049366853 -0.15591359 0.005918563 -0.012262618
0000a0 ea f4 9d bc 6d 92 07 bc 6f 4e 91 39 bf 16 7d 3d
       -0.019281823 -0.008274657 0.00027714993 0.06178927
0000b0 7f 55 6f bd 56 6f 29 be 97 5b 81 3c a6 cc 93 bd
       -0.058431145 -0.16546378 0.015790744 -0.07216768
0000c0 cf ad bf bd 0b 44 ca 3d 63 10 d8 bc c5 76 5d bd
       -0.09359323 0.098762594 -0.026375001 -0.054068346
0000d0 08 8d 38 be 3c 03 27 bc 48 6d fb bc d7 47 ad 3d
       -0.18022549 -0.010193642 -0.030691758 0.08460968
0000e0 14 3d bf bc 09 fa 3c bc 4b 15 d3 bd fb d6 16 bc
       -0.023344554 -0.011534222 -0.10306796 -0.009206529
0000f0 dd 8e eb 3c 73 a7 d4 3c 90 bc df 3a 73 38 f1 3b
       0.028754646 0.025958752 0.0017069746 0.0073614656
000100 a9 b2 ab bc 7d c6 19 3e 1c df ef 3d 7d 32 8b 3d
       -0.020959215 0.15017124 0.117124766 0.06796739
000110 9c 76 22 3c 51 41 02 3d ff 9b 99 bd 7f 7b 13 bd
       0.009915974 0.03180057 -0.07500457 -0.036006447
000120 8f 21 a8 bd 49 48 09 bd e5 a2 c2 bc 3c 05 fb 3c
       -0.08209526 -0.033516202 -0.023759315 0.030642144
000130 03 f2 6d 3d b9 12 15 3a ae 81 85 3c 74 91 a4 3d
       0.05809213 0.0005686689 0.016297188 0.080355555
000140 c5 f4 f2 bc a9 8d dd 3c fa 6f 85 3d ae a5 49 3d
       -0.02965773 0.027045088 0.065154985 0.04923027
000150 50 40 1b 3c 1f 6f 6a bc df 87 09 bd 12 5b 3a bc
       0.0094757825 -0.01430872 -0.033576842 -0.011374252
000160 e3 f8 6e 3c e0 96 f6 bc 49 7c 2a 3d dc 93 92 bc
       0.014585706 -0.03010124 0.041622434 -0.01789277
000170 ce 8e 09 3d 32 82 19 3e db 70 0a 3d c7 c1 b2 bb
       0.033583455 0.14991072 0.033799034 -0.005455229
000180 0b e5 6c 3c 84 52 10 bc 58 2f 96 bc ae 07 4d 3d
       0.014458905 -0.008808736 -0.018333122 0.050056152
000190 de e2 d1 bd 18 0f 00 3c 76 bd 5c bd 90 be 89 bc
       -0.102483496 0.007816099 -0.05389162 -0.0168145
0001a0 d7 9d 42 bd 16 c3 3c 3d e7 13 91 bc 60 b9 17 3d
       -0.04751381 0.046084486 -0.017709685 0.03704202
0001b0 8b ed c4 bd 8f 86 0c 3e 78 e4 b2 bd 27 25 1f 3c
       -0.0961562 0.13723205 -0.08734983 0.009713448
0001c0 52 db 1b bc 56 97 7f 3e 19 db 9f 3d d3 fc db 3c
       -0.009512739 0.24960074 0.078054614 0.026853954
0001d0 31 0f 38 bc 3c ef a6 bd 50 5e 98 3a 55 65 f8 3c
       -0.011234091 -0.08151099 0.0011624787 0.030321756
0001e0 f1 38 3a 3d a1 1f b6 3b ec 10 57 3d c5 76 41 3c
       0.04546446 0.0055579697 0.052506372 0.011808102
0001f0 6a bd 81 3d ff f2 24 3d 6a 26 04 3b 97 ab ad 3c
       0.06334956 0.0402708 0.0020164498 0.021199984
000200 90 1d 3d 3d 13 e7 a9 bc 04 3f a8 ba 6b e0 e9 3c
       0.04617077 -0.020740068 -0.0012836163 0.028549394
000210 91 20 ec 39 20 4e b5 bb a0 e1 08 3d b0 4a 18 bc
       0.00045037692 -0.005532995 0.033418298 -0.009295151
000220 e7 49 82 3d d2 76 50 bc 54 56 96 3b cf 39 9c 3c
       0.06361752 -0.0127236415 0.004587928 0.019070534
000230 08 94 de 3b bc 79 56 3c c6 f9 29 3c 10 e7 ec 3d
       0.006792549 0.013090547 0.010374492 0.11567509
000240 67 e8 c6 3b ac 5b 39 3c af ff e4 bc d7 b2 e2 3c
       0.006070185 0.01131336 -0.02795395 0.027673168
000250 ca 36 93 bb 8f b0 af bb 7d dd 07 3d 5d 6d 89 3c
       -0.0044926153 -0.0053616236 0.033170212 0.016775781
000260 6b 5e 26 3d 14 82 be 3c 44 2c cf 3a ec 2c dc bb
       0.040617388 0.023255385 0.0015806039 -0.0067192223
000270 26 8f ff 39 6b 0d fa 3c b1 0a 40 3c 76 3d 4e bc
       0.00048744044 0.030523976 0.011721299 -0.012587896
000280 9a dc 25 3c 39 8a 95 bc e0 23 68 3b 65 28 37 ba
       0.010123396 -0.018254386 0.0035421774 -0.0006986915
000290 b8 f9 f1 bc 5c d0 a4 3d 85 f5 2f bb 50 c0 2c 3b
       -0.02953802 0.08047554 -0.0026849222 0.0026359744
0002a0 87 c5 2f bb ae 0b ab bb 1b fe 85 bb 9e c8 82 3c
       -0.0026820616 -0.005219898 -0.0040891296 0.015964802
0002b0 c4 c0 69 bc f5 9d 06 3d f0 61 24 3b f2 c9 08 bd
       -0.01426715 0.032865483 0.002508279 -0.033395715
0002c0 e0 87 66 3c c0 3b d8 bc c4 a9 26 3d 24 fc c9 3a
       0.014070481 -0.026395679 0.040689245 0.0015410227
0002d0 7c a1 b1 3d a9 df b9 3c a4 9f 8c 3b 3e 4b 17 3d
       0.08673379 0.022689657 0.0042914916 0.03693699
0002e0 4f 06 dd bb 51 1a 01 bc 9d bb 87 3d 28 52 71 3b
       -0.006745137 -0.0078798095 0.06627581 0.003682265
0002f0 c4 71 2e 3b 4d 84 36 3b 86 ed 64 b9 79 f0 77 bb
       0.0026618103 0.0027849854 -0.00021832259 -0.0037832542
000300 84 b6 f3 3d 73 e6 31 3c ea fa d8 3d be 91 42 3e
       0.119000465 0.010858166 0.10594733 0.19000909
000310 90 8a 29 3d e6 43 32 bc 95 4f 81 3d 5a 1e 11 3c
       0.04139191 -0.010880446 0.06314007 0.008857334
000320 43 ec 63 3d 98 30 11 3d 1b ea 18 bc 61 80 cd bb
       0.05564524 0.035446733 -0.009333159 -0.0062714075
000330 70 88 a9 bd a4 f7 1e bd 50 8f 16 3d 5a a8 f6 3d
       -0.082779765 -0.038810387 0.036757767 0.12043829
000340 e1 37 b8 3c a5 f2 dd 3d 1e b6 13 3d 4a 6a 21 3e
       0.022487583 0.108372964 0.036062352 0.15763202
000350 9a d7 b5 bc 92 c0 d8 bc 8e bd cc 3d 64 8d 48 3c
       -0.022197533 -0.026459012 0.09997092 0.012240741
000360 fa db 6e bd a1 b2 aa 3b 2d 4b 49 3c 09 be de bd
       -0.058315255 0.0052092825 0.01228599 -0.1087609
000370 84 04 3a 3d 4a 94 ce 3d 1e 63 ee 3c 27 44 69 bd
       0.045414463 0.10086878 0.029099997 -0.05694976
000380 18 97 0e bd 3c 5e e7 bc 88 91 48 bd c8 0e a5 bd
       -0.034812063 -0.028243177 -0.048966914 -0.0805946
000390 22 f6 02 bd 20 da 21 3e 0c 53 d0 bc d6 a5 25 bc
       -0.03197301 0.15805864 -0.025430225 -0.010110339
0003a0 d5 bb 90 bc 62 52 c8 bc 31 d2 1f bc 21 72 29 3d
       -0.01766769 -0.024453346 -0.009754703 0.041368607
0003b0 cd d7 cf 3c d5 ca 32 3d 73 b4 35 3d cd 1c f6 3a
       0.025371457 0.043650467 0.044361543 0.0018776894
0003c0 06 1c 80 3d d1 77 57 3d c4 b4 11 3e a0 17 05 3d
       0.06255345 0.0526045 0.14229113 0.032493234
0003d0 f1 1d 35 3e 37 15 97 3d ee 2d bc bb 9d 21 9f bd
       0.17687203 0.07377093 -0.00574278 -0.07770083
0003e0 d2 e6 02 bd d5 37 f0 bc c5 a4 e0 3b a3 6c 49 bc
       -0.03195841 -0.029323498 0.0068555796 -0.012293967
0003f0 02 a1 32 bd 19 e3 98 bd e4 84 72 3c 07 39 09 bc
       -0.04361058 -0.074651904 0.014802191 -0.008375413

a2c_network.mu.bias f4 [12]
000000 3e 05 40 3e ae 4f ac 3d 4b 04 a0 be a3 0e 23 be
       0.18752 0.08413635 -0.31253275 -0.15923552
000010 ef 5c b5 3d 83 29 0d bc a0 1f c9 3d 89 11 cd 3c
       0.08855616 -0.008615854 0.09820485 0.025032775
000020 67 26 83 bd c3 ad b6 3d 54 c4 aa 3d 44 b7 7f bd
       -0.06403809 0.08919861 0.08338228 -0.062430635

exp_avg f4 [12]
000000 43 96 aa 3b 32 35 08 bc a0 9c 0b ba 69 8d 80 3b
       0.005205901 -0.008313464 -0.0005325768 0.0039231074
000010 07 62 a1 3b c4 d4 20 3c 4e 7c 3b bb 30 95 17 3b
       0.004925016 0.009816352 -0.0028608027 0.0023129694
000020 dd 6a b5 3c 4f 62 f9 bb a4 54 8f bb 50 fb 12 3c
       0.022145683 -0.0076105963 -0.0043741036 0.00897105

exp_avg_sq f4 [12]
000000 c6 9b 67 3b 66 a5 90 3b 2a 69 99 3b 80 43 a3 3b
       0.003534065 0.0044142483 0.004681726 0.004982412
000010 d8 28 39 3b dd a7 9f 3b 3c 98 3f 3b 8b e2 0f 3b
       0.0028253105 0.004872306 0.0029235026 0.0021955098
000020 90 04 7f 3b 38 c7 37 3b 37 64 2f 3b 04 09 ca 3b
       0.0038912632 0.0028042328 0.0026762614 0.0061656255
