omniisaacgymenvs/runs/WEE/nn/last_WEE_ep_500_rew_-18808.227.pth (torch, 623514 bytes, 36 tensors)

value_mean_std.running_mean f8 [1]
-33.023524003812355
00000000: c485 a5d5 0283 40c0

value_mean_std.running_var f8 [1]
230.09581142407512
00000000: 8c9f 1ee3 10c3 6c40

value_mean_std.count f8 []
131072001.0
00000000: 0000 0004 0040 9f41

running_mean_std.running_mean f8 [32]
0.040556065115493464 0.006791172731063932 0.46658790259195315 0.26098726184857884 0.030871603217941097 -0.04831198222142697 0.4511936002296428 0.10563517269327521
0.03326412588840193 0.09242353961674274 0.009994803787921988 0.013771953914044302 0.25421300149312037 1.5279121361180868e-05 -4.1681043489838524e-05 0.4275757348591924
0.7124918573438614 -6.878665845316888e-05 -0.00011053474945867011 0.2687265967144407 9.080886273111501e-05 -0.0001696295340524015 -0.001226660448520195 -0.0019852263342500505
0.0046500775595295744 0.030754666595316203 0.0 0.0 0.0 0.0 0.0 0.0
00000000: bea6 a6ba c3c3 a43f 33a4 808c 0fd1 7b3f
00000010: f6dd 9581 93dc dd3f a7fb 93ea 03b4 d03f
00000020: 55da c838 ce9c 9f3f 91bb 4a1f 59bc a8bf
00000030: efa6 491f 5be0 dc3f c461 061c e80a bb3f
00000040: 8634 a4d9 fe07 a13f 0ed3 08b0 11a9 b73f
00000050: 5847 31db 2778 843f c87e 4d5d 7834 8c3f
00000060: 8161 e89b 0645 d03f 43c3 9439 7505 f03e
00000070: 07a0 ccbf 55da 05bf 3423 729d 665d db3f
00000080: 6ea9 3eb9 bbcc e63f 3070 38cb 3108 12bf
00000090: b463 3689 dcf9 1cbf c30c 1d0a d132 d13f
000000a0: 7072 e961 14ce 173f a4ad 359a d23b 26bf
000000b0: b4c6 9ea0 fc18 54bf 3fcd c845 5243 60bf
000000c0: 4c35 acb0 f50b 733f 79b2 e7bc 267e 9f3f
000000d0: 0000 0000 0000 0000 0000 0000 0000 0000
000000e0: 0000 0000 0000 0000 0000 0000 0000 0000
000000f0: 0000 0000 0000 0000 0000 0000 0000 0000

running_mean_std.running_var f8 [32]
0.0018677009268451025 0.0007987487051626439 0.0024912826526028034 0.5159298960504387 0.01162633867128431 0.04741586731387282 0.1507786503361861 1.811399775555439
1.892408868158688 1.7288579844600331 569.9544236910763 329.1141960285987 538.3711518080906 9.914283137464566e-06 1.2786910336470901e-05 2.1818342079228944e-05
0.15988252456177868 0.0005263973365899195 0.0006125738630710241 0.2591539228706134 0.007157749299694343 0.007129974398594393 0.005295924054461113 15.806801276950235
16.131976047116247 10.577360368242276 1.5258788829669284e-08 1.5258788829669284e-08 1.5258788829669284e-08 1.5258788829669284e-08 1.5258788829669284e-08 1.5258788829669284e-08
00000000: 898c 9199 b499 5e3f 32a9 7fc8 632c 4a3f
00000010: 22a1 9330 9968 643f 0d17 d269 7f82 e03f
00000020: 9a4f ecc2 8ccf 873f d05f d97e e446 a83f
00000030: 1081 10fe b64c c33f abe0 bf54 7efb fc3f
00000040: 596e 7685 4e47 fe3f f8f2 6afd 66a9 fb3f
00000050: 9a5d e3a8 a2cf 8140 a202 37bf d391 7440
00000060: ce6c 701e f8d2 8040 e10f e7b2 b0ca e43e
00000070: c019 2593 ebd0 ea3e 84db 090d d1e0 f63e
00000080: c5ed 18d3 0777 c43f 7799 34ac bd3f 413f
00000090: 8ebc a85a a412 443f 4300 d755 fa95 d03f
000000a0: df82 7bb2 7151 7d3f e2fe cfed 5134 7d3f
000000b0: 842d dbc9 2db1 753f 9ebe 950e 159d 2f40
000000c0: 3a38 a62e c921 3040 d536 37c7 9b27 2540
000000d0: feeb bfce 4d62 503e feeb bfce 4d62 503e
000000e0: feeb bfce 4d62 503e feeb bfce 4d62 503e
000000f0: feeb bfce 4d62 503e feeb bfce 4d62 503e

running_mean_std.count f8 []
65536001.0
00000000: 0000 0008 0040 8f41

a2c_network.sigma f4 [12]
-0.48264053 -0.39500153 -1.6636057 -0.40614283 -0.3596771 -2.947841 -0.37435675 -0.22964966
-0.30750367 -0.31416526 -0.52655417 -0.15707335
00000000: a91c f7be a43d cabe 08f1 d4bf f4f1 cfbe
00000010: 9927 b8be 6da9 3cc0 b0ab bfbe 4829 6bbe
00000020: 1f71 9dbe 45da a0be 41cc 06bf d6d7 20be

a2c_network.actor_mlp.0.weight f4 [256, 32]
0.19418058 0.11268029 -0.3361331 0.053073425 0.073807344 0.36365405 0.058095437 0.09398044
0.02510015 -0.1462201 -0.016398646 0.0069955145 0.18789436 -0.033251047 0.08028192 0.060404737
0.023782488 -0.17663185 -0.31171665 -0.049573746 -0.1351933 0.12228659 0.014469146 0.123613566
0.08426223 0.030277455 0.1383469 -0.12560225 0.011130519 -0.1206572 0.054509446 -0.06087876
0.12817338 0.02304604 0.241159 -0.0960177 -0.105931856 -0.13464299 0.21113685 0.05041443
0.30232024 -0.2789085 -0.25098303 -0.033409253 -0.20381303 0.1315064 0.13343912 0.094749615
-0.09214207 -0.15303136 0.10672612 -0.096379384 0.07038771 -0.1217216 0.18029936 -0.035219662
-0.064280525 -0.07429602 0.037371926 -0.045070764 0.105371185 0.12017442 -0.12819375 -0.094375454
0.1260047 -0.04640855 -0.09099935 -0.33931768 -0.31186625 0.15333244 -0.09534603 -0.3087047
0.07068157 -0.20353527 -0.29238352 -0.120944306 -0.13110217 -0.12587789 0.1261405 0.077987604
-6.2242674e-05 -0.30447173 -0.1540339 -0.06685366 -0.06624949 -0.098339655 -0.22867225 -0.16633043
-0.049639042 -0.02223429 -0.012249876 -0.11978914 -0.121338665 -0.10313184 -0.060510207 -0.13952647
0.11545907 0.06692525 0.17859474 0.2180516 -0.2862351 -0.019678548 -0.13686095 -0.11380968
-0.15543158 -0.2268427 0.054428604 -0.035312906 0.051461976 -0.14594802 0.0772794 -0.16151246
0.05519168 0.012419308 0.04258481 0.07688351 0.20524742 -0.1002254 0.08367963 -0.11110472
-0.009098686 -0.1509033 0.16101858 -0.12974533 0.094478525 0.06212633 0.057444636 -0.09557365
0.25385806 0.15237774 -0.091970325 -0.322443 0.14068197 -0.048826512 -0.115349695 0.16217798
0.0720035 -0.100585274 -0.19365703 -0.0344338 -0.05634402 -0.023903027 -0.08316759 -0.052162506
-0.073119365 -0.018640077 0.013729397 -0.119401306 -0.031826355 0.0855288 -0.04498469 -0.02028173
0.022642346 0.0010642402 0.06610162 -0.031063449 -0.04681069 0.018911732 -0.031228328 -0.05267964
0.16565172 0.20063321 -0.2845309 0.026935317 -0.108928114 -0.0049204724 0.03056704 -0.014510726
-0.22341272 -0.07077705 0.1274441 0.24544322 -0.0889946 -0.039214876 -0.10333187 -0.12244689
0.03779017 0.08705636 0.043591924 0.08832303 -0.32598194 -0.07993048 -0.16010869 0.22864522
-0.03834068 -0.24907272 0.07313521 -0.06733098 -0.11441971 0.12902705 -0.08038068 -0.03543785
-0.24122806 0.18366523 0.11159868 0.15454496 -0.18264297 -0.30050245 -0.16900891 0.28040048
-0.021731224 0.05147755 0.06578177 -0.0724344 -0.023829533 -0.25427392 -0.15048073 -0.054104995
0.06285814 -0.14436485 -0.07194722 -0.027218122 -0.023477305 -0.11342107 -0.30671743 0.082613066
-0.08443059 0.1133844 -0.056711514 -0.1296776 -0.03119029 -0.08569204 -0.05408334 -0.16829063
0.1197982 -0.11166172 0.08110866 0.009241824 0.16506015 -0.16080561 0.14432634 -0.0449479
0.16959588 0.17331208 -0.08869786 -0.16664264 -0.028366573 -0.18952166 0.06547559 -0.28547952
0.077804394 0.24314971 0.18169929 0.05310941 -0.12122023 0.030261204 0.07589822 -0.2256177
-0.018111655 -0.29112604 -0.01546155 -0.08701187 -0.07226058 -0.05611933 -0.16799161 0.1450466
00000000: 46d7 463e edc4 e63d a319 acbe 8563 593d
00000010: 4e28 973d dd30 ba3e 7bf5 6d3d d178 c03d
00000020: d49e cd3c b9ba 15be 7456 86bc a13a e53b
00000030: 6167 403e 4032 08bd d96a a43d f56a 773d
00000040: 7ed3 c23c fbde 34be 5399 9fbe d70d 4bbd
00000050: 1d70 0abe 6471 fa3d ff0f 6d3c 1c29 fd3d
00000060: ad91 ac3d 6d08 f83c cfaa 0d3e e09d 00be
00000070: c85c 363c 1f1b f7bd 4c45 5f3d 025c 79bd
00000080: e23f 033e 0dcb bc3c 63f2 763e eea4 c4bd
00000090: cdf2 d8bd dadf 09be 4234 583e 5d7f 4e3d
000000a0: b8c9 9a3e 18cd 8ebe d980 80be 24d8 08bd
000000b0: 5db4 50be 9da9 063e 44a4 083e 160c c23d
000000c0: fbb4 bcbd 41b4 1cbe 3993 da3d 8e62 c5bd
000000d0: 6f27 903d 2d49 f9bd 65a0 383e 7e42 10bd
000000e0: 82a5 83bd 8328 98bd 4e13 193d 1f9c 38bd
000000f0: d9cc d73d 021e f63d 3945 03be eb47 c1bd
00000100: 6007 013e e416 3ebd de5d babd 0cbb adbe
00000110: efac 9fbe 2e03 1d3e c844 c3bd 8b0e 9ebe
00000120: 80c1 903d 8d6b 50be 4bb3 95be a6b1 f7bd
00000130: a63f 06be 22e6 00be fa2a 013e f7b7 9f3d
00000140: 4888 82b8 b8e3 9bbe 10bb 1dbe 92ea 88bd
00000150: d0ad 87bd 4d66 c9bd 0f29 6abe 8652 2abe
00000160: 4f52 4bbd b024 b6bc b4b3 48bc 0254 f5bd
00000170: 6880 f8bd c936 d3bd 8dd9 77bd 07e0 0ebe
00000180: ce75 ec3d 1b10 893d 8ae1 363e eb48 5f3e
00000190: 688d 92be e834 a1bc 4725 0cbe 0d15 e9bd
000001a0: 7529 1fbe 7449 68be 87f0 5e3d 44a4 10bd
000001b0: cbc9 523d 6673 15be a944 9e3d 8663 25be
000001c0: ac10 623d 5a7a 4b3c 696d 2e3d 1a75 9d3d
000001d0: 612c 523e f942 cdbd 3a60 ab3d df8a e3bd
000001e0: a812 15bc 6586 1abe 0ee2 243e f6db 04be
000001f0: f57d c13d 2e78 7e3d 114b 6b3d 1ebc c3bd
00000200: aff9 813e e908 1c3e f05a bcbd 4017 a5be
00000210: ef0e 103e 4ffe 47bd 763c ecbd fc11 263e
00000220: 9276 933d a7ff cdbd 074e 46be 750a 0dbd
00000230: fdc8 66bd 48d0 c3bc c553 aabd 5aa8 55bd
00000240: 9bbf 95bd 13b3 98bc 44f1 603c ac88 f4bd
00000250: 5a5c 02bd b929 af3d de41 38bd df25 a6bc
00000260: 717c b93c fa7d 8b3a 4960 873d c678 febc
00000270: 91bc 3fbd c7ec 9a3c 8dd2 ffbc 9bc6 57bd
00000280: 9ba0 293e cb72 4d3e 09ae 91be 74a7 dc3c
00000290: b415 dfbd ea3b a1bb bb67 fa3c 65be 6dbc
000002a0: 4ec6 64be 8ff3 90bd b580 023e 7855 7b3e
000002b0: cd42 b6bd c79f 20bd a99f d3bd 6fc5 fabd
000002c0: dec9 1a3d 9b4a b23d 728d 323d b4e2 b43d
000002d0: 1be7 a6be 97b2 a3bd 88f3 23be f921 6a3e
000002e0: 1e0b 1dbd eb0c 7fbe eac7 953d d3e4 89bd
000002f0: e254 eabd ab1f 043e a09e a4bd 4727 11bd
00000300: 7d04 77be bd12 3c3e d98d e43d 0941 1e3e
00000310: c206 3bbe 75db 99be ac10 2dbe a790 8f3e
00000320: ae05 b2bc 20da 523d 98b8 863d 7d58 94bd
00000330: 2736 c3bc 3130 82be 9f17 1abe 339d 5dbd
00000340: c5bb 803d 61d4 13be 1059 93bd 8af8 debc
00000350: 7a53 c0bc 4e49 e8bd 110a 9dbe 0a31 a93d
00000360: f2e9 acbd 1536 e83d 554a 68bd 34ca 04be
00000370: c782 ffbc 4f7f afbd 7e86 5dbd 6154 2cbe
00000380: c258 f53d e6ae e4bd 4c1c a63d 056b 173c
00000390: 8705 293e 3aaa 24be 49ca 133e 4a1b 38bd
000003a0: 8baa 2d3e b978 313e 39a7 b5bd 5ea4 2abe
000003b0: 0461 e8bc f711 42be 1118 863d 5f2a 92be
000003c0: e957 9f3d 3dfc 783e 610f 3a3e 4189 593d
000003d0: 5042 f8bd 58e6 f73c 8770 9b3d 5408 67be
000003e0: e55e 94bc 790e 95be 7152 7dbc 4833 b2bd
000003f0: 5bfd 93bd 62dd 65bd fe05 2cbe 1987 143e

a2c_network.actor_mlp.0.bias f4 [256]
0.01959584 0.25568488 0.06929657 -0.24152312 -0.029398272 0.065445684 -0.092478655 -0.24446112
-0.022038806 -0.0947367 -0.115242936 -0.01970792 0.041600663 -0.07425 -0.098084375 -0.19863239
0.049250223 0.029120538 -0.045322075 0.106179886 0.0013632854 -0.14894462 0.0020959796 0.21776897
0.22909203 0.04393284 -0.15944506 -0.25688174 -0.28797853 -0.102546975 -0.15358227 -0.027175697
-0.10793392 -0.13890666 -0.31382915 0.23364724 0.10053589 0.17495872 -0.0030654126 -0.31403175
-0.065020494 0.009485144 0.06137992 -0.053005617 -0.17500356 -0.045342106 0.15032987 0.12834723
0.22249751 -0.020580284 0.02184672 -0.06903515 -0.20779641 0.31274492 0.006806653 0.22532113
-0.17659934 -0.099768974 0.19927816 0.3670303 0.05180187 0.06663493 0.14984658 -0.073376894
0.22086425 -0.41477403 -0.03768686 0.120316334 -0.025486894 0.18582083 -0.2963549 -0.049330853
0.34423155 0.05191753 0.15222855 0.07684395 0.15552433 0.1598717 0.29253644 -0.0784601
-0.2405398 0.13860783 0.15107432 -0.038130354 0.07428682 0.14559706 0.15155712 -0.01705812
-0.060312696 0.06568486 0.19379918 -0.013639336 -0.116346076 -0.050062478 0.33089766 0.1617726
4.3284595e-05 0.06788755 0.07902128 0.035657104 0.046884067 -0.11826705 -0.18284363 -0.12966943
-0.118441485 0.19191419 -0.07910164 -0.3751133 0.3199416 -0.09126726 -0.033192407 0.00037701023
-0.07621281 -0.20067059 0.17168735 -0.3529307 0.24371517 0.1990182 0.10874591 0.30219012
-0.18665716 -0.12892315 -0.061150644 0.011710309 -0.09831693 0.24432896 0.22693263 0.023009403
-0.09932582 0.03710872 0.26746958 0.030556709 0.13655509 -0.073135674 -0.16574527 -0.13994895
-0.17245528 0.28268483 0.13026167 -0.008494336 0.109871455 0.10171512 -0.23944882 -0.33904672
0.09351032 0.122253366 0.24468623 -0.15364179 -0.2799138 -0.020188142 -0.08339389 0.08123463
0.24354804 0.24601854 -0.04952823 -0.09713045 0.028998164 -0.19874705 0.24033123 0.09620338
-0.14968799 0.12685733 0.15145384 -0.2399985 -0.25023773 -0.083827734 -0.27437904 -0.2565228
-0.029757943 0.034732036 -0.09683596 0.14614019 -0.22082806 0.2185607 0.14343992 0.23673555
0.1196761 0.13724974 -0.07234136 -0.10021444 0.24268155 -0.2138545 0.24696848 0.039776366
-0.10624882 0.1289978 -0.121812835 0.26010907 -0.059183788 -0.015177173 -0.09570019 -0.12121548
0.099388525 0.061171222 -0.08073297 0.01896604 0.18443835 -0.034795657 0.103308804 -0.2989634
0.061480097 -0.3434278 -0.18991245 0.18950023 0.2096896 -0.12805605 -0.059300542 0.13406195
-0.15167573 0.17375182 0.0424453 0.22103381 0.13817732 -0.15329345 0.09934092 0.0238114
-0.0804382 0.05133282 -0.057520166 0.01736646 -0.20217118 0.031028664 -0.15210141 -0.090963416
-0.07095306 -0.039004162 0.006764165 -0.042056333 -0.113345295 0.0110485405 -0.22944051 0.11175536
-0.0006544769 -0.16751602 0.21975951 -0.049637407 -0.018567128 0.09967534 0.14551198 -0.06848227
-0.17164426 -0.11088065 0.25015977 -0.1062278 -0.05136948 0.17830032 0.32712033 -0.08633187
0.2578119 0.018341925 -0.14496613 0.08011999 -0.1065503 -0.074660905 0.10451283 -0.06455277
00000000: 7487 a03c 21e9 823e 5ceb 8d3d d651 77be
00000010: a5d4 f0bc 6308 863d 7365 bdbd 0454 7abe
00000020: ba8a b4bc 5105 c2bd 7d04 ecbd 8172 a1bc
00000030: 7565 2a3d 6210 98bd 76e0 c8bd 4a66 4bbe
00000040: 9aba 493d 328e ee3c a4a3 39bd d774 d93d
00000050: 44b0 b23a f084 18be b45c 093b d4fe 5e3e
00000060: 1a97 6a3e ecf2 333d 9145 23be 0186 83be
00000070: ec71 93be 2604 d2bd ac44 1dbe 919f debc
00000080: 760c ddbd 8c3d 0ebe 37ae a0be 3941 6f3e
00000090: c3e5 cd3d 6128 333e 17e5 48bb c5c8 a0be
000000a0: 7729 85bd 9467 1b3c 8369 7b3d 6b1c 59bd
000000b0: 2234 33be a5b8 39bd 13f0 193e 756d 033e
000000c0: 63d6 633e fc97 a8bc e4f7 b23c 4d62 8dbd
000000d0: 95c8 54be 1a20 a03e 580a df3b 95ba 663e
000000e0: 75d6 34be ad53 ccbd 930f 4c3e 65eb bb3e
000000f0: 332e 543d e577 883d 6271 193e a046 96bd
00000100: 3d2a 623e 435d d4be 895d 1abd 6968 f63d
00000110: e4c9 d0bc d147 3e3e d4bb 97be 260f 4abd
00000120: 1e3f b03e 7aa7 543d cde1 1b3e 5c60 9d3d
00000130: c541 1f3e 68b5 233e 56c7 953e b0af a0bd
00000140: 1150 76be 36ef 0d3e 3ab3 1a3e 932e 1cbd
00000150: b023 983d 6517 153e ca31 1b3e 78bd 8bbc
00000160: 720a 77bd c985 863d 4b73 463e 8677 5fbc
00000170: da46 eebd 500e 4dbd 6b6b a93e b7a7 253e
00000180: 7b8c 3538 a108 8b3d e9d5 a13d 2f0d 123d
00000190: 8209 403d ff35 f2bd 5c3b 3bbe 10c8 04be
000001a0: 7391 f2bd 2785 443e 0a00 a2bd da0e c0be
000001b0: 63cf a33e 54ea babd c3f4 07bd 75a9 c539
000001c0: 7615 9cbd 977c 4dbe cfce 2f3e 55b3 b4be
000001d0: 7890 793e 6dcb 4b3e 2db6 de3d aab8 9a3e
000001e0: 0e23 3fbe 6e04 04be 1979 7abd 99dc 3f3c
000001f0: 635a c9bd 5f31 7a3e 0761 683e 377e bc3c
00000200: 566b cbbd 50ff 173d c6f1 883e 1052 fa3c
00000210: 19d5 0b3e 28c8 95bd 21b9 29be c74e 0fbe
00000220: 1e98 30be 11bc 903e 5163 053e d42b 0bbc
00000230: 4904 e13d 0450 d03d 1232 75be 8897 adbe
00000240: 5782 bf3d f95f fa3d 078f 7a3e 4654 1dbe
00000250: dd50 8fbe 9a61 a5bc 6aca aabd 575e a63d
00000260: a864 793e 49ec 7b3e 1dde 4abd 54ec c6bd
00000270: 8f8d ed3c 5984 4bbe 6419 763e 4706 c53d
00000280: cf47 19be e3e6 013e b716 1b3e 2bc2 75be
00000290: 291f 80be e0ad abbd 697b 8cbe f556 83be
000002a0: eec6 f3bc 2e43 0e3d ef51 c6bd c6a5 153e
000002b0: c020 62be 60ce 5f3e eae1 123e ce6a 723e
000002c0: be18 f53d 328b 0c3e b527 94bd 3a3d cdbd
000002d0: 8381 783e adfc 5abe 4ee5 7c3e 8bec 223d
000002e0: fb98 d9bd 0018 043e 0279 f9bd 042d 853e
000002f0: b36a 72bd ada9 78bc 76fe c3bd d23f f8bd
00000300: 368c cb3d ad8e 7a3d 5457 a5bd ab5e 9b3c
00000310: 68dd 3c3e e485 0ebd 9193 d33d bb11 99be
00000320: 8ed2 7b3d c5d5 afbe 6978 42be 590c 423e
00000330: dfb8 563e 2021 03be 20e5 72bd 8947 093e
00000340: e250 1bbe ffeb 313e 1fdb 2d3d b056 623e
00000350: 5b7e 0d3e f5f8 1cbe 4173 cb3d 2010 c33c
00000360: c8bc a4bd 5d42 523d 449a 6bbd 1b44 8e3c
00000370: f605 4fbe d32f fe3c 79c0 1bbe 074b babd
00000380: d74f 91bd d4c2 1fbd eea5 dd3b 4343 2cbd
00000390: 9421 e8bd f004 353c 74f2 6abe ffdf e43d
000003a0: 3491 2bba 5289 2bbe a308 613e 9850 4bbd
000003b0: 171a 98bc 9622 cc3d 1801 153e 6f40 8cbd
000003c0: 83c3 2fbe 6515 e3bd f114 803e f68d d9bd
000003d0: ce68 52bd 5c94 363e 517c a73e c3ce b0bd
000003e0: ecff 833e ce41 963c 0072 14be f315 a43d
000003f0: 0b37 dabd d1e7 98bd d30a d63d 3e34 84bd

a2c_network.actor_mlp.2.weight f4 [128, 256]
-0.15734647 0.10049822 -0.046810027 -0.1201805 -0.032896902 -0.22363707 -0.20297395 0.038725678
0.0032997425 0.018422348 -0.13994916 0.023709456 -0.13662076 -0.078981176 -0.11972855 -0.13842802
0.04975562 -0.08815359 -0.10411185 0.04821638 -0.13697375 0.009724159 0.035194397 0.0012225808
-0.028433384 0.06633637 -0.08879163 0.022539457 0.045051146 -0.0073674466 0.0415268 -0.06233342
-0.027062587 -0.0481188 -0.03328888 -0.19777924 0.025644137 0.03390121 -0.10450714 0.07431101
-0.025171973 -0.015080228 -0.061339617 -0.15642212 -0.009573583 -0.16768213 -0.12536009 -0.1242907
0.027043726 0.013085494 -0.028666392 -0.1626483 -0.011246462 -0.15498713 -0.019145103 0.0855807
-0.028188186 -0.20854825 0.076092385 -0.1060087 -0.13038576 -0.18519998 -0.039138164 -0.104216285
0.018147286 -0.05255325 -0.052827757 -0.063027546 -0.21012409 0.020927012 -0.10022226 -0.08658279
-0.020876406 -0.108147316 -0.040568694 0.02027599 -0.029241959 0.08531423 0.027773049 0.017838884
-0.003999027 0.020657474 0.01848778 0.08132158 0.04069247 0.019524481 -0.05291265 -0.1838433
-0.16432501 0.0013553636 -0.086789235 0.0021990098 -0.1108991 -0.12552208 -0.08890167 0.122903675
-0.14956045 0.02778922 -0.07219118 0.018427664 -0.08056986 -0.01772153 -0.051062547 -0.009824562
0.0043068402 -0.03147013 0.010386978 0.09765643 0.056612507 -0.10745536 -0.0989823 -0.016251255
-0.01588026 0.04057648 0.042745743 -0.010215799 0.10560144 -0.01949091 -0.037393313 0.029565627
-0.017884834 -0.11188741 0.038166784 -0.03876062 -0.1502357 -0.08404751 -0.12885521 0.032225993
-0.049179044 0.055126827 0.036738507 -0.03977484 -0.18851177 -0.06816536 0.00836861 0.06785132
-0.07487633 -0.17099951 -0.060779076 0.043767467 -0.06935421 0.09963864 0.119807936 -0.024302319
0.035839785 -0.009884006 -0.006683082 0.055651095 -0.00091515254 -0.091411844 0.017596815 -0.007006411
-0.010758547 -0.09433971 -0.14434917 -0.15129583 -0.055923548 -0.10064878 -0.10064518 -0.23377149
-0.083259165 -0.032509353 -0.034583487 0.015400083 -0.1633442 -0.07534909 0.052175686 -0.07084321
-0.019663284 -0.04133514 -0.07306969 -0.13322061 0.041447643 -0.02640598 -0.09348554 -0.06317531
-0.06974551 -0.04157147 -0.12417423 -0.06323175 0.087782346 -0.03575275 -0.022259431 -0.040571637
-0.08970115 -0.03412472 -0.00484457 -0.087603316 -0.054907456 0.0059300014 0.07507233 -0.085068166
-0.038584337 -0.1051135 -0.07029631 -0.03442365 -0.12390429 0.023795545 -0.17774928 0.022981066
-0.07411244 0.000634073 -0.033694237 -0.10745409 -0.0047263736 0.06586029 -0.03808784 -0.09174532
-0.0017433679 0.027226469 -0.17579196 -0.038600948 0.0052944412 -0.02398529 -0.080374606 -0.06767519
0.011232714 -0.15986724 -0.19142404 -0.060653318 0.0981326 -0.07979294 -0.120449945 -0.047482528
-0.11970747 -0.035695214 -0.12754601 -0.05894111 -0.10522675 -0.20760226 0.042767696 -0.0480443
-0.038221914 -0.015894812 -0.08206709 -0.004017001 0.052371953 -0.0975047 -0.06279045 -0.043985236
-0.059752353 -0.018098064 -0.021954471 -0.030196954 -0.03548653 -0.08270185 0.01983381 -0.02049857
-0.18119876 -0.07891954 0.0005274329 -0.1446749 -0.08416187 -0.1594207 -0.14977941 -0.09977726
00000000: 6f1f 21be 03d2 cd3d dfbb 3fbd 3221 f6bd
00000010: e7be 06bd 1e01 65be 67d8 4fbe d19e 1e3d
00000020: 7e40 583b 77ea 963c d54e 0fbe 553a c23c
00000030: 50e6 0bbe e2c0 a1bd 3e34 f5bd 13c0 0dbe
00000040: 8dcc 4b3d df89 b4bd 9838 d5bd 8a7e 453d
00000050: d942 0cbe 1452 1f3c 0028 103d 013f a03a
00000060: 21ed e8bc 5ddb 873d 63d8 b5bd aba4 b83c
00000070: 8d87 383d 9f6a f1bb 0118 2a3d 5451 7fbd
00000080: 5cb2 ddbc 3818 45bd ec59 08bd a486 4abe
00000090: a713 d23c ffdb 0a3d d707 d6bd 5f30 983d
000000a0: 7435 cebc 1013 77bc 403f 7bbd 1f2d 20be
000000b0: 84da 1cbc ddb4 2bbe 655e 00be 1f8c febd
000000c0: ce8a dd3c 8a64 563c c8d5 eabc 478d 26be
000000d0: 1543 38bc f2b4 1ebe 31d6 9cbc ef44 af3d
000000e0: e9ea e6bc ac8d 55be 53d6 9b3d 171b d9bd
000000f0: d883 05be 10a5 3dbe 574f 20bd 596f d5bd
00000100: 9ea9 943c 1442 57bd eb61 58bd 9614 81bd
00000110: c52a 57be 206f ab3c 5441 cdbd 5152 b1bd
00000120: ff04 abbc 577c ddbd 5c2b 26bd d519 a63c
00000130: d58c efbc 3ab9 ae3d 4e84 e33c da22 923c
00000140: 450a 83bb dd39 a93c af73 973c ee8b a63d
00000150: 26ad 263d cef1 9f3c efba 58bd 6b41 3cbe
00000160: d144 28be 75a6 b13a 8ebe b1bd 431d 103b
00000170: 111f e3bd dc88 00be 1412 b6bd ecb4 fb3d
00000180: 6026 19be 38a6 e33c f8d8 93bd 9df5 963c
00000190: d001 a5bd be2c 91bc f626 51bd 33f7 20bc
000001a0: 6520 8d3b d3e6 00bd 252e 2a3c 1800 c83d
000001b0: 84e2 673d 8e11 dcbd 3bb7 cabd 5a21 85bc
000001c0: 5217 82bc 8633 263d 2916 2f3d 2b60 27bc
000001d0: 9145 d83d 67ab 9fbc bb29 19bd 9d33 f23c
000001e0: 3783 92bc 3a25 e5bd c654 1c3d 75c3 1ebd
000001f0: 63d7 19be 1a21 acbd 9ff2 03be 67ff 033d
00000200: f76f 49bd abcc 613d 1e7b 163d f1ea 22bd
00000210: 3b09 41be 489a 8bbd 7f1c 093c a2f5 8a3d
00000220: c358 99bd 7f1a 2fbe 7bf3 78bd 8445 333d
00000230: 9409 8ebd 580f cc3d dd5d f53d a815 c7bc
00000240: bdcc 123d 87f0 21bc c1fd dabb 67f2 633d
00000250: d9e6 6fba 2236 bbbd 3227 903c 0996 e5bb
00000260: 9e44 30bc 2e35 c1bd 45d0 13be 4bed 1abe
00000270: 1710 65bd f320 cebd 0f1f cebd cb61 6fbe
00000280: c883 aabd 8728 05bd 6aa7 0dbd a150 7c3c
00000290: b443 27be a050 9abd 2cb6 553d 3f16 91bd
000002a0: e514 a1bc 094f 29bd 90a5 95bd fc6a 08be
000002b0: 01c5 293d 5b51 d8bc 5975 bfbd 0f62 81bd
000002c0: bcd6 8ebd d946 2abd 0f4f febd a67f 81bd
000002d0: 3bc7 b33d 7a71 12bd 6959 b6bc 722e 26bd
000002e0: 3db5 b7bd 5dc6 0bbd 33bf 9ebb 5e69 b3bd
000002f0: a4e6 60bd 7550 c23b 86bf 993d 3838 aebd
00000300: 9c0a 1ebd bf45 d7bd 83f7 8fbd d0ff 0cbd
00000310: 88c1 fdbd e0ee c23c e803 36be ca42 bc3c
00000320: 43c8 97bd eb37 263a f802 0abd e410 dcbd
00000330: b2df 9abb c2e1 863d ff01 1cbd f8e4 bbbd
00000340: b881 e4ba 0b0a df3c cf02 34be 071c 1ebd
00000350: fe7c ad3b cd7c c4bc 719b a4bd 4a99 8abd
00000360: 6b09 383c 3db4 23be aa04 44be 9d6f 78bd
00000370: bff9 c83d 7b6a a3bd 76ae f6bd 0a7d 42bd
00000380: 3129 f5bd 2535 12bd 6c9b 02be 3c6c 71bd
00000390: 1f81 d7bd b095 54be 2e2d 2f3d 1aca 44bd
000003a0: 958e 1cbd d635 82bc ca12 a8bd 0ca1 83bb
000003b0: f983 563d 8bb0 c7bd 4898 80bd dd29 34bd
000003c0: e2be 74bd 6442 94bc ddd9 b3bc 9a5f f7bc
000003d0: 535a 11bd 965f a9bd 847a a23c 9eec a7bc
000003e0: 2b8c 39be 91a0 a1bd 6c43 0a3a a825 14be
000003f0: 0f5d acbd 2e3f 23be c65f 19be 0558 ccbd

a2c_network.actor_mlp.2.bias f4 [128]
0.022936098 0.059289776 0.16250126 0.027802572 0.22556236 -0.15539359 -0.09209391 -0.18496163
-0.250989 0.09299612 -0.38820112 0.10394076 -0.11625159 -0.30125338 -0.15265502 -0.06948743
-0.023540925 -0.024891194 -0.033014618 -0.23902918 0.11339064 -0.0040552495 -0.12851042 0.30842024
-0.1325473 -0.050010424 -0.14733718 -0.38709566 -0.12928244 0.09944007 0.043079868 -0.42284125
-0.16133548 -0.3369239 -0.35593882 0.19489475 -0.25274885 -0.4855123 -0.09589267 -0.34486648
0.1335976 -0.026935074 0.0010093944 -0.31002587 0.010775833 0.08046144 -0.19215277 0.05296117
-0.11151518 0.08791522 -0.23648031 0.036967885 0.052433316 -0.02839865 0.16850288 0.018555894
-0.11714801 -0.08154029 -0.113608815 -0.16146073 0.13922128 -0.024521897 -0.20222001 0.14353243
-0.018236488 0.17155172 0.045068562 -0.39095274 0.0693402 -0.15877362 0.1324562 -0.10860437
-0.30512598 -0.35509327 -0.023920145 0.010743998 -0.24505027 -0.22336362 -0.027457368 -0.13640334
-0.42472184 -0.16009 0.14881699 0.042688444 -0.31550637 -0.28691688 -0.24978991 -0.19306767
-0.12040778 -0.12626663 -0.2294381 -0.03833315 -0.14269021 -0.11074291 -0.28847572 0.23948538
-0.05505532 0.016485218 -0.07870956 0.06134096 -0.1994238 -0.18102372 0.09861171 0.023013156
-0.047547515 -0.18390553 -0.042264562 0.044227485 -0.16566008 -0.1581814 0.23426197 0.058572188
-0.060848054 0.00087291206 0.08441482 -0.28913808 -0.11849478 -0.34307936 0.10452691 -0.14443552
-0.29570347 -0.16640271 -0.06891894 0.08487449 -0.18426311 0.06488817 -0.19019747 0.042318836
00000000: 7ce4 bb3c d6d9 723d bb66 263e 38c2 e33c
00000010: d2f9 663e 7f1f 1fbe bb9b bcbd 9566 3dbe
00000020: a181 80be c074 be3d 4cc2 c6be e5de d43d
00000030: 5015 eebd e23d 9abe 9951 1cbe 6d4f 8ebd
00000040: e6d8 c0bc 9ee8 cbbc 563a 07bd 11c4 74be
00000050: 5a39 e83d e6e1 84bb 3c98 03be 42e9 9d3e
00000060: 7bba 07be bbd7 4cbd 8fdf 16be 6731 c6be
00000070: 9e62 04be 3ca7 cb3d 8474 303d a67e d8be
00000080: 2135 25be 4a81 acbe 9d3d b6be 7d92 473e
00000090: 4c68 81be 1195 f8be 6063 c4bd 5792 b0be
000000a0: cfcd 083e f2a6 dcbc a84d 843a b6bb 9ebe
000000b0: 1f8d 303c f8c8 a43d b2c3 44be d0ed 583d
000000c0: 1262 e4bd e50c b43d e527 72be a36b 173d
000000d0: 51c4 563d 49a4 e8bc 058c 2c3e 8802 983c
000000e0: 4ceb efbd 98fe a6bd bdab e8bd f655 25be
000000f0: 0690 0e3e 25e2 c8bc c312 4fbe 2afa 123e
00000100: b064 95bc 41ab 2f3e d099 383d f52a c8be
00000110: 3c02 8e3d 8d95 22be 99a2 073e f86b debd
00000120: 7939 9cbe c9ce b5be 2ef4 c3bc 9807 303c
00000130: 75ee 7abe 6fb9 64be 46ee e0bc 51ad 0bbe
00000140: 2475 d9be a2ee 23be 7b63 183e 14da 2e3d
00000150: 0d8a a1be c5e6 92be edc8 7fbe 88b3 45be
00000160: 5b98 f6bd 0a4c 01be d2f1 6abe 3903 1dbd
00000170: 621d 12be 2ecd e2bd 17b3 93be a83b 753e
00000180: b081 61bd 020c 873c 7a32 a1bd a940 7b3d
00000190: c135 4cbe 485e 39be f0f4 c93d 1686 bc3c
000001a0: 2fc1 42bd bb51 3cbe 9b1d 2dbd e127 353d
000001b0: cca2 29be 4efa 21be 5fe2 6f3e 64e9 6f3d
000001c0: cf3b 79bd 23d4 643a ade1 ac3d e809 94be
000001d0: 64ad f2bd 19a8 afbe 3412 d63d e8e6 13be
000001e0: 7266 97be 7965 2abe 6025 8dbd add2 ad3d
000001f0: 78af 3cbe 17e4 843d 20c3 42be 8456 2d3d

a2c_network.actor_mlp.4.weight f4 [64, 128]
0.019290773 -0.11878962 0.03243508 -0.15366094 -0.43705583 0.1531718 0.074666105 -0.060627945
0.121098496 0.055531457 0.08038887 0.08826802 -0.15733197 -0.033806685 0.016278762 0.06766125
0.11273517 -0.0863763 0.11572621 -0.061771773 -0.20457374 -0.10150234 -0.049451564 0.030697716
0.099707715 0.018086744 -0.053785335 0.06652475 -0.06862191 -0.14490084 -0.06700348 0.03415866
-0.012668072 -0.037731517 -0.10493152 -0.06580977 -0.03107949 -0.0074364115 0.0034550847 0.09976641
0.119904906 0.022959441 -0.010432807 0.044857413 -0.107756734 0.085507184 -0.08393528 -0.12227255
0.15594731 -0.09148344 -0.043905318 -0.25119802 0.023094147 0.027085917 -0.15447691 -0.23729873
0.13774435 0.17861019 0.19207017 0.14075337 0.09343461 0.024776556 0.0013709852 0.09184318
-0.06252144 -0.20802848 -0.011604152 0.09021734 -0.1287036 -0.044136636 -0.0690716 -0.09787434
0.09494332 0.060453337 -0.08318381 -0.105938 0.032714806 0.10255123 0.03144151 -0.0011962914
-0.013670487 0.04646803 0.020740388 -0.07131755 0.02943365 0.053348735 -0.09486276 0.011373525
0.08093462 0.11392797 0.074271046 -0.070653625 0.0054150363 0.030670457 0.022731807 0.060854033
0.14481378 0.12702575 -0.07269186 -0.22268562 0.10483232 0.04745633 -0.05330056 0.12915474
-0.093523264 0.13643697 -0.030842125 0.12302225 0.14414215 0.020588145 0.017245306 0.071777724
0.24117357 -0.038301967 -0.07542613 -0.0355294 0.13362783 0.007234429 -0.10531532 -0.038503624
0.041482765 -0.05792894 0.11561344 -0.15903212 -0.06677823 -0.042649373 -0.08092416 0.12889934
0.005811557 -0.05470417 -0.026704226 0.07025042 -0.14624389 -0.18472703 0.028927052 -0.031610385
0.13823651 0.009474967 -0.044888712 0.08881531 0.13463818 0.00861176 -0.20994641 0.084074035
-0.03680079 0.06270676 -0.0474504 -0.08103687 -0.111526296 -0.047327828 0.10980161 0.02069534
-0.12993808 0.05217698 -0.09322345 -0.08917422 -0.09078907 -0.09863 -0.008182077 -0.00047567987
-0.0028476429 0.092826396 -0.32290864 -0.10997133 -0.161882 -0.047513336 0.017668894 0.24876964
0.040187877 -0.05910742 0.16554464 0.08233929 -0.02800908 0.0744051 -0.009677878 -0.20594934
-0.12095939 -0.08727581 -0.11697116 -0.10439527 0.0040628337 -0.07395975 0.10093996 -0.11634995
0.0975209 0.02648388 0.11813113 0.05869811 -0.059188757 -0.09518171 -0.0026228616 0.02985375
0.02188196 -0.15337417 -0.026589556 0.11141936 0.008894365 -0.08600967 0.015333307 0.1639622
-0.19538355 0.04419014 0.008617316 -0.10291408 0.015364337 0.10790455 -0.12489662 0.032019038
0.10581912 0.096152276 0.04468968 0.04059467 0.03217414 -0.04915435 -0.19706807 0.07629887
-0.034081157 -0.19822682 -0.12440726 -0.079288974 -0.019106695 0.0068988656 -0.10773294 -0.017740063
0.03315234 0.09540774 0.111409456 0.068915755 0.14036658 -0.0043910164 -0.07160557 0.029901216
0.0344524 -0.08613236 0.026984267 0.043079 -0.005717645 -0.016215105 0.0752401 -0.0057926173
-0.11344147 -0.047161885 -0.11140929 -0.17082685 -0.034516692 -0.05604135 -0.25079346 -0.05026895
0.051312692 0.013612789 -0.090560935 -0.08420686 0.06243649 0.05809511 -0.11007626 0.07871594
00000000: af07 9e3c f947 f3bd a5da 043d 4b59 1dbe
00000010: c8c5 dfbe 11d9 1c3e 8bea 983d 0255 78bd
00000020: 7d02 f83d f474 633d eba2 a43d ddc5 b43d
00000030: a21b 21be e178 0abd 0a5b 853c fb91 8a3d
00000040: b2e1 e63d 0fe6 b0bd dd01 ed3d 6604 7dbd
00000050: c77b 51be 75e0 cfbd b98d 4abd c779 fb3c
00000060: 8f33 cc3d a72a 943c 034e 5cbd 213e 883d
00000070: a589 8cbd e360 14be 1f39 89bd f3e9 0b3d
00000080: bf8d 4fbc 5d8c 1abd 56e6 d6bd 46c7 86bd
00000090: 6a9a febc 24ad f3bb b46e 623b 5552 cc3d
000000a0: b490 f53d 7015 bc3c 5dee 2abc 68bc 373d
000000b0: 90af dcbd 641e af3d 43e6 abbd 086a fabd
000000c0: a7b0 1f3e ab5b bbbd 10d6 33bd 079d 80be
000000d0: f02f bd3c 49e3 dd3c 322f 1ebe 70fe 72be
000000e0: db0c 0d3e 97e5 363e 0bae 443e a721 103e
000000f0: a55a bf3d 34f8 ca3c a1b2 b33a 4718 bc3d
00000100: 3e0b 80bd 6b05 55be 571f 3ebc dec3 b83d
00000110: e0ca 03be 9ec8 34bd 6975 8dbd 5872 c8bd
00000120: a571 c23d eb9d 773d 465c aabd 06f6 d8bd
00000130: f6ff 053d 6106 d23d d0c8 003d e1cc 9cba
00000140: 2efa 5fbc 4355 3e3d bfe7 a93c f00e 92bd
00000150: d71e f13c 3484 5a3d 6847 c2bd 0558 3a3c
00000160: 0dc1 a53d 1153 e93d 6b1b 983d d9b2 90bd
00000170: 9e70 b13b 9c40 fb3c 0e38 ba3c 1442 793d
00000180: 104a 143e 0a13 023e 78df 94bd b307 64be
00000190: 54b2 d63d 9261 423d b051 5abd 2441 043e
000001a0: 2089 bfbd 22b6 0b3e a0a8 fcbc 17f3 fb3d
000001b0: 009a 133e 78a8 a83c 0746 8d3c 3300 933d
000001c0: 34f6 763e 86e2 1cbd 0479 9abd 4787 11bd
000001d0: bcd5 083e ca0e ed3b 8faf d7bd fab5 1dbd
000001e0: d5e9 293d e546 6dbd bdc6 ec3d 51d9 22be
000001f0: 06c3 88bd 1cb1 2ebd 91bb a5bd 30fe 033e
00000200: e06e be3b 7b11 60bd d2c2 dabc 74df 8f3d
00000210: f5c0 15be 1529 3dbe 6df8 ec3c e479 01bd
00000220: df8d 0d3e e43c 1b3c 3add 37bd cde4 b53d
00000230: 97de 093e 5718 0d3c 31fc 56be 022f ac3d
00000240: 6dbc 16bd 676c 803d 5a5b 42bd a9f6 a5bd
00000250: e667 e4bd d3da 41bd abdf e03d 4689 a93c
00000260: 7d0e 05be 87b7 553d f0eb bebd f9a0 b6bd
00000270: 9fef b9bd 87fe c9bd 1e0e 06bc ac64 f9b9
00000280: 859f 3abb c41b be3d 4854 a5be a638 e1bd
00000290: 65c4 25be 589d 42bd 5bbe 903c 78bd 7e3e
000002a0: 0b9c 243d 9f1a 72bd 8984 293e 80a1 a83d
000002b0: 4c73 e5bc b361 983d f68f 1ebc 62e4 52be
000002c0: 8fb9 f7bd a9bd b2bd 938e efbd 30cd d5bd
000002d0: 8521 853b 3678 97bd 9cb9 ce3d e248 eebd
000002e0: 0ab9 c73d b9f4 d83c bcee f13d 6e6d 703d
000002f0: e96f 72bd a1ee c2bd 51e4 2bbb da8f f43c
00000300: cc41 b33c 1e0e 1dbe 57d2 d9bc d52f e43d
00000310: acb9 113c d625 b0bd 8d38 7b3c b5e5 273e
00000320: a012 48be b800 353d a52f 0d3c 9ec4 d2bd
00000330: b3ba 7b3c 10fd dc3d cdc9 ffbd 6526 033d
00000340: b2b7 d83d 7ceb c43d 870c 373d 9946 263d
00000350: 08c9 033d 1256 49bd 36cc 49be 9542 9c3d
00000360: af98 0bbd f9fb 4abe 3cc9 febd 4262 a2bd
00000370: a585 9cbc e10f e23b 16a3 dcbd 9c53 91bc
00000380: c0ca 073d 2265 c33d a42a e43d b423 8d3d
00000390: 42bc 0f3e 84e2 8fbb f1a5 92bd 65f3 f43c
000003a0: f61d 0d3d 2a66 b0bd 1c0e dd3c 9b73 303d
000003b0: 155b bbbb 8ad5 84bc 7b17 9a3d ffcf bdbb
000003c0: 0054 e8bd d22c 41bd 8e2a e4bd 3ced 2ebe
000003d0: 6061 0dbd 9d8b 65bd 0068 80be d1e6 4dbd
000003e0: 422d 523d 2d08 5f3c 0378 b9bd a574 acbd
000003f0: 68bd 7f3d 23f5 6d3d aa6f e1bd d335 a13d

a2c_network.actor_mlp.4.bias f4 [64]
-0.10732598 0.005682508 -0.13759461 -0.122978315 -0.10519102 -0.01620195 -0.20315604 0.008328132
-0.22118832 -0.065458946 -0.10242684 -0.04852696 0.028456734 -0.08456102 -0.15317315 -0.33926082
0.048117556 -0.090000495 0.026529577 -0.16227871 -0.07181592 0.011511256 -0.09401222 -0.16333286
-0.15029652 -0.14332384 -0.13642538 0.04851988 -0.10948021 -0.252807 -0.10395827 0.042201716
-0.31480402 -0.106935054 -0.012872909 -0.027843244 0.14435872 -0.15734348 -0.1699598 -0.08172094
-0.09471566 0.14171156 0.017051851 -0.2349478 -0.13725545 0.0037779734 0.036308624 -0.12495762
-0.23036104 0.016932758 -0.2241134 -0.2125225 -0.22132191 -0.16682225 0.060526997 -0.13189334
0.028585905 0.017684713 -0.053585645 -0.13976091 0.016169652 -0.08072274 -0.172218 -0.018936802
00000000: b9cd dbbd 5534 ba3b 9ae5 0cbe 0edc fbbd
00000010: 646e d7bd f4b9 84bc 2308 50be b872 083c
00000020: 317f 62be 570f 86bd 2ac5 d1bd 35c4 46bd
00000030: 191e e93c 542e adbd 6cd9 1cbe 98b3 adbe
00000040: ea16 453d 2e52 b8bd 8e54 d93c 642c 26be
00000050: 3a14 93bd b599 3c3c 7b89 c0bd bb40 27be
00000060: 55e7 19be 7cc3 12be 18b3 0bbe c8bc 463d
00000070: 2937 e0bd eb6f 81be 13e8 d4bd b5db 2c3d
00000080: fe2d a1be c400 dbbd e5e8 52bc 8417 e4bc
00000090: c6d2 133e a61e 21be f109 2ebe 4f5d a7bd
000000a0: 49fa c1bd d61c 113e 53b0 8b3c 2896 70be
000000b0: b18c 0cbe e097 773b 5ab8 143d c8e9 ffbd
000000c0: c4e3 6bbe 91b6 8a3c fc7d 65be 809f 59be
000000d0: 36a2 62be 74d3 2abe 28eb 773d 0c0f 07be
000000e0: fd2c ea3c 88df 903c 9f7c 5bbd 7c1d 0fbe
000000f0: 3876 843c f751 a5bd ea59 30be 5a21 9bbc

a2c_network.value.weight f4 [1, 64]
0.0030375458 -0.017580666 -0.010060115 -0.13879167 0.017198576 -0.002701149 -0.021124968 -0.0063894163
0.02078631 0.071101084 -0.05705597 0.047598116 -0.12008101 -0.008054924 0.0059188413 -0.016737359
-0.04817224 -0.0018452874 -0.07383539 -0.1225178 0.019495167 0.28435022 0.0019962366 -0.065215155
-0.090519354 -0.0015548064 0.10448339 -0.014183286 -0.11916061 -0.23419648 0.13805139 0.021190323
0.011862832 0.0025549089 0.046015915 -0.04906652 0.0069321804 -0.06504142 0.104951724 0.05550763
-0.044203643 0.42124823 -0.021131981 0.014694466 0.08367879 -0.02667918 0.05292853 0.02130784
0.1344798 -0.009122835 0.015404606 -0.2609526 -0.03107275 0.12884493 -0.005308737 0.07274369
0.0077038403 0.019124927 -0.028047131 0.0847516 0.07593254 -0.07070175 0.051873457 -0.047408495
00000000: 9011 473b 5405 90bc 2ed3 24bc 671f 0ebe
00000010: 07e4 8c3c c305 31bb 450e adbc 4f5e d1bb
00000020: 0d48 aa3c 729d 913d 85b3 69bd 3ef6 423d
00000030: 08ed f5bd cdf8 03bc d7f2 c13b c91c 89bc
00000040: 4150 45bd 92dd f1ba 0237 97bd 9dea fabd
00000050: 54b4 9f3c 5a96 913e 4bd3 023b 868f 85bd
00000060: 3662 b9bd a5ca cbba 63fb d53d 0361 68bc
00000070: 7a0a f4bd 34d1 6fbe 585d 0d3e 5497 ad3c
00000080: 535c 423c 4270 273b 2f7b 3c3d faf9 48bd
00000090: 5827 e33b 7034 85bd eef0 d63d f85b 633d
000000a0: e10e 35bd d9ad d73e fa1c adbc 0fc1 703c
000000b0: c95f ab3d 4c8e dabc 96cb 583d c78d ae3c
000000c0: 13b5 093e f177 15bc 9a63 7c3c 949b 85be
000000d0: 488c febc edef 033e eaf4 adbb a5fa 943d
000000e0: 7f70 fc3b e1ab 9c3c 19c3 e5bc 3f92 ad3d
000000f0: 8582 9b3d 14cc 90bd 4379 543d 692f 42bd

a2c_network.mu.weight f4 [12, 64]
-0.0036567445 -0.19493 -0.13381353 -0.02797866 0.08779029 0.085023515 -0.0056725657 0.038713895
-0.056099754 0.049508255 -0.08201266 0.099668026 0.07934189 -0.04686743 0.14041914 0.0883955
0.066625364 -0.11205235 0.11729794 -0.0022178616 0.07664366 -0.0073908824 -0.0054754806 0.036184415
-0.10483759 -0.14848194 -0.025843577 0.0806994 0.009991413 -0.10066396 0.009222227 -0.0079316795
-0.07149215 -0.1939071 -0.054184567 0.13888866 0.12848762 -0.002039115 -0.031071085 0.035229865
-0.07845731 -0.009120374 0.08781892 0.012939547 -0.013063139 -0.023355627 -0.029909676 -0.04367254
-0.020126937 0.18486178 -0.002063832 0.051014125 -0.032425106 -0.07580102 0.030687556 0.01257585
-0.13265146 0.049328893 0.031672776 0.086644545 0.0479155 -0.03782361 0.05904446 -0.008359847
-0.052759387 0.15502705 0.09098867 0.07845516 -0.064964116 0.027036654 -0.06776095 0.13293426
-0.06568895 -0.057524145 -0.021215936 0.052133195 -0.08476988 -0.114018455 -0.0052243886 0.083352655
0.0032095336 0.054946914 -0.022973785 -0.066926025 -0.014192731 -0.010745056 -0.044083398 0.061832882
-0.008977076 0.041678634 -0.012105343 -0.05400655 -0.12419314 0.04880429 -0.008629274 0.16713637
-0.0564007 -0.16649234 0.047404345 0.03558748 -0.06261076 0.015197474 -0.01691695 -0.0511801
-0.14825371 0.05341215 0.104345396 0.09423796 -0.12298257 0.11291935 -0.114681184 -0.08304685
-0.03828115 0.28654888 0.11219469 0.07873554 -0.01236587 -0.12114491 0.0066106115 0.093933634
0.060789045 0.121228054 0.046428017 -0.086562015 0.052560076 0.031913407 -0.07565627 0.05247511
0.07438231 -0.04592845 0.071621604 0.019173857 0.029269213 -0.013466138 0.043988813 -0.046088412
0.030160002 0.015578944 -0.033479527 0.006426237 -0.023563525 0.005349106 -0.018224066 0.103845865
-0.0020133709 0.034332175 -0.051852793 0.014146112 0.006619813 0.019042986 -0.0006546406 0.065558225
0.011775235 0.025677236 -0.0036686456 -0.026671987 0.014155989 0.029167986 -0.009481748 -0.005885274
0.05289683 -0.005846256 0.0013470788 -0.018652808 -0.07705535 0.027801018 -0.013448775 -0.03665965
0.0068963654 -0.035770006 -0.03612102 -0.0033643977 -0.022126175 -0.008086787 -0.016750362 -0.046099607
0.0672056 0.0123596275 0.019989546 0.007880971 0.05046758 0.039421856 0.03273468 0.03304014
-0.022482686 -0.040009413 0.03598531 -0.012725728 -0.0032144247 0.006747192 0.0049423026 -0.0006692483
0.18929121 -0.013308259 0.028135074 0.1775438 0.018278759 -0.012864003 -0.045713387 0.02655634
-0.025242327 -0.019768937 0.059523173 0.021012519 0.08192775 -0.07169502 -0.0008105427 -0.015262689
0.10473525 0.0699938 -0.018702313 0.110417284 -0.14190796 0.0056884848 0.025906432 -0.011456061
-0.16208783 0.03541195 -0.043743648 -0.20071375 -0.10671816 0.008568378 0.028755434 0.019608537
-0.022518724 -0.11468471 -0.12838043 -0.1058968 0.0416503 0.055336338 -0.039806724 -0.1232293
-0.08504767 0.00501978 -0.027154332 -0.0465664 0.013324439 -0.067322195 0.051873114 0.0010377622
-0.024044424 0.05908347 0.18268782 0.01577631 0.076754995 0.06797678 0.09213796 -0.09015925
0.044300072 -0.15134095 -0.06382501 -0.08671972 -0.022842888 -0.13609508 -0.043858077 0.03401611
00000000: fea5 6fbb bb9b 47be 6a06 09be 8133 e5bc
00000010: 65cb b33d cf20 ae3d eee0 b9bb 7692 1e3d
00000020: dbc8 65bd 2bc9 4a3d 41f6 a7bd c01e cc3d
00000030: 007e a23d 10f8 3fbd 09ca 0f3e b308 b53d
00000040: e172 883d b47b e5bd e739 f03d 8b59 11bb
00000050: 5af7 9c3d 372f f2bb a96b b3bb 1c36 143d
00000060: 17b5 d6bd a60b 18be e9b5 d3bc ba45 a53d
00000070: 06b3 233c e828 cebd d318 173c e0f3 01bc
00000080: 7a6a 92bd 958f 46be a3f0 5dbd d438 0e3e
00000090: 4292 033e aca2 05bb ca88 febc 314d 103d
000000a0: 3aae a0bd 9f6d 15bc 68da b33d 6500 543c
000000b0: c706 56bc 4d54 bfbc 2305 f5bc fae1 32bd
000000c0: 3fe1 a4bc 684c 3d3e 5b41 07bb 30f4 503d
000000d0: 30d0 04bd 913d 9bbd 7864 fb3c f00a 4e3c
000000e0: c9d5 07be 180d 4a3d 50bb 013d b272 b13d
000000f0: 0b43 443d eeec 1abd 9bd8 713d bdf7 08bc
00000100: 3a1a 58bd 69bf 1e3e 4558 ba3d 19ad a03d
00000110: e80b 85bd f97b dd3c 41c6 8abd eb1f 083e
00000120: ee87 86bd 709e 6bbd 0bcd adbc 9e89 553d
00000130: d59b adbd 8282 e9bd 5931 abbb ccb4 aa3d
00000140: 0a57 523b 0410 613d 8533 bcbc 8310 89bd
00000150: a188 68bc 080c 30bc cb90 34bd 7a44 7d3d
00000160: 9614 13bc 37b7 2a3d 7d55 46bc f935 5dbd
00000170: f958 febd 02e7 473d cc61 0dbc cc25 2b3e
00000180: 6c04 67bd f87c 2abe 0f2b 423d 2dc4 113d
00000190: 123a 80bd d3fe 783c 6a95 8abc 39a2 51bd
000001a0: d2cf 17be b3c6 5a3d 0ab3 d53d d5ff c03d
000001b0: 49de fbbd 4342 e73d f8dd eabd 7814 aabd
000001c0: b2cc 1cbd 89b6 923e 54c6 e53d 1940 a13d
000001d0: 389a 4abc d31a f8bd d49d d83b 4760 c03d
000001e0: effd 783d 6a46 f83d 4e2b 3e3d 6d47 b1bd
000001f0: 3c49 573d a2b7 023d adf1 9abd 24f0 563d
00000200: c155 983d 781f 3cbd 59ae 923d 7e12 9d3c
00000210: fdc5 ef3c 14a1 5cbc 9d2d 343d 34c7 3cbd
00000220: 1c12 f73c d43e 7f3c d421 09bd 2f93 d23b
00000230: 4b08 c1bc 8e47 af3b a34a 95bc 24ad d43d
00000240: c2f2 03bb e59f 0c3d 9863 54bd 18c5 673c
00000250: 04eb d83b 0900 9c3c 309c 2bba 6443 863d
00000260: eaec 403c 1159 d23c a96d 70bb 367f dabc
00000270: 85ee 673c b3f1 ee3c 5559 1bbc 42d9 c0bb
00000280: 59aa 583d f391 bfbb 7790 b03a c6cd 98bc
00000290: 32cf 9dbd f6be e33c 4058 5cbc 6e28 16bd
000002a0: e8fa e13b 9283 12bd a2f3 13bd 3a7d 5cbb
000002b0: f441 b5bc 717e 04bc 0e38 89bc f1d2 3cbd
000002c0: 17a3 893d 0980 4a3c 1ec1 a33c 301f 013c
000002d0: 18b7 4e3d d078 213d cd14 063d 1955 073d
000002e0: 9c2d b8bc e9e0 23bd 5565 133d 927f 50bc
000002f0: 19a9 52bb 8c17 dd3b 0af3 a13b 7e70 2fba
00000300: 8ed5 413e e20a 5abc 877b e63c 0bce 353e
00000310: 56bd 953c 8ac3 52bc f63d 3bbd ae8c d93c
00000320: ffc8 cebc 77f2 a1bc 92ce 733d 7222 ac3c
00000330: bcc9 a73d d7d4 92bd 9a7a 54ba 5c10 7abc
00000340: 6f7f d63d e958 8f3d 9835 99bc 7522 e23d
00000350: 5250 11be 7866 ba3b ba39 d43c 34b2 3bbc
00000360: 5afa 25be 1f0c 113d 8a2c 33bd e887 4dbe
00000370: 0d8f dabd 6262 0c3c 8490 eb3c 15a2 a03c
00000380: 3079 b8bc d1df eabd 2976 03be 6ce0 d8bd
00000390: 8199 2a3d 5ba8 623d 600c 23bd a55f fcbd
000003a0: 792d aebd f77c a43b c372 debc 69bc 3ebd
000003b0: bf4e 5a3c 38e0 89bd e778 543d 8505 883a
000003c0: d0f8 c4bc 8201 723d 8412 3b3e 523d 813c
000003d0: b931 9d3d 6937 8b3d d4b2 bc3d 6aa5 b8bd
000003e0: fe73 353d 1ff9 1abe b0b6 82bd 1c9a b1bd
000003f0: 0221 bbbc 825c 0bbe 87a4 33bd 7a54 0b3d

a2c_network.mu.bias f4 [12]
0.029632797 0.06926513 -0.25008294 -0.029902965 0.06358468 0.023994781 0.045673843 0.06508041
0.03789276 -0.015273261 0.022497658 -0.059110608
00000000: 7bc0 f23c e0da 8d3d df0a 80be 10f7 f4bc
00000010: af38 823d b490 c43c 7f14 3b3d e148 853d
00000020: 7035 1b3d b33c 7abc 024d b83c f71d 72bd

exp_avg f4 [12]
-0.0019412854 0.0023538563 0.0034186852 -0.0014639195 -0.0059319264 0.008106473 0.0031596844 0.012793495
-0.0011510401 -0.0025810616 -0.0021036784 -0.0023532938
00000000: bb72 feba 2843 1a3b 050c 603b fde0 bfba
00000010: 9b60 c2bb 03d1 043c b512 4f3b cf9b 513c
00000020: 7fde 96ba 0727 29bb dedd 09bb b839 1abb

exp_avg_sq f4 [12]
0.0012295343 0.0016822598 0.0017174298 0.00090122514 0.0010427261 0.0027815122 0.00207614 0.0013403103
0.0012671202 0.0010461651 0.0009925606 0.002094787
00000000: 5328 a13a 467f dc3a 621b e13a 3240 6c3a
00000010: 15ac 883a 084a 363b d90f 083b 5aad af3a
00000020: 8015 a63a 7a1f 893a cf18 823a b248 093b

exp_avg f4 [256, 32]
0.0014015371 0.0021872036 -0.00058174884 -0.0009861437 -0.004829132 0.00059234875 -0.0007916159 -0.00011099364
-8.153466e-05 -0.00046887022 -0.00011096755 -0.00030636325 0.00012577935 -2.3070481e-06 8.151519e-06 0.0039754133
0.0024232212 -7.196902e-06 1.3157478e-05 0.0010702807 0.00011449547 -7.2218654e-06 1.45586355e-05 3.7960843e-05
0.00010516959 -6.5792333e-06 0.0 0.0 0.0 0.0 0.0 0.0
-0.0003490956 0.0013046163 0.0006903653 0.0014705309 0.0005885646 -0.0007152234 0.0012817743 0.00014527791
0.00073129864 -0.00011536407 0.00027816158 -0.000276305 -0.000814253 2.9925613e-06 -8.806227e-06 -0.0016131534
0.0039161346 -2.0788173e-06 -5.958388e-06 -0.0009647725 3.7333837e-06 8.636837e-06 1.591187e-05 -1.20491495e-05
7.6188708e-06 6.6389716e-06 0.0 0.0 0.0 0.0 0.0 0.0
0.0014052455 0.0008757892 0.00023128555 0.0019015966 0.00031385242 -0.0011248552 0.0014194552 4.796129e-05
0.0007854886 9.850176e-05 0.0002841588 0.00015221619 -0.00077153504 -3.7753587e-06 -5.3436047e-06 -0.0014045987
0.00274509 -2.44507e-06 -2.9110784e-05 -0.0007680602 8.208721e-05 2.0386795e-05 -8.862356e-06 -6.331016e-06
7.794964e-05 -2.1992219e-07 0.0 0.0 0.0 0.0 0.0 0.0
-0.00080090365 -0.0030690946 5.011305e-05 -0.0013879591 -0.00092473923 -0.00014136409 -0.0006330974 0.000116549054
-0.00037299763 1.6118729e-05 -0.00027158443 -0.00018405501 0.00026634647 1.01154e-06 7.1267623e-06 0.0027077373
-0.001348336 -1.4885528e-06 2.4034027e-05 0.0012670633 -2.127447e-06 3.6730535e-06 -5.573706e-06 -9.877935e-06
1.0232653e-05 5.3599792e-06 0.0 0.0 0.0 0.0 0.0 0.0
0.0016867451 0.0017075762 -0.00018247844 7.350116e-05 -0.0028428743 -8.7782806e-05 -0.0007673418 4.13586e-06
0.00042936008 -0.00013743524 0.00017325621 0.00010505327 -0.00010121772 2.011766e-06 -8.790291e-06 0.0010500706
0.0011863034 -1.6832555e-06 -9.688593e-06 0.000706764 3.4701745e-05 -8.439935e-07 -1.6915901e-05 3.6575789e-06
3.2003663e-05 6.0080893e-06 0.0 0.0 0.0 0.0 0.0 0.0
0.0010128256 0.0006696961 -0.00020547786 -0.0025831938 -0.005552339 0.001468033 -0.0016434047 0.00017526397
-0.0004744401 -0.00035706966 -0.00023479562 -0.00042650013 0.0004323026 1.2607928e-06 8.07319e-06 0.005147271
0.0004720978 -2.7329725e-06 2.4825236e-05 0.0009856003 3.48541e-05 -1.615417e-05 9.0960646e-07 2.6068741e-05
2.2344055e-05 -8.4325375e-06 0.0 0.0 0.0 0.0 0.0 0.0
-0.00019686914 -2.2354081e-05 -0.0004690293 -0.003279094 -0.0042876406 0.00095078466 -0.001357006 0.000592197
-0.000961299 -0.00046333365 -0.00059912767 -0.0009584928 0.0010661687 1.3415389e-06 2.0713669e-05 0.005992074
1.3565927e-05 -5.7780912e-06 5.6115645e-05 0.002016338 -6.883022e-06 -2.8244216e-05 1.976695e-05 3.7943544e-05
-1.0717432e-05 -1.8714822e-05 0.0 0.0 0.0 0.0 0.0 0.0
8.375294e-05 -0.00087764545 -0.00017009328 -0.0008369685 -0.001126435 0.0007046215 -0.001428176 -0.00011549688
-0.00018242514 0.00016218839 -4.4819653e-06 0.00028011127 3.4874454e-05 3.5353212e-06 -7.960076e-06 -9.501722e-05
-0.0026280333 -1.2853642e-06 1.0647486e-06 0.0012341974 -3.660042e-05 8.6440605e-06 -2.1324657e-05 -2.2138309e-05
-2.5495496e-05 2.0496269e-05 0.0 0.0 0.0 0.0 0.0 0.0
00000000: c8b3 b73a 3057 0f3b 8180 18ba 7e41 81ba
00000010: b23d 9ebb da47 1b3a 7284 4fba 42c5 e8b8
00000020: 96fd aab8 b2d2 f5b9 40b7 e8b8 619f a0b9
00000030: a3e3 0339 c9d2 1ab6 82c2 0837 2f44 823b
00000040: e8ce 1e3b eb7c f1b6 f0be 5c37 a948 8c3a
00000050: 4a1d f038 5a53 f2b6 dd40 7437 2538 1f38
00000060: 7e8e dc38 2fc3 dcb6 0000 0000 0000 0000
00000070: 0000 0000 0000 0000 0000 0000 0000 0000
00000080: d106 b7b9 a9ff aa3a a2f9 343a d4be c03a
00000090: e749 1a3a d47d 3bba 3501 a83a be55 1839
000000a0: 9fb4 3f3a 9def f1b8 37d6 9139 08dd 90b9
000000b0: 9873 55ba d0d3 4836 75be 13b7 7270 d3ba
000000c0: eb52 803b cf81 0bb6 2aee c7b6 c9e8 7cba
000000d0: 0b8b 7a36 efe6 1037 7b7a 8537 b426 4ab7
000000e0: 9aa5 ff36 55c4 de36 0000 0000 0000 0000
000000f0: 0000 0000 0000 0000 0000 0000 0000 0000
00000100: 3730 b83a 3895 653a 3e85 7239 fe3e f93a
00000110: 8f8c a439 e16f 93ba 030d ba3a 0b2a 4938
00000120: 3fe9 4d3a bb92 ce38 26fb 9439 399c 1f39
00000130: d740 4aba 2b5c 7db6 374d b3b6 831a b8ba
00000140: f8e6 333b fc15 24b6 ef32 f4b7 a657 49ba
00000150: 3c26 ac38 4f04 ab37 87af 14b7 036f d4b6
00000160: e578 a338 c023 6cb4 0000 0000 0000 0000
00000170: 0000 0000 0000 0000 0000 0000 0000 0000
00000180: bcf3 51ba dd22 49bb 7a30 5238 2eec b5ba
00000190: 336a 72ba 223b 14b9 73f6 25ba cc6b f438
000001a0: e58e c3b9 b536 8737 7263 8eb9 e4fe 40b9
000001b0: 6ba4 8b39 40c4 8735 6c22 ef36 4b74 313b
000001c0: a6ba b0ba 49ca c7b5 ae9c c937 9713 a63a
000001d0: 43c5 0eb6 947e 7636 c505 bbb6 68b9 25b7
000001e0: e9ac 2b37 dfd9 b336 0000 0000 0000 0000
000001f0: 0000 0000 0000 0000 0000 0000 0000 0000
00000200: c615 dd3a c0d0 df3a af57 3fb9 a324 9a38
00000210: 844f 3abb 0918 b8b8 7027 49ba c4c6 8a36
00000220: bc1b e139 7e1c 10b9 1cac 3539 0b50 dc38
00000230: da44 d4b8 e001 0736 037a 13b7 86a2 893a
00000240: bd7d 9b3a 38ec e1b5 318c 22b7 2146 393a
00000250: b78c 1138 cb8e 62b5 9fe6 8db7 ba74 7536
00000260: ac3b 0638 1899 c936 0000 0000 0000 0000
00000270: 0000 0000 0000 0000 0000 0000 0000 0000
00000280: cac0 843a 8b8e 2f3a 8b75 57b9 cd4a 29bb
00000290: 65f0 b5bb 036b c03a 8367 d7ba 10c7 3739
000002a0: 46be f8b9 1435 bbb9 7833 76b9 e19b dfb9
000002b0: aca6 e239 8338 a935 1672 0737 70aa a83b
000002c0: e583 f739 1c68 37b6 ca3f d037 422f 813a
000002d0: 4e30 1238 d182 87b7 ae2b 7435 32ae da37
000002e0: 7e6f bb37 7979 0db7 0000 0000 0000 0000
000002f0: 0000 0000 0000 0000 0000 0000 0000 0000
00000300: a86e 4eb9 0685 bbb7 0ce8 f5b9 11e6 56bb
00000310: 567f 8cbb 143e 793a 91dd b1ba ab3d 1b3a
00000320: afff 7bba 97eb f2b9 c70e 1dba 5d43 7bba
00000330: afbe 8b3a ed0e b435 44c2 ad37 2959 c43b
00000340: 3699 6337 6de1 c1b6 b75d 6b38 8a24 043b
00000350: b5f4 e6b6 feed ecb7 34d1 a537 9225 1f38
00000360: 05cf 33b7 c6fd 9cb7 0000 0000 0000 0000
00000370: 0000 0000 0000 0000 0000 0000 0000 0000
00000380: 84a4 af38 ca11 66ba 115b 32b9 0168 5bba
00000390: e3a4 93ba 59b6 383a a231 bbba ea36 f2b8
000003a0: 6049 3fb9 1d11 2a39 ca63 96b6 e6db 9239
000003b0: 2946 1238 5b40 6d36 448c 05b7 fb43 c7b8
000003c0: 153b 2cbb c784 acb5 7ce8 8e35 cbc4 a13a
000003d0: 6783 19b8 f505 1137 5ae2 b2b7 a8b5 b9b7
000003e0: 29df d5b7 67ef ab37 0000 0000 0000 0000
000003f0: 0000 0000 0000 0000 0000 0000 0000 0000
