omniisaacgymenvs/runs/WEE/nn/last_WEE_ep_1800_rew_569.2279.pth (torch, 623460 bytes, 36 tensors)

value_mean_std.running_mean f8 [1]
-6.433919377883518
00000000: 0671 845c 55bc 19c0

value_mean_std.running_var f8 [1]
4405.3799521030305
00000000: 9080 8a44 6135 b140

value_mean_std.count f8 []
471859201.0
00000000: 0000 0001 0020 bc41

running_mean_std.running_mean f8 [32]
-0.0002546014561812236 0.009462214630295337 0.47154471366955486 -0.04583451313683073 0.014985472547136232 -0.0072027493855913085 0.4139016676949199 0.03349738892118643
0.009397845419588316 0.031109905504774184 0.0032215091651078796 -0.0007511806322085958 0.0584147411232038 -7.980878195773441e-06 -2.116694459062098e-05 0.4278525349113161
0.4635999832866668 -0.000164021019894021 0.00011052309886635568 -0.24919812158217514 0.002988398359957216 0.0035569343783708085 -0.006265715829292417 -0.22866271769075977
0.18446318588073227 -0.015969115802256396 0.0 0.0 0.0 0.0 0.0 0.0
00000000: e91b 85ed 80af 30bf de2c 14f3 ec60 833f
00000010: bafe f3e0 c92d de3f 5fcb e60d 9f77 a7bf
00000020: c45a 0a14 b4b0 8e3f 16a0 d650 a180 7dbf
00000030: 509c a06b 5d7d da3f 79f5 d5db 9126 a13f
00000040: bb07 d775 2d3f 833f 170c e66a 46db 9f3f
00000050: f8bc 4090 fe63 6a3f 8634 d61f 5c9d 48bf
00000060: 94f9 7475 89e8 ad3f 3026 098c b3bc e0be
00000070: 80e4 3a5b f531 f6be 751b 3d99 ef61 db3f
00000080: c31c a943 9fab dd3f 8974 25d5 a17f 25bf
00000090: 8696 5d61 14f9 1c3f fcc4 355b b9e5 cfbf
000000a0: d763 2627 207b 683f 2928 889a 6e23 6d3f
000000b0: bf5a 2a49 14aa 79bf f5ec 25e7 d144 cdbf
000000c0: 433c 565b 7d9c c73f 8d87 7738 355a 90bf
000000d0: 0000 0000 0000 0000 0000 0000 0000 0000
000000e0: 0000 0000 0000 0000 0000 0000 0000 0000
000000f0: 0000 0000 0000 0000 0000 0000 0000 0000

running_mean_std.running_var f8 [32]
0.002911860887612551 0.0014150305156097464 0.0011947184992790647 0.6587461693266281 0.008940114230178731 0.025609884473315355 0.1335019117616875 0.597709895910377
0.6187191133161369 0.5714642098086963 188.17262502856124 114.4315466473122 170.33564098649796 3.3625776153424156e-06 4.080401988483133e-06 2.3068606590101828e-05
0.2742572547702212 0.00018706560893147066 0.0002123157993944062 0.44834667277201573 0.005189749714576591 0.005201526325571108 0.0030777178489764094 12.653290618212948
14.57066341292703 6.738857005966575 4.238552499395674e-09 4.238552499395674e-09 4.238552499395674e-09 4.238552499395674e-09 4.238552499395674e-09 4.238552499395674e-09
00000000: 36ad 0c69 9dda 673f bd87 6472 112f 573f
00000010: 5617 7838 0393 533f d0f0 b3d8 7214 e53f
00000020: 4dd1 edd1 314f 823f 1fa4 1141 7a39 9a3f
00000030: 8526 7c34 9716 c13f c0c7 ed80 7020 e33f
00000040: 2c4b a306 8ccc e33f 87cf 7e4f 6f49 e23f
00000050: 8884 ec24 8685 6740 e139 d475 9e9b 5c40
00000060: 9786 2a92 bd4a 6540 0daf fb97 1435 cc3e
00000070: fa6a ab5b 4c1d d13e a023 eb92 6e30 f83e
00000080: 1e72 fb4c 6e8d d13f 66b3 5a58 e184 283f
00000090: 89b0 63d4 22d4 2b3f cfe0 343e b6b1 dc3f
000000a0: 46c9 c6d4 d841 753f de5f 5217 324e 753f
000000b0: 5dd3 3e30 7136 693f 3704 a01b 7c4e 2940
000000c0: 3617 affe 2d24 2d40 0b30 54ee 96f4 1a40
000000d0: 7e55 4f77 5634 323e 7e55 4f77 5634 323e
000000e0: 7e55 4f77 5634 323e 7e55 4f77 5634 323e
000000f0: 7e55 4f77 5634 323e 7e55 4f77 5634 323e

running_mean_std.count f8 []
235929601.0
00000000: 0000 0002 0020 ac41

a2c_network.sigma f4 [12]
-1.6522766 -1.4655489 -2.7526793 -1.1796106 -1.2160848 -3.6257653 -1.2459322 -0.9123789
-1.04951 -0.827897 -1.2718018 -1.0898092
00000000: cd7d d3bf 1b97 bbbf e62b 30c0 7bfd 96bf
00000010: aba8 9bbf 8a0c 68c0 b57a 9fbf aa91 69bf
00000020: 5856 86bf 0ff1 53bf 67ca a2bf de7e 8bbf

a2c_network.actor_mlp.0.weight f4 [256, 32]
0.15834825 0.0798582 -0.75199145 0.18114428 0.61197656 2.2811365 0.05283418 -0.08056816
-0.030474495 -0.19303289 0.17250255 0.2523757 -0.25750923 -0.19073796 -0.020142918 -0.15398449
-0.22925596 -0.26956096 -0.28330263 -0.15321678 -0.1307699 0.11993275 0.022413608 0.0867333
0.08283494 -0.018219335 0.1383469 -0.12560225 0.011130519 -0.1206572 0.054509446 -0.06087876
0.053999346 0.015222269 0.5131651 -0.20450595 -0.72692883 -1.3653382 0.16350928 0.3568232
0.4079231 -0.26061663 -0.5824506 -0.10370178 0.3448561 0.38935235 -0.102020815 0.26073515
-0.07812169 -0.12781198 -0.054251745 -0.14710091 0.15503986 -0.10187531 0.12965722 -0.061464593
-0.058693007 0.018780498 0.037371926 -0.045070764 0.105371185 0.12017442 -0.12819375 -0.094375454
0.12221945 -0.10899604 -0.3616596 -0.4050357 -1.3423969 -0.8958629 -0.120196916 -0.54834294
0.15176255 -0.2846757 0.45835233 -0.71858984 -0.525393 -0.3121349 0.76933175 0.072303064
-0.011254214 -0.23582837 -0.2546893 -0.06388651 -0.04721992 -0.1107129 -0.09746176 -0.15797725
-0.0014353095 -0.043930586 -0.012249876 -0.11978914 -0.121338665 -0.10313184 -0.060510207 -0.13952647
0.102005064 0.3192996 -0.28157964 0.06493097 -0.5673036 0.4657955 -0.30758622 -0.313069
-0.31172925 -0.2175559 0.5203723 0.31993678 0.025769057 -0.23913382 -0.14078066 -0.3002941
-0.55832374 -0.028014183 -0.09455732 -0.028459717 0.11958795 -0.14130834 0.089483865 -0.09447073
0.015117823 -0.08060791 0.16101858 -0.12974533 0.094478525 0.06212633 0.057444636 -0.09557365
0.30774766 -0.14458922 -0.26778802 -0.003586337 1.0290685 -0.18576148 -0.08652461 0.081414595
-0.075729944 0.0042808247 -0.1642931 -0.37175676 -0.23055236 0.0010165767 0.18408367 -0.22616935
0.083238676 -0.22978851 0.22634089 -0.18348439 -0.06680556 -0.087996304 -0.053322576 0.030808615
-0.035010435 0.001116676 0.06610162 -0.031063449 -0.04681069 0.018911732 -0.031228328 -0.05267964
0.15762688 0.2489608 -0.9464724 0.07445098 -0.049779724 -0.30194375 -0.041410595 -0.42997575
-0.2911863 -0.059398554 0.18777774 -0.8355227 -0.76992625 -0.5052067 0.5028841 -0.31374866
-0.16530505 0.3101344 0.021978764 0.15852347 -0.23585886 0.066386685 -0.18677488 0.10980668
0.014100027 -0.141364 0.07313521 -0.06733098 -0.11441971 0.12902705 -0.08038068 -0.03543785
-0.18331797 0.3109386 0.16639875 0.065811954 0.4888786 -2.2095308 -0.105905525 0.081102215
-0.032336764 0.062680304 -0.18880177 -0.7548407 -0.22572732 -0.38497612 0.03825992 -0.1339576
0.49053392 -0.29746118 0.039879832 0.08527076 -0.0118214805 -0.02013833 -0.23286389 -0.022908902
-0.112807676 0.07016211 -0.056711514 -0.1296776 -0.03119029 -0.08569204 -0.05408334 -0.16829063
0.09678839 -0.18328913 0.15971154 0.041846905 0.38866717 0.16766879 0.16254018 0.058802057
-0.008167161 0.11022782 -0.33818468 -0.31777206 0.04433137 -0.3382064 0.04487924 -0.34952003
0.28608572 -0.17286043 0.2432866 -0.15081285 -0.12507066 0.09257534 -0.05025952 -0.19753687
0.049597017 -0.17463332 -0.01546155 -0.08701187 -0.07226058 -0.05611933 -0.16799161 0.1450466
00000000: 0b26 223e b28c a33d 8382 40bf e37d 393e
00000010: 7faa 1c3f 24fe 1140 a768 583d eb00 a5bd
00000020: a6a5 f9bc 6aaa 45be 82a4 303e 6337 813e
00000030: 40d8 83be d050 43be c302 a5bc 1cae 1dbe
00000040: 13c2 6abe e503 8abe 0b0d 91be dce4 1cbe
00000050: 8be8 05be 4d9f f53d be9c b73c 3aa1 b13d
00000060: 5da5 a93d b740 95bc cfaa 0d3e e09d 00be
00000070: c85c 363c 1f1b f7bd 4c45 5f3d 025c 79bd
00000080: 6b2e 5d3d d366 793c ca5e 033f 026a 51be
00000090: 0218 3abf 67c3 aebf fa6e 273e 88b1 b63e
000000a0: 4cdb d03e 8b6f 85be 7c1b 15bf 9961 d4bd
000000b0: fb90 b03e 3159 c73e 4af0 d0bd 147f 853e
000000c0: 44fe 9fbd 25e1 02be 1437 5ebd 9fa1 16be
000000d0: c5c2 1e3e 01a4 d0bd ddc4 043e 4cc2 7bbd
000000e0: 1468 70bd 8fd9 993c 4e13 193d 1f9c 38bd
000000f0: d9cc d73d 021e f63d 3945 03be eb47 c1bd
00000100: 314e fa3d 5139 dfbd 722b b9be d760 cfbe
00000110: a9d3 abbf 4557 65bf cd29 f6bd 3460 0cbf
00000120: a467 1b3e 03c1 91be 28ad ea3e 81f5 37bf
00000130: 2880 06bf 25d0 9fbe edf2 443f a113 943d
00000140: 9863 38bc fe7c 71be a366 82be eed6 82bd
00000150: ad69 41bd 72bd e2bd 089a c7bd cac4 21be
00000160: ff20 bcba 8ff0 33bd b4b3 48bc 0254 f5bd
00000170: 6880 f8bd c936 d3bd 8dd9 77bd 07e0 0ebe
00000180: 08e8 d03d 3d7b a33e 352b 90be 87fa 843d
00000190: cf3a 11bf bf7c ee3e f17b 9dbe 944a a0be
000001a0: fa9a 9fbe f9c6 5ebe 1e37 053f c1ce a33e
000001b0: a119 d33c 7fdf 74be ce28 10be 26c0 99be
000001c0: 4eee 0ebf 007e e5bc 45a7 c1bd 5a24 e9bc
000001d0: 87ea f43d 22b3 10be 5143 b73d df79 c1bd
000001e0: bfb0 773c c315 a5bd 0ee2 243e f6db 04be
000001f0: f57d c13d 2e78 7e3d 114b 6b3d 1ebc c3bd
00000200: 1a91 9d3e 320f 14be 831b 89be c008 6bbb
00000210: 84b8 833f 4238 3ebe d133 b1bd b2bc a63d
00000220: 4d18 9bbd 2946 8c3b 733c 28be e756 bebe
00000230: eb15 6cbe a73e 853a 6e80 3c3e f098 67be
00000240: 0a79 aa3d ae4d 6bbe e8c5 673e 55e3 3bbe
00000250: 5ad1 88bd 6837 b4bd c668 5abd 5962 fc3c
00000260: 1a67 0fbd 6e5d 923a 4960 873d c678 febc
00000270: 91bc 3fbd c7ec 9a3c 8dd2 ffbc 9bc6 57bd
00000280: f168 213e 94ef 7e3e 044c 72bf c179 983d
00000290: d3e5 4bbd 5f98 9abe 289e 29bd c825 dcbe
000002a0: 5f16 95be e64b 73bd cf48 403e d1e4 55bf
000002b0: e319 45bf 3a55 01bf 03bd 003f aaa3 a0be
000002c0: ba45 29be f0c9 9e3e cf0c b43c fa53 223e
000002d0: fc84 71be bef5 873d ea41 3fbe 53e2 e03d
000002e0: cd03 673c b9c1 10be eac7 953d d3e4 89bd
000002f0: e254 eabd ab1f 043e a09e a4bd 4727 11bd
00000300: b5b7 3bbe 5833 9f3e 6f64 2a3e 6bc8 863d
00000310: 4c4e fa3e f468 0dc0 ffe4 d8bd eb18 a63d
00000320: 8e73 04bd 885e 803d 4055 41be 3d3d 41bf
00000330: 1025 67be 971b c5be 6fb6 1c3d 2e2c 09be
00000340: 4327 fb3e d54c 98be 0959 233d 70a2 ae3d
00000350: e2ae 41bc 24f9 a4bc df73 6ebe 73ab bbbc
00000360: b607 e7bd 27b1 8f3d 554a 68bd 34ca 04be
00000370: c782 ffbc 4f7f afbd 7e86 5dbd 6154 2cbe
00000380: fe38 c63d 25b0 3bbe 6c8b 233e a967 2b3d
00000390: 62ff c63e 5eb1 2b3e ef70 263e 6dda 703d
000003a0: 8ecf 05bc 20bf e13d 8b26 adbe 05b3 a2be
000003b0: d094 353d 6429 adbe 4bd3 373d 4af4 b2be
000003c0: d479 923e 5302 31be 1f20 793e af6e 1abe
000003d0: 8612 00be 2498 bd3d eddc 4dbd 1b47 4abe
000003e0: 3e26 4b3d 14d3 32be 7152 7dbc 4833 b2bd
000003f0: 5bfd 93bd 62dd 65bd fe05 2cbe 1987 143e

a2c_network.actor_mlp.0.bias f4 [256]
0.15753274 0.32600224 0.11533539 -0.31999987 0.051075447 0.21626362 -0.20115161 -0.32799917
-0.032443825 -0.2568578 -0.103585005 -0.0044612205 0.011144417 -0.117172934 0.119046964 -0.15326062
0.123442754 0.1796824 0.06367577 0.1213486 0.1587314 -0.2865694 -0.13845427 0.30298534
0.33469945 -0.16015229 -0.19073233 -0.38066256 -0.33406395 -0.16123414 -0.3486449 -0.067557536
-0.15481836 -0.22185992 -0.39852154 0.28389353 0.026534962 0.14556822 -0.18950978 -0.34465808
0.016635176 -0.1089273 0.3206741 -0.14586464 -0.1873045 0.06935159 -0.015550395 0.16932544
0.2960616 -0.12309369 -0.105052434 -0.18555504 -0.155512 0.32086647 -0.12679113 0.27919945
-0.27708223 -0.03288998 0.15173458 0.25148565 0.18416345 0.2002781 0.3465108 -0.15786074
0.1066828 -0.58301896 0.065712005 0.042477217 -0.13446806 0.21240719 -0.20815256 -0.11471983
0.38123575 0.0031486072 0.11274023 0.1259682 0.14565672 0.21587619 0.54186785 -0.1796974
-0.21624164 0.24290745 0.103764266 -0.08108716 0.15031712 0.42600083 0.10014422 -0.020283341
0.13132815 -0.04310118 0.17896594 0.14987761 -0.14890303 -0.26232702 0.46785915 0.10269738
0.046804614 -0.011184629 0.03432241 -0.06839597 -0.14102976 -0.1931235 -0.089742266 -0.21706529
-0.2936115 0.16604745 -0.05148044 -0.48346093 0.37951204 0.020178944 -0.06706721 -0.17286076
-0.1283745 -0.12356162 0.29092777 -0.3614875 0.27774265 0.26650843 0.1493769 0.20640194
-0.20693335 -0.22570321 -0.1867423 -0.12346525 0.19802488 0.4587031 0.3255222 -0.027892364
-0.21530446 0.104153365 0.40821 -0.06892685 0.30707383 0.037787892 -0.28922793 -0.2331616
-0.35445544 0.3919163 0.1076549 -0.013680674 0.15975651 0.11885542 -0.18478063 -0.32551488
0.08921143 0.27059323 0.37985906 0.029740836 -0.2575206 0.13819884 -0.16695833 0.06030007
0.35597503 0.25176665 -0.0074357195 0.007347944 0.0826573 -0.29668224 0.2299258 0.060104594
-0.16465758 0.23290914 0.2581437 -0.24176636 -0.1459724 -0.15339647 -0.38536838 -0.40664026
0.026043896 -0.08869691 -0.08017772 0.18434352 -0.45022163 0.1662735 0.34214514 0.3532006
0.061578542 0.16303633 -0.07606312 -0.29320624 0.23880595 -0.23991553 0.2218389 -0.1337196
0.1171816 0.1942848 -0.12984478 0.38236678 -0.20074876 -0.1658805 -0.23370418 -0.06831631
0.16217925 -0.029705327 -0.19584796 0.032190636 0.18437758 0.027937613 0.16802199 -0.39080933
0.0020563644 -0.35672083 -0.20157212 0.21494554 0.32420352 -0.14181477 -0.023165656 0.29538146
-0.10770506 0.14493719 0.21934567 0.24489036 0.09067892 -0.057074662 0.25252423 0.031039407
-0.09773257 -0.10060351 -0.04855588 0.18922366 -0.29132205 0.16133699 -0.2568128 -0.21457732
-0.1348906 0.09899106 0.013277022 0.034423914 -0.24072592 -0.16868347 -0.23043343 0.32378027
0.1345721 -0.24509682 0.33486378 -0.04717666 -0.11379073 0.18685578 0.18518634 -0.30106598
-0.1644804 -0.26946095 0.08132306 -0.074807286 0.07098498 0.103132196 0.36557648 -0.265219
0.3717954 -0.0048990115 -0.12353128 0.081088826 -0.24935903 0.13340126 -0.051869947 -0.28762263
00000000: 4350 213e c4e9 a63e f634 ec3d 06d7 a3be
00000010: 7d34 513d 3674 5d3e b0fa 4dbe 82ef a7be
00000020: d1e3 04bd de82 83be 6024 d4bd 6e2f 92bb
00000030: 1397 363c 5df8 efbd e5ce f33d 5af0 1cbe
00000040: 8ecf fc3d aafe 373e 7168 823d 9d85 f83d
00000050: 7c8a 223e 39b9 92be f5c6 0dbe e520 9b3e
00000060: ba5d ab3e f6fe 23be 564f 43be 34e6 c2be
00000070: 6e0a abbe 901a 25be 9681 b2be 9b5b 8abd
00000080: b488 1ebe 3f2f 63be 040b ccbe 7e5a 913e
00000090: d95f d93c d60f 153e da0e 42be 0677 b0be
000000a0: 7e46 883c 4715 dfbd 652f a43e 8a5d 15be
000000b0: c0cc 3fbe 3508 8e3d 15c7 7ebc a663 2d3e
000000c0: 6395 973e 8b18 fcbd bb25 d7bd 2402 3ebe
000000d0: 8a3e 1fbe 9c48 a43e 89d5 01be 3bf3 8e3e
000000e0: b9dd 8dbe a5b7 06bd 4f60 1b3e bac2 803e
000000f0: 5895 3c3e b415 4d3e dd69 b13e 3fa6 21be
00000100: 837c da3d bb40 15bf 0494 863d 97fc 2d3d
00000110: ffb1 09be 4581 593e f225 55be 3bf2 eabd
00000120: 5531 c33e dd58 4e3b 5ae4 e63d cffd 003e
00000130: 0927 153e a60e 5d3e dab7 0a3f 9802 38be
00000140: 736e 5dbe bbbc 783e 5c82 d43d 0611 a6bd
00000150: bbec 193e c81c da3e 6a18 cd3d 4029 a6bc
00000160: e37a 063e dd8a 30bd d942 373e 8479 193e
00000170: 097a 18be ba4f 86be 3c8b ef3e 0153 d23d
00000180: 32b6 3f3d bc3f 37bc a895 0c3d 3013 8cbd
00000190: 1b6a 10be 2bc2 45be cbca b7bd 5d46 5ebe
000001a0: 3f54 96be 5808 2a3e 27dd 52bd 3188 f7be
000001b0: 674f c23e 504e a53c 895a 89bd 6902 31be
000001c0: 9b74 03be e00d fdbd 7cf4 943e e414 b9be
000001d0: 4934 8e3e cb73 883e 42f6 183e 085b 533e
000001e0: 56e6 53be be1e 67be 6039 3fbe 59db fcbd
000001f0: 09c7 4a3e 22db ea3e d9aa a63e 877e e4bc
00000200: c678 5cbe 5c4e d53d e700 d13e 8529 8dbd
00000210: c838 9d3e 7ac7 1a3d af15 94be eac1 6ebe
00000220: 2f7b b5be 41a9 c83e 2c7a dc3d e824 60bc
00000230: 3697 233e 786a f33d 2237 3dbe e3a9 a6be
00000240: 7bb4 b63d 328b 8a3e e37c c23e 0ea3 f33c
00000250: bdd9 83be ff83 0d3e 20f7 2abe 35fd 763d
00000260: 5c42 b63e 8fe7 803e 56a7 f3bb 06c7 f03b
00000270: 3b48 a93d bce6 97be ab71 6b3e 3c30 763d
00000280: ff9b 28be bc7f 6e3e 692b 843e 9a91 77be
00000290: ca79 15be f713 1dbe 014f c5be 2733 d0be
000002a0: 025a d53c baa6 b5bd 3734 a4bd 8cc4 3c3e
000002b0: 7383 e6be 9a43 2a3e a62d af3e b6d6 b43e
000002c0: c839 7c3d fff2 263e fbc6 9bbd 211f 96be
000002d0: 8c89 743e 6bac 75be bd29 633e caed 08be
000002e0: e8fc ef3d 98f2 463e 08f6 04be 94c5 c33e
000002f0: 1591 4dbe 94dc 29be 2650 6fbe 6ce9 8bbd
00000300: 5112 263e 9658 f3bc 5e8c 48be 54da 033d
00000310: 7acd 3c3e 6cdd e43c f50d 2c3e 2918 c8be
00000320: 12c4 063b 1da4 b6be ec68 4ebe af1a 5c3e
00000330: 01fe a53e e437 11be e7c5 bdbc 3d3c 973e
00000340: 7894 dcbd 6a6a 143e 279c 603e 8ac4 7a3e
00000350: dfb5 b93d 1fc7 69bd db4a 813e 5b46 fe3c
00000360: 0328 c8bd 3709 cebd 88e2 46bd d9c3 413e
00000370: 2a28 95be 8635 253e f87c 83be 28ba 5bbe
00000380: c320 0abe d3bb ca3d de87 593c 1700 0d3d
00000390: db80 76be 5cbb 2cbe bef6 6bbe 87c6 a53e
000003a0: 45cd 093e a9fa 7abe 4473 ab3e 503c 41bd
000003b0: 1d0b e9bd 1f57 3f3e 7da1 3d3e 5225 9abe
000003c0: 8d6d 28be c9f6 89be b48c a63d 9034 99bd
000003d0: 9360 913d f936 d33d d72c bb3e c9ca 87be
000003e0: f75b be3e e387 a0bb f8fd fcbd e611 a63d
000003f0: f957 7fbe 579a 083e 9575 54bd 4643 93be

a2c_network.actor_mlp.2.weight f4 [128, 256]
-0.6014245 0.33525765 0.035490163 -0.17609726 -0.19476232 -0.4685341 -0.31218907 0.011358105
0.075598426 0.17809878 -0.45643377 -0.17577589 -0.12088983 0.11148501 -0.13301153 -0.44052044
-0.17431028 -0.078929424 0.034400262 0.19047502 -0.17814112 0.18417247 -0.27282953 0.08493113
-0.02859025 0.21762367 -0.17025669 -0.15893973 0.36342955 0.37501833 0.32858178 0.11250662
0.04550822 0.40519172 -0.2559559 -0.3564695 -0.16573486 0.24177612 -0.13945636 0.34308636
0.04970077 0.13396291 -0.18566194 -0.15069874 0.4302774 -0.26541334 -0.32935062 -0.19084646
0.2695077 0.45385313 0.16122477 -0.24470235 0.36206925 -0.5084581 0.16018228 0.18909357
-0.07316638 -0.24518265 0.25816712 -0.20408422 0.6134184 -0.343192 -0.3342238 -0.18753095
0.05437616 -0.18319888 -0.2954819 0.1322497 -0.1569589 0.05094395 0.18880263 -0.13596563
-0.2827672 0.13427015 -0.2615763 -0.1753492 -0.43140763 0.024858827 -0.29305068 -0.029080218
0.01076818 -0.13117996 0.3703691 -0.09391022 0.06862149 -0.09685137 -0.01723211 -0.4397814
-0.10523498 -0.004186218 0.12703617 -0.06787236 -0.26245317 -0.102553464 0.054135635 0.25772604
-0.13277264 -0.03651138 -0.39028317 0.2922537 -0.19279775 0.14332828 0.14482546 0.11092917
0.30509785 -0.3693265 -0.026690895 0.2691895 -0.15078606 0.099800125 0.19542612 0.14784844
0.09169287 0.24470367 0.31826192 0.49647388 -0.018909829 0.11295566 0.03623903 0.03897591
0.08841135 -0.04159757 0.30642226 0.09214758 -0.032736443 -0.14494123 -0.15916891 0.08747728
0.3111239 -0.06396891 0.17768736 -0.36827153 -0.24362224 -0.31682453 0.22545318 0.26501107
-0.118187875 0.023849212 0.17059262 0.30426592 -0.107545905 0.28512248 0.2984913 -0.04248311
0.14122371 -0.26621187 0.009528837 -0.091591835 0.16210207 -0.37332824 0.19620354 0.24410696
0.23351355 -0.040864322 -0.15790227 -0.021286076 -0.1288088 -0.36097464 -0.061304625 -0.9687157
-0.08769168 -0.36777264 -0.5521865 -0.4504673 0.034498617 0.24808171 -0.33506164 -0.024072448
-0.2331598 0.2070593 -0.22742869 -1.2069016 0.2584268 -0.18876916 -0.2221611 -0.2543517
-0.21681347 0.12396868 -0.08973432 0.06216566 0.14170998 -0.013590489 0.101635985 0.17558624
-0.120210424 0.15103039 -0.23562695 -0.051062755 0.1611447 0.12776436 0.34417573 0.017882971
0.18003196 -0.008641103 0.18839665 0.091546066 0.26998568 0.2029929 -0.44538394 0.033591535
0.022162363 0.19867328 0.21322958 -0.010080837 -0.13989568 0.24971795 -0.15540913 -0.35483432
0.66586185 0.2585362 -1.0432009 -0.3629148 -0.072501086 0.14451 0.0044235047 -0.08462365
0.041227374 -0.1698107 -0.20307109 -0.3741606 0.2009739 -0.48464975 -0.1917212 -0.046501074
0.08574555 -0.2578669 0.10407804 -0.35229576 -0.11252468 -0.65782887 0.04728808 -0.3751044
-0.0016544375 -0.3229131 0.09775457 -0.12443407 0.39444193 -0.107282035 -0.10263612 -0.13562854
-0.002754136 0.083812736 0.04420346 0.01063244 -0.14066406 -0.21856739 -0.13346218 -0.12321278
-0.14512868 -0.300254 0.08271249 -0.6955909 -0.25240096 0.0040738042 0.0864181 0.018679049
00000000: f5f6 19bf e4a6 ab3e 225e 113d d752 34be
00000010: c66f 47be b4e3 efbe 3fd7 9fbe 5817 3a3c
00000020: 59d3 9a3d 875f 363e b0b1 e9be 98fe 33be
00000030: 1695 f7bd 4152 e43d 2d34 08be e58b e1be
00000040: 657e 32be c0a5 a1bd 4ae7 0c3d e20b 433e
00000050: a06a 36be b597 3c3e 50b0 8bbe 5ff0 ad3d
00000060: 1a36 eabc bdd8 5e3e c557 2ebe 19c1 22be
00000070: 7013 ba3e 6702 c03e df3b a83e df69 e63d
00000080: d466 3a3d 4a75 cf3e a70c 83be 2c83 b6be
00000090: 66b6 29be 2994 773e a6cd 0ebe 04a9 af3e
000000a0: 0993 4b3d 932d 093e 2a1e 3ebe c550 1abe
000000b0: 524d dc3e 42e4 87be a5a0 a8be 416d 43be
000000c0: eafc 893e 705f e83e 1b18 253e 4193 7abe
000000d0: 2461 b93e 4f2a 02bf d306 243e bfa1 413e
000000e0: 41d8 95bd 2911 7bbe 7b2e 843e 74fb 50be
000000f0: fd08 1d3f ddb6 afbe 621f abbe 1d08 40be
00000100: 89b9 5e3d 7d98 3bbe 6749 97be 776c 073e
00000110: d5b9 20be 9aaa 503d 7a55 413e 933a 0bbe
00000120: ddc6 90be 1d7e 093e 54ed 85be be8e 33be
00000130: 76e1 dcbe bda4 cb3c bd0a 96be a339 eebc
00000140: 056d 303c 0a54 06be 05a1 bd3e 0054 c0bd
00000150: 6c89 8c3d 035a c6bd 5b2a 8dbc 072b e1be
00000160: 7085 d7bd 8b2c 89bb c515 023e aa00 8bbd
00000170: 4360 86be 8d07 d2bd 54bd 5d3d abf4 833e
00000180: 8df5 07be f58c 15bd 32d3 c7be 47a2 953e
00000190: c66c 45be a6c4 123e 204d 143e d52e e33d
000001a0: c935 9c3e 5d18 bdbe dda6 dabc 35d3 893e
000001b0: a967 1abe 0264 cc3d c91d 483e 9565 173e
000001c0: 79c9 bb3d 9993 7a3e 3af3 a23e d331 fe3e
000001d0: c9e8 9abc 4c55 e73d 616f 143d 34a5 1f3d
000001e0: 0311 b53d 3762 2abd 61e3 9c3e dfb7 bc3d
000001f0: a616 06bd 796b 14be 2dfd 22be 4a27 b33d
00000200: a24b 9f3e 2202 83bd adf3 353e 168e bcbe
00000210: 1c78 79be d336 a2be 33dd 663e 88af 873e
00000220: 7c0c f2bd 6c5f c33c d5af 2e3e bec8 9b3e
00000230: 0741 dcbd 93fb 913e dad3 983e c502 2ebd
00000240: f39c 103e ec4c 88be d71e 1c3c 8094 bbbd
00000250: 16fe 253e e124 bfbe 95e9 483e 2df7 793e
00000260: 2d1e 6f3e 5961 27bd 22b1 21be 2360 aebc
00000270: 74e6 03be abd1 b8be 8f1a 7bbd c1fd 77bf
00000280: b297 b3bd b24c bcbe 185c 0dbf a6a3 e6be
00000290: 6c4e 0d3d 2209 7e3e 338d abbe 9533 c5bc
000002a0: 71c1 6ebe 5a07 543e 11e3 68be c07b 9abf
000002b0: 8450 843e b44c 41be 337e 63be 633a 82be
000002c0: 5a04 5ebe 4be3 fd3d a1c6 b7bd 6ba1 7e3d
000002d0: 6c1c 113e a4aa 5ebc 8726 d03d e1cc 333e
000002e0: e230 f6bd b6a7 1a3e 3148 71be 2e27 51bd
000002f0: 1e03 253e a9d4 023e cd37 b03e 4f7f 923c
00000300: 4c5a 383e 6a93 0dbc 0deb 403e 817c bb3d
00000310: 903b 8a3e 5fdd 4f3e 5d09 e4be 4797 093d
00000320: d88d b53c 0271 4b3e db58 5a3e 182a 25bc
00000330: d040 0fbe 10b6 7f3e 9223 1fbe d8ac b5be
00000340: ec75 2a3f db5e 843e 9b87 85bf f8cf b9be
00000350: 737b 94bd 6efa 133e 0cf3 903b 2a4f adbd
00000360: 09de 283d dbe2 2dbe def1 4fbe fa91 bfbe
00000370: 1acc 4d3e 0324 f8be 9052 44be e977 3ebd
00000380: 5d9b af3d 2107 84be de26 d53d 1c60 b4be
00000390: 5773 e6bd 7967 28bf 25b1 413d af0d c0be
000003a0: b6d9 d8ba de54 a5be 8c33 c83d 4ad7 febd
000003b0: 4bf4 c93e afb6 dbbd e332 d2bd 35e2 0abe
000003c0: bc7e 34bb 03a6 ab3d b00e 353d b033 2e3c
000003d0: 3d0a 10be 21d0 5fbe 4faa 08be fb56 fcbd
000003e0: 9d9c 14be e4ba 99be 2a65 a93d 3f12 32bf
000003f0: b33a 81be 8c7d 853b f9fb b03d ce04 993c

a2c_network.actor_mlp.2.bias f4 [128]
-0.09120211 0.0988159 0.25607982 -0.09812565 0.21848625 -0.2724386 -0.17326006 -0.12480093
-0.6524363 -0.008854158 -0.5571535 0.011424819 -0.29674688 -0.3812348 -0.1925366 -0.194209
-0.13774921 -0.051695667 -0.11932334 -0.3610008 -0.0022856812 -0.15154423 -0.29624575 0.16315942
-0.15983403 -0.021636639 -0.25724655 -0.8460516 -0.19862244 -0.019116517 -0.023215579 -0.74317694
-0.18271735 -0.36208355 -0.37487105 0.10455682 -0.37207237 -0.62953496 -0.21954548 -0.6668701
0.03052491 -0.09821465 -0.006149804 -0.39264786 -0.064891785 0.085985415 -0.4715274 -0.003401572
-0.2589374 -0.030762682 -0.1505557 0.011121675 0.047606252 -0.11961126 0.17592824 -0.11540601
-0.3462692 -0.29169714 -0.27761498 -0.3212538 0.067299604 -0.18539281 -0.22128445 0.03050444
-0.12431564 0.01351945 -0.047058195 -0.6848665 0.046342023 -0.27257612 0.04393458 -0.27825275
-0.68457836 -0.44210848 0.03764635 -0.07231795 -0.34900692 -0.42407262 -0.16192289 -0.2762114
-0.8426567 -0.38717213 0.072590224 0.007997881 -0.484358 -0.47566575 -0.3917095 -0.49817476
-0.110875234 -0.4467061 -0.3390856 -0.17530528 -0.18710843 -0.18222418 -0.38224116 0.14547043
0.03968914 0.08597632 -0.14150581 0.028791547 -0.3039858 -0.33191198 0.075656205 -0.055440787
-0.2929678 -0.39656627 -0.23136382 0.024269978 -0.62075925 -0.07441257 0.22980623 -0.015755657
-0.49728346 -0.19800048 0.09803493 -0.36940417 -0.08008287 -0.62093467 0.13060632 -0.17220058
-0.4180719 -0.3059249 -0.2217182 -0.027761586 -0.28055465 -0.006480634 -0.38281038 -0.05690771
00000000: 2cc8 babd fe5f ca3d e51c 833e 1af6 c8bd
00000010: dcba 5f3e 127d 8bbe 166b 31be a197 ffbd
00000020: 1106 27bf 0811 11bc 9da1 0ebf 2a2f 3b3c
00000030: 35ef 97be 3531 c3be 5128 45be b9de 46be
00000040: 210e 0dbe d6be 53bd cc5f f4bd 19d5 b8be
00000050: 5ecb 15bb 692e 1bbe 86ad 97be 4313 273e
00000060: 88ab 23be 523f b1bc d2b5 83be d696 58bf
00000070: ae63 4bbe 3e9a 9cbc 992e bebc d840 3ebf
00000080: 421a 3bbe 0463 b9be 19ef bfbe e321 d63d
00000090: 4580 bebe 3429 21bf 88d0 60be 00b8 2abf
000000a0: 600f fa3c c324 c9bd 4c84 c9bb 2409 c9be
000000b0: fce5 84bd 1f19 b03d 0a6c f1be e8ec 5ebb
000000c0: 7193 84be 0502 fcbc 462b 1abe b037 363c
000000d0: c6fe 423d c0f6 f4bd 8826 343e fc59 ecbd
000000e0: 324a b1be 5459 95be 8d23 8ebe 617b a4be
000000f0: 60d4 893d 9dd7 3dbe 6498 62be 73e4 f93c
00000100: 3399 febd af80 5d3c 18c0 40bd 6953 2fbf
00000110: 22d1 3d3d 198f 8bbe bff4 333d 2577 8ebe
00000120: 8740 2fbf 0b5c e2be 0f33 1a3d 6f1b 94bd
00000130: 09b1 b2be 0c20 d9be 1dcf 25be 956b 8dbe
00000140: 59b8 57bf 6d3b c6be 2faa 943d 8b09 033c
00000150: c6fd f7be 768a f3be 268e c8be c310 ffbe
00000160: 8e12 e3bd a9b6 e4be a19c adbe 3a83 33be
00000170: 5a99 3fbe fa98 3abe 1db5 c3be 33f6 143e
00000180: 1491 223d 5a14 b03d e6e6 10be 40dc eb3c
00000190: 07a4 9bbe 5ef0 a9be a4f1 9a3d e115 63bd
000001a0: e0ff 95be bc0a cbbe a3ea 6cbe d5d1 c63c
000001b0: 14ea 1ebf 9e65 98bd 5352 6b3e 0212 81bc
000001c0: f09b febe a3c0 4abe 8ac6 c83d 8b22 bdbe
000001d0: 7d02 a4bd 93f5 1ebf aabd 053e 5955 30be
000001e0: 850d d6be 30a2 9cbe 190a 63be 446c e3bc
000001f0: dca4 8fbe 805b d4bb b9ff c3be 0f18 69bd

a2c_network.actor_mlp.4.weight f4 [64, 128]
0.01629176 -0.3051958 0.026844773 0.04820605 -0.6551804 0.03615384 0.15083326 0.0102250585
0.1700474 0.19496492 0.018870285 0.066870734 -0.103892736 -0.20560193 -0.18150018 0.004346574
0.07893526 -0.09106556 0.0847224 -0.046822686 0.012528957 -0.10921918 -0.0019960178 0.086104535
0.12818193 -0.15949541 -0.075833 0.14227936 -0.100705005 -0.04005264 0.020630231 0.12895015
-0.0036534874 -0.057264805 -0.080975585 -0.11520602 0.02325307 0.014816217 -0.08912987 0.14646234
-0.10466567 0.0001222666 -0.08874604 -0.068806484 -0.11381087 0.15217692 -0.018953398 -0.14278574
0.14849043 -0.121297635 -0.19886485 -0.14730185 0.04147896 -0.06347183 -0.20875633 -0.40147042
0.1686931 0.14222622 0.17489924 0.15015021 0.09971925 -0.09978613 -0.07410882 0.018380104
-0.015943918 -0.1687839 0.06870057 0.12898888 -0.23518707 0.05047428 -0.24467672 -0.19893876
0.24010901 -0.0637315 0.034856223 -0.13761485 0.031388305 0.13917941 -0.23296992 0.0632299
0.016137425 0.057020225 -0.088780336 -0.072799265 0.10970418 0.09864059 0.12045726 0.03466447
0.07607173 0.15095617 -0.007572904 0.010314601 -0.06983365 -0.05455104 0.0035247994 0.101488
0.04868866 0.05539539 -0.02442851 -0.17713371 0.14029539 0.15602383 0.07622633 0.21299995
-0.19010882 0.14559321 0.027490743 0.15130182 0.19246307 -0.07416635 0.022347763 0.0035274245
0.18982062 0.0007465073 -0.05390229 -0.028129004 0.08023387 0.10672299 -0.0621185 0.102163404
-0.15580714 -0.05871541 -0.008442044 -0.015218255 -0.089618646 -0.20189191 -0.055405598 0.091241166
0.017387135 -0.00031772256 -0.17831595 0.11614167 -0.2702843 -0.2416333 -0.10498514 0.054854225
0.21177062 -0.091368325 -0.096757464 0.15657252 -0.033207238 -0.090216555 -0.26444715 -0.018206935
-0.022102728 -0.0717641 0.09703051 -0.00015325556 -0.073033206 -0.06463338 0.040547 -0.0055001285
0.05559405 0.013488189 -0.015044302 -0.04425331 -0.03883599 0.059960216 -0.120676965 0.075801894
0.083423 0.08419384 -0.46749392 -0.19939339 -0.30219907 0.0005654168 0.08385021 0.26804015
0.09666573 -0.22009271 0.15597007 0.19663283 -0.06203922 0.057442024 -0.03908235 -0.38360754
-0.07021052 -0.12402627 0.045150146 -0.03712757 -0.11108102 -0.03369544 0.072810374 -0.25704315
0.038385272 0.03920669 0.21971887 0.09161631 -0.0801506 -0.09343187 -0.017224858 -0.012585296
-0.047456924 -0.11480207 0.020367455 0.17331314 -0.0021769085 -0.092845134 0.010013346 -0.1578914
-0.12580253 -0.004433584 0.04113725 0.08197395 0.004516085 0.21662484 -0.032853693 0.181542
0.21964408 0.21274464 0.12841624 -0.075799406 -0.0015841889 0.110424034 -0.16061525 0.022331215
0.091266744 -0.14418396 -0.1783589 -0.22485583 -0.058006294 -0.09323066 -0.08058719 -0.13983864
0.0563739 0.07087617 0.07538733 0.1158198 0.021804241 0.010496879 -0.077630594 0.07549598
0.08281874 -0.059878293 -0.044182055 0.078479044 0.11370149 -0.06338693 0.12204642 -0.12599882
-0.16203317 0.07271604 -0.12175363 -0.0070256456 0.06852237 0.030250195 -0.28864875 -0.10138688
0.05102132 0.1330364 -0.09285294 -0.0019897476 -0.2510589 0.061830163 -0.0031556129 0.083709426
00000000: 4c76 853c a042 9cbe 92e9 db3c b573 453d
00000010: e7b9 27bf 0d16 143d 0974 1a3e 0187 273c
00000020: e820 2e3e e2a4 473e db95 9a3c 86f3 883d
00000030: b7c5 d4bd 5089 52be 2fdb 39be b56d 8e3b
00000040: cfa8 a13d 9580 babd f082 ad3d 25c9 3fbd
00000050: 4146 4d3c 4eae dfbd 9fcf 02bb 9357 b03d
00000060: 2042 033e c452 23be 554e 9bbd aeb1 113e
00000070: 6d3e cebd 3d0e 24bd bb00 a93c 820b 043e
00000080: 596f 6fbb 808e 6abd 87d6 a5bd 22f1 ebbd
00000090: 397d be3c b8bf 723c b989 b6bd 39fa 153e
000000a0: f45a d6bd b134 0039 7cc0 b5bd 6aea 8cbd
000000b0: ac15 e9bd 44d4 1b3e 2844 9bbc 6d36 12be
000000c0: e00d 183e e56a f8bd 3aa3 4bbe 4cd6 16be
000000d0: d8e5 293d 85fd 81bd 38c4 55be 888d cdbe
000000e0: e2bd 2c3e c0a3 113e c918 333e fac0 193e
000000f0: 9b39 cc3d ac5c ccbd 5dc6 97bd df91 963c
00000100: d29c 82bc b0d5 2cbe e2b2 8c3d a915 043e
00000110: e1d4 70be 1ebe 4e3d 898c 7abe 9ab6 4bbe
00000120: 23df 753e a985 82bd 66c5 0e3d e8ea 0cbe
00000130: 0691 003d 0c85 0e3e ab8f 6ebe ae7e 813d
00000140: a232 843c 0a8e 693d 77d2 b5bd c817 95bd
00000150: 96ac e03d 1404 ca3d 4cb2 f63d 55fc 0d3d
00000160: 7fcb 9b3d 4194 1a3e 2026 f8bb 92fe 283c
00000170: f204 8fbd e970 5fbd 5200 673b f1d8 cf3d
00000180: c36d 473d 47e6 623d 4c1e c8bc 8a62 35be
00000190: 98a9 0f3e b6c4 1f3e 8d1c 9c3d a91c 5a3e
000001a0: e3ab 42be 6316 153e 4434 e13c ddee 1a3e
000001b0: 0a15 453e 87e4 97bd a812 b73c 5d2c 673b
000001c0: 5660 423e 42b1 433a a6c8 5cbd cc6e e6bc
000001d0: a851 a43d 9591 da3d f86f 7ebd 0c3b d13d
000001e0: e88b 1fbe 927f 70bd 8050 0abc fd55 79bc
000001f0: fb89 b7bd c1bc 4ebe fbf0 62bd a6dc ba3d
00000200: 776f 8e3c 0094 a6b9 7598 36be afdb ed3d
00000210: b462 8abe b86e 77be 7302 d7bd d3ae 603d
00000220: 66da 583e 511f bbbd c728 c6bd 8c54 203e
00000230: 5004 08bd 75c3 b8bd 9e65 87be b626 95bc
00000240: c810 b5bc 0ef9 92bd efb7 c63d 3ab3 20b9
00000250: 6f92 95bd 815e 84bd 9c14 263d 6c3a b4bb
00000260: 96b6 633d 91fd 5c3c 607c 76bc f542 35bd
00000270: 7d12 1fbd d898 753d 7c25 f7bd 063e 9b3d
00000280: aed9 aa3d d26d ac3d 5d5b efbe c82d 4cbe
00000290: d6b9 9abe 7b38 143a a9b9 ab3d 8f3c 893e
000002a0: aff8 c53d fc5f 61be 9eb6 1f3e 1e5a 493e
000002b0: d61c 7ebd 5448 6b3d d014 20bd 3568 c4be
000002c0: 88ca 8fbd 7c01 febd 5cef 383d 1413 18bd
000002d0: 727e e3bd 3b04 0abd 9b1d 953d 299b 83be
000002e0: e039 1d3d 3297 203d fcfd 603e 55a1 bb3d
000002f0: ff25 a4bd 3559 bfbd 251b 8dbc 8f32 4ebc
00000300: 3162 42bd 591d ebbd a6d9 a63c 0079 313e
00000310: 77aa 0ebb 9725 bebd 040f 243c 48ae 21be
00000320: 61d2 00be 9947 91bb 887f 283d f5e1 a73d
00000330: abfb 933b e7d2 5d3e 9891 06bd 25e6 393e
00000340: 61ea 603e bbd9 593e 8c7f 033e b83c 9bbd
00000350: 8fa4 cfba ff25 e23d 5378 24be f4ef b63c
00000360: 0fea ba3d f6a4 13be b7a3 36be 9b40 66be
00000370: 0298 6dbd b7ef bebd e60a a5bd dc31 0fbe
00000380: 52e8 663d 8727 913d ac64 9a3d ee32 ed3d
00000390: cf9e b23c 1afb 2b3c cafc 9ebd a39d 9a3d
000003a0: df9c a93d f142 75bd 3ef8 34bd 9fb9 a03d
000003b0: 54dc e83d 02d1 81bd 79f3 f93d d605 01be
000003c0: 06ec 25be 26ec 943d f859 f9bd 6337 e6bb
000003d0: 7555 8c3d 42cf f73c c5c9 93be eda3 cfbd
000003e0: bbfb 503d b23a 083e af29 bebd 6d66 02bb
000003f0: cb8a 80be a041 7d3d 66ce 4ebb d96f ab3d

a2c_network.actor_mlp.4.bias f4 [64]
-0.23028256 -0.059774995 -0.20260856 -0.35153797 -0.06709474 -0.037251294 -0.37247804 -0.058274552
-0.54773766 -0.18265721 -0.13583297 -0.09214025 -0.02821551 -0.08696458 -0.20629182 -0.65293735
0.009013883 -0.19538017 -0.05358896 -0.40990296 -0.10072819 -0.13927491 -0.39931065 -0.22831768
-0.38716877 -0.2590418 -0.12400295 0.06015259 -0.42056772 -0.532108 -0.11663839 0.03245166
-0.342192 -0.13736498 -0.05426098 -0.106208146 0.07524703 -0.5900362 -0.22256936 -0.023046128
-0.10416326 0.021486158 0.017702872 -0.35000247 -0.12944268 -0.29488453 0.024069594 -0.18289609
-0.294388 -0.07164692 -0.34521717 -0.27998278 -0.48946995 -0.2926838 0.009449591 -0.18917572
0.04842028 0.049263768 -0.35889524 -0.09051572 -0.028961811 -0.16094214 -0.14330614 -0.0443432
00000000: 31cf 6bbe a0d6 74bd 9e78 4fbe c9fc b3be
00000010: f868 89bd d094 18bd 71b5 bebe 4cb1 6ebd
00000020: 8938 0cbf 7e0a 3bbe cc17 0bbe 07b4 bcbd
00000030: 3724 e7bc 7c1a b2bd 2a3e 53be e726 27bf
00000040: f7ae 133c bd11 48be 1980 5bbd cdde d1be
00000050: 954a cebd 159e 0ebe 7272 ccbe 1ccc 69be
00000060: fc3a c6be 20a1 84be 42f5 fdbd 9062 763d
00000070: a754 d7be 3b38 08bf 1ce0 eebd 08ec 043d
00000080: ca33 afbe 68a9 0cbe c340 5ebd a883 d9bd
00000090: 1d1b 9a3d 9d0c 17bf 39e9 63be 3ccb bcbc
000000a0: 8c53 d5bd bd03 b03c 9d05 913c 8633 b3be
000000b0: 9f8c 04be 1bfb 96be 992d c53c 1d49 3bbe
000000c0: 06ba 96be 9fbb 92bd 4ec0 b0be e759 8fbe
000000d0: ce9b fabe a7da 95be 75d2 1a3c 48b7 41be
000000e0: 5854 463d cec8 493d 1ec1 b7be 4e60 b9bd
000000f0: 5241 edbc 04ce 24be d8be 12be 37a1 35bd

a2c_network.value.weight f4 [1, 64]
0.0065579335 -0.015288967 0.0009280811 -0.016893871 -0.009943078 -0.0011538047 -0.0064366465 -0.29740182
0.0061777825 0.2459385 -0.03731179 0.011260569 -0.006936392 0.045655325 0.0027507 -0.09858043
0.030285703 0.0023564573 0.0049830684 0.0003187627 0.047220364 0.6270859 -0.010559944 0.010654085
-0.020353172 -0.002879686 0.016701877 -0.013386257 -0.34907714 -0.3542588 0.015796408 0.0050756517
0.010412155 -0.0067546503 0.006808135 0.0022452802 -0.0004429295 -0.15475973 0.3473948 0.03945532
0.043749057 0.8592051 0.0014987575 -0.033114932 -0.02082845 -0.19544265 -0.002750707 -0.008170614
0.07687958 -0.0077259075 -0.004215287 -0.013727087 -0.059204362 -0.0027020688 0.0017461875 -0.00039164533
0.0055288086 0.018040933 -0.1435122 0.04344742 0.0547704 -0.07011683 -0.0137929935 0.02602912
00000000: efe3 d63b 937e 7abc 784a 733a 0465 8abc
00000010: 4be8 22bc 433b 97ba 81ea d2bb 0d45 98be
00000020: ff6e ca3b 4dd7 7b3e 3fd4 18bd 407e 383c
00000030: ac4a e3bb 1401 3b3d 1745 343b 89e4 c9bd
00000040: b919 f83c cb6e 1a3b 0249 a33b 9b1f a739
00000050: 246a 413d b488 203f 9e03 2dbc 798e 2e3c
00000060: b2bb a6bc 1db9 3cbb 60d2 883c 0852 5bbc
00000070: 3dba b2be 6961 b5be 7867 813c a751 a63b
00000080: be97 2a3c 1d56 ddbb c716 df3b 8d25 133b
00000090: fe38 e8b9 5679 1ebe bbdd b13e e79b 213d
000000a0: 3632 333d def4 5b3f f571 c43a 86a3 07bd
000000b0: 6da0 aabc 1e22 48be 3545 34bb 0ade 05bc
000000c0: 0b73 9d3d 9c29 fdbb 6420 8abb 93e7 60bc
000000d0: 4680 72bd 3115 31bb 54e0 e43a bf55 cdb9
000000e0: 022b b53b 94ca 933c ddf4 12be ecf5 313d
000000f0: ed56 603d 6a99 8fbd 02fc 61bc 053b d53c

a2c_network.mu.weight f4 [12, 64]
-0.043645225 0.009249459 -0.06712964 -0.080246806 0.022441 -0.001891353 -0.05303406 0.040803004
-0.11756665 0.0082297 0.03078388 -0.015004031 0.10330011 0.023846399 0.06951806 -0.057467636
-0.0006628478 -0.07217769 0.030762281 -0.03736948 0.030507727 -0.019667877 -0.16208178 -0.024042493
-0.2179894 -0.0064992635 0.0012113204 -0.006408292 -0.01470934 -0.13874383 0.025962884 0.025006609
-0.027508607 0.025557617 -0.010642885 -0.0011375347 0.026439575 -0.16874714 0.02318152 0.021309348
0.011318096 0.0033945118 0.015259828 0.025930319 -0.041729257 -0.18396772 0.026175378 -0.048134048
-0.12885332 0.14774823 -0.02356936 -0.005309366 -0.2005828 -0.034210626 -5.3930406e-05 0.044508442
-0.055952378 -0.0064788265 -0.10719934 -0.001336554 -0.016799614 0.007785423 -0.0046444186 0.04069112
-0.0349087 0.06840789 0.081953004 0.04859077 -0.011551577 -0.008519847 -0.019112257 -0.079825155
-0.099998794 -0.012889326 -0.007077284 0.0031687394 0.054849632 -0.0028344626 0.09774068 0.064600416
0.016450044 -0.012210408 0.038709864 0.04849009 0.017606469 -0.0129783405 -0.029223237 -0.008408747
0.0011160017 -0.024650186 0.01135085 0.035059396 0.026970584 0.11916342 -0.0320459 0.012383952
0.041896418 -0.049727585 0.011075777 0.048111573 -0.016448475 -0.016070997 -0.042000543 -0.002937097
0.0148574095 0.027007785 -0.0053826747 0.0047033876 -0.09401614 0.119235255 -0.070113145 -0.030156754
0.07201963 0.16868052 0.08481871 -0.0034255732 -0.061611008 -0.04677898 -0.003472493 0.027029252
0.014922358 0.018343396 0.028689126 0.00913991 0.022087295 0.021687973 0.0007315279 -0.028203456
0.021100288 -0.0018816958 -0.0022173761 -0.014502951 0.007612804 0.00011580337 0.006703538 0.0044104955
0.06809333 0.00019088021 -0.011036732 0.017247302 0.030559307 -0.0038740325 0.021029906 0.111393236
0.0007718778 0.00079532346 -0.025647817 0.01824247 0.013907079 -0.0029264668 0.057645064 -0.00036046494
0.0437633 0.036869638 0.003390877 -0.00651683 -0.0059801424 0.026105387 0.01230355 -0.01220394
-0.019302407 0.0024160338 0.015441286 -0.001151901 0.004023971 0.10819389 -0.00042643544 -0.0036639294
0.0035899759 -0.024104416 -0.0026232128 0.008622827 -0.0268538 0.054229338 0.003483835 -0.02809482
-0.00015359202 -0.012453945 -0.009275046 0.0024389823 0.0977391 0.013485116 -0.0042719194 0.0335182
-0.01332174 -0.00092438096 0.06802203 0.0033541233 -0.0063257953 0.0083533805 -0.0019734977 -0.0047276015
0.11007718 -0.025451683 0.02749174 0.16279091 0.034728676 -0.04462825 0.03028675 0.024653679
0.07884892 0.007977919 0.0047451234 0.009020825 -0.037760284 -0.058785245 0.026127212 0.15724918
0.0045913244 0.10985759 0.0023613658 0.0732268 -0.0061979895 0.03994851 0.12982051 0.014682964
-0.050115146 0.022598097 0.01635144 -0.0433004 0.020977816 0.1239 -0.033103384 -0.041662652
-0.02127841 -0.014701151 -0.05482288 -0.07651204 -0.032527283 0.18595515 -0.04080507 0.013895895
-0.0033933583 -0.051156014 -0.011181594 0.028486166 0.022022568 0.07548851 0.015098319 0.041883603
0.05893232 0.054381542 0.16127074 0.008335888 0.16722696 0.094848834 -0.011383309 -0.05883265
-0.009258643 -0.0256504 0.041963037 0.0027918539 0.011713888 -0.060179148 -0.006806998 0.011793835
00000000: 56c5 32bd 0b8b 173c 447b 89bd 7058 a4bd
00000010: 30d6 b73c 47e7 f7ba 3e3a 59bd 0d21 273d
00000020: c9c6 f0bd ddd5 063c 7a2e fc3c 78d3 75bc
00000030: 028f d33d 8659 c33c 7c5f 8e3d 2f63 6bbd
00000040: f6c2 2dba e6d1 93bd 2e01 fc3c bd10 19bd
00000050: 57eb f93c 871e a1bc c4f8 25be c3f4 c4bc
00000060: 9d38 5fbe c6f7 d4bb 2bc5 9e3a a6fc d1bb
00000070: 72ff 70bc dd12 0ebe 1db0 d43c a9da cc3c
00000080: bb59 e1bc 355e d13c 7f5f 2ebc 5519 95ba
00000090: cf97 d83c 0dcc 2cbe 2ce7 bd3c f190 ae3c
000000a0: 896f 393c 7576 5e3b 5c04 7a3c d26b d43c
000000b0: 4cec 2abd 0962 3cbe bf6d d63c 3528 45bd
000000c0: 20f2 03be 504b 173e 8814 c1bc 31fa adbb
000000d0: 9465 4dbe 7120 0cbd 5533 62b8 7c4e 363d
000000e0: 522e 65bd 564c d4bb 548b dbbd 4f2f afba
000000f0: 589f 89bc dd1c ff3b 3530 98bb bbab 263d
00000100: 6dfc 0ebd 7019 8c3d fad6 a73d 1e07 473d
00000110: d342 3dbc d496 0bbc 4f91 9cbc 5f7b a3bd
00000120: 2bcc ccbd c02d 53bc 90e8 e7bb a0aa 4f3b
00000130: 02aa 603d 64c2 39bb 442c c83d 394d 843d
00000140: 3ec2 863c 2a0e 48bc 3c8e 1e3d 8b9d 463d
00000150: 713b 903c 1ba3 54bc 9265 efbc d7c4 09bc
00000160: ce46 923a 30ef c9bc eaf8 393c 719a 0f3d
00000170: 6af1 dc3c f30b f43d 9042 03bd 0fe6 4a3c
00000180: 949b 2b3d 27af 4bbd 2d77 353c a410 453d
00000190: f4be 86bc 53a7 83bc c308 2cbd 507c 40bb
000001a0: 7e6c 733c 6e3f dd3c 2661 b0bb e01e 9a3b
000001b0: 898b c0bd 9d31 f43d 7b97 8fbd 4c0b f7bc
000001c0: 077f 933d 96ba 2c3e 6fb5 ad3d 957f 60bb
000001d0: d35b 7cbd 519b 3fbd c492 63bb 736c dd3c
000001e0: e87c 743c e444 963c 7505 eb3c 90bf 153c
000001f0: 6af0 b43c faaa b13c 02c4 3f3a ef0a e7bc
00000200: 83da ac3c 3ca3 f6ba 6651 11bb c99d 6dbc
00000210: d474 f93b 76db f238 5aa9 db3b eb85 903b
00000220: 8474 8b3d 0427 4839 69d3 34bc 374a 8d3c
00000230: 8357 fa3c 7be3 7dbb e946 ac3c 2322 e43d
00000240: d857 4a3a 417d 503a 5f1b d2bc 3c71 953c
00000250: 84da 633c f7c9 3fbb 3b1d 6c3d c9fc bcb9
00000260: 2541 333d 9e04 173d 7a39 5e3b 228b d5bb
00000270: 12f5 c3bb f7da d53c d494 493c 09f3 47bc
00000280: 1520 9ebc 5256 1e3b 73fd 7c3c 62fb 96ba
00000290: 84db 833b c294 dd3d 3293 dfb9 891e 70bb
000002a0: cd45 6b3b a076 c5bc 35ea 2bbb c246 0d3c
000002b0: 80fc dbbc 951f 5e3d 0d51 643b 1c27 e6bc
000002c0: 8b0d 21b9 a20b 4cbc 5df6 17bc 55d7 1f3b
000002d0: 702b c83d adf0 5c3c 75fb 8bbb 614a 093d
000002e0: 6d43 5abc 2852 72ba 224f 8b3d dad0 5b3b
000002f0: 9e48 cfbb 9edc 083c cc55 01bb ffe9 9abb
00000300: 2570 e13d 0c80 d0bc 5c36 e13c a9b2 263e
00000310: a83f 0e3d 1dcc 36bd eb1b f83c 83f6 c93c
00000320: 8b7b a13d d1b5 023c fb7c 9b3b 15cc 133c
00000330: 87aa 1abd ccc8 70bd bc08 d63c ee05 213e
00000340: d272 963b 04fd e03d 25c1 1a3b eff7 953d
00000350: 8118 cbbb 0ca1 233d abef 043e d190 703c
00000360: 8a45 4dbd a51f b93c 75f3 853c c35b 31bd
00000370: abd9 ab3c 48bf fd3d 6a97 07bd 75a6 2abd
00000380: 0f50 aebc 19dd 70bc f58d 60bd 58b2 9cbd
00000390: 543b 05bd 076b 3e3e 3823 27bd 9cab 633c
000003a0: 1b63 5ebb f888 51bd 0133 37bc d25b e93c
000003b0: ac68 b43c b899 9a3d f15e 773c 248e 2b3d
000003c0: 0463 713d 2ebf 5e3d 2824 253e 4093 083c
000003d0: 8b3d 2b3e 1b40 c23d 0f81 3abc 81fa 70bd
000003e0: 90b1 17bc ca20 d2bc 6fe1 2b3d 89f7 363b
000003f0: 9beb 3f3c 697e 76bd 3d0d dfbb ee3a 413c

a2c_network.mu.bias f4 [12]
0.20524873 0.110750474 -0.33300662 -0.20212235 0.09075471 -0.004024095 0.1260375 0.051431894
-0.08904757 0.17898388 0.059790794 -0.07523134
00000000: b92c 523e 25d1 e23d d87f aabe 29f9 4ebe
00000010: 9bdd b93d 8edc 83bb f90f 013e 40aa 523d
00000020: 935e b6bd 8d47 373e 31e7 743d e412 9abd

exp_avg f4 [12]
0.0036329196 0.004583212 0.00019707045 -0.004073395 0.019178059 0.004576793 -0.0052318787 -0.0030110108
-0.007286518 -0.0066064736 -0.01344268 -0.011371847
00000000: 4716 6e3b c52e 963b b2a4 4e39 1d7a 85bb
00000010: 4e1b 9d3c ecf8 953b 2e70 abbb 6154 45bb
00000020: bec3 eebb 1e7b d8bb b03e 5cbc fc50 3abc

exp_avg_sq f4 [12]
0.0033885406 0.0045435857 0.0030664138 0.0037075963 0.0034976779 0.005858637 0.0035154526 0.0036784655
0.0038993484 0.004283469 0.0030267525 0.0036224844
00000000: 4712 5e3b 5ce2 943b e3f5 483b 25fb 723b
00000010: 4c39 653b cff9 bf3b 8263 663b 6912 713b
00000020: 368c 7f3b 585c 8c3b 7b5c 463b 3467 6d3b

exp_avg f4 [256, 32]
-0.08428846 -0.046232577 0.007680656 0.10246104 -0.029764062 -0.00039373862 -0.06271553 -0.0036521677
-0.001052424 -0.003673758 -2.9307746e-06 -0.000113747126 -0.0007324633 -0.0009960394 0.000100875 -0.05649417
0.026631616 -0.0047951885 0.003121233 -0.058868024 -0.02286304 -0.0072354083 -0.014756896 0.0012842164
-0.004355535 0.005841847 0.0 0.0 0.0 0.0 0.0 0.0
0.021850629 0.011108448 -0.0021250872 -0.025991056 0.007724233 0.00033899868 0.015563942 0.00083311985
0.00023225493 0.00095469475 8.111823e-06 3.3333457e-05 5.429316e-05 0.00029630732 -2.202183e-05 0.014870295
-0.004016194 0.0013096443 -0.00093194516 0.016405538 -0.0002658799 -0.0020302904 0.0067331954 0.0037827622
-0.005296036 -0.0010870413 0.0 0.0 0.0 0.0 0.0 0.0
0.014246284 0.0111752255 -0.0018841411 -0.01915183 0.005645336 0.00034492745 0.007840588 0.0009163557
0.0002794241 0.00075266033 2.9907865e-06 1.0639634e-05 0.00025379343 0.0002065412 -5.305877e-05 0.011602993
0.0018683879 0.0006200574 -0.0009977253 0.011675159 0.009468646 0.0030000757 0.0037693533 -0.0019024037
0.0018104833 -0.0019224401 0.0 0.0 0.0 0.0 0.0 0.0
-0.015184896 -0.0079857195 0.0009005631 0.017080428 -0.005042198 -0.0003473152 -0.011776574 -0.0005149184
-0.00013814443 -0.0005460741 -5.5392347e-06 -5.3929275e-06 -3.771765e-05 -0.00014960112 8.104855e-06 -0.008859348
0.0041810498 -0.00063190795 0.0003059017 -0.010442881 0.0115926135 0.0036190355 -0.0035443683 -0.0055359625
0.009613338 -0.003693506 0.0 0.0 0.0 0.0 0.0 0.0
-0.030534895 -0.019437531 0.0030144663 0.03886443 -0.010997815 -5.908595e-05 -0.021671439 -0.0016240113
-0.000420685 -0.0014159911 4.47626e-06 -4.341772e-05 -0.00052708056 -0.00037773204 3.7250018e-05 -0.021549447
0.01016229 -0.0015894653 0.0011994041 -0.020963803 -0.0100337295 -0.0031979964 -0.0070312824 0.00083937426
-0.0022140506 0.0017557237 0.0 0.0 0.0 0.0 0.0 0.0
-0.021900384 -0.0074255834 0.0016606983 0.024738172 -0.0074014883 -0.00019396227 -0.017344873 -0.00075921835
-0.0001113316 -0.0008919648 -3.2542173e-06 -2.8631295e-05 -7.7311626e-05 -0.0002694971 2.0209465e-05 -0.013940491
0.009309143 -0.0015454278 0.00047074739 -0.01608083 -0.0057495357 0.0045939763 -0.004913039 -0.0044957306
-0.0021717532 0.00227596 0.0 0.0 0.0 0.0 0.0 0.0
-0.029526133 -0.008080922 0.0016322591 0.030596336 -0.008482692 -0.00014163127 -0.025879255 -0.0006150839
-0.0002562802 -0.0010119637 -1.4729184e-06 -5.272372e-05 0.00015594871 -0.00034944207 -3.137878e-05 -0.015737822
0.007342687 -0.0011472601 0.00060016883 -0.019734351 -0.0072189323 0.0061342907 -0.009206513 -0.007305473
-0.0006623464 0.0033871436 0.0 0.0 0.0 0.0 0.0 0.0
-0.017677885 -0.011115856 0.0016779092 0.022106683 -0.0063092215 -9.62678e-05 -0.012833445 -0.0008480165
-0.00029901945 -0.0007981442 4.3058117e-06 -2.7830565e-05 -0.00019328973 -0.00024496074 5.8002242e-06 -0.011973281
0.006600472 -0.0013551468 0.00086448574 -0.011910194 9.994285e-05 0.004953942 -0.003932467 -0.0045089284
0.0048928116 0.0035922762 0.0 0.0 0.0 0.0 0.0 0.0
00000000: 6e9f acbd 5f5e 3dbd 03ae fb3b 18d7 d13d
00000010: c3d3 f3bc b46e ceb9 0071 80bd 3559 6fbb
00000020: 7df1 89ba 6ec3 70bb 53ae 44b6 868b eeb8
00000030: c802 40ba 898d 82ba da8c d338 6e66 67bd
00000040: 8c2a da3c f520 9dbb 9a8d 4c3b 991f 71bd
00000050: 454b bbbc 0117 edbb e8c6 71bc 2753 a83a
00000060: e0b8 8ebb f76c bf3b 0000 0000 0000 0000
00000070: 0000 0000 0000 0000 0000 0000 0000 0000
00000080: 1700 b33c 3500 363c 0c45 0bbb 32eb d4bc
00000090: 901b fd3b a2bb b139 e7ff 7e3c ba65 5a3a
000000a0: 7589 7339 7b44 7a3a 0418 0837 87cf 0b38
000000b0: d6b8 6338 b259 9b39 85bb b8b7 8aa2 733c
000000c0: 479a 83bb 5fa8 ab3a c84d 74ba e864 863c
000000d0: cc65 8bb9 9f0e 05bb 23a2 dc3b 38e8 773b
000000e0: 5f8a adbb 0e7b 8eba 0000 0000 0000 0000
000000f0: 0000 0000 0000 0000 0000 0000 0000 0000
00000100: 3f69 693c 4b18 373c 49f5 f6ba 4ce4 9cbc
00000110: 83fc b83b 61d7 b439 cf75 003c 9737 703a
00000120: ab7f 9239 2e4e 453a 52b5 4836 e180 3237
00000130: 940f 8539 fb92 5839 6c8b 5eb8 7b1a 3e3c
00000140: b2e4 f43a 598b 223a 1bc6 82ba 2b49 3f3c
00000150: 6122 1b3c eb9c 443b 4107 773b 135a f9ba
00000160: bd4d ed3a 63fa fbba 0000 0000 0000 0000
00000170: 0000 0000 0000 0000 0000 0000 0000 0000
00000180: 12ca 78bc 89d6 02bc c413 6c3a 41ec 8b3c
00000190: 0639 a5bb db17 b6b9 88f2 40bc 97fb 06ba
000001a0: ddda 10b9 6a26 0fba aadd b9b6 e5f4 b4b6
000001b0: 0533 1eb8 3fde 1cb9 16fa 0737 cc26 11bc
000001c0: 3001 893b a0a6 25ba 6e61 a039 9e18 2bbc
000001d0: f2ee 3d3c 572d 6d3b a248 68bb 0567 b5bb
000001e0: 4381 1d3c bf0e 72bb 0000 0000 0000 0000
000001f0: 0000 0000 0000 0000 0000 0000 0000 0000
00000200: 5124 fabc 753b 9fbc 5a8e 453b 4f30 1f3d
00000210: 2e30 34bc 0ed3 77b8 4d88 b1bc c7dc d4ba
00000220: 638f dcb9 c798 b9ba c832 9636 6c1b 36b8
00000230: c72b 0aba 560a c6b9 e73c 1c38 7788 b0bc
00000240: bc7f 263c 9b55 d0ba 5335 9d3a 48bc abbc
00000250: 8364 24bc 7a95 51bb ac66 e6bb 7409 5c3a
00000260: 9b19 11bb 5020 e63a 0000 0000 0000 0000
00000270: 0000 0000 0000 0000 0000 0000 0000 0000
00000280: 6f68 b3bc 4f52 f3bb caab d93a b5a7 ca3c
00000290: 2f88 f2bb 5a62 4bb9 d616 8ebc 4806 47ba
000002a0: b37a e9b8 bfd2 69ba 0763 5ab6 3d2d f0b7
000002b0: 5d22 a2b8 4a4b 8db9 7f87 a937 a866 64bc
000002c0: 6085 183c f48f caba a5ce f639 f2bb 83bc
000002d0: 9a66 bcbb 1189 963b 8ffd a0bb ec50 93bb
000002e0: f953 0ebb 4628 153b 0000 0000 0000 0000
000002f0: 0000 0000 0000 0000 0000 0000 0000 0000
00000300: cae0 f1bc d865 04bc 87f1 d53a 2ba5 fa3c
00000310: fdfa 0abc db82 14b9 bb00 d4bc 953d 21ba
00000320: 595d 86b9 dea3 84ba 17b1 c5b5 aa23 5db8
00000330: 2a86 2339 5235 b7b9 b59c 03b8 9bec 80bc
00000340: ec9a f03b a95f 96ba a654 1d3a efa9 a1bc
00000350: cb8c ecbb 2902 c93b ead6 16bc c062 efbb
00000360: 51a1 2dba d7fa 5d3b 0000 0000 0000 0000
00000370: 0000 0000 0000 0000 0000 0000 0000 0000
00000380: 36d1 90bc 471f 36bc 4aed db3a 1319 b53c
00000390: 96bd cebb 62e3 c9b8 5f43 52bc 6d4d 5eba
000003a0: b6c5 9cb9 8d3a 51ba a47a 9036 af75 e9b7
000003b0: d1ad 4ab9 136e 80b9 8c9f c236 952b 44bc
000003c0: c648 d83b 2e9f b1ba a89e 623a f922 43bc
000003d0: 6998 d138 ad54 a23b eddb 80bb a2bf 93bb
000003e0: e153 a03b 656c 6b3b 0000 0000 0000 0000
000003f0: 0000 0000 0000 0000 0000 0000 0000 0000
