omniisaacgymenvs/runs/WEE/nn/last_WEE_ep_1500_rew_865.0336.pth (torch, 623460 bytes, 36 tensors)

value_mean_std.running_mean f8 [1]
000000 8a 47 c1 54 a4 92 2e c0
       -15.286409996598895

value_mean_std.running_var f8 [1]
000000 02 d6 54 a9 de 89 a4 40
       2628.9348856459847

value_mean_std.count f8 []
000000 00 00 00 01 00 70 b7 41
       393216001.0

running_mean_std.running_mean f8 [32]
000000 16 93 94 b5 ff e3 70 3f 36 89 76 d2 14 2c 89 3f
       0.0041236866611924685 0.012291109726736065
000010 e3 0d e1 9f df 19 de 3f 19 f9 50 98 49 30 b9 bf
       0.4703291951484216 -0.09839305847797099
000020 6e 4c e5 34 95 06 92 3f 67 57 ea 29 c8 6f 7e bf
       0.017603236535546456 -0.007430822267130078
000030 59 f1 a6 b9 56 6f da 3f 48 2a ae 69 2f bd a4 3f
       0.4130455792435633 0.04050586857836841
000040 56 d7 7a 13 48 3e 87 3f 60 e1 10 18 cd 11 a3 3f
       0.011349261373975555 0.037245186984764755
000050 a5 c3 9f d2 d9 a4 6c 3f 88 4e c9 74 50 36 54 bf
       0.0034965757704345673 -0.0012336526589437364
000060 bf ce e8 90 1d 5d b3 3f 11 06 f5 12 ea 98 d4 be
       0.07563957965686095 -4.9107841698105946e-06
000070 ab 85 d0 b3 7c 9e f5 be ba d3 61 52 56 69 db 3f
       -2.0617571170449742e-05 0.4283042721283966
000080 89 70 0c bd 14 cb de 3f 9f e1 22 49 79 99 21 bf
       0.4811450811555536 -0.00013427358186902675
000090 c6 65 e9 fb 51 5b 11 3f df 92 ba ef 12 86 c8 bf
       6.621063128289033e-05 -0.1915916128683852
0000a0 2c 38 dc 55 5e 71 5e 3f 93 3d f5 0c a9 2b 69 3f
       0.0018580838436181952 0.0030725766916146007
0000b0 94 d9 bb fa c9 55 73 bf 22 a9 63 e2 5d 96 c9 bf
       -0.0047204866239013606 -0.19990132860341087
0000c0 49 dc 2d 3c ca 20 ba 3f 6a 6e 56 c3 93 aa 97 bf
       0.10206283539979312 -0.023111637875997827
0000d0 00 00 00 00 00 00 00 00 00 00 00 00 00 00 00 00
       0.0 0.0
0000e0 00 00 00 00 00 00 00 00 00 00 00 00 00 00 00 00
       0.0 0.0
0000f0 00 00 00 00 00 00 00 00 00 00 00 00 00 00 00 00
       0.0 0.0

running_mean_std.running_var f8 [32]
000000 0d 55 df 50 18 06 68 3f ff c4 f4 7e c4 3f 57 3f
       0.002932593814856893 0.0014190119653217368
000010 c0 e1 4f ae 76 11 57 3f 0f 2b 5e 9e 8f c0 e4 3f
       0.0014079722398020328 0.6485059826967204
000020 b6 bf f6 95 18 8b 85 3f 63 35 8f dc 94 60 9f 3f
       0.0105192108884181 0.030641866647603943
000030 95 12 f6 82 b9 aa c0 3f 73 08 43 9f d5 9f e5 3f
       0.13021010298338767 0.6757610426505053
000040 9e 6e 7a 70 11 08 e6 3f e7 66 ac 4f c1 8b e4 3f
       0.6884848782387569 0.6420599514123894
000050 b0 fa 49 9c ad 95 69 40 b2 3d b9 4f 68 6f 60 40
       204.67744268845627 131.48148332767374
000060 6a aa 43 22 1f 7c 68 40 7c ca bd 96 38 91 d0 3e
       195.87880051818803 3.949944907921163e-06
000070 b8 5f 4c 8f b9 db d3 3e a0 1e 47 7c a7 08 fa 3e
       4.734587709241617e-06 2.4827771783169e-05
000080 3b 5f 43 30 c4 15 d1 3f 7f 27 b6 b4 6f a5 2c 3f
       0.2669535132713354 0.00021855343434778668
000090 8d 6a d6 5e 16 e1 2f 3f 0a d8 95 b5 c7 b8 dd 3f
       0.00024321935727019233 0.46440308316175616
0000a0 0f 69 b8 63 53 ee 76 3f 0c b8 a7 32 46 44 77 3f
       0.005598378887521584 0.005680345735965996
0000b0 15 0c 31 0b fc 38 6c 3f 86 61 41 d3 48 54 2b 40
       0.00344514109886652 13.664618112307618
0000c0 7e 75 fe 13 92 0f 2f 40 ce 6c bc 26 63 9c 1d 40
       15.530411362468609 7.402721982241202
0000d0 a3 aa 0f c2 67 d8 35 3e a3 aa 0f c2 67 d8 35 3e
       5.086262994963251e-09 5.086262994963251e-09
0000e0 a3 aa 0f c2 67 d8 35 3e a3 aa 0f c2 67 d8 35 3e
       5.086262994963251e-09 5.086262994963251e-09
0000f0 a3 aa 0f c2 67 d8 35 3e a3 aa 0f c2 67 d8 35 3e
       5.086262994963251e-09 5.086262994963251e-09

running_mean_std.count f8 []
000000 00 00 00 02 00 70 a7 41
       196608001.0

a2c_network.sigma f4 [12]
000000 9e f4 bf bf 45 b6 a0 bf 06 20 2d c0 f9 b8 86 bf
       -1.4996526 -1.2555624 -2.7050796 -1.0525199
000010 2c e0 8c bf 0a 50 6e c0 13 08 92 bf 6c f5 65 bf
       -1.1005912 -3.7236352 -1.1408714 -0.8982761
000020 c5 20 7c bf fe 59 51 bf 7f ac 94 bf 8a 38 82 bf
       -0.984875 -0.8177794 -1.1615142 -1.0173504

a2c_network.actor_mlp.0.weight f4 [256, 32]
000000 20 26 18 3e bc 71 21 3e 99 29 26 bf 71 ff 09 3e
       0.14858294 0.15766042 -0.64907223 0.1347635
000010 a2 30 2b 3f 26 79 e9 3f 13 49 83 3c 9f c7 85 bd
       0.6687108 1.8240097 0.016026055 -0.06532215
000020 6b 45 a4 bd 64 05 2a be b5 4c 82 3d 7d bb 8a 3e
       -0.08021053 -0.16603619 0.06362287 0.27096167
000030 78 28 c5 bd b0 a2 8c be 1b 92 47 39 5a 50 0f be
       -0.096268594 -0.2746787 0.00019032547 -0.13995495
000040 bb be b3 bd c2 3b 94 be 5b d6 5a be 17 7b e7 bd
       -0.08776613 -0.28951842 -0.21370833 -0.113027744
000050 2a a6 13 be 52 71 10 3e 10 5b fc 3c 0b fc e2 3d
       -0.14418855 0.14105728 0.03080514 0.1108323
000060 3d 47 b3 3d ab 56 8d bc cf aa 0d 3e e0 9d 00 be
       0.08753822 -0.01725324 0.1383469 -0.12560225
000070 c8 5c 36 3c 1f 1b f7 bd 4c 45 5f 3d 02 5c 79 bd
       0.011130519 -0.1206572 0.054509446 -0.06087876
000080 9a 80 8f 3d dc 66 8c ba 3d cc 08 3f 15 ad 13 be
       0.07006951 -0.0010711807 0.5343664 -0.14421494
000090 7a e1 3b bf c6 e2 a6 bf df a3 28 3e 8d 67 a9 3e
       -0.73390925 -1.3037956 0.16468762 0.33086815
0000a0 04 52 77 3e 16 77 99 be 47 00 cc be 0d 58 e2 be
       0.2415238 -0.29973668 -0.39843962 -0.44207802
0000b0 ab 5b 2d 3e c1 bb 9d 3e 49 41 82 3e 3d 33 82 3e
       0.169295 0.30807307 0.25440434 0.25429717
0000c0 70 3a 11 be 6b ad 89 bd 89 a1 5c 3d aa c7 06 be
       -0.14182448 -0.0672253 0.05386499 -0.13162103
0000d0 c9 a1 0f 3e e4 6c ce bd cd 10 f6 3d 51 f7 82 bd
       0.1402656 -0.10079363 0.12014923 -0.06394828
0000e0 15 b2 50 bd cb 25 98 3b 4e 13 19 3d 1f 9c 38 bd
       -0.050951082 0.004643177 0.037371926 -0.045070764
0000f0 d9 cc d7 3d 02 1e f6 3d 39 45 03 be eb 47 c1 bd
       0.105371185 0.12017442 -0.12819375 -0.094375454
000100 fd c2 0f 3e 7d 05 f3 bd 60 0f a1 be 45 aa d0 be
       0.14039226 -0.11866281 -0.31457043 -0.40754905
000110 6a 2b a0 bf 10 e8 65 bf 41 b8 f5 bd ac 22 e3 be
       -1.2513249 -0.89807224 -0.11998034 -0.4436239
000120 db 57 09 3e a0 03 a2 be 1f 8e 13 3e 00 d1 53 bf
       0.1341242 -0.3164339 0.14409684 -0.82740784
000130 c8 06 eb be 78 60 5e be 2b 6f 83 3f 9d 76 7c 3d
       -0.4590361 -0.21716487 1.0268301 0.061636556
000140 29 ee fe 3c 34 55 5a be 36 3c 5e be 9b 57 98 bd
       0.031119423 -0.21321565 -0.21702656 -0.074385844
000150 8e d6 50 bd 86 cd e8 bd fb 5c f0 bd 7b 51 0c be
       -0.050985865 -0.113673255 -0.117364846 -0.13702957
000160 1a 71 a6 3a b5 59 87 bd b4 b3 48 bc 02 54 f5 bd
       0.0012698502 -0.06608907 -0.012249876 -0.11978914
000170 68 80 f8 bd c9 36 d3 bd 8d d9 77 bd 07 e0 0e be
       -0.121338665 -0.10313184 -0.060510207 -0.13952647
000180 fc c4 db 3d 4f 45 ab 3e 3a cf 8a be d2 48 81 3c
       0.10730931 0.33451316 -0.27111226 0.015781794
000190 14 d7 fd be c2 c6 15 3e 72 bf 9a be e1 66 66 be
       -0.49578154 0.14626601 -0.30224186 -0.22500183
0001a0 1b c6 8e be c4 f3 57 be 9b 38 25 3e 0a 19 64 be
       -0.27885517 -0.21089083 0.16134875 -0.22275177
0001b0 ad 39 db bd d1 12 59 be 50 f9 ea bd 0c 67 94 be
       -0.1070436 -0.21198584 -0.11473334 -0.2898487
0001c0 9b 22 b3 be 1b f7 91 bd 8d f1 c6 bd 0d da 29 3c
       -0.3498734 -0.0712721 -0.09714041 0.010366929
0001d0 3f cf 10 3e 6d 6c 13 be 67 0a c7 3d 3a 55 ca bd
       0.14141558 -0.1439683 0.09718781 -0.09879537
0001e0 31 5f ca 3a 15 4c a8 bd 0e e2 24 3e f6 db 04 be
       0.0015439746 -0.082176365 0.16101858 -0.12974533
0001f0 f5 7d c1 3d 2e 78 7e 3d 11 4b 6b 3d 1e bc c3 bd
       0.094478525 0.06212633 0.057444636 -0.09557365
000200 c0 3d 95 3e bb f5 c5 bd 8e 68 8a be 6a 40 60 bd
       0.29148674 -0.0966601 -0.27032894 -0.05474893
000210 ae 14 83 3f 1c 38 f5 bd 11 af 9e bd 57 0f 9c 3d
       1.0240686 -0.11973593 -0.07748235 0.07620113
000220 5b f1 84 bd 56 32 19 3d 9d a3 b6 3d 26 73 ff 3d
       -0.064913474 0.03740152 0.089179255 0.12473135
000230 66 a4 3c be 17 60 0b be 5e 6e 6c 3d 06 af 3f be
       -0.18422088 -0.13610874 0.05772244 -0.1871911
000240 26 94 18 3d f1 15 0c be b0 40 c0 3e 72 e1 d9 bd
       0.03725066 -0.13680245 0.37549353 -0.106387034
000250 2a 92 53 bd 13 f0 10 bd 2e e8 0d bd 09 4e fd 3c
       -0.051653065 -0.035385203 -0.034645252 0.030921
000260 8a 73 26 bb bf 1d e2 3b 49 60 87 3d c6 78 fe bc
       -0.0025398456 0.0069005187 0.06610162 -0.031063449
000270 91 bc 3f bd c7 ec 9a 3c 8d d2 ff bc 9b c6 57 bd
       -0.04681069 0.018911732 -0.031228328 -0.05267964
000280 8f dc 16 3e c7 02 a0 3e f4 a7 69 bf b4 ea 31 3d
       0.14732574 0.3125212 -0.912719 0.04343672
000290 b8 8b f1 3b 3c 35 7f be a9 30 8d bd 6b 30 b6 be
       0.007371392 -0.24922651 -0.06894047 -0.35583815
0002a0 6a 57 80 be 77 48 a7 bc 00 50 8c bc ca ed 1d be
       -0.25066692 -0.020420296 -0.01712799 -0.1542274
0002b0 96 ec 24 bf 63 7f be be 21 37 74 3e a4 7e a6 be
       -0.644235 -0.37206563 0.23849155 -0.32518494
0002c0 95 7e b6 bd b3 a5 14 3e de 4d cc 3c ba d2 04 3e
       -0.08910862 0.14516334 0.024939474 0.12971011
0002d0 21 3d 85 be 43 6a 70 3d 2a 34 64 be 16 f3 f3 3d
       -0.260232 0.05869509 -0.22285524 0.11911599
0002e0 29 b6 b7 3c 55 cc 16 be ea c7 95 3d d3 e4 89 bd
       0.022425728 -0.14726384 0.07313521 -0.06733098
0002f0 e2 54 ea bd ab 1f 04 3e a0 9e a4 bd 47 27 11 bd
       -0.11441971 0.12902705 -0.08038068 -0.03543785
000300 58 d5 44 be a4 24 8d 3e 14 9d f1 3d ec 97 ae 3d
       -0.19222009 0.27567017 0.117975384 0.085250705
000310 a0 3b e2 3e 51 79 be bf 13 cb ba bd 5f 75 e0 3c
       0.44186115 -1.4880773 -0.091207646 0.027399717
000320 27 ad af bc d0 c8 8f 3d 9b 09 18 3e be 92 2b bd
       -0.02144487 0.07020724 0.14847414 -0.04188799
000330 d8 c5 39 be 03 91 a8 be b1 a6 e7 bd 9d a9 1d be
       -0.18141878 -0.32923135 -0.11311091 -0.15396734
000340 f2 d6 a1 3e 15 86 8a be 14 46 34 3c 2a 6e 2f 3d
       0.31609303 -0.2705542 0.011003036 0.04282967
000350 12 2f d6 bc b4 16 06 bd ba 2e 72 be 4a b4 c9 3b
       -0.026145492 -0.032736495 -0.23650637 0.0061555253
000360 e6 2b f5 bd a7 78 dc 3d 55 4a 68 bd 34 ca 04 be
       -0.119712636 0.107652 -0.056711514 -0.1296776
000370 c7 82 ff bc 4f 7f af bd 7e 86 5d bd 61 54 2c be
       -0.03119029 -0.08569204 -0.05408334 -0.16829063
000380 0b ba 70 3d f1 56 70 be 1a 55 5d 3e 07 73 10 3d
       0.058771174 -0.23470666 0.21614495 0.03526595
000390 5b bc 9d 3e e1 50 ad 3e 8b 08 22 3e 4f 84 2f bd
       0.30807766 0.33850768 0.15823571 -0.04285079
0003a0 e4 24 ca 3c 5f a0 19 3e 72 a5 47 be e6 81 cb bb
       0.024675794 0.15002583 -0.19496706 -0.0062105535
0003b0 f8 46 e5 3c 87 b0 db be b4 71 e0 bd 81 78 b7 be
       0.027987942 -0.42908117 -0.10959187 -0.35834125
0003c0 42 11 83 3e 0c c0 16 be 4e db 84 3e 87 10 0d be
       0.25599104 -0.14721698 0.25948566 -0.13775836
0003d0 67 64 1d be 78 f7 24 3d 93 b1 00 bd 39 b4 33 be
       -0.15370332 0.040275067 -0.031419348 -0.17549218
0003e0 e2 76 23 3d eb e6 4a be 71 52 7d bc 48 33 b2 bd
       0.039908297 -0.1981465 -0.01546155 -0.08701187
0003f0 5b fd 93 bd 62 dd 65 bd fe 05 2c be 19 87 14 3e
       -0.07226058 -0.05611933 -0.16799161 0.1450466

a2c_network.actor_mlp.0.bias f4 [256]
000000 ba 62 14 3e 1d ff a2 3e 2d f0 09 3e d0 92 a4 be
       0.14490786 0.3183526 0.13470526 -0.3214326
000010 0f 00 b2 3c 7a 87 76 3e af 72 3d be 29 b0 9c be
       0.021728544 0.24075118 -0.1850078 -0.3060315
000020 f9 66 39 bc 06 64 60 be 6a 42 f3 bd 1f 0f e5 3b
       -0.0113160545 -0.21913156 -0.11877902 0.006990328
000030 2c bc c6 3c 6c 22 af bd 6e a5 f9 3d 86 e2 23 be
       0.02425965 -0.08551487 0.12189756 -0.1600438
000040 0a e0 14 3e f2 10 0a 3e 79 ef a4 3d 2f 3e d3 3d
       0.14538589 0.13483027 0.08053488 0.10314595
000050 cc 2c 21 3e a6 4b 7d be e1 9e e3 bd c8 fd 99 3e
       0.15739745 -0.24735889 -0.11114288 0.30076432
000060 b9 9b a8 3e 96 4b 00 be f7 90 4e be 49 18 bc be
       0.32931307 -0.12528834 -0.20172487 -0.36737278
000070 50 d2 a9 be c2 26 2f be fa c2 a9 be 12 47 75 bd
       -0.33168268 -0.17104629 -0.33156568 -0.05988223
000080 60 b4 18 be 0d f9 39 be db 42 c8 be 7b 76 91 3e
       -0.14912558 -0.18161412 -0.39113507 0.28410706
000090 24 51 0e 3d 8c 0d 3f 3e db 5d 2d be 96 d8 b1 be
       0.03474535 0.18657511 -0.16930334 -0.34735554
0000a0 ac 3d b5 bb dc ea b4 bd b4 51 a4 3e a7 0a 1a be
       -0.0055310335 -0.08833858 0.32093585 -0.15043126
0000b0 63 3b 21 be 46 94 97 3d 89 9f 86 3c 24 3a 4a 3e
       -0.1574531 0.07401328 0.016433494 0.19748741
0000c0 c8 29 a3 3e 7a 6c 07 be 3a b6 90 bd f1 47 33 be
       0.31867814 -0.13224974 -0.07066007 -0.17507912
0000d0 66 80 14 be b9 8d ac 3e 38 98 d9 bd 6f 1e 97 3e
       -0.14502105 0.33701876 -0.106247365 0.29515406
0000e0 a9 98 8a be 4d ae e5 bc 56 d1 3a 3e 4c 0d 9b 3e
       -0.27069595 -0.028037215 0.18243918 0.30283582
0000f0 e3 86 50 3e d3 f4 41 3e 8e 48 a8 3e fa 09 19 be
       0.20363955 0.1894105 0.32867855 -0.14945212
000100 f3 6c d6 3d 4d fe 17 bf 33 39 b5 bb 28 2d 12 3d
       0.10469999 -0.5937241 -0.0055305003 0.035687596
000110 30 d1 9e bd 14 dd 5a 3e 12 78 5c be b4 1a ca bd
       -0.07754743 0.21373397 -0.21530178 -0.098683745
000120 ff 64 bc 3e a5 cb 66 3c 9f 80 01 3e 40 53 c9 3d
       0.36795804 0.014086639 0.12646721 0.09830332
000130 64 9d 0f 3e 3b da 44 3e 62 b6 05 3f 45 1d 2f be
       0.14024884 0.19223873 0.5223142 -0.17101009
000140 b4 e9 80 be 2e a7 6b 3e 0e db e4 3d e5 94 a9 bd
       -0.251783 0.23012993 0.11174594 -0.082803525
000150 bc 4b 0d 3e 71 dd c9 3e 52 12 dc 3d 8d 57 12 3b
       0.13798422 0.3942676 0.10745682 0.0022330016
000160 30 fd ed 3d 71 ff 8d bb 89 18 5f 3e 75 85 25 3e
       0.11620557 -0.0043334295 0.21786703 0.16164191
000170 c5 3e 13 be ca 44 5c be df a5 fa 3e a7 1a da 3d
       -0.14379413 -0.21510616 0.48954675 0.10649615
000180 77 3a 9b 3d c3 3e 49 bc 27 17 24 3d d7 e7 2e bd
       0.07579511 -0.01228303 0.040061142 -0.04270157
000190 e2 2e e4 bd b1 5c 50 be 4b 0a 03 be 4e 84 5c be
       -0.11141755 -0.20347859 -0.12796895 -0.21534845
0001a0 a4 6c 84 be a5 c4 39 3e 09 31 80 bd 28 da f3 be
       -0.25864136 0.1814142 -0.06259353 -0.47627378
0001b0 c0 5b b1 3e ab 6e 3b 3c 15 0c 09 bd 52 42 14 be
       0.34640312 0.0114399595 -0.033458788 -0.14478424
0001c0 bf c6 d4 bd bc 22 2d be bb e2 98 3e 8b 83 be be
       -0.1038947 -0.16907781 0.29860482 -0.37209734
0001d0 7d c7 8b 3e cb 34 84 3e 28 f1 0f 3e 3a bd 63 3e
       0.27300635 0.25821528 0.14056838 0.22240153
0001e0 30 31 50 be 9f 98 6c be 48 ea 35 be 59 b7 f8 bd
       -0.20331264 -0.23105095 -0.17765152 -0.12144346
0001f0 5b 83 4e 3e d7 89 e9 3e 38 4e ae 3e cf b4 09 bd
       0.20167296 0.45612976 0.3404405 -0.033619698
000200 96 3e 43 be 0e 0b c2 3d 7b 2a d2 3e 09 13 4b bd
       -0.19066843 0.09474765 0.41048035 -0.0495787
000210 30 a4 99 3e d8 85 38 3d 73 85 9b be 2a a1 63 be
       0.30008078 0.04504952 -0.3037525 -0.22229448
000220 37 3c af be d0 37 c4 3e 58 32 dd 3d 14 3c 08 bd
       -0.34225628 0.38323832 0.10800618 -0.03326042
000230 76 ca fb 3d 67 42 09 3e 6d b0 6c be 37 38 b1 be
       0.12294476 0.13404237 -0.23114176 -0.346132
000240 b4 b0 c9 3d c8 f7 7c 3e 9c 77 c8 3e 5f 92 36 bc
       0.098481566 0.24703896 0.39153755 -0.011143296
000250 5a 2a 8a be 9f b3 13 3e f2 9b 37 be 19 04 a7 3d
       -0.26985437 0.14423989 -0.17930582 0.081550784
000260 2f d5 bc 3e a6 dd 94 3e a6 0e 71 3b 14 02 92 bb
       0.36881396 0.29075354 0.0036782413 -0.004455814
000270 4f c9 bf 3d d2 17 98 be 10 d6 7f 3e 08 88 7f 3d
       0.093645684 -0.29705673 0.24984002 0.06238559
000280 7e 07 1a be 5a 46 79 3e 98 b2 80 3e 3f 7c 83 be
       -0.1504192 0.24343243 0.25136256 -0.2568073
000290 be 28 19 be d0 7f 02 be ed b1 d1 be 9c 97 cc be
       -0.14956948 -0.12744069 -0.4095606 -0.3995942
0002a0 82 23 a9 bc 7d 96 a9 bd 5b 9e 5d bd 6b 33 38 3e
       -0.020646814 -0.082806565 -0.054106098 0.17988364
0002b0 23 ab d6 be f9 b7 4a 3e 06 f4 ac 3e 65 e3 bc 3e
       -0.41927442 0.19796742 0.33779925 0.36892238
0002c0 29 14 1c 3d 55 dc 2f 3e 66 0c 99 bd 3f 61 87 be
       0.038105164 0.17173894 -0.07473068 -0.2644138
0002d0 17 8f 71 3e 0a 44 67 be 0b 7a 68 3e 8a 07 ee bd
       0.2358974 -0.22584549 0.22702806 -0.11622532
0002e0 bd f5 e0 3d 0d b1 55 3e ab 11 1c be 17 d2 c0 3e
       0.10984371 0.20868321 -0.15241115 0.37660286
0002f0 fe 8c 52 be 75 d6 0f be 70 cb 67 be a6 47 55 bd
       -0.20561597 -0.14046653 -0.22636199 -0.052070282
000300 2e 0b 17 3e 29 b7 8b bb 0f f4 1f be 12 aa 4a 3d
       0.14750358 -0.0042637778 -0.15620445 0.049478598
000310 8d af 4d 3e 00 f1 86 3c dc 95 26 3e c8 00 ca be
       0.20086499 0.01647234 0.16268104 -0.3945372
000320 95 30 99 3c e8 6a ad be d2 d3 39 be fb 0e 5a 3e
       0.018699924 -0.33870625 -0.1814721 0.21294777
000330 f6 ee 94 3e 9b a2 08 be 99 58 63 bb 99 56 83 3e
       0.29088563 -0.13343279 -0.003469026 0.25652006
000340 7f 08 c1 bd 56 ba 37 3e ed 49 51 3e 2b d5 71 3e
       -0.094254486 0.17942175 0.20438357 0.23616473
000350 56 9a cb 3d 5b c9 8f bd f9 15 71 3e 8b 42 13 3c
       0.099415466 -0.070208274 0.23543538 0.008988033
000360 24 be c6 bd 3d 84 c6 bd 4d f8 c7 bc b1 a0 33 3e
       -0.09704235 -0.09693191 -0.024410391 0.17541768
000370 b3 8c 9d be e1 d8 26 3e 21 e9 82 be 3c c9 40 be
       -0.30771407 0.1629367 -0.25568488 -0.18826765
000380 20 e8 f5 bd dc 34 99 3d b5 a8 0a 3c 5d 85 ce 3c
       -0.12007165 0.07480785 0.008463074 0.025210077
000390 e6 ff 5c be d8 80 0c be c8 47 5f be f4 4c ab 3e
       -0.21581993 -0.13721025 -0.21804726 0.33457148
0003a0 48 d7 05 3e 03 89 7d be 28 7f ab 3e 94 a8 30 bc
       0.13070405 -0.24759297 0.3349545 -0.01078238
0003b0 ed b2 c0 bd f6 87 52 3e a6 12 56 3e bf 0d 7a be
       -0.094091274 0.20559677 0.20905551 -0.24419306
0003c0 43 e5 21 be 22 a2 7c be cb b1 a2 3d b5 57 05 be
       -0.15810113 -0.24671224 0.079440676 -0.13021739
0003d0 4d f4 32 3d 95 40 d9 3d 98 09 b4 3e 6f 4e 56 be
       0.043690015 0.10608021 0.3516357 -0.20928358
0003e0 21 e6 bc 3e d4 1c 11 bd a9 ed b2 bd e8 b0 85 3d
       0.36894324 -0.035427883 -0.08736736 0.06527883
0003f0 d5 35 81 be 3c 28 05 3e a3 ca 3d bd 6c 6c 91 be
       -0.25236383 0.1300363 -0.046335828 -0.28403032

a2c_network.actor_mlp.2.weight f4 [128, 256]
000000 cf cb 31 bf c0 56 d0 3e f5 7b 68 3c a7 82 db bd
       -0.6945161 0.40691185 0.01418971 -0.10718279
000010 23 ef 35 be 68 a7 b6 be 15 c9 62 be 7a ff 48 bc
       -0.17767005 -0.35674596 -0.22147019 -0.012267942
000020 60 bd 2b 3e ba b2 73 3e af 77 c0 be 53 fa 45 be
       0.1677146 0.23798648 -0.3759131 -0.19333772
000030 f6 8d 14 be ff 36 9e 3d e3 68 0f be 80 f7 e0 be
       -0.14507279 0.077253334 -0.14004855 -0.43938828
000040 a0 a3 17 be c0 cf b6 bd 66 bb cb 3d a7 20 94 3e
       -0.14808512 -0.08926344 0.09947853 0.28931162
000050 5b a6 02 be c4 99 92 3e 3c b1 8b be 36 74 ce 3d
       -0.12758772 0.2863294 -0.27283657 0.10080759
000060 cd 48 ef 3c 27 42 c0 3d ef ca 12 be 00 6a 82 be
       0.029209519 0.093876176 -0.14335226 -0.25471497
000070 a6 dc b2 3e cd 38 78 3e 31 ba a1 3e 23 78 45 3e
       0.34933966 0.24240418 0.31587365 0.1928411
000080 60 b1 17 bc a0 09 bb 3e 66 5d 8d be cf cb a9 be
       -0.009258598 0.3653078 -0.2761032 -0.33163306
000090 87 4d 77 be 11 ae 8f 3e c5 af e4 bd 15 03 b5 3e
       -0.24150668 0.2806249 -0.11166338 0.35353914
0000a0 63 6a 0f 3d a3 e3 fc 3d 41 4f 37 be 4f 83 61 be
       0.035013568 0.12348106 -0.17901327 -0.22022747
0000b0 25 00 ed 3e 0e 27 49 be 5c 38 9b be d2 4b 3a be
       0.46289173 -0.19643804 -0.30316436 -0.18192986
0000c0 15 c0 90 3e 61 07 c1 3e 4f 1a 0f 3e 70 2b 66 be
       0.28271547 0.37700942 0.1397488 -0.22477508
0000d0 34 23 d8 3e 90 a9 01 bf bf e9 7d 3d a0 de b3 3d
       0.42214358 -0.50649357 0.061990496 0.08782697
0000e0 6c 9a a4 bc e8 31 a2 be d4 56 97 3e c9 f6 5b be
       -0.020093165 -0.316787 0.29558432 -0.2148086
0000f0 a7 42 24 3f 94 f6 a7 be 21 64 ab be 3a 64 4d be
       0.64164203 -0.32805312 -0.3347483 -0.20057765
000100 16 93 a0 bd b1 f3 23 be e9 a3 98 be 99 13 03 3e
       -0.078405544 -0.1601093 -0.29812554 0.12800445
000110 59 90 30 be a6 c4 5c 3d ba 32 99 3e b8 09 48 be
       -0.17242564 0.053898476 0.29921514 -0.19534957
000120 05 3f 99 be d1 68 30 3e 08 8c 7e be 08 55 7d be
       -0.29930893 0.17227484 -0.24858105 -0.24739468
000130 74 23 99 be 1f da 83 3d 7d 8a 5e be 15 8d 88 bb
       -0.2990986 0.06438088 -0.21732517 -0.004167209
000140 ff 0e 0b 3c a9 2e 37 be 5a a8 b4 3e 4b ac 0a be
       0.008487462 -0.17888893 0.35284692 -0.13542287
000150 c8 c5 82 3d 23 22 80 bd 4d 73 11 3d 0b d4 d8 be
       0.0638538 -0.06256511 0.03551035 -0.42349276
000160 f8 c0 25 bd 4e 25 07 bd fd 7a e2 3d 7e 52 a9 bc
       -0.040467232 -0.03299456 0.110586144 -0.020669218
000170 ec 46 b5 be 80 0d 40 be d3 19 68 3d a5 bf 77 3e
       -0.35405672 -0.1875515 0.056665253 0.241942
000180 38 e6 da bd 9b c8 44 3d 82 28 cd be c3 b7 7e 3e
       -0.10688442 0.048042875 -0.40069968 0.24874787
000190 10 7d 58 be 5c 06 41 3e 7d 6b e5 3d ea 01 39 3e
       -0.21141458 0.18850082 0.112021424 0.18067136
0001a0 1a d2 97 3e ca 48 c4 be a0 81 44 bd 0f 38 7c 3e
       0.29652482 -0.38336784 -0.047975183 0.2463076
0001b0 f2 c3 34 be b3 64 fb 3d 35 80 0d 3e 14 db 16 3c
       -0.17652872 0.12275066 0.13818438 0.009207506
0001c0 67 31 bd 3d 5a 68 58 3e c4 e8 a4 3e c5 4f ee 3e
       0.092379384 0.21133557 0.32208836 0.46545234
0001d0 43 33 09 bd 9c bc 06 3e a2 4f a5 3d 74 8c e7 3c
       -0.033496153 0.13157886 0.080718294 0.028265215
0001e0 89 d5 34 3c 4d 14 fc bd 73 4b 98 3e bc 3d c0 3d
       0.011037239 -0.123085596 0.29745063 0.09386775
0001f0 02 ca 9e 3d f1 c3 f1 bc 38 14 f6 bd e5 d9 e6 3d
       0.07753374 -0.029512377 -0.12015575 0.11272029
000200 b9 5c 90 3d 2f 7d c6 bd ee 3f 47 3e bd d8 9c be
       0.070489354 -0.096918456 0.19457981 -0.30634108
000210 8e de 18 be 6a 25 85 be 75 b7 6d 3e c3 41 26 3e
       -0.14928648 -0.26005107 0.23214515 0.16236024
000220 a0 1d 39 be 83 b3 be 3d e1 dc 3f 3e a8 19 84 3e
       -0.18077707 0.09311583 0.18736602 0.25800824
000230 cd b7 83 bd 34 d0 8f 3e 70 9f 8b 3e 11 e6 63 bd
       -0.064315416 0.28088534 0.2727008 -0.05563933
000240 24 8f b7 3d f9 30 3c be 19 3f a6 3d 7d df ce bd
       0.08962849 -0.18378057 0.08117504 -0.10101221
000250 a0 a8 f5 3d d5 70 ec be 17 a4 9f 3d 55 0f 8f 3e
       0.11995053 -0.46179834 0.077949695 0.27941385
000260 3e 4b 81 3e ab b1 77 bd 9f 2b 1e be ac c9 bb bc
       0.25252718 -0.06047217 -0.15446328 -0.022923313
000270 ed 72 01 be 01 99 61 be e5 f4 97 bd ac 59 70 bf
       -0.12641497 -0.22031023 -0.07419757 -0.9388683
000280 28 71 d0 bd ed 83 be be ce 5e 0c bf 68 6a 01 bf
       -0.10177833 -0.37210026 -0.5483216 -0.5055299
000290 79 3b 53 bb 02 71 7a 3e fd 54 cc be 0d e2 30 be
       -0.0032231493 0.24457172 -0.3990859 -0.17273732
0002a0 8d 3c 83 be 63 99 c0 3d 5e fa 7b be c0 61 9e bf
       -0.25632134 0.09404256 -0.24607226 -1.2373581
0002b0 9b 5c 46 3e f2 64 45 be 6f 99 4a be 18 12 42 be
       0.19371264 -0.19276789 -0.19785093 -0.18952215
0002c0 8e a4 ac be 51 13 09 3e d3 e0 9f bc 0e dc cd 3d
       -0.33719295 0.13386275 -0.019516384 0.10051738
0002d0 bb 7c a7 3d 9e 80 f5 bd d7 32 b5 3d ab 60 8f 3d
       0.08178087 -0.119874224 0.088475876 0.0700086
0002e0 6e a8 f9 bd 4a b3 50 3e 92 5e 7a be 66 f7 57 3d
       -0.121903285 0.20380893 -0.24450138 0.052726172
0002f0 40 8f 62 3e ee ec 1f 3e 12 e4 d0 3e 50 9f 4a 3a
       0.22124958 0.15617725 0.40799004 0.0007729428
000300 11 e4 46 3e 4f 2c 9a bd b1 31 5e 3e 05 1e c8 3d
       0.19422938 -0.075279824 0.21698643 0.09771351
000310 d8 95 8b 3e 5c 88 2a 3e 62 48 db be 3f cf 96 3d
       0.2726276 0.1665358 -0.4282866 0.07363748
000320 74 84 ad bd c7 93 79 3e bf 8d 52 3e 31 71 14 3d
       -0.08472529 0.24372779 0.20561884 0.03624076
000330 8e e9 15 be 99 12 86 3e 65 0f 8a be b6 7f 9e be
       -0.14639875 0.26186064 -0.2696487 -0.3095681
000340 e2 c1 31 3f 04 12 a1 3e 2c e8 82 bf 30 f2 68 be
       0.69436467 0.31459057 -1.0227103 -0.22748637
000350 96 65 44 3c 05 20 00 3e 27 a1 9a 3c d0 aa dd bd
       0.011987111 0.12512214 0.018875672 -0.108235955
000360 2a c3 24 3d 4d f4 33 be 8a d0 0b be 9e 9e ca be
       0.040225185 -0.17573662 -0.1365377 -0.3957414
000370 f4 c0 5a 3e 24 10 d2 be eb 2d 4e be 9b 59 67 bc
       0.21362668 -0.4102794 -0.20134704 -0.014120485
000380 8b f9 50 3d ad cf 8f be 4d 0f 3f 3c 86 02 b9 be
       0.051019233 -0.28088132 0.011661363 -0.36134738
000390 58 a5 d6 bd b0 0a 2d bf e1 40 12 bc d6 c9 a8 be
       -0.104807556 -0.6759443 -0.008926601 -0.3296649
0003a0 31 74 06 3d 96 88 b4 be 55 13 dd 3d db fc fe bd
       0.032825653 -0.35260457 0.10794703 -0.12450572
0003b0 78 c0 be 3e 3a bb b7 bb 9f bb d4 bd e4 43 2c be
       0.37256217 -0.005607036 -0.103873484 -0.16822773
0003c0 5d 76 d5 3d a5 01 cd 3d 36 ff c4 bc 1b 06 3b bc
       0.10422967 0.10010079 -0.024047475 -0.01141503
0003d0 b0 79 0c be 42 86 86 be 0a b0 ce bd ba 1a 13 be
       -0.13718295 -0.26274306 -0.100921705 -0.14365664
0003e0 86 ab 36 be 32 dc 55 be f9 09 db 3d e2 b1 3d bf
       -0.17838868 -0.20884779 0.106952615 -0.7409955
0003f0 3e 69 8c be e4 8b 33 3d 6d 5f e5 3d 90 57 29 bd
       -0.27424043 0.043834582 0.11199842 -0.04134327

a2c_network.actor_mlp.2.bias f4 [128]
000000 51 a6 b6 bd bf f3 aa 3d e4 8c 7b 3e e7 e6 56 bd
       -0.08918441 0.08347272 0.24565464 -0.0524663
000010 16 93 88 3e 16 43 94 be 97 4d 43 be 1a 5d 24 be
       0.26674718 -0.28957433 -0.19072567 -0.1605114
000020 80 bb 1f bf 6d b7 26 bb e3 ec 0f bf 3e 7c db bb
       -0.6239548 -0.002543892 -0.56220835 -0.0066981604
000030 72 e5 4f be 95 8a be be 2e 41 6d be de 30 2a be
       -0.2030237 -0.37215105 -0.23169395 -0.16620204
000040 bc 08 81 bd e9 de 01 bd 7a 72 df bd cc d0 c3 be
       -0.06300494 -0.031706724 -0.109105065 -0.38245237
000050 57 7d d7 3b e8 fc cf bd 38 59 af be b7 30 28 3e
       0.006576221 -0.1015566 -0.34247756 0.16424833
000060 1d 49 17 be c1 cc 5c bd 9e 63 82 be cc e3 3e bf
       -0.14773984 -0.053906206 -0.25466627 -0.7456634
000070 b6 a6 4d be 7c 05 fd 3c cf 0d 22 bb 5a 9c 35 bf
       -0.20083126 0.030886404 -0.002472747 -0.709417
000080 0d 35 58 be c9 ae c1 be 4d 67 b1 be ac 38 14 3e
       -0.21113987 -0.37828663 -0.34649125 0.14474744
000090 31 10 9d be e8 53 1a bf 35 23 4b be d2 8c 2e bf
       -0.30676416 -0.6028428 -0.19837649 -0.68183625
0000a0 47 65 90 3d e0 bb c9 bd ba 77 68 bc ce 3d b3 be
       0.07050567 -0.098502874 -0.014188701 -0.3500809
0000b0 b8 2d 56 bd cf c9 95 3d 00 72 b3 be eb 62 0d 3c
       -0.052289695 0.073138826 -0.35047913 0.008629541
0000c0 86 59 55 be 62 5b 04 bd d7 bd 54 be 75 8c 66 bb
       -0.20834932 -0.032313712 -0.20775543 -0.0035178934
0000d0 a0 59 a7 3d 29 cd 1a bd cf ad 30 3e a2 f8 c6 bd
       0.081713915 -0.037793312 0.17253803 -0.09715392
0000e0 7a e2 b4 be d1 cb 95 be 42 bc 83 be 63 81 96 be
       -0.35329038 -0.29257062 -0.25729567 -0.2939559
0000f0 b4 17 78 3d 19 55 53 be 49 1a 5f be ad eb 1f 3d
       0.06056948 -0.20637931 -0.2178737 0.039043117
000100 40 14 0f be 09 26 8b 3d 83 09 7c bd 7c c7 1d bf
       -0.13972569 0.06794364 -0.06153251 -0.61632514
000110 b8 e1 b9 3c 54 bb 8e be 88 f4 a1 3d 19 d2 8a be
       0.022690639 -0.27877295 0.07907969 -0.27113417
000120 9a 63 1e bf ba 2f ff be 6f 72 15 3d 24 c9 9f bd
       -0.6187073 -0.498411 0.036486086 -0.078020364
000130 b7 2b a6 be 4d 61 ba be 8e f3 0d be 8e 36 84 be
       -0.32455227 -0.3640236 -0.1386244 -0.25822872
000140 45 d0 46 bf 5a 7d 7c be b4 cc 9d 3d b1 d3 04 3d
       -0.77661544 -0.24657193 0.0770506 0.032428447
000150 98 f9 fb be 5d 57 f6 be 56 bb e1 be 5e 89 cd be
       -0.49213862 -0.48113528 -0.44088238 -0.40143865
000160 fc f1 fb bd 24 4b e2 be 60 4e aa be 19 a6 0e be
       -0.12302014 -0.44197953 -0.3326292 -0.13930549
000170 6b 00 54 be 73 ad 3c be c9 61 9a be 7c 5f 1c 3e
       -0.20703284 -0.1842554 -0.3015273 0.152708
000180 a2 de 1f bb b4 6b ad 3d 46 f2 d9 bd 1a 2c 5b 3c
       -0.0024394174 0.08467808 -0.10641913 0.013377214
000190 6d 91 aa be c7 51 a2 be ea df ca 3d 81 b1 17 bd
       -0.33314076 -0.31703016 0.099059895 -0.037034515
0001a0 9f 07 80 be 3a 58 b8 be 39 b2 2e be fd 40 01 bc
       -0.25005814 -0.36004812 -0.17060174 -0.00788903
0001b0 f8 cb 0a bf 0e 10 c4 bd ac 4c 3f 3e ca f8 e5 bc
       -0.5421748 -0.09573375 0.18681592 -0.028072733
0001c0 45 51 db be de 42 49 be 70 2d f1 3d dd 04 c3 be
       -0.4283544 -0.19654414 0.11776245 -0.38089648
0001d0 2e d9 d5 bd de 79 07 bf 8e 4a 03 3e 73 f5 42 be
       -0.10441814 -0.5292033 0.12821409 -0.19038944
0001e0 1e 82 d7 be ee de 9d be 4f e3 45 be ff 26 fc bb
       -0.4209146 -0.30834144 -0.19324993 -0.0076950784
0001f0 fb e9 76 be a7 c6 8b 3c 77 fd a3 be d5 93 83 bd
       -0.24112694 0.017062498 -0.32029316 -0.06424681

a2c_network.actor_mlp.4.weight f4 [64, 128]
000000 a6 b2 84 3c b9 76 7f be b9 1b b7 bb 9d f1 7d 3d
       0.016198467 -0.24947633 -0.0055880216 0.061998
000010 13 09 11 bf 17 6d 78 3d 50 f6 04 3e ca 23 30 bd
       -0.5665447 0.06065091 0.12984586 -0.04300288
000020 25 ac 23 3e 7b 87 0a 3e d4 ca 8e bc b7 8d 9e 3d
       0.15983637 0.13528244 -0.0174307 0.07741874
000030 b6 43 0a be 40 85 5a be 9e 6d 43 be f5 5c af 3c
       -0.13502392 -0.21339893 -0.19084784 0.02140663
000040 28 cc 61 3d 5e 4d b4 bd 6e 59 01 3e 21 6a 72 bc
       0.05512634 -0.08803819 0.12631771 -0.014795811
000050 02 b4 83 bd 66 4e 89 bd 75 8f 5e 3d f4 a1 de 3d
       -0.06430818 -0.067044064 0.05433603 0.10870734
000060 c0 20 22 3e 9e 42 b3 bd 60 b0 40 bd 31 2f f5 3d
       0.15832806 -0.087529406 -0.047043204 0.11971892
000070 3e 56 a8 bd 2f 32 da bd 6b ae ea 3b a0 91 f1 3d
       -0.082195744 -0.10654103 0.0071619055 0.11795354
000080 ac 7c 93 3a 1e 31 8c bd bf 01 d0 bd 13 90 48 bc
       0.0011252365 -0.06845306 -0.10156583 -0.012241381
000090 63 cf 9b 3c 39 89 88 3c fa 48 40 bd 41 4f fa 3d
       0.019019788 0.016666995 -0.046944596 0.12222148
0000a0 04 e8 bc bd 35 0f 29 3d d6 81 e0 bd 74 04 3c bd
       -0.09223941 0.04127427 -0.10962264 -0.045902684
0000b0 89 b7 40 be 56 a2 d0 3d c2 99 4a bc ab 96 a7 bd
       -0.18820013 0.10187213 -0.01236576 -0.081830345
0000c0 e4 8b d4 3d 70 ee 14 be 1e 0a da bd f1 d6 bb bd
       0.103782445 -0.14544082 -0.10646461 -0.09171856
0000d0 5d 67 cf 3c 5b b8 8a bd a1 2e 58 be 31 6c c8 be
       0.025317842 -0.06773444 -0.21111538 -0.39145043
0000e0 b7 6c 32 3e e6 cc f9 3d 78 c3 59 3e 3e 9b 50 3e
       0.17424284 0.121972844 0.21265972 0.2037172
0000f0 05 16 be 3c 42 63 46 bd 1e 3c 52 bd 1a ea d4 3c
       0.02320386 -0.048434503 -0.051326863 0.025990535
000100 58 76 fb 3c d1 60 50 be 54 f8 a2 3d eb 46 e2 3d
       0.03069608 -0.20349433 0.07957521 0.11048683
000110 59 7f 89 be 4f 11 28 3d f3 4e 75 be 37 90 26 be
       -0.2685497 0.04103213 -0.23955898 -0.16265951
000120 94 05 61 3e 67 11 97 bd ef 75 bb 3d 4e 21 d5 bd
       0.21974784 -0.07376366 0.091533534 -0.10406743
000130 4d ee a9 3d a2 84 c8 3d 02 22 0e be 9d 55 aa 3d
       0.082974054 0.09790923 -0.1388016 0.08317111
000140 2b b9 ef bb 74 c7 11 3d d0 61 f4 bd 5d 46 0e bd
       -0.007315775 0.035590604 -0.11932719 -0.034735072
000150 88 8f 0b 3e 99 bc e3 3d 34 75 03 3e e6 b0 35 3d
       0.13628972 0.111199565 0.12837678 0.044358157
000160 17 3d af 3d 30 74 3f 3e de 27 65 bd cb 36 94 bb
       0.08556574 0.18696666 -0.055946223 -0.0045231334
000170 6c 3f 14 bd 56 ca 67 bd d4 e7 4b bc f1 fb 8b 3d
       -0.036193296 -0.056589447 -0.012445409 0.068351634
000180 33 13 72 3d 0e 90 05 3e e1 39 c9 bb ba 06 51 be
       0.05910034 0.13043234 -0.006140933 -0.20412722
000190 b1 a2 10 3e c2 2d 4b 3e f1 24 1f 3d 99 e4 73 3e
       0.14124562 0.19841674 0.03885359 0.23817672
0001a0 61 bc fc bd 7d 7d e6 3d 61 c9 5a bd df 35 28 3e
       -0.12340618 0.11254404 -0.053414706 0.164268
0001b0 aa 49 27 3e 00 fe 84 bd ae 83 d6 3d 49 b7 e6 3c
       0.16336694 -0.06493759 0.10474335 0.028163569
0001c0 fb 25 b6 3d 05 93 50 bc a3 b4 04 bd 1a 9d a5 bc
       0.08893963 -0.012730365 -0.03239883 -0.020216513
0001d0 39 cc a5 3d a0 29 b5 3d 68 3c fa bd 18 74 8d bc
       0.08095593 0.0884583 -0.12218553 -0.017267272
0001e0 31 3e f4 bd 7b d9 98 bd 86 94 81 3d 75 e3 08 bd
       -0.119259246 -0.07463356 0.06327157 -0.033420045
0001f0 ff 31 79 ba de 46 77 be d2 b2 66 bc b3 6a de 3d
       -0.0009506046 -0.24148127 -0.01408072 0.10860195
000200 2e c8 52 3d 42 f2 9a 3d d1 cb 23 be 02 65 cc 3d
       0.051460437 0.07565738 -0.15995719 0.09980203
000210 54 35 a1 be 8d 2e 8e be 36 0a 8e bd 29 8e 17 3d
       -0.31486 -0.2776989 -0.06935541 0.03700081
000220 a6 f6 62 3e 88 f5 f7 bc 30 a6 2f bd a0 c5 e6 3d
       0.22164401 -0.030268446 -0.042883098 0.11268163
000230 21 21 b1 ba 76 cc 62 bd bd 9e 6b be cd e1 91 3b
       -0.0013513902 -0.05537077 -0.23009773 0.0044519664
000240 41 fc fa bc 71 0c 81 bc 46 ca 30 3d 13 ca b3 bd
       -0.030637862 -0.015753003 0.043161653 -0.08778777
000250 26 a3 07 be 50 8f 45 3d 70 94 1e 3d 46 b4 be bd
       -0.1324583 0.048232377 0.03871578 -0.09311728
000260 64 67 9e 3d 9b ca 6a bd 97 93 23 bd f8 30 16 bd
       0.07734564 -0.057322126 -0.039935675 -0.036667794
000270 c0 ff 86 bc e9 d1 8e bd ab f0 28 be c9 91 cd 3d
       -0.016479373 -0.06973631 -0.16498058 0.10037572
000280 2b a3 42 3d 14 b4 e8 3d 92 f9 fd be 01 f1 09 be
       0.04751889 0.11362472 -0.4960447 -0.13470842
000290 32 a1 61 be 91 c0 33 3b d5 17 09 3e 60 37 7f 3e
       -0.22034147 0.002742801 0.13387997 0.24923468
0002a0 ab b7 73 3d 83 15 52 be 0b 99 70 3e b8 63 55 3e
       0.05950133 -0.20516019 0.23495881 0.20838821
0002b0 50 52 97 bd 8e 1b c5 3d e5 17 ee bc 60 6c c3 be
       -0.07388747 0.09624396 -0.029064128 -0.3816862
0002c0 79 1e 6d bd e6 a4 b3 bd f6 ea 82 3d 98 72 c8 bd
       -0.05789039 -0.08771686 0.063924715 -0.09787482
0002d0 29 30 46 bc b2 fe f6 bd 05 72 88 3d 2a d7 86 be
       -0.012096443 -0.12060298 0.066623725 -0.26336032
0002e0 03 ab 5f 3d fa 86 33 3d 92 ce 8a 3e 21 c7 49 3e
       0.05460645 0.043829896 0.27110726 0.19704868
0002f0 13 a4 e4 bd da d4 d7 bd 3d 2d 5e bd 13 8b 0c 3c
       -0.11164107 -0.10538645 -0.05424236 0.00857808
000300 ad b7 2d 3d d7 58 19 be 3e 40 3e bd 92 80 37 3e
       0.042411495 -0.14975296 -0.046447985 0.1792014
000310 5c 82 fd bc ac 0b 1c bd d9 bb a3 3c 08 aa 7a bd
       -0.03094595 -0.03809707 0.019987034 -0.06119731
000320 36 5f fb bd f1 13 e2 bc 7e 36 9e 3d 90 62 4a 3d
       -0.122740194 -0.0275974 0.07725237 0.049410403
000330 0d 80 34 3d 41 1b 82 3e 3e 72 23 bd 0c c8 f7 3d
       0.04406743 0.25411418 -0.03990387 0.12098703
000340 0e 33 65 3e 63 53 42 3e a3 a0 f0 3d f2 d6 09 bd
       0.22382757 0.18977122 0.11749389 -0.033652253
000350 52 a8 95 bb ba 46 0b 3e 44 24 86 be 68 d0 ae 3d
       -0.0045671845 0.13601199 -0.26199543 0.08535844
000360 69 3b e8 3d ab 0a a3 bd f4 50 02 be 6d 70 60 be
       0.113394566 -0.07961019 -0.12726194 -0.21917887
000370 2e 82 ec bb a3 6d 87 bd da ac 87 bd 19 1b 7a bd
       -0.007217667 -0.066127084 -0.06624766 -0.061061
000380 95 81 45 3d a0 f8 b7 3d dd 3b a9 3d ae 7e 00 3e
       0.048219282 0.08982968 0.08263371 0.12548324
000390 2c e4 67 3d b0 44 7a bd b4 44 88 bd ab 6f ce 3d
       0.056614086 -0.06110066 -0.06653729 0.10079893
0003a0 3a 84 2d 3d fb ee 57 bd 3d 2c 8a 3c 62 a3 ee 3d
       0.04236243 -0.052718144 0.016866798 0.116522565
0003b0 7c ab e2 3d 09 c6 0a be c6 89 99 3d 25 27 a6 bc
       0.11067864 -0.13552107 0.07496981 -0.020282337
0003c0 b0 e6 09 be 87 00 a2 3c 27 f4 a4 bd 0e e1 2b bd
       -0.13466907 0.019775642 -0.08054381 -0.041962676
0003d0 53 3a 3e 3d ce 54 00 3d 2f 74 ae be 47 b3 6b bd
       0.04644234 0.031330876 -0.34073016 -0.05754402
0003e0 13 90 8d 3d 2f e3 e4 3d c4 b4 2f be 37 07 ad bd
       0.069122456 0.11176144 -0.171588 -0.08448642
0003f0 12 03 07 3b 2f ef ca 3c 79 e1 b4 3b 4b 98 ab 3d
       0.0020601195 0.024772255 0.0055200425 0.08378657

a2c_network.actor_mlp.4.bias f4 [64]
000000 d0 e7 4f be 81 1d 88 bd 11 86 3d be 43 37 a1 be
       -0.20303273 -0.066462524 -0.18508174 -0.31487474
000010 79 75 a6 bd 9b c6 21 bd 03 cf ce be e6 b9 11 bd
       -0.08127875 -0.039496046 -0.40392312 -0.035577677
000020 11 53 0c bf d9 af 2a be 1c 7d 18 be de 46 be bd
       -0.5481425 -0.16668643 -0.14891475 -0.092908606
000030 78 d1 1d bc 58 78 b3 bd d7 1e 45 be 90 57 1d bf
       -0.009632461 -0.08763188 -0.19250046 -0.61461735
000040 74 46 9c ba d6 29 23 be c3 ae 2c bd 0f 7f b1 be
       -0.0011922852 -0.15933928 -0.042158853 -0.3466725
000050 17 94 e2 bd ce e6 d9 bd f4 e4 d0 be 0d 48 4b be
       -0.11063402 -0.106397256 -0.40799677 -0.19851704
000060 50 2c ce be 8e 0b 86 be 76 c1 f7 bd b0 fd 0f 3d
       -0.40268183 -0.2618069 -0.120974466 0.035154045
000070 ba b5 d4 be 1c 49 01 bf 8c 9f fc bd 3c e2 bf 3c
       -0.41544896 -0.5050218 -0.12335119 0.023423307
000080 88 43 bb be aa 5f 1a be 97 c8 93 bd 3e b6 bd bd
       -0.3657496 -0.15075555 -0.07215994 -0.092632756
000090 9a c1 bc 3d 72 25 f6 be ec 40 5f be 28 e8 cf bc
       0.09216614 -0.48075444 -0.2180211 -0.025379255
0000a0 31 c9 bd bd 91 96 a8 3d 6e a8 96 3c a9 f7 ad be
       -0.0926689 0.08231843 0.01839086 -0.33978012
0000b0 f8 d4 06 be 47 b0 8a be 75 33 1a 3d 1f 27 1a be
       -0.13167179 -0.27087614 0.03764673 -0.15053986
0000c0 54 18 8f be 46 e5 10 bd 00 5a 9d be 4c be 90 be
       -0.27948248 -0.035374902 -0.30732727 -0.28270185
0000d0 48 0f df be ee 62 84 be e6 15 c3 bb 14 57 4d be
       -0.43566346 -0.25856727 -0.005953538 -0.20052749
0000e0 93 df 73 3d 13 fd 0f 3d 58 3b a2 be 49 3b ad bd
       0.05953939 0.03515346 -0.316859 -0.08458573
0000f0 c8 a3 9c ba 28 4f 11 be 9b 59 19 be b9 11 be bc
       -0.0011950666 -0.14190352 -0.14975588 -0.02320181

a2c_network.value.weight f4 [1, 64]
000000 84 0b b3 bc 5b 7b 43 bc 70 cf e5 ba ce 55 ed bc
       -0.021856077 -0.011931266 -0.0017533135 -0.028971579
000010 ab 6c d7 bc bf f6 27 3c a4 94 ad bc 6c 25 60 be
       -0.026296934 0.0102517 -0.021189041 -0.21889275
000020 e1 5e 16 3c 49 26 9d 3e 76 da 09 bd 44 d2 6c 3a
       0.009177894 0.30693272 -0.033655606 0.00090340176
000030 6a 2f 63 bb 1c 98 59 3d ec c8 42 bb 1c 8a bb bd
       -0.0034665712 0.05312358 -0.002972181 -0.09157202
000040 23 70 e4 3c 4f 6e 42 3c 9b 5c 8d bb 3b b3 0a 3c
       0.027885502 0.01186712 -0.004314018 0.008465583
000050 0f 33 d3 3c ce f3 31 3f 54 7e 7b bd d8 8b ab 3c
       0.025781183 0.6951264 -0.061399773 0.020940706
000060 23 05 61 be 7f 33 0d bc b9 a9 7e bc 4d 99 ab bc
       -0.21974616 -0.008618235 -0.015543395 -0.020947123
000070 df a1 a2 be 7b ab 8f be b8 82 dd 3a 81 fe e7 ba
       -0.31764123 -0.28060517 0.0016899919 -0.001769975
000080 95 e2 45 3c bc 5d 5a 3c 89 4c a8 bc 2f 4a 60 bc
       0.012077947 0.013328012 -0.020544307 -0.013689562
000090 60 0e 3a 3c 0f 52 10 be 32 e3 9a 3e 95 47 7b 3c
       0.011355966 -0.14093803 0.3025146 0.015336891
0000a0 8b c9 ce 3c d9 c9 59 3f db 73 7d bc 36 4e 18 bd
       0.025242588 0.8507362 -0.015469517 -0.037183963
0000b0 d5 03 77 bc d2 48 22 be cd 91 22 3b a3 ca b7 bc
       -0.015076597 -0.15848091 0.0024806142 -0.022435492
0000c0 04 18 44 3d 5f b4 f8 3b 21 66 c6 bc 58 77 8a bd
       0.047874466 0.0075898613 -0.02421862 -0.06761044
0000d0 b6 e0 88 bd 90 3b 85 3d 90 39 91 3c 0f 37 2d bb
       -0.06683485 0.06505501 0.017727643 -0.0026430523
0000e0 39 52 3e 3c d6 81 c2 3c fc e9 0a be c8 be 03 bc
       0.011616283 0.023743551 -0.1356582 -0.008041091
0000f0 d6 28 c4 3c 32 3a 65 bd 3c cd a0 bb 31 d4 0e bd
       0.023945253 -0.055963702 -0.0049072783 -0.03487033

a2c_network.mu.weight f4 [12, 64]
000000 a5 f5 4b bd e7 ee 15 bd b9 d9 80 bd 12 16 d2 bd
       -0.04979481 -0.03660479 -0.06291527 -0.10258116
000010 3c 72 cc 3c 16 b2 8f 3b a6 07 47 bd 09 bf 16 3d
       0.024956815 0.004385243 -0.04859128 0.03680328
000020 2d 8b 05 be 0a d8 49 bc ea 24 82 3c 90 29 46 bd
       -0.13041373 -0.012319574 0.015886743 -0.04837948
000030 f6 03 13 3e 93 a2 de 3b ee 6f 8f 3d 27 f8 97 bd
       0.1435698 0.0067942827 0.07003771 -0.07420378
000040 a8 45 e4 3c 7b df 71 bd 8e 70 9e 3d a7 ef 23 ba
       0.027865246 -0.05905102 0.07736312 -0.00062536675
000050 02 97 98 3d cc 03 54 3c 94 dd 1f be eb 0d a8 3c
       0.074506775 0.012940358 -0.15611869 0.02051445
000060 b5 ca 4d be 2d 26 cb bd 41 a2 53 3c ff 0a 05 3d
       -0.20096858 -0.09919391 0.012917102 0.03248119
000070 6d 14 49 bc 2b ab 0d be 84 19 b7 bc 07 58 08 3d
       -0.012272936 -0.13834827 -0.022351034 0.033287074
000080 e4 23 b4 bd 27 7c 0e 3c 25 b5 35 3c 6f b6 ab 3c
       -0.08795908 0.008696592 0.0110905515 0.020961015
000090 d9 1a 97 3b 76 65 24 be 08 8c c5 3b 25 62 bc 3c
       0.004611355 -0.1605433 0.006028656 0.022996018
0000a0 92 04 1f 3c 04 ec f8 3b 2d ec c6 3c 8d 1f 41 3d
       0.0097056795 0.0075964946 0.02428254 0.04714923
0000b0 d5 d9 8e bd a8 f0 29 be 06 4b 8b 3b ae b4 1c bd
       -0.06975142 -0.1659571 0.004250887 -0.038258247
0000c0 15 19 04 be e0 9d c4 3d 65 09 2b bd 34 2c 11 bd
       -0.12900193 0.09600425 -0.041757006 -0.035442546
0000d0 31 cc 41 be a2 44 8c bc f3 fc 85 bc 4a a3 a9 3d
       -0.18925549 -0.01712257 -0.016355967 0.08283098
0000e0 c9 9b a7 bc e0 c3 bd bc 2f 16 db bd 6e b8 c1 bb
       -0.020460026 -0.02316469 -0.106975906 -0.0059118783
0000f0 c0 5a f1 3c 7b 15 96 3c 75 22 af bb ff e2 22 3d
       0.029462218 0.01832079 -0.005344684 0.03976726
000100 18 2b fc bc 60 f0 1f 3e 3e fc 03 3e 01 82 33 3d
       -0.030782267 0.1561904 0.12889192 0.043825153
000110 c4 29 a1 3c 7d 4e b2 ba ed f6 20 bd 60 04 82 bd
       0.019673236 -0.0013603714 -0.039297987 -0.06348491
000120 f4 24 ba bd 1f ed 31 bd 8f cd dc bc 7f 3d 09 3c
       -0.090890795 -0.043439027 -0.026953487 0.008376478
000130 80 39 1b 3d 45 be 04 3c 18 4d 76 3c d8 af a3 3d
       0.037896633 0.008102004 0.015033029 0.07992524
000140 e9 00 38 bd 43 15 7a 3c 83 2a 9a 3d 4a 74 6a 3d
       -0.044922743 0.015263858 0.0752764 0.05723981
000150 a1 ab b8 bc 10 0e ec bb 8a 4c 00 bd c1 f2 18 bd
       -0.022542777 -0.007203825 -0.031322993 -0.037340883
000160 b0 52 a0 3c ae 4e e3 bc 53 67 44 3c a9 80 14 3c
       0.019570678 -0.027747478 0.011987525 0.009063878
000170 e3 02 5e 3d d1 f2 1d 3e 83 15 84 3a 19 11 3d 3c
       0.05420197 0.15424658 0.0010077212 0.011539721
000180 29 15 21 3d 19 f6 91 bc 4d 28 1b bc 76 74 94 3d
       0.03932682 -0.017817544 -0.009470058 0.07248776
000190 81 a4 aa bd b2 8d 0b 3c cc 4f 19 bd 54 7a 97 bb
       -0.08332158 0.0085176695 -0.037429616 -0.004622737
0001a0 87 a6 7a bc 35 53 87 3d 54 79 4d 3d 79 ba 28 3d
       -0.015298492 0.06607667 0.050164536 0.04119346
0001b0 2d b1 a8 bd df c3 0b 3e fa c1 47 bd 7a 5a 1f 3b
       -0.082369186 0.13648938 -0.048768975 0.0024315403
0001c0 87 e0 12 3c 07 6e 7a 3e e6 07 92 3d dc da 9f 3c
       0.008964664 0.24456035 0.07130413 0.01951354
0001d0 44 75 b4 bc 86 c3 81 bd 66 d8 d7 3c ea 60 d4 3c
       -0.022028573 -0.06336121 0.026348304 0.025925118
0001e0 8f 37 33 3d 83 ef 1d 3a e6 6e 50 3d bd 11 c8 3c
       0.043754157 0.0006024765 0.05088701 0.02442252
0001f0 0b 90 a1 3d 18 e1 85 3a 0f ba d9 bb 24 35 15 bd
       0.07888802 0.0010214178 -0.0066444944 -0.036427632
000200 09 4f 0f 3d 7f b5 1a bc 9d 17 53 bb fb 2f da 3c
       0.034987483 -0.009442686 -0.003221012 0.026634207
000210 02 9b 8f 3b 39 b5 7c 3a fb b3 a3 3c 3b d1 3a bc
       0.004382492 0.00096400414 0.019983282 -0.0114024235
000220 10 bf 8b 3d 10 74 18 3b 99 c0 20 3c 90 5b f1 3c
       0.06823552 0.0023262538 0.009811544 0.029462606
000230 65 c5 52 3c 66 01 86 ba 00 a6 a8 3b e3 c1 f6 3d
       0.012864445 -0.0010223805 0.005146742 0.120487
000240 fa 6b 3c 3c 12 85 f0 3b 01 e5 b7 bc 43 cf a7 3c
       0.011500353 0.007340082 -0.022448065 0.020484572
000250 69 e1 a9 bb dc 7f 35 bb c5 06 32 3d 82 4a 05 3c
       -0.0051843417 -0.0027694618 0.043463487 0.00813544
000260 5b cd 15 3d 5b 0e b1 3c f0 4a 44 3a 35 23 3c bc
       0.036572795 0.02161329 0.0007487973 -0.011483003
000270 90 be 6f bb f7 b4 06 3d 2c 21 00 3c 08 8e 1a bc
       -0.003658209 0.032887425 0.007820409 -0.009433277
000280 2a 9b b5 3a a5 23 cb b9 df a6 3e bc 21 3d af 3b
       0.0013855447 -0.00038745734 -0.011636465 0.0053478633
000290 d4 bf e3 bc 6a 6f b2 3d 1d ff f3 3b 90 88 fa 3a
       -0.027801432 0.08712657 0.0074461834 0.0019114185
0002a0 ac bc 43 3b 2f 94 0b bc 5d 6e 45 bb 5a 4e cc 3c
       0.0029867096 -0.008519216 -0.0030125596 0.024939705
0002b0 95 70 95 bc d3 e7 35 3d ae 71 28 3b c6 45 e2 bc
       -0.01824216 0.044410538 0.0025702524 -0.027621161
0002c0 46 ae 4f 3c 5b 20 ec bc fb 78 2d 3d 1c f0 99 b9
       0.012675827 -0.028824022 0.042351704 -0.0002936133
0002d0 05 7e b4 3d 73 34 b6 3c 3b 52 2b 3c 07 81 c1 3c
       0.08813099 0.022241807 0.010456617 0.023621095
0002e0 6c c4 9b 3b b4 71 42 3a b1 fb 8a 3d c9 5f 8e bb
       0.00475364 0.0007417456 0.067862876 -0.0043449146
0002f0 55 92 8f bb ab e9 8e 3b 77 82 78 bb fc e0 4b 3a
       -0.004381458 0.0043613515 -0.003791956 0.0007777361
000300 2d 70 b8 3d 99 34 21 3b 6a ae ab 3d ba a3 43 3e
       0.09005771 0.0024598 0.08382876 0.19105425
000310 bd 2c 68 3d ae c2 7e bb 59 dc 9f 3d e7 98 ef 3c
       0.05668329 -0.0038873362 0.078057 0.029247714
000320 d4 50 8b 3d 75 f2 06 3d c7 55 81 3c 99 b5 b8 bb
       0.06802526 0.03294607 0.015787972 -0.0056368825
000330 6e 42 83 bd 2b ad 94 bc 9e 1c 46 3d ed fd fb 3d
       -0.06409155 -0.01814898 0.048367135 0.12304292
000340 4e 37 8d bc d5 c2 eb 3d 4c a5 10 3d ed 88 0f 3e
       -0.017238285 0.11511771 0.03531389 0.14017077
000350 94 40 51 3b 99 61 fc 3c 30 ff cd 3d 81 45 58 3c
       0.003192936 0.030808257 0.10058439 0.013200165
000360 03 2b 48 bd 54 4f 0a 3b 0f 63 d8 ba 9e 98 ee bd
       -0.048869144 0.0021104412 -0.0016509014 -0.11650203
000370 df 85 47 3d 5d 54 d8 3d 22 ce b4 bc 91 c0 9b bd
       0.048711654 0.10562966 -0.022070948 -0.076050885
000380 ac 9b c0 bc e5 9e 14 bd f2 38 df bc b8 71 49 bd
       -0.02351173 -0.036284346 -0.027248833 -0.049180716
000390 59 9a 1a bd d8 d1 28 3e 44 0f 2e bd 3f 09 dc bc
       -0.037744854 0.16486299 -0.042495027 -0.026859878
0003a0 29 bc 1f bb 1f 20 89 bc c5 3f 2f 3c 39 6b a7 3c
       -0.0024373627 -0.01673895 0.010696356 0.02043687
0003b0 e5 cd 29 3c ed df 27 3d 44 6b 4b 3d 5b d7 41 3b
       0.0103640305 0.040985037 0.049662843 0.0029577825
0003c0 ff ba 9e 3d 81 59 9a 3d 33 74 26 3e bd d2 60 3d
       0.077505104 0.07536603 0.16255264 0.054888476
0003d0 34 35 37 3e 27 d6 13 3d cd 35 ac bc 4d 1f b6 bd
       0.17891389 0.036092903 -0.021021748 -0.08892689
0003e0 a8 d4 0d bd 14 da 13 bd 08 69 6e 3c 78 56 9e bb
       -0.034626633 -0.036096647 0.014551409 -0.004832085
0003f0 2a 23 8a bd 42 fa 8d bd bd ce 6c ba 8b 49 e8 3b
       -0.06744988 -0.069324985 -0.0009033492 0.007088845

a2c_network.mu.bias f4 [12]
000000 01 d7 44 3e 7a 15 ae 3d de 4f a3 be bb 01 2c be
       0.19222642 0.0850019 -0.3189687 -0.16797535
000010 15 7d aa 3d 54 17 ec bb 9a 1d df 3d 65 c8 a6 3c
       0.08324639 -0.0072049294 0.10894318 0.020359227
000020 e4 ce a4 bd 74 db f7 3d 9d 6f a6 3d f2 27 91 bd
       -0.08047274 0.12102404 0.08126757 -0.07087697

exp_avg f4 [12]
000000 9f 9f 12 3c 5c 79 b0 3c c4 81 8a 3c 33 06 dc 3b
       0.008949189 0.021542244 0.01690758 0.006714606
000010 69 d3 c7 bc 3e f8 88 3c e0 41 75 3c 7b f4 31 ba
       -0.0243928 0.016719934 0.014969319 -0.00067884446
000020 98 4b 21 3c f3 23 1e 3a e5 1d 95 b9 5c 5f e7 3b
       0.009844683 0.00060325785 -0.00028441768 0.0070609283

exp_avg_sq f4 [12]
000000 ab b9 4d 3b d2 07 69 3b 6e dd 72 3b fd 82 76 3b
       0.0031391184 0.003555764 0.0037058252 0.0037614696
000010 49 fb 83 3b 79 ed ba 3b 1d 1a 9a 3b 77 33 8c 3b
       0.0040277583 0.0057045785 0.00470282 0.004278596
000020 21 6a 3c 3b ee 91 62 3b ef f9 80 3b f3 17 71 3b
       0.0028749781 0.0034571844 0.0039360444 0.0036787956
