omniisaacgymenvs/runs/WEE/nn/last_WEE_ep_700_rew_-26388.832.pth (torch, 623514 bytes, 36 tensors)

value_mean_std.running_mean f8 [1]
000000 75 f2 57 e7 3b 0e 40 c0
       -32.11120311540882

value_mean_std.running_var f8 [1]
000000 b7 e0 8f 5b be 68 68 40
       195.27323701954967

value_mean_std.count f8 []
000000 00 00 00 02 00 e0 a5 41
       183500801.0

running_mean_std.running_mean f8 [32]
000000 4b 85 9f 3c e4 aa a3 3f 38 18 b9 ba a1 26 4a 3f
       0.03841317405727781 0.0007980622953673916
000010 75 3d 54 52 0c d8 dd 3f 7e 32 92 82 fb 37 cc 3f
       0.4663115314478639 0.22045844913045082
000020 2c a7 83 f7 d9 3d 99 3f 62 79 35 07 fb 7b 99 bf
       0.024650006992408866 -0.02488701087474377
000030 36 e8 34 cd a3 76 df 3f 09 a4 ca c3 12 99 b4 3f
       0.49161620177949616 0.08046071319644467
000040 f3 1f 26 41 e4 24 97 3f 39 0c 71 b9 a1 6a b2 3f
       0.022601667858481233 0.07193957116491924
000050 40 2f b5 d0 38 43 7d 3f 37 8d f6 c2 64 e9 79 3f
       0.0071441859575534505 0.006326097106838894
000060 9c 7d db f5 4b 63 c7 3f 64 55 3c 89 88 bb e4 3e
       0.1827177954173579 9.88605123767678e-06
000070 5e 98 f7 36 13 0d ff be e8 c2 54 1b b6 6e db 3f
       -2.9612612193384887e-05 0.428632284822966
000080 48 0a 10 34 bb 0f e7 3f dd 19 1f 8d 67 2a 07 bf
       0.7206703202103393 -4.4184956677951094e-05
000090 09 ea 36 16 72 e0 15 bf 53 45 d1 99 c7 24 c8 3f
       -8.345314340988548e-05 0.18862242708795893
0000a0 48 4d b5 7b 15 42 27 3f 04 8a dc f5 5a 21 36 bf
       0.00017744552847407725 -0.00033768149102023103
0000b0 31 fd d4 b9 84 75 53 bf b1 00 a5 ce d4 6c 80 3f
       -0.0011876865531375675 0.008020079189578007
0000c0 53 ee ff 4c a8 59 83 3f c4 83 67 68 8c a3 99 3f
       0.009448351716847691 0.02503795039399727
0000d0 00 00 00 00 00 00 00 00 00 00 00 00 00 00 00 00
       0.0 0.0
0000e0 00 00 00 00 00 00 00 00 00 00 00 00 00 00 00 00
       0.0 0.0
0000f0 00 00 00 00 00 00 00 00 00 00 00 00 00 00 00 00
       0.0 0.0

running_mean_std.running_var f8 [32]
000000 44 80 60 1c 3b 51 5a 3f ed 3d 05 eb 8a 9c 52 3f
       0.0016062810186738977 0.0011359554883546522
000010 7d 2b 44 92 28 c4 61 3f b4 e3 a7 e9 c1 b9 df 3f
       0.002168730965541098 0.4957127363009548
000020 51 1b c8 32 3e 19 8a 3f af 58 80 c2 cf 6a a7 3f
       0.012743459629758343 0.04573678254398438
000030 76 42 2c 9e 51 d4 c3 3f 6d d3 aa 35 77 56 f5 3f
       0.15491695616994478 1.333609780919882
000040 c9 d9 f3 9f 73 30 f6 3f 5a dc 06 71 c3 3b f4 3f
       1.3868290184160392 1.26459068442434
000050 a6 67 1d ae 38 c4 79 40 b6 37 6c 9b d2 1c 6f 40
       412.26383792387276 248.90070887695555
000060 34 b9 e3 d5 80 b0 78 40 68 58 5a 9d 5e 72 de 3e
       395.03145398096535 7.25907235268027e-06
000070 2b f2 db a7 b2 36 e3 3e 6f 51 07 e3 40 3c fc 3e
       9.161788735217554e-06 2.6927342504938356e-05
000080 9e 99 19 e0 59 f3 c6 3f 6e be 5d 1e 43 c4 38 3f
       0.17930148546583963 0.00037790907514698754
000090 21 c5 1a ae 44 d7 3c 3f cb 58 df 15 22 f5 d0 3f
       0.0004400770832076618 0.2649617398832446
0000a0 29 4f 73 d7 cf 8c 75 3f 25 dd 78 b7 98 71 75 3f
       0.005261241799605001 0.0052352872367500735
0000b0 8b 8f 3b 08 37 c5 6f 3f ac 8b 28 58 11 52 27 40
       0.0038782191130497016 11.66028857703153
0000c0 8c 41 73 29 e1 ce 27 40 99 94 96 99 d8 fb 1e 40
       11.904061599082318 7.745943450751974
0000d0 d9 01 ed df dc 67 47 3e d9 01 ed df dc 67 47 3e
       1.0899134925851635e-08 1.0899134925851635e-08
0000e0 d9 01 ed df dc 67 47 3e d9 01 ed df dc 67 47 3e
       1.0899134925851635e-08 1.0899134925851635e-08
0000f0 d9 01 ed df dc 67 47 3e d9 01 ed df dc 67 47 3e
       1.0899134925851635e-08 1.0899134925851635e-08

running_mean_std.count f8 []
000000 00 00 00 04 00 e0 95 41
       91750401.0

a2c_network.sigma f4 [12]
000000 18 57 09 bf 04 74 f5 be 11 7a f1 bf 1f db fb be
       -0.5364852 -0.47940075 -1.8865377 -0.49190614
000010 27 26 fd be df 40 5d c0 19 eb ed be 36 cb a5 be
       -0.4944317 -3.4570844 -0.46468428 -0.323816
000020 43 a8 cf be 38 df d8 be c6 7a 0f bf f0 57 61 be
       -0.4055806 -0.42357802 -0.5604671 -0.22006202

a2c_network.actor_mlp.0.weight f4 [256, 32]
000000 c2 4a 31 3e b0 cd 00 3e 52 7e 9f be d3 f9 4f 3d
       0.17313674 0.12578464 -0.31151062 0.05077536
000010 c0 91 00 3e 7f d0 c8 3e 37 66 ab 3d 1f 9e b2 3d
       0.12555599 0.3922157 0.08369105 0.087215655
000020 d6 2f b2 bc 15 e8 36 be c8 f0 ab bd 8b e1 94 3c
       -0.021751326 -0.1786197 -0.08395535 0.018173954
000030 d3 32 70 3e 6d 4e e5 bd 20 e0 d7 3d a9 88 4a 3d
       0.23456888 -0.11196599 0.10540795 0.049446736
000040 4a 76 96 3d b0 a3 1d be bf 86 a4 be 43 f9 c2 bc
       0.073467806 -0.15394473 -0.32134053 -0.023800498
000050 a3 af fb bd ad 82 8a 3d ce 13 6a 3c 7d 92 0d 3e
       -0.122893594 0.06763206 0.014286948 0.13825412
000060 c9 1d b9 3d 6c 54 3b 3d cf aa 0d 3e e0 9d 00 be
       0.09038884 0.045734808 0.1383469 -0.12560225
000070 c8 5c 36 3c 1f 1b f7 bd 4c 45 5f 3d 02 5c 79 bd
       0.011130519 -0.1206572 0.054509446 -0.06087876
000080 57 5d ba 3d f1 43 19 3c 08 41 81 3e d7 e3 8e bd
       0.090998344 0.009354577 0.25244927 -0.06977051
000090 23 f9 f7 bd 65 41 2f be 44 0d 2c 3e f1 46 60 3e
       -0.12108066 -0.1711479 0.16801935 0.21902062
0000a0 5b b1 a4 3e 1b 6e 56 be 4a 40 61 be 74 ae 30 bd
       0.3216656 -0.2094044 -0.2199718 -0.04313512
0000b0 87 d6 89 be 22 db 49 3e bb 9c 20 3e 50 11 f1 3d
       -0.26921484 0.19712499 0.15684788 0.1177088
0000c0 8b 8c 76 bd dd 85 41 be 24 7d 74 3e 24 5e 0e be
       -0.060192626 -0.18898721 0.23875862 -0.139031
0000d0 48 95 aa 3d 99 2a da bd 8c c3 06 3e 2f 22 c2 bc
       0.083292544 -0.10652656 0.13160533 -0.02369794
0000e0 b5 f9 5d bd 6e be 58 bd 4e 13 19 3d 1f 9c 38 bd
       -0.054193217 -0.052915983 0.037371926 -0.045070764
0000f0 d9 cc d7 3d 02 1e f6 3d 39 45 03 be eb 47 c1 bd
       0.105371185 0.12017442 -0.12819375 -0.094375454
000100 6c 87 3a 3e 13 36 a0 bd 99 a5 bf bd f7 fe b9 be
       0.18215722 -0.07822814 -0.09357757 -0.36327335
000110 ad 01 96 be 81 9a 2d 3e 8f 56 7a bd 2c 12 84 be
       -0.29298154 0.1695347 -0.061117705 -0.25795114
000120 d9 68 0c 3e 3e 23 61 be 22 03 49 be 91 38 22 be
       0.13711871 -0.219861 -0.19630101 -0.15841891
000130 3f 6a 78 be e0 76 0e be c9 62 26 3e c0 d4 ad 3d
       -0.2425928 -0.13912535 0.16248621 0.084878445
000140 1f 73 a1 3c c8 94 81 be eb 5f 89 bd 31 72 61 bd
       0.019708214 -0.25308824 -0.06707748 -0.055040542
000150 93 14 e8 bc 51 f8 de bd 04 46 5f be 59 96 d9 bd
       -0.028330123 -0.10887206 -0.21804053 -0.1062438
000160 83 59 ed bc 75 b8 4e bd b4 b3 48 bc 02 54 f5 bd
       -0.028973347 -0.05046888 -0.012249876 -0.11978914
000170 68 80 f8 bd c9 36 d3 bd 8d d9 77 bd 07 e0 0e be
       -0.121338665 -0.10313184 -0.060510207 -0.13952647
000180 d2 9f 1d 3e 4e 93 b0 3d d3 dd 19 3e 5a a8 40 3e
       0.15392998 0.08621846 0.15026025 0.18814221
000190 0a 66 7f be c4 51 fd 3b 13 00 9f bd da 64 c2 bd
       -0.24941269 0.0077306945 -0.07763686 -0.09491892
0001a0 0c 6a 02 be 17 27 55 be 8c 12 d0 3d 8a 80 c2 bc
       -0.12735766 -0.20815693 0.101597875 -0.023742933
0001b0 0e 8c 25 3c 43 24 0e be 73 77 3f 3b b3 8d 4a be
       0.010104192 -0.1388102 0.0029215484 -0.19780616
0001c0 37 e6 92 3d 65 72 19 3d a9 9f d3 bc 4d 0d a8 3d
       0.07172816 0.03746261 -0.025832968 0.08205662
0001d0 cd c6 30 3e 43 f3 d7 bd 63 e8 ce 3d 61 90 c2 bd
       0.17263336 -0.10544445 0.10102918 -0.09500194
0001e0 89 25 eb bc a0 28 26 be 0e e2 24 3e f6 db 04 be
       -0.028704422 -0.16226435 0.16101858 -0.12974533
0001f0 f5 7d c1 3d 2e 78 7e 3d 11 4b 6b 3d 1e bc c3 bd
       0.094478525 0.06212633 0.057444636 -0.09557365
000200 49 d9 7a 3e 2b ec 1a 3e 54 2d a4 bd 30 e8 9c be
       0.2449695 0.15129153 -0.08016458 -0.30645895
000210 3e 4b 3d 3e f6 0b 59 bd 59 e0 ac bd c5 65 6b 3e
       0.18485734 -0.052989922 -0.084412284 0.22988041
000220 f0 9b 5b 3d 92 b6 cc bd 27 a3 8d be e4 7e cc bd
       0.05361551 -0.0999576 -0.27663538 -0.0998514
000230 c9 c0 8c bd d9 07 ca bd 87 2d 14 bd df cc 9f bd
       -0.06872708 -0.09864778 -0.03617623 -0.07802748
000240 e6 51 89 bd 3e 2f d2 bd 04 b5 c7 3d e5 ee df bd
       -0.06705074 -0.10262917 0.09751323 -0.109342374
000250 ff 2f a4 bd d9 23 59 3d 96 31 85 bd e1 e0 04 bc
       -0.08016967 0.053012703 -0.065035984 -0.008110256
000260 1f 04 85 3c 9d f2 b8 bc 49 60 87 3d c6 78 fe bc
       0.016237317 -0.022576625 0.06610162 -0.031063449
000270 91 bc 3f bd c7 ec 9a 3c 8d d2 ff bc 9b c6 57 bd
       -0.04681069 0.018911732 -0.031228328 -0.05267964
000280 1e 4a 1c 3e 88 73 4d 3e 85 49 84 be 18 51 e0 ba
       0.15262648 0.20063603 -0.2583734 -0.0017114012
000290 47 09 d7 bd a2 1a 46 3d 95 44 8d 3d 91 7e 1d bd
       -0.104998164 0.048365243 0.068978466 -0.03845078
0002a0 0b ce 4a be a4 1c 48 bd 7a 31 e7 3d 6f b9 58 3e
       -0.19805162 -0.04885544 0.11288734 0.21164487
0002b0 b4 e6 03 be 0b c7 1a be 50 2a b2 bd 71 e3 17 be
       -0.12880975 -0.15114991 -0.08699477 -0.14832856
0002c0 1b e7 ea 3c fb 43 93 3d 5f bb 4d 3e 56 19 20 3e
       0.028674653 0.071907006 0.20091008 0.15634665
0002d0 1e c7 c6 be 47 36 1e be 63 fb 42 be a7 12 7a 3e
       -0.3882379 -0.15450393 -0.19041209 0.24421178
0002e0 11 48 2a bd 34 1c 9d be ea c7 95 3d d3 e4 89 bd
       -0.041572634 -0.3068558 0.07313521 -0.06733098
0002f0 e2 54 ea bd ab 1f 04 3e a0 9e a4 bd 47 27 11 bd
       -0.11441971 0.12902705 -0.08038068 -0.03543785
000300 21 fc 7e be 32 43 4d 3e 5a 42 bf 3d 40 66 e2 3d
       -0.24900867 0.20045164 0.093388274 0.11054659
000310 42 c1 20 be c2 83 86 be 13 0c 0c be 36 0a 32 3e
       -0.15698722 -0.26272398 -0.13676481 0.17386708
000320 f9 c6 89 3c c8 ad 3e 3d 8d e8 dc 3d 0b b1 d1 bd
       0.01681851 0.04655245 0.10786543 -0.102388464
000330 ed b4 b4 bb 41 9f 81 be 75 02 3d be 7d 86 a5 bd
       -0.005514732 -0.25316814 -0.18457969 -0.08082292
000340 75 75 b1 3d 57 58 a5 bd 5e 41 d4 3c ca 5c 10 bc
       0.08664981 -0.0807349 0.025910076 -0.008811185
000350 35 ba b4 bc e7 eb eb bc fd 37 a4 be 93 10 85 3c
       -0.022061447 -0.02879901 -0.32073966 0.016243255
000360 0a 6c 65 bd 47 87 1a 3e 55 4a 68 bd 34 ca 04 be
       -0.056011237 0.15090667 -0.056711514 -0.1296776
000370 c7 82 ff bc 4f 7f af bd 7e 86 5d bd 61 54 2c be
       -0.03119029 -0.08569204 -0.05408334 -0.16829063
000380 2c 4d 02 3e d2 93 1b be 57 72 ba 3d 35 fc 51 3d
       0.12724751 -0.15193108 0.0910384 0.051265914
000390 ad f3 51 3e 9c 83 4a be f7 20 32 3e ce 7a b0 bd
       0.20503111 -0.19776767 0.17395388 -0.08617173
0003a0 f9 ed 3a 3e b9 b6 11 3e cf fb e9 bd 39 63 06 be
       0.18254842 0.1422986 -0.11424982 -0.13123788
0003b0 ba ec 3a bd 83 95 8e be bf 98 5e 3b d8 cd 56 be
       -0.045635916 -0.27848443 0.0033965555 -0.2097696
0003c0 c4 19 01 3e 04 df 5d 3e aa 30 62 3d 07 e7 88 bc
       0.12607485 0.21667105 0.05522219 -0.016711725
0003d0 e8 9a 52 be a9 1e 51 3d 00 94 7a 3d ab 64 7f be
       -0.20566905 0.05105463 0.0611763 -0.24940746
0003e0 7b a4 86 bd b7 30 b2 be 71 52 7d bc 48 33 b2 bd
       -0.06574341 -0.3480279 -0.01546155 -0.08701187
0003f0 5b fd 93 bd 62 dd 65 bd fe 05 2c be 19 87 14 3e
       -0.07226058 -0.05611933 -0.16799161 0.1450466

a2c_network.actor_mlp.0.bias f4 [256]
000000 07 86 86 3d 05 97 96 3e d9 46 ca 3d e7 bb a7 be
       0.065685324 0.29412094 0.09876794 -0.32760546
000010 ac 15 25 3b 9d 06 eb 3d 41 17 ba bd 04 2d a0 be
       0.002518992 0.11475871 -0.090864666 -0.31284344
000020 6d 7d 86 bd 9d 2d 05 be 76 a6 eb bd c2 04 26 3d
       -0.06566892 -0.13005681 -0.11506359 0.04053188
000030 53 66 a9 3d de aa 45 bd d4 5b 6a bd 99 cc 7d be
       0.0827147 -0.048258655 -0.05721648 -0.24785079
000040 57 38 5c 3b 26 e9 e2 3d 29 51 5f bc 29 06 be 3d
       0.0033602917 0.11079626 -0.01363019 0.09278519
000050 c1 1c d5 3c cd 15 45 be d0 11 94 bd 07 f0 8a 3e
       0.026014687 -0.19246598 -0.0722996 0.2713625
000060 71 45 99 3e 88 0f af bc b1 80 51 be 82 a4 c6 be
       0.29935792 -0.02136971 -0.20459248 -0.38797385
000070 84 64 a8 be 6d f1 1a be 55 ca 5f be 15 6b 65 bd
       -0.32889187 -0.15131159 -0.21854527 -0.056010325
000080 0a b7 11 be 56 74 33 be a3 bf c1 be 31 68 a7 3e
       -0.1422998 -0.17524847 -0.3784152 0.3269668
000090 63 0b a8 3d ea f6 35 3e d0 9d a9 3c df 08 c0 be
       0.08205297 0.17769971 0.020705134 -0.37506768
0000a0 49 20 96 bd 9c fa f3 3c de 1c 4a 3d 80 6b 7b bd
       -0.07330377 0.029782586 0.049343936 -0.061381817
0000b0 bd 9f 36 be 1d c7 c0 3c cd 6a 1c 3e 6e 9a 3a 3e
       -0.17834373 0.023532445 0.15275116 0.18222973
0000c0 11 21 8c 3e 31 e1 de bb 50 4a a4 3c 07 a3 88 bd
       0.27368978 -0.0068017473 0.020054966 -0.0667172
0000d0 c6 19 59 be ea 7e b3 3e 16 23 fd 3b 27 1e 8a 3e
       -0.21201238 0.35057765 0.00772513 0.2697613
0000e0 5c 71 53 be 93 d8 ca bd cb e9 51 3e fa 6e cd 3e
       -0.20648712 -0.099045895 0.20499341 0.4012373
0000f0 87 27 db 3d fd 2b e8 3d 5c dc 3e 3e 1a ab 4d bd
       0.107008986 0.11336515 0.18638748 -0.050212003
000100 53 7e 7d 3e 1b 68 07 bf 04 eb 4c bd 88 e9 30 3e
       0.2475522 -0.5289323 -0.050028816 0.17276585
000110 f5 2b 73 bd 79 84 69 3e 5e 08 ac be 85 1f 69 bc
       -0.059368093 0.2280444 -0.33600134 -0.014228706
000120 fa e1 ca 3e b8 1d 66 3d 1c 5d 13 3e 2a 4a 93 3d
       0.3962553 0.056180686 0.14390987 0.0719188
000130 4d 30 60 3e 80 79 1b 3e 54 14 ae 3e 13 6e d0 bd
       0.21893425 0.15183067 0.33999884 -0.10177245
000140 a3 72 93 be 55 4e 34 3e e4 b3 21 3e 5e 73 a2 bd
       -0.28798398 0.17608006 0.15791279 -0.07932161
000150 e5 95 8e 3d 28 0d 26 3e 00 7a 4f 3e 15 49 c0 bc
       0.06962184 0.16215956 0.20261383 -0.023472348
000160 4e a2 07 3b 25 8e 82 3d 53 11 5f 3e db a9 b0 bc
       0.0020696106 0.06374768 0.21783952 -0.021565368
000170 ae 8e 9a bd 60 8d 92 bd 4e 99 ca 3e b7 55 23 3e
       -0.07546745 -0.071558714 0.39570087 0.15950666
000180 09 26 0b 3d 4c a3 b9 3d 6e a3 4a 3d 46 50 61 3c
       0.03397182 0.090643495 0.049472265 0.013752049
000190 2c df 5b 3d fe b7 68 be 21 a6 4e be e5 90 1c be
       0.05367963 -0.22726437 -0.2018056 -0.15289648
0001a0 83 0c 33 be ef e6 64 3e df cd d5 bd f4 6b e1 be
       -0.17485242 0.22353719 -0.104396574 -0.44027674
0001b0 48 ce b8 3e 8e 87 24 bd 8a 39 7b bc 23 49 fe bb
       0.3609488 -0.040168338 -0.015333543 -0.0077601834
0001c0 67 35 b8 bd a8 24 5f be d5 e5 68 3e a6 92 da be
       -0.08994561 -0.21791327 0.22743924 -0.4269001
0001d0 39 9b 62 3e bc a0 5f 3e 28 52 e5 3d ff fd a9 3e
       0.22129525 0.21838659 0.11197311 0.33201596
0001e0 a5 e0 80 be 07 8a 09 be 2f bf e4 bd 59 f0 79 3d
       -0.2517139 -0.1343156 -0.11169278 0.06102023
0001f0 f5 16 99 bd 81 10 a0 3e 76 10 92 3e 10 5e 1f bc
       -0.07475082 0.3126259 0.28528184 -0.009727016
000200 6e 09 09 be be 04 5e bc d3 69 9c 3e a9 68 ba 3c
       -0.13382503 -0.013550935 0.30549487 0.022754984
000210 d8 d4 34 3e 34 a6 15 bd 12 de 45 be 74 8b 39 be
       0.17659318 -0.036535457 -0.19322994 -0.18119603
000220 6f b2 78 be 28 77 a7 3e 88 80 36 3e ad 4c 5a bd
       -0.24286817 0.32708097 0.17822468 -0.05329578
000230 db cd db 3d 97 76 03 3e 1b 20 86 be 68 10 c8 be
       0.10732623 0.12838207 -0.2619637 -0.39075017
000240 ca fe ae 3d 82 da 3b 3e 13 9f 8d 3e 77 30 4d be
       0.08544691 0.18345073 0.27660426 -0.20038019
000250 ef ed 94 be 74 0f 83 b9 1e 16 0c be 3f 49 05 3e
       -0.2908778 -0.0002499778 -0.13680312 0.13016222
000260 51 c1 a0 3e 14 8d 91 3e 3b 91 af bd 64 e4 9d bd
       0.3139749 0.28427947 -0.085726224 -0.07709578
000270 ec 7c 21 3c 54 21 67 be f5 89 8c 3e 57 0b 99 3d
       0.009856444 -0.22571307 0.27449003 0.07472866
000280 b9 9d 5e be c5 15 3d 3e 6e 53 4a 3e bf 9d 9a be
       -0.21739854 0.18465336 0.19758388 -0.30198476
000290 91 b6 79 be 22 40 ce bd 66 6d bd be 89 75 b4 be
       -0.2438605 -0.10070826 -0.36997527 -0.35245922
0002a0 a5 2a 29 bd 02 66 32 3d 6e dd b4 bd b6 c8 4d 3e
       -0.041300435 0.043554313 -0.08831297 0.20096096
0002b0 d9 ca 8e be 0b 6e 5a 3e c9 2a 52 3e c2 35 9c 3e
       -0.27889135 0.2133104 0.20524134 0.30509764
0002c0 b9 f0 d7 3d 30 2d 19 3e dd e7 8b bd 4f 9b cf bd
       0.10543961 0.14958644 -0.06831334 -0.10137045
0002d0 74 69 9b 3e 6a 5e 7c be 14 4a 76 3e 93 89 01 3d
       0.30353892 -0.24645391 0.24051696 0.03162534
0002e0 fd 40 f3 bd 3b c8 24 3e 2a 42 18 be f4 76 a4 3e
       -0.1187763 0.16092007 -0.1486899 0.32122004
0002f0 47 c5 8d bc 0d fc 16 bb 9e 9a 13 be c7 97 f3 bd
       -0.017305983 -0.0023038418 -0.1441445 -0.118941836
000300 76 fb 0a 3e 87 bb 75 3d ef e9 a1 bd d1 bb 48 3d
       0.13572487 0.059993293 -0.079059474 0.04900724
000310 6e c5 8a 3e 69 0d 58 bd e5 97 07 3e da 78 c1 be
       0.27103752 -0.052747164 0.13241537 -0.37787515
000320 17 e9 8c 3d 73 3b c9 be 0f 77 65 be 49 eb 78 3e
       0.06880396 -0.3930317 -0.22408698 0.24308504
000330 dd 2b 65 3e f1 2b 20 be 98 ef 86 bd 9d 92 28 3e
       0.22380014 -0.15641762 -0.06588668 0.16462179
000340 da 1d 2c be 8c 8c 51 3e 0f ee be 3d b9 e9 8c 3e
       -0.16808262 0.2046377 0.0932275 0.27522066
000350 63 06 fa 3d 0d c6 1b be e3 63 02 3e ac 25 50 3c
       0.122082494 -0.15212269 0.12733416 0.012704294
000360 21 aa 92 bd d3 54 3e 3d 2f 59 98 bc 6b e4 f7 3c
       -0.07161356 0.046467613 -0.018597214 0.030260285
000370 f8 f1 80 be 5e cb a7 3d 6d 2a 49 be 70 18 b7 bd
       -0.25184608 0.08193086 -0.1964509 -0.08940208
000380 1b e8 51 3b af 97 3c bd 41 b3 3c 3b ef 68 54 bc
       0.0032029215 -0.046043094 0.0028793367 -0.012964471
000390 7a ac c3 bd 67 18 66 bd ea 5d 97 be 58 f4 15 3e
       -0.09554382 -0.056175616 -0.29563838 0.14643991
0003a0 1c d1 7c ba d3 82 6c be 54 8a 91 3e 5a 1d 60 bc
       -0.0009644197 -0.2309678 0.28425848 -0.013678873
0003b0 6c 9d af bd 26 71 e4 3d 5c 4b 41 3e b7 d8 11 be
       -0.08574948 0.11154394 0.18876404 -0.14242826
0003c0 63 46 0f be ea af 12 be d8 75 89 3e 1d fe 0f be
       -0.13991694 -0.14324918 0.2684772 -0.1406178
0003d0 0d 71 47 bd 64 cf 60 3e 0c 44 b2 3e f0 35 34 be
       -0.048691798 0.21954113 0.3481754 -0.175987
0003e0 fc 18 a7 3e 43 2d 2b 3d d5 4a 04 be 9b 37 dc 3d
       0.3263625 0.04179121 -0.12919171 0.107527934
0003f0 a2 c7 30 be ee e3 ae 3c 8a ff 04 3e bd d2 fa bd
       -0.17263654 0.02134892 0.12988105 -0.122472264

a2c_network.actor_mlp.2.weight f4 [128, 256]
000000 7d 7f 13 be 98 cf 03 3e 97 3a 56 bd 9f 92 a4 bd
       -0.14404102 0.1287216 -0.05230197 -0.08035778
000010 d9 6d be 3c c8 fd 01 be 63 55 1e be ed b3 92 3c
       0.023245739 -0.12694466 -0.1546226 0.01790806
000020 be 2b 3b 3d 20 10 7b 3d b3 00 93 bd 67 92 93 bb
       0.045696013 0.061294675 -0.07177868 -0.0045035365
000030 b6 52 03 be ee 8e cd bd d8 c1 72 bd 5d 66 56 be
       -0.1282452 -0.10037027 -0.059266895 -0.20937486
000040 e2 7d 03 3d 74 d1 a1 bd 75 d6 b6 ba 4d 55 bc 3d
       0.032102473 -0.07901278 -0.0013949411 0.09195957
000050 88 70 2a bd f1 5d c9 3c 60 db 9b 3a 8a 5b 14 3d
       -0.041611224 0.024580928 0.001189094 0.03622011
000060 12 34 f2 ba a0 b5 ad 3a 54 51 73 bd ae 5b 85 bd
       -0.0018478653 0.0013252981 -0.059403732 -0.06511627
000070 2c 29 d8 3d cd be b2 bd a7 63 39 3d a1 bb 45 bd
       0.10554728 -0.087277986 0.04526105 -0.04827464
000080 78 5f e0 bd 37 d2 a0 bd 28 35 ba bd 50 a1 2a be
       -0.10955709 -0.07852595 -0.0909217 -0.16663098
000090 5d da 36 bc e4 92 f7 3d 3a 30 10 be f3 6b 35 3d
       -0.01116046 0.12088564 -0.14080897 0.0442924
0000a0 20 fe 35 3d dd 88 42 3c 1e 19 de bc 8b 01 dc bd
       0.044431806 0.011873451 -0.027111586 -0.10742482
0000b0 78 12 04 3b fd 36 03 be 33 a5 58 be fc 9d 1a be
       0.002015261 -0.12813945 -0.21156769 -0.15099329
0000c0 73 73 bf 3d ef 36 93 3c 2f 98 cc bc 35 73 33 be
       0.09348192 0.01797053 -0.02497491 -0.17524417
0000d0 ee 72 8a 3d c2 11 3b be 5d 17 96 bc 97 4b 90 3d
       0.06760202 -0.18268493 -0.018321687 0.070456676
0000e0 ce 58 9a bc 60 08 7b be 6e 56 ce 3d 44 7a 3e be
       -0.018841173 -0.24514914 0.10075079 -0.18601328
0000f0 b4 f0 c2 bd 18 d4 6a be d3 ba 6a bd de b0 72 bd
       -0.09518567 -0.2293247 -0.057307076 -0.059250705
000100 5e 88 b8 bc 5f 9f ee bc ce 04 a2 bd 44 01 01 bc
       -0.022525962 -0.029128728 -0.07911073 -0.007873837
000110 00 e2 3a be 64 36 8d 3b d9 e8 f6 bc 8b 7e 41 be
       -0.18250275 0.0043094624 -0.030140327 -0.18895929
000120 31 d7 89 bd 41 52 93 bc 59 42 a3 bd 1b 46 83 bd
       -0.06730498 -0.017983558 -0.07971639 -0.06409856
000130 73 a0 ac bc f6 e2 95 3d 58 8e e0 3c 1f 75 7b 3c
       -0.021072602 0.0731868 0.027411625 0.015347748
000140 b6 44 bb 3b fa 14 a4 bc 0b 15 29 3d 55 68 1c 3d
       0.005714978 -0.020029534 0.041279834 0.038185436
000150 c2 36 3b 3d b0 b4 60 3d 33 64 bb bc 4d 0d 30 be
       0.045706518 0.054859817 -0.022874927 -0.17192574
000160 e6 2c 12 bd 83 b3 60 bd 97 62 b7 bd d7 bc 26 3a
       -0.03568735 -0.054858696 -0.089543514 0.0006360537
000170 c5 7e ac bd 43 1c 54 be 8a c3 90 bd c7 6c 82 3d
       -0.08422617 -0.20713906 -0.07068546 0.06368404
000180 58 fd 1e bd 53 2a 8b 3d aa a5 89 bd 32 87 9e bc
       -0.038815826 0.06795182 -0.06721051 -0.019351576
000190 f8 8f ea bd f1 ca cf bc bc 99 0e bd 8c 40 00 3d
       -0.11453241 -0.025365325 -0.03481458 0.031311557
0001a0 bb 06 7a 3b 6b 44 a5 bd 13 6d 8c bd 96 15 02 3e
       0.0038150984 -0.0806969 -0.06856742 0.12703547
0001b0 45 49 34 3d 98 62 6a bd af f5 b8 bd 06 a6 aa bd
       0.044015188 -0.057222933 -0.090312354 -0.08332448
0001c0 cd 7b 30 3b dc 5c 0a 3d a0 bc a2 3d 1f 8f 91 3d
       0.002692926 0.033779964 0.079461336 0.07107376
0001d0 d2 1e 14 3d 12 fb 2f bc 8d 24 b5 3d a5 49 14 bc
       0.036162205 -0.010741012 0.08844862 -0.009050761
0001e0 5f 55 8d bd 53 63 54 be 4d 15 35 bc 15 d3 e8 bc
       -0.06901049 -0.20741014 -0.011052442 -0.028420964
0001f0 94 bd 3a bd f7 97 67 bd b2 fc f6 bd 7a 42 f1 3c
       -0.045590952 -0.05654141 -0.120599166 0.029450644
000200 18 57 fa bd c2 55 77 bb 72 34 00 3e da b4 43 bd
       -0.12223643 -0.0037740325 0.12520006 -0.047779895
000210 af 0a 69 bd 8d 50 e2 3b 21 96 0a 3d 50 87 a1 3c
       -0.056894954 0.006906575 0.03383458 0.019717842
000220 c7 97 02 be dd 4d c7 bd 09 e0 aa bc c0 27 7e 3d
       -0.12753211 -0.09731648 -0.020858781 0.062049627
000230 82 14 3a bd 08 cf 07 3e 09 0e ce 3d 85 1f 39 bd
       -0.045429714 0.1326257 0.10061271 -0.045196075
000240 1f 0c b1 3c 4b 92 07 3d 3b d8 2e 3d 97 90 75 3c
       0.021612225 0.0330985 0.042686682 0.014988086
000250 9e 03 83 3c 29 41 0a be 21 a7 0c bd 5f eb 88 3d
       0.015992936 -0.13501419 -0.034339074 0.066855185
000260 90 4a d1 3d 91 90 dc bd ab 83 08 be 1a ed 68 bc
       0.102193 -0.10769761 -0.13331477 -0.014216686
000270 16 9d ce 3b 58 bf 7e bd 59 ac 1c be 91 da aa be
       0.006305347 -0.0621942 -0.1530012 -0.33369878
000280 4c a7 9b bd 67 09 99 bd 80 be d0 bd df 35 4e 3c
       -0.07600269 -0.074724965 -0.10192585 0.012586086
000290 d2 06 ce bd 36 5d 4e 3c fd 46 1b 3c 44 7e 17 be
       -0.100598946 0.012595465 0.009477374 -0.1479426
0002a0 a1 ac 7a bd 0f 3d c3 bd 69 c8 ad bc e9 aa 2f be
       -0.061199788 -0.095331304 -0.021213727 -0.17155041
0002b0 4f 9b 06 3c 5b f2 9f bd c4 e0 13 bd 3b 4b a9 3c
       0.008215739 -0.078098975 -0.036103025 0.020665755
0002c0 4e ab c1 bd 48 93 76 bc fb e1 ca bd 5f a0 4b bc
       -0.09456502 -0.015049763 -0.099063836 -0.012428372
0002d0 3f 93 2f 3d 92 df 00 bd 09 57 ed 3a 70 14 b1 bd
       0.042865034 -0.031463213 0.0018107604 -0.08646476
0002e0 22 ed b3 bd 81 68 b3 bc 5e 43 59 bd 5c 9c 3a bc
       -0.08785464 -0.021900417 -0.053042762 -0.011389818
0002f0 51 bf 54 bd 82 f8 59 3d b3 b3 4c 3d 37 42 44 bd
       -0.051940266 0.05321551 0.049976062 -0.04791471
000300 56 35 90 3d ad ec 12 be d5 23 2f bd b6 fe 08 3b
       0.07041423 -0.14348097 -0.04275878 0.0020903773
000310 55 96 e7 bd 37 af be 3d 70 80 f0 bd 50 22 5a 3b
       -0.113079704 0.09310763 -0.117432475 0.0033284612
000320 db 3f 19 be 2e 80 91 3d be 37 bc 3c 80 f7 52 bd
       -0.14965765 0.071045265 0.022975799 -0.051505566
000330 e5 82 16 bd 95 0e 0e 3e 10 09 14 be 19 55 b2 bd
       -0.036745925 0.1387275 -0.14456582 -0.08707637
000340 04 f8 15 bc 53 64 b2 3d 4f 4f 39 be c0 56 1e bd
       -0.00915337 0.087105416 -0.1809666 -0.03865695
000350 1e d5 69 3d 33 eb 7c bc 07 52 a7 bd cb 5b 5c bd
       0.05708801 -0.015436935 -0.08169942 -0.053798478
000360 68 62 0b bc dd 46 63 be 3b 9b dd bd 8a 18 01 be
       -0.008507349 -0.22195001 -0.108206235 -0.12607017
000370 fb f7 01 3e 3b ba 78 bd 55 7a 34 be 1e 60 bc 3a
       0.12692253 -0.06072448 -0.17624791 0.0014371907
000380 02 34 7a bd 47 87 f9 bc e5 6a a0 bd 89 43 fa bc
       -0.061084755 -0.030460013 -0.078328885 -0.030549781
000390 0b b2 04 be db 14 a2 be c9 68 7c 3d 55 ab 82 bd
       -0.12958543 -0.31656536 0.06162337 -0.06380335
0003a0 22 9c ac 3b 83 c7 a4 bd ac c6 9b bd 66 43 a9 3c
       0.005267636 -0.08045866 -0.07606253 0.02066202
0003b0 8d 59 37 bd bb 4a 7a bd b8 ba b8 bc b4 87 e0 bd
       -0.044763137 -0.061106425 -0.022549972 -0.10963383
0003c0 03 c5 a1 3c 3f d8 a1 bc 7e 69 64 bd fd aa cf bc
       0.019747263 -0.019756434 -0.055764668 -0.025350088
0003d0 cb ba ac bb db 3d cc bd 7e e9 8a 3c 29 3e 9a bd
       -0.005271291 -0.099727355 0.01695704 -0.07531387
0003e0 fe 61 4b be 5a ac f8 bc b8 ac 56 3d 23 e4 4f be
       -0.198616 -0.030355621 0.05241081 -0.20301871
0003f0 2b 7e f4 bd 29 73 23 bd bd 1f 89 bd 53 65 ad bd
       -0.11938127 -0.039904747 -0.06695507 -0.08466592

a2c_network.actor_mlp.2.bias f4 [128]
000000 0d d6 bd bc 64 51 04 bc 75 a4 20 3e d5 3f 9d 3c
       -0.023173356 -0.008076046 0.15687735 0.019195477
000010 43 e0 67 3e aa a7 62 be bd 45 de bd 29 5e 88 be
       0.22644143 -0.22134271 -0.10853145 -0.26634338
000020 77 2d b8 be dd 3f 89 3d d2 22 00 bf 52 8d cd 3d
       -0.35972187 0.06701634 -0.5005313 0.1003672
000030 35 fc 36 be 69 93 b1 be 8a c2 4e be 9d 5b e5 bd
       -0.17869647 -0.34682778 -0.20191398 -0.111991145
000040 eb fd 2a bd 9b 74 5e bd ca 3e d0 bd 62 b5 9f be
       -0.04174606 -0.054310422 -0.10168226 -0.31193072
000050 db 57 41 3d 04 26 dd bc 11 43 23 be cd c2 99 3e
       0.047202926 -0.026995666 -0.15943553 0.30031434
000060 bd f2 48 be 78 01 55 bd 46 c5 47 be 0f 3d f6 be
       -0.19623847 -0.052003354 -0.19508848 -0.4809346
000070 53 98 4e be 22 83 23 3d 20 75 6c 3d 67 a0 10 bf
       -0.20175295 0.03991998 0.057728887 -0.56494755
000080 8b 50 48 be 99 f5 b1 be 29 3e a9 be 21 89 34 3e
       -0.19561975 -0.3475769 -0.33055237 0.17630436
000090 c3 27 96 be 1a 1e 12 bf 8b 11 33 be cc 60 d2 be
       -0.2932721 -0.5707718 -0.17487161 -0.41089475
0000a0 65 41 e6 3d 13 ab c8 bd bf 78 17 3b b3 5a ba be
       0.11242942 -0.09798255 0.0023112742 -0.36397323
0000b0 02 c3 20 bd 14 ed 92 3d 22 da 79 be 6a d0 03 3d
       -0.039248474 0.07174125 -0.24399617 0.03218118
0000c0 8d f5 01 be 16 f1 87 3d 4f 51 88 be de 12 ae 3c
       -0.12691326 0.0663778 -0.26624534 0.021249231
0000d0 7d 24 8c 3d 4c f6 7d bd a2 ab 16 3e 09 4b a9 3c
       0.06842897 -0.062002465 0.1471391 0.020665662
0000e0 e2 31 31 be e4 94 29 be c4 8b 04 be ea 97 6f be
       -0.17304185 -0.16560704 -0.12943941 -0.23397794
0000f0 87 bb ec 3d 32 13 c9 bd cd 36 5c be 4a ce 11 3e
       0.115592055 -0.09818114 -0.2150528 0.1423885
000100 23 62 a8 bd c8 e6 1f 3e e7 9a 81 3c 4f 18 f1 be
       -0.08221843 0.1561538 0.015820934 -0.47088858
000110 ea 82 c5 3c 3f a1 5f be e7 24 9c 3d f3 40 60 be
       0.024110276 -0.21838854 0.07624226 -0.21899776
000120 50 c2 ca be 55 1c c4 be 42 33 7b bd 93 2a 1d bd
       -0.39601374 -0.38302866 -0.06132818 -0.03837068
000130 7c 92 90 be 1f 05 71 be 38 4c a7 bd f7 6a 68 be
       -0.2823676 -0.2353711 -0.081688344 -0.22697054
000140 f0 de 0e bf 62 d0 61 be 72 3b 04 3e 9b 95 a1 3c
       -0.55808926 -0.22052148 0.12913302 0.019724658
000150 74 d0 d8 be ed 99 bb be df e3 9c be 3d 58 82 be
       -0.42346537 -0.36640874 -0.30642602 -0.25457945
000160 cf 5d 18 be 7c ae 5b be 19 97 9f be 71 b5 90 bd
       -0.14879535 -0.2145328 -0.31169966 -0.07065857
000170 9f ff 34 be 12 bf 03 be 01 51 ae be 76 a1 84 3e
       -0.17675637 -0.12865856 -0.34046176 0.25904435
000180 94 26 92 bd 55 72 3c 3d aa 16 03 be 3a 53 88 3d
       -0.071362644 0.046007473 -0.12801614 0.06656499
000190 e9 de 9c be ae 37 57 be bd 4a e1 3d ec 4d 88 3b
       -0.30638817 -0.21017334 0.11000583 0.0041596796
0001a0 31 9e d1 bd 84 b6 94 be c4 65 89 bd 82 27 93 3d
       -0.10235251 -0.29045498 -0.067088634 0.0718527
0001b0 02 63 87 be 69 a9 36 be 94 be 60 3e 5f 76 a0 3d
       -0.26442724 -0.17838062 0.219477 0.078350775
0001c0 d4 bf f4 bd 7a d1 29 bd 0c 7d 97 3d 56 74 a7 be
       -0.11950651 -0.041459538 0.07396898 -0.32705945
0001d0 36 54 31 be ae 71 eb be de 1b ab 3d cb 57 fb bd
       -0.1731728 -0.45985168 0.083549246 -0.122726046
0001e0 2b b7 b2 be aa 32 3b be 0a dc fd bd 26 70 f3 3c
       -0.3490537 -0.18281046 -0.12395485 0.029716562
0001f0 b8 b2 4d be 1e 34 a0 3c 27 62 a0 be f6 36 00 3c
       -0.20087707 0.019556101 -0.31324884 0.007825604

a2c_network.actor_mlp.4.weight f4 [64, 128]
000000 a6 ac 2c 3d 1f a0 ff bd 21 ef 61 3c a3 c4 e4 bd
       0.042156838 -0.124817125 0.013789923 -0.11170318
000010 cb 78 fa be 37 b3 c4 3d 01 d8 94 3d 08 6b 7d bd
       -0.48920283 0.09604495 0.07267762 -0.06186965
000020 42 b6 ef 3d 24 f1 84 3d e6 92 c3 3d 18 0d e1 3d
       0.11704685 0.064913064 0.09549503 0.109888256
000030 47 9b d6 bd bf 6e a1 bd aa 11 e6 bc 2b 20 87 3d
       -0.104788356 -0.07882451 -0.028084595 0.065979324
000040 ec 03 d7 3d 26 ee f8 bd 89 7e 93 3d f8 f9 82 bd
       0.10498795 -0.12154798 0.07201869 -0.06395334
000050 95 17 47 be f5 f0 d9 bd 73 13 cc ba 54 43 c5 3c
       -0.1944259 -0.10641662 -0.0015569761 0.024079956
000060 03 9d cb 3d 3a 87 89 3b 0e 50 77 bd be b8 74 3d
       0.09942057 0.0041970285 -0.06037908 0.059746496
000070 f8 c5 8f bd 86 bb fc bc b8 a5 b5 bd ae 44 59 3d
       -0.070201814 -0.030851137 -0.08869499 0.053044014
000080 25 1c ed 3c ea 8f 4f bd a8 f8 74 be 1a 0d d3 bd
       0.028944084 -0.050674357 -0.2392298 -0.10305233
000090 13 d7 b4 bb 46 73 87 3c 8a aa d7 3c 24 e6 9b 3d
       -0.005518803 0.016534459 0.026326437 0.07612255
0000a0 0a 0a 76 3d 91 95 9c 3c e5 f5 b1 3c 53 c5 06 3d
       0.060068168 0.019114288 0.021723697 0.032903027
0000b0 02 b2 fd bd e4 0a 15 3e e4 1b 56 bd ca 7f fa bd
       -0.12387468 0.14554936 -0.052272692 -0.12231405
0000c0 ae 6a fc 3d 11 8c 8d bd 0e 96 94 bd 23 0e 82 be
       0.12325035 -0.06911481 -0.07255183 -0.2540141
0000d0 dc 70 8e 3d 38 ad df 3c 0c fe 55 be 6f aa 8a be
       0.0695512 0.027304277 -0.20897692 -0.27083156
0000e0 8b c7 d0 3d b6 ea 2e 3e cd d2 36 3e 06 ba 07 3e
       0.1019431 0.17081723 0.17853852 0.13254556
0000f0 98 67 d5 3d 66 37 2c bc 12 69 7e 3b 83 f1 98 3d
       0.104201496 -0.010511255 0.003881995 0.0746794
000100 16 0d 9a bc 77 2e 40 be 8e a2 90 3c 38 fc d8 3d
       -0.018805068 -0.18767725 0.017655637 0.10594982
000110 53 7b 0d be 57 86 53 bd aa fd 92 bd f1 31 9b bd
       -0.13816576 -0.05164179 -0.07177289 -0.07577885
000120 d7 82 d5 3d 16 b6 ea 3c e4 3c 7c 3c 68 1f e1 bd
       0.10425346 0.028651278 0.015395377 -0.109923184
000130 be 36 5c 3c 75 0c a9 3d cd e6 f0 bb 0a 4c 12 bb
       0.013440786 0.08254329 -0.0073517323 -0.0022323155
000140 84 24 81 bc a4 f7 6a 3d 95 93 0d bc b8 5d 29 3b
       -0.015764482 0.057365075 -0.008641143 0.0025843214
000150 47 71 22 3d cd b0 5c 3d 48 45 94 bd 72 97 10 3d
       0.03965881 0.053879548 -0.07239777 0.03530068
000160 a4 bc 83 3d 84 40 b7 3d fd 0f 14 3d b8 d7 68 bd
       0.06432465 0.08947852 0.03614806 -0.05684635
000170 11 24 97 bd da 10 18 bc fb 73 ae bc 13 43 9c 3d
       -0.07379926 -0.0092813615 -0.021295538 0.07629981
000180 f4 28 2c 3e fd 92 05 3e 9a f5 47 bd eb c9 75 be
       0.16812497 0.13044353 -0.04881821 -0.24002807
000190 ac 09 4d 3d b6 8b ae 3c 23 85 27 bd 5f 83 09 3e
       0.050058052 0.021306854 -0.040898453 0.1342902
0001a0 e3 72 0e be 4a 34 12 3e 7b a1 47 bc 5d 7f ad 3d
       -0.13911013 0.14277759 -0.012184496 0.08471558
0001b0 4a 8c 07 3e b3 f6 9a bc ea ac 40 3d a9 a0 46 3d
       0.1323711 -0.018916463 0.047039904 0.04849306
0001c0 d5 88 48 3e 05 52 4f bd fb a2 90 bd 03 13 0a bd
       0.19583447 -0.05061533 -0.07062336 -0.033709537
0001d0 05 a8 f5 3d 9d 64 07 3d 16 75 05 be ce 12 80 bd
       0.11994938 0.033054937 -0.13032946 -0.06253587
0001e0 9b 75 91 3c ff 51 93 bd b6 1d bb 3d 8b 71 f2 bd
       0.017756274 -0.07193374 0.09136526 -0.11838063
0001f0 9e 1f 4e bd 1d ef f7 bc 23 d1 97 bd 41 37 d7 3d
       -0.05032312 -0.030265385 -0.074129365 0.10508586
000200 4d bb 79 3c 24 3f bd 3c e8 dd c6 bd dd b0 b3 3d
       0.01524241 0.023101397 -0.09710294 0.08773968
000210 fd 88 52 be 54 be 66 be 5d 61 b3 bc 73 7e ec bc
       -0.2056007 -0.22533542 -0.021897012 -0.02886889
000220 81 60 1f 3e ed ff 1c bd 5d ec 28 bd 9f 2f 04 3e
       0.15564157 -0.038330007 -0.04124104 0.12908791
000230 94 e7 04 3d 12 53 26 3b b2 5c 8a be 9e 64 dd 3c
       0.032447413 0.0025379104 -0.27023846 0.027025517
000240 c2 fa ad bc d8 0c 9e 3c 8e a1 0b bc d4 23 cb bd
       -0.021237735 0.019293234 -0.008522404 -0.09918943
000250 c1 06 04 3b 67 cb d0 bc 6e 24 8e 3d 3c b1 1d 3d
       0.0020145627 -0.025487615 0.06940542 0.038499102
000260 5b 15 1f be d7 0b a4 3c 34 38 df bd 78 f0 d3 bd
       -0.1553549 0.020025177 -0.10899392 -0.103486
000270 ea 08 8c bd 48 d4 11 bd 3e 31 6f bd 3f 7a 6e 3c
       -0.06837638 -0.035602838 -0.05839657 0.014555513
000280 f2 4d 20 bd 92 f7 a8 3d 35 49 b3 be 66 4a 04 be
       -0.039136834 0.08250345 -0.3501679 -0.12919006
000290 f9 65 1a be 7c 9b 07 bd 11 65 da bc 90 ad 63 3e
       -0.15077962 -0.033107266 -0.02665952 0.22234178
0002a0 aa 10 aa 3b 7a 42 52 bd e4 c0 2c 3e 72 a8 ac 3d
       0.005189975 -0.05133293 0.16870457 0.08430566
0002b0 8a b0 8a bd 51 6a 9a 3d 17 a9 91 bd 3b eb 73 be
       -0.067719534 0.075398095 -0.071123295 -0.23820202
0002c0 23 89 0b be 3c b8 f0 bd fc 65 de bd a2 83 24 bd
       -0.13626532 -0.1175389 -0.10859296 -0.040164597
0002d0 ea 7c 1d bd 7b 0a b5 bd 76 89 fd 3d 43 90 ab bd
       -0.038449205 -0.088398896 0.12379734 -0.08377125
0002e0 e3 44 8e 3d 88 04 d8 3d 09 51 71 3d 77 7e 89 3d
       0.06946733 0.10547739 0.05891517 0.067135744
0002f0 40 c2 82 bd d7 e8 19 be 85 80 8f 3c 2b 93 84 3c
       -0.063847065 -0.15030228 0.017517338 0.016183456
000300 79 39 64 3d 06 9a 27 be 2a 35 cf bc 3b 04 c4 3d
       0.055718873 -0.16367349 -0.025293905 0.095711194
000310 29 8f 2b 3d 2a a9 07 be 68 c6 10 3d a7 64 1a 3e
       0.041884575 -0.13248125 0.035345465 0.15077458
000320 9e 9f 31 be 31 c9 24 3d f9 cd c6 3c 8e e7 6a bd
       -0.17346045 0.040230934 0.024268137 -0.057349734
000330 30 fd 92 3d 35 ea fb 3d 9d 64 0d be 4c a7 9d 3d
       0.07177198 0.12300531 -0.13807912 0.07697925
000340 15 64 01 3e cb 17 c7 3d 9f 59 82 3c 20 aa 8c 3c
       0.12635835 0.09721335 0.015911875 0.017170966
000350 82 18 72 3d 44 79 ac 3c 96 83 2c be 23 cc 4c 3d
       0.059105404 0.021053918 -0.16847071 0.049999367
000360 38 e9 26 3c 43 ff 3b be f5 1f ba bd e7 ad da bb
       0.01018744 -0.18359093 -0.090881266 -0.006673563
000370 3b a3 2f 3d 7c 18 b5 3b 2c 8b d9 bd e7 ad 13 bd
       0.042880278 0.0055266004 -0.10622248 -0.036054518
000380 9f cf 84 3d 13 17 c0 3d 59 e4 a8 3d 28 d9 82 3d
       0.06484913 0.09379401 0.08246679 0.063890755
000390 59 4b 13 3e 6b 3d 44 bb b6 60 93 bd 22 d9 9c 3c
       0.14384212 -0.0029943835 -0.071961805 0.019146506
0003a0 8c 23 e8 bb aa 74 87 bd aa fe cb bc e2 b9 3f 3d
       -0.0070843156 -0.06614049 -0.024901707 0.04680813
0003b0 91 2c 26 3d 8c b1 cd bd 6a 17 06 3d 83 87 08 bd
       0.040569846 -0.1004363 0.032737173 -0.03333236
0003c0 36 08 57 bd 7a 30 ee bd 72 7d f8 bd 82 c7 4c be
       -0.052498065 -0.1163034 -0.12133302 -0.19997981
0003d0 8d aa 31 bd 7e e1 86 bb 3a 19 a6 be bb f8 a0 bd
       -0.04337554 -0.004116236 -0.3244112 -0.078599416
0003e0 7b 2b 0f 3d f8 de fc 3c d9 44 6c bd 6b 41 23 be
       0.034953576 0.030868039 -0.057682846 -0.15942924
0003f0 48 96 f1 3d 11 5c 9c ba 94 76 a0 bd 9d 5b 14 3e
       0.11796242 -0.0011929293 -0.07835117 0.14488073

a2c_network.actor_mlp.4.bias f4 [64]
000000 79 8d 0e be 34 c2 bc 3b 5e 08 22 be a9 e3 00 be
       -0.13921155 0.0057604555 -0.15823504 -0.12586845
000010 8d 21 f3 bd 0e d3 2f bd bc e8 65 be cc 5d be bb
       -0.11871634 -0.042925887 -0.22452062 -0.0058095213
000020 49 8a 93 be 01 3c c4 bd 79 8a 08 be 98 3d 70 bd
       -0.2881644 -0.09581757 -0.13334073 -0.05865249
000030 49 21 2e 3d f3 e6 da bd c9 e9 2f be f8 fd af be
       0.042512212 -0.10688581 -0.17179026 -0.3437345
000040 1a 4e 46 3b b8 fb eb bd 3a a9 5a 3c a1 79 43 be
       0.0030258955 -0.11522621 0.013346011 -0.19089366
000050 bb 74 b2 bd 28 19 34 bd 2b df 5e be 82 d1 2b be
       -0.08713671 -0.043969303 -0.2176482 -0.1677914
000060 ec 32 14 be 0c 4c 2e be 65 88 0d be 10 f1 65 3d
       -0.1447255 -0.17021197 -0.13821562 0.0561381
000070 b7 0c 0d be 70 71 8e be d1 c4 f1 bd 94 2e eb 3c
       -0.13774382 -0.2782092 -0.11805118 0.028708734
000080 54 12 a5 be d3 ea 04 be 80 bf 70 bd 01 1e 2a bd
       -0.32240546 -0.12980203 -0.05877638 -0.04153252
000090 62 46 06 3e 27 de 41 be 8c 4f 33 be d2 33 9a bd
       0.13112786 -0.189324 -0.17510813 -0.07529415
0000a0 06 7e ec bd 23 4d 12 3e b6 e6 01 3c db 6c 99 be
       -0.115474746 0.14287238 0.007928541 -0.29965863
0000b0 28 32 17 be 01 0f 97 bd bb 56 db 3c 85 73 0a be
       -0.14765227 -0.07375909 0.026774755 -0.1352063
0000c0 6c ad 89 be fb 94 8c bc 92 ba 74 be 34 0e 7e be
       -0.26890123 -0.017160883 -0.23899296 -0.24810106
0000d0 d6 fe 7a be cd d3 58 be 88 c3 34 3c b0 94 1e be
       -0.24511275 -0.21174546 0.011032946 -0.15486407
0000e0 8e 55 14 3d 85 ce 06 3d a6 cf c7 bd 7d 3c fa bd
       0.036214404 0.032911796 -0.09756403 -0.122185685
0000f0 60 44 af 3c d1 2f f1 bd e0 e8 35 be 67 a5 07 bd
       0.021394908 -0.117766984 -0.17764616 -0.033116724

a2c_network.value.weight f4 [1, 64]
000000 a3 e8 9c bc 69 ea 19 3d 22 61 97 3b a8 b6 b6 bd
       -0.019153899 0.037577067 0.0046197334 -0.08921558
000010 2f 38 c7 bc 56 42 08 3b c9 8a 05 bd 24 00 3e bd
       -0.024318783 0.0020791492 -0.03260306 -0.046386853
000020 c4 7a 31 3c 93 d7 2b 3d 32 6e 16 be 46 a7 23 3d
       0.010832492 0.041953634 -0.14690474 0.039954446
000030 f2 db 10 be ea 92 21 3b 9f 28 40 3d b9 71 fd 3c
       -0.14146402 0.0024654218 0.04691374 0.030938016
000040 1d b7 db bb a6 16 4e 3d 60 0b 57 bb c0 b7 31 bd
       -0.0067051784 0.050314568 -0.0032813177 -0.04338813
000050 b3 1f 8f 3c 5e a3 64 3e 1c 73 95 3c 20 f1 df bc
       0.01747117 0.22327945 0.018243365 -0.027336657
000060 b5 b2 e6 b8 fe e9 f4 3a a5 2d 09 3e 39 89 52 bd
       -0.000110005414 0.0018685458 0.13396318 -0.051400397
000070 6b 69 4f be 38 4b 42 be ef aa 36 3e 6d 9d 3c 3d
       -0.20255058 -0.18974006 0.17838643 0.04604857
000080 d0 de 11 3d 33 9d 39 bd c7 8f 22 3d 86 5c ce bd
       0.03561288 -0.045315932 0.039687898 -0.10076241
000090 fa 57 9b bb b2 27 a9 39 da aa 29 3e 40 a3 b4 3d
       -0.0047407122 0.00032263767 0.16569081 0.088202
0000a0 9c 07 c8 3c c4 67 fb 3e 8f ce 9f bc 85 4a 66 3d
       0.024417691 0.49102604 -0.019507675 0.05622341
0000b0 e0 54 aa bd 49 ae 48 3b d9 52 1a bd 61 67 cc 3b
       -0.0831697 0.003062146 -0.037676666 0.0062379097
0000c0 19 a1 8e 3d 03 88 ed 3b 86 fa 6e 3d f0 29 89 be
       0.06964321 0.00724888 0.058344387 -0.26789808
0000d0 f7 53 bf 3a 10 c0 e5 3d 92 c3 a4 3c 7d 8d 58 3c
       0.0014597167 0.11218274 0.020112786 0.013217327
0000e0 2e 63 ea 3d 7c 36 3e bc a7 1c 74 3c 6f 90 7a 3c
       0.11444698 -0.01160967 0.014899409 0.015293225
0000f0 36 8f c5 3d b1 f2 8a bc 7c 31 f4 3c b5 c3 45 bd
       0.09646456 -0.016961427 0.029808752 -0.048282344

a2c_network.mu.weight f4 [12, 64]
000000 d2 5e 82 bd c9 a7 c3 bd eb 2e 6d be f6 12 e0 bc
       -0.06365742 -0.09553487 -0.23162429 -0.027352791
000010 76 e9 f8 3d c1 ea ea 3d 88 f5 e0 3c 30 06 52 3d
       0.12153904 0.11470557 0.027460828 0.051275432
000020 06 b1 28 bd 8c ea 47 3d 8b 2b 8a bd 3d 00 d4 3d
       -0.041184448 0.048807666 -0.067465864 0.10351608
000030 0f 17 be 3d 9b b8 da bc f3 73 40 3e 04 a8 85 3d
       0.09281742 -0.026699355 0.18794231 0.06526187
000040 05 d2 7c 3d 59 22 c0 bd 96 7c 2d 3e 3b fd a0 bb
       0.061723728 -0.09381551 0.16942057 -0.004913
000050 1c e0 18 3d 76 e0 ce bc a6 a4 da bc a7 bb 50 3d
       0.037323102 -0.025253516 -0.026689839 0.05096021
000060 4c cb cd bd 15 48 fd bd 52 83 1b bd 6f 57 03 3e
       -0.100485414 -0.12367264 -0.037967034 0.12826322
000070 fd 4c d3 3d e7 e4 00 be 11 d0 73 3c 98 d6 9a 3d
       0.10317419 -0.1258732 0.01488115 0.07560462
000080 47 49 aa bd 0e eb 63 be ab bf 75 bd ef 10 0c 3e
       -0.08314758 -0.22257635 -0.059997242 0.13678335
000090 02 f8 11 3e 06 5f df bc 95 6a a7 3c 8f 49 a5 3c
       0.14254764 -0.02726699 0.020436564 0.020176677
0000a0 cf 1e d9 bd b8 42 f5 bd 5e dc 9a 3c 9e 43 82 bc
       -0.106015794 -0.11975616 0.018903907 -0.015901383
0000b0 1a d3 a0 3c 17 70 71 bd bc c8 89 bd cb 06 a2 bd
       0.019631911 -0.058944788 -0.0672774 -0.07911452
0000c0 3a da 53 bd 2e 6e 42 3e 45 d1 86 bd 2a 4f 9b 3d
       -0.05172179 0.18987343 -0.06582884 0.07583459
0000d0 a8 2f 8a bd 9c 2c bb bd 5a b2 86 3c a3 c8 01 bb
       -0.06747371 -0.09139368 0.016442467 -0.0019803427
0000e0 3d 1a 03 be 41 23 a1 3c a4 1b 5c 3c bc 70 9c 3d
       -0.12802978 0.01967013 0.013434324 0.0763869
0000f0 06 53 2c 3d 27 bd 43 bd d1 7c 1b 3c 5e 94 67 bc
       0.042071365 -0.04778781 0.009490208 -0.014134495
000100 4c 69 0c bd 04 b1 48 3e 9e 18 3b 3d e6 88 c6 3d
       -0.034280106 0.19598776 0.045677774 0.0969408
000110 25 68 44 bd 30 76 92 3c 02 97 e3 bd 04 fb b1 3d
       -0.047950882 0.017878622 -0.11112787 0.086904556
000120 fa 2b d7 bd 49 b4 95 bd 6e 1c 69 bc c4 99 75 3d
       -0.10506435 -0.07309777 -0.01422797 0.059961095
000130 65 39 39 bd b5 0f f2 bd 2c ef 00 bd a1 8d 83 3d
       -0.04522075 -0.11819402 -0.031478092 0.06423498
000140 10 82 93 3b 6b dc 4b 3d 37 bf f0 3d a6 fa 40 3d
       0.0045015886 0.049770754 0.11755221 0.047114037
000150 59 15 45 bd fc 4c 0f bd 12 8c cf bc a0 65 69 3d
       -0.04811606 -0.034985527 -0.025335345 0.056981683
000160 62 a4 a3 bc c0 b5 19 3d db 52 36 bd 87 82 3f bd
       -0.019975845 0.037526846 -0.04451261 -0.04675534
000170 6a 2e 9b bb c6 38 df 3d ac 3c d6 bc e8 e7 56 3e
       -0.0047357576 0.108995005 -0.026151977 0.20986903
000180 fd ce 85 bd ad ce 2a be df 08 42 3d 78 0f 8c 3d
       -0.065336205 -0.16680403 0.04737174 0.06838888
000190 49 c0 5b bc a7 38 b8 bc aa fe c9 bc 20 9e c8 bc
       -0.013412544 -0.022487951 -0.024657566 -0.024489462
0001a0 32 3c 0d be 4a 34 4b 3d 37 2b 1a 3d a7 db 21 3d
       -0.13792494 0.049610414 0.03763887 0.039516117
0001b0 b5 9d 5e be 0c 84 c4 3d 00 45 81 bd 14 63 89 3d
       -0.21739848 0.095954984 -0.06311989 0.06708351
0001c0 d0 e1 87 bb a4 56 8e 3e d0 07 ac 3d 20 5e ad 3d
       -0.004146792 0.27800477 0.083999276 0.084652185
0001d0 d6 0b 81 bd 84 ef 3a be a6 17 8b bc 0b 3b 73 3d
       -0.06301086 -0.1825543 -0.01697905 0.05938248
0001e0 c2 ab 5d 3d c5 47 1c 3e 45 13 12 3d ec f2 ec bd
       0.05411888 0.15261753 0.035662908 -0.11569771
0001f0 12 d1 e2 3c 55 62 fb 3d b6 f2 80 bd ed 10 26 3c
       0.027687583 0.12274615 -0.062962934 0.010135871
000200 da 4e 5f 3d b1 93 03 bd 3d 75 dc 3c 90 33 f7 3c
       0.054518558 -0.03212327 0.026911372 0.030175954
000210 36 62 c7 ba 97 38 a8 ba 2b 8a 06 3d fd 92 ba bc
       -0.0015211764 -0.0012834248 0.03284661 -0.022775168
000220 87 73 29 3d 3a 81 ab ba 64 87 11 bc 46 8c ce 3c
       0.04136994 -0.0013084777 -0.008882377 0.025213372
000230 13 3f b2 ba fa 88 bc 3c 2a 7c c0 3c 0f 27 9c 3d
       -0.001359912 0.023014534 0.023496706 0.07624637
000240 6f 1e 7d 3c 8b 4b 71 3d 62 b8 0b bd fe 75 1a 3d
       0.01544915 0.058909934 -0.034111388 0.037710182
000250 76 0c bf bb 08 6e 2c 3d a1 d3 0e 3c f7 14 29 3d
       -0.005830343 0.04209712 0.008717448 0.04127976
000260 95 cf ec 3c 99 3c 61 3d 9e bb 37 3a 5a 4b 7f bd
       0.028907577 0.05498943 0.0007008853 -0.06232772
000270 21 cb 88 ba 0e e7 3a 3d d6 67 1b bb 3e c4 7d bb
       -0.0010436514 0.045630507 -0.0023713014 -0.0038721706
000280 95 97 56 3d a9 fd 86 bc 46 74 69 3a aa 7d c5 3b
       0.052390654 -0.016478376 0.0008905571 0.006026943
000290 bf 0e 90 bd 00 b0 43 3d 2f 6c 57 bc 98 94 98 bc
       -0.070340626 0.04777527 -0.013148352 -0.018625543
0002a0 5d 2e e6 3b 6f 35 f4 bc fe 34 c5 bc 09 64 98 3b
       0.00702457 -0.029810635 -0.02407312 0.004650597
0002b0 ae 61 48 3c 01 aa 8d 3b 05 5b d2 bc 0e 0f ac bc
       0.01223032 0.0043232446 -0.025678167 -0.021003272
0002c0 c9 8f 80 3d 22 59 50 bb cd 14 93 3c 01 06 eb 3c
       0.06277425 -0.0031791409 0.017954255 0.028689386
0002d0 d8 f4 5d 3d 84 b6 1e 3d 13 a9 98 3b ce 50 8b 3d
       0.05418858 0.03874828 0.004658827 0.06802522
0002e0 4f 8a cd bc 23 95 30 bc f7 83 5d 3d be e1 3c 3c
       -0.025090365 -0.010777744 0.05408093 0.0115284305
0002f0 9d d1 0c bb 13 9e a0 bc ee 43 f3 bb 79 dd 90 3b
       -0.0021487244 -0.019606626 -0.0074238693 0.004420933
000300 26 c3 2e 3e 40 a3 03 bd 5e 3b 58 3d 4f 7d 3c 3e
       0.1706663 -0.03213811 0.052790992 0.18407176
000310 ee d4 19 3d 1b 74 ff 3c 31 3f e5 bb e7 58 ee bb
       0.03755658 0.031183293 -0.0069960584 -0.0072737816
000320 6e 94 89 bc f4 d3 76 bd 92 4d 1a bd 5e 95 b2 3a
       -0.01679441 -0.060260728 -0.037671633 0.0013624837
000330 a8 55 89 3d a4 72 57 bd d3 7c 0c 3d ee f9 07 3d
       0.06705791 -0.052599564 0.03429873 0.033197336
000340 ee 32 c5 3d c9 1e dc 3d 16 46 f3 bb c1 9d 3a 3e
       0.09628855 0.10748059 -0.0074241264 0.18224241
000350 db 44 17 be af f7 56 bb cd 41 22 3d 4a a4 c7 3c
       -0.1477236 -0.003280144 0.039613534 0.024370331
000360 43 52 10 be aa 1f d0 3a 65 2e 43 bd 67 6d 6c be
       -0.1409388 0.0015878577 -0.047651667 -0.23088609
000370 cc 93 a1 bd 25 b4 1c 3d aa 3b 7b bb 89 69 85 bd
       -0.07889518 0.038257737 -0.0038335123 -0.0651427
000380 ff f5 61 3b 5d b2 f4 bd 76 69 1e be 93 b8 d6 3b
       0.00344789 -0.119480826 -0.15469918 0.0065527647
000390 89 37 a7 3b 5e 96 89 3d 1c c0 11 bd b7 87 d8 bd
       0.005103056 0.067181334 -0.0355836 -0.105727606
0003a0 82 04 6a bd 57 2c c5 3c 75 e6 a8 bd c6 a5 b9 bc
       -0.057133205 0.024068994 -0.08247081 -0.022662055
0003b0 40 12 b3 3b e4 95 40 bd 08 34 62 3d ab 51 5b 3d
       0.005464822 -0.047017947 0.055225402 0.05354468
0003c0 37 b2 84 39 c8 e4 ce 3d c7 81 3e 3e 43 21 33 bc
       0.00025309782 0.1010223 0.18604194 -0.010933223
0003d0 94 a6 cf 3d cf a4 db 3d f7 ce d5 3d 88 15 94 bd
       0.10139194 0.10724794 0.10439866 -0.07230669
0003e0 e0 73 31 3d 9e f8 18 bd 3f 1f a1 bd 4a 4f 50 bd
       0.043323398 -0.037346475 -0.07867288 -0.050856866
0003f0 a0 f3 5c bd fe 0a 01 be 25 7b 95 3c e5 a8 fa 3c
       -0.053943276 -0.1260185 0.018247196 0.030598113

a2c_network.mu.bias f4 [12]
000000 43 1d 74 3d d1 c2 e9 3d be 3e 87 be 4a 60 70 bd
       0.05959822 0.114141114 -0.26415056 -0.05868558
000010 47 3a 32 3d 34 60 c4 3b 24 60 2b 3d f3 45 47 3d
       0.04351261 0.0059929136 0.041839734 0.048650693
000020 e5 4d da 3c 09 3a 1a bc ce 22 0c 3d 3f 44 6a bd
       0.026648471 -0.009413251 0.03421288 -0.05719399

exp_avg f4 [12]
000000 0a f0 0e 3c fd 98 14 3c 9b d6 08 3b d7 95 8e 3c
       0.008724222 0.009069678 0.0020879868 0.017405434
000010 58 4b 8d bc 8c 9e 7e 3c 74 4d 4d 3c e6 2d 0d 3b
       -0.01724784 0.01554073 0.012530673 0.002154225
000020 0a bc ae 3c ef 32 ce bb b9 f6 7d 3c 1e 28 09 bc
       0.021329898 -0.006292693 0.015500718 -0.008371381

exp_avg_sq f4 [12]
000000 51 a4 79 3b b5 c3 51 3b ae 05 50 3b 06 5e 65 3b
       0.0038092325 0.003200752 0.0031741667 0.003499867
000010 dd 32 3d 3b 5f f9 ac 3b d5 e8 36 3b 69 7a 3c 3b
       0.0028869428 0.005278751 0.0027909775 0.0028759486
000020 6c de 3e 3b ec 78 4b 3b a3 40 2a 3b b1 6c 4f 3b
       0.0029124273 0.0031047417 0.0025978468 0.0031650478
