omniisaacgymenvs/runs/WEE/nn/last_WEE_ep_1200_rew_891.38983.pth (torch, 623514 bytes, 36 tensors)

value_mean_std.running_mean f8 [1]
0	0xc037d376f14878cb	-23.826033668702433

value_mean_std.running_var f8 [1]
0	0x4092e68a0e49132c	1209.6348201196624

value_mean_std.count f8 []
0	0x41b2c00001000000	314572801.0

running_mean_std.running_mean f8 [32]
0	0x3f9047e1441866ee	0.01589920023079732
1	0x3f891a51302ca885	0.012257227213542396
2	0x3fddf5c8e40bfe5f	0.4681265093822499
3	0xbfb035ff1343fba7	-0.06332391949034265
4	0x3f9347dc00772095	0.018828809288408428
5	0xbf7f73098e64b273	-0.007678067521095333
6	0x3fdc65da6b623f57	0.44371662604043166
7	0x3fa9fb3ca75ee186	0.05074491065119262
8	0x3f8cdec1bff5bb70	0.014096749945307713
9	0x3fa7bf8797953804	0.046383130315561544
10	0x3f7240ab27bc76b6	0.004456204009128653
11	0xbf2a7455bc633f57	-0.00020183130818062875
12	0x3fb88f836904f061	0.09593983949611264
13	0x3eb511cb6c8c15db	1.2558406742869312e-06
14	0xbef80243d7ba19de	-2.2896621415325012e-05
15	0x3fdb6f39033733cb	0.42866349519755137
16	0x3fe0e9e6d63a2bd5	0.5285524543882
17	0xbf19965c9b6626eb	-9.76079962581551e-05
18	0x3ee8bf8d8e5edd09	1.1800886976816407e-05
19	0xbfb7fa57addaa07e	-0.09366367334826184
20	0x3f37c5cfdcd851b2	0.0003627426602588426
21	0x3f61546a3be7c3bc	0.002115447510043526
22	0xbf68280bc67ec69e	-0.0029487829196675605
23	0xbfc46c167ce184e5	-0.15954857919408663
24	0xbf85e303ae7f0e94	-0.01068690181990143
25	0xbf9837ea1645b9bb	-0.02365079651775102
26	0x0000000000000000	0.0
27	0x0000000000000000	0.0
28	0x0000000000000000	0.0
29	0x0000000000000000	0.0
30	0x0000000000000000	0.0
31	0x0000000000000000	0.0

running_mean_std.running_var f8 [32]
0	0x3f66c52001247eb3	0.0027795434081239966
1	0x3f5787b5e273593d	0.0014361644951371288
2	0x3f5bcfaefb56f3ca	0.0016974648291203536
3	0x3fe37e7451f9e34a	0.609186325177782
4	0x3f89f940992847a7	0.012682442354193869
5	0x3fa3724e8f3c621b	0.03798146723255887
6	0x3fc1d7b12979ed10	0.13939489865502042
7	0x3fe9fa2c372e8640	0.8117886617439538
8	0x3feaebc9fad45901	0.8412828349126188
9	0x3fe877f8682c4a8e	0.764644816840091
10	0x406ec613b9add9aa	246.1899078746331
11	0x40638c1d39722853	156.37856743141546
12	0x406df0bcc806e5f1	239.52304459903056
13	0x3ed3501439e846e4	4.604532391387745e-06
14	0x3ed82d62c3eb89d6	5.76431472040997e-06
15	0x3efb7b3bc84c21b2	2.6208287198266427e-05
16	0x3fd18a8ac4d10ea6	0.2740809366261864
17	0x3f307c3240d8b899	0.00025154330146194
18	0x3f32c9c39627765d	0.00028668427526476974
19	0x3fdbfc21ca87fca6	0.4372639158099879
20	0x3f766f497a9714f0	0.005477225329234545
21	0x3f765a2770b9ad4f	0.005457071365167223
22	0x3f6cde3ef03aca7b	0.0035239438310211125
23	0x402a2525209f7420	13.072548884834816
24	0x402d0e7c769c8670	14.528293329817842
25	0x401d63da926eb4e1	7.34751347351741
26	0x3e3b4e81b1fe7381	6.357828735619602e-09
27	0x3e3b4e81b1fe7381	6.357828735619602e-09
28	0x3e3b4e81b1fe7381	6.357828735619602e-09
29	0x3e3b4e81b1fe7381	6.357828735619602e-09
30	0x3e3b4e81b1fe7381	6.357828735619602e-09
31	0x3e3b4e81b1fe7381	6.357828735619602e-09

running_mean_std.count f8 []
0	0x41a2c00002000000	157286401.0

a2c_network.sigma f4 [12]
0	0xbfa2a732	-1.2707274
1	0xbf85fc5a	-1.0467637
2	0xc01d67bf	-2.4594572
3	0xbf7eb51c	-0.994951
4	0xbf824615	-1.0177637
5	0xc06ad42d	-3.6692002
6	0xbf68763e	-0.90805423
7	0xbf328090	-0.6972742
8	0xbf5cae8c	-0.8620384
9	0xbf2be496	-0.6714567
10	0xbf681835	-0.90661937
11	0xbf5bd5a8	-0.8587289

a2c_network.actor_mlp.0.weight f4 [256, 32]
0	0x3dfac2cf	0.12244188
1	0x3e0c7f15	0.13720353
2	0xbe9337dc	-0.28753555
3	0x3da13039	0.07870526
4	0x3f2a78a8	0.66590357
5	0x3f97d879	1.1862937
6	0x3ccbe3c1	0.024888875
7	0xbcdadeb4	-0.026717521
8	0xbe08e0a2	-0.1336694
9	0xbe42d948	-0.19028199
10	0x3e3db174	0.18524724
11	0x3e8cc60f	0.27494857
12	0x3d0e3551	0.034718815
13	0xbe9e4666	-0.30913085
14	0xbe005776	-0.12533364
15	0xbe10649b	-0.14100878
16	0x3ddb78e8	0.107164204
17	0xbe88e1d4	-0.26734793
18	0xbe7937b4	-0.24337655
19	0xbdbfd373	-0.093665026
20	0xbe1feb53	-0.15617113
21	0x3e234dac	0.15947598
22	0x3cb697f8	0.022289261
23	0x3dec92a2	0.115514055
24	0x3dbb0056	0.091309234
25	0xbc6910f5	-0.014225234
26	0x3e0daacf	0.1383469
27	0xbe009de0	-0.12560225
28	0x3c365cc8	0.011130519
29	0xbdf71b1f	-0.1206572
30	0x3d5f454c	0.054509446
31	0xbd795c02	-0.06087876
32	0x3db851d8	0.089999855
33	0x3ca5ddf4	0.020247437
34	0x3e6c0265	0.23047788
35	0xbdf3192f	-0.11870038
36	0xbf4350b9	-0.7629505
37	0xbf6d0dbf	-0.925991
38	0x3e1cc7fb	0.15310661
39	0x3e9e4878	0.30914664
40	0x3e9bc6a9	0.30425003
41	0xbe8ab9e4	-0.27094948
42	0xbe9efed1	-0.31053784
43	0xbeaab202	-0.33338934
44	0x3e1f51e0	0.15558577
45	0x3e98f211	0.29872182
46	0x3efcb84e	0.49359363
47	0x3e87b1f2	0.2650295
48	0xbe1d09e6	-0.15335807
49	0xbdc2cafd	-0.09511373
50	0x3e0d174a	0.13778415
51	0xbe08df2a	-0.1336638
52	0x3e18069b	0.1484627
53	0xbdfeb1ce	-0.12436257
54	0x3e0f4b57	0.13993584
55	0xbd31900d	-0.04335027
56	0xbd356afb	-0.044291478
57	0xbd1b27ff	-0.03787994
58	0x3d19134e	0.037371926
59	0xbd389c1f	-0.045070764
60	0x3dd7ccd9	0.105371185
61	0x3df61e02	0.12017442
62	0xbe034539	-0.12819375
63	0xbdc147eb	-0.094375454
64	0x3e1a98f5	0.15097411
65	0xbde8c078	-0.113648355
66	0xbe906f82	-0.28210074
67	0xbece6b85	-0.40316406
68	0xbf9b5f21	-1.2138406
69	0xbf0738d1	-0.5282107
70	0xbde1709f	-0.11007809
71	0xbedd7e67	-0.432605
72	0x3d6e5429	0.05818573
73	0xbea1e13b	-0.3161715
74	0xbd804574	-0.06263247
75	0xbf0281ee	-0.50979507
76	0xbedd8902	-0.4326859
77	0xbe8105fe	-0.25199884
78	0x3f268a89	0.6505514
79	0x3d974b96	0.07387464
80	0xbd609e56	-0.0548385
81	0xbe30a8f0	-0.17251945
82	0xbe6cebc1	-0.23136808
83	0xbdafe0fb	-0.085878335
84	0xbd0a3c45	-0.033748884
85	0xbdf02203	-0.11725237
86	0xbe122410	-0.14271569
87	0xbe08aeb3	-0.13347892
88	0x3b9274c1	0.0044694846
89	0xbce96745	-0.028491626
90	0xbc48b3b4	-0.012249876
91	0xbdf55402	-0.11978914
92	0xbdf88068	-0.121338665
93	0xbdd336c9	-0.10313184
94	0xbd77d98d	-0.060510207
95	0xbe0ee007	-0.13952647
96	0x3de4d2a0	0.11172986
97	0x3e83e52f	0.2576079
98	0xbce21293	-0.027596748
99	0x3b6ed081	0.0036440196
100	0xbed1ff38	-0.4101503
101	0xbea28c5d	-0.31747714
102	0xbe5cce9a	-0.21563187
103	0xbec8162c	-0.39079416
104	0xbe701751	-0.23446395
105	0xbe77a6bc	-0.24184698
106	0x3e030688	0.1279546
107	0x3dc14431	0.094368346
108	0xbe14f567	-0.14546739
109	0xbe57f0c4	-0.21087939
110	0xbdbf3a75	-0.09337322
111	0xbe94e4d7	-0.2908084
112	0xbd835369	-0.064123936
113	0xbd868080	-0.06567478
114	0xbd9a0444	-0.07520345
115	0x3d62cbe7	0.055370238
116	0x3e40650f	0.18788551
117	0xbdc648da	-0.09681864
118	0x3d80c937	0.06288379
119	0xbe0becdb	-0.13664572
120	0x3995a6a8	0.00028543663
121	0xbdcf0c09	-0.101097174
122	0x3e24e20e	0.16101858
123	0xbe04dbf6	-0.12974533
124	0x3dc17df5	0.094478525
125	0x3d7e782e	0.06212633
126	0x3d6b4b11	0.057444636
127	0xbdc3bc1e	-0.09557365
128	0x3e93a7d6	0.28838986
129	0x3ddccfd0	0.107818246
130	0xbd5efc6f	-0.05443996
131	0xbe4ac8c0	-0.19803143
132	0x3f5c7876	0.8612131
133	0x3df9f499	0.122048564
134	0xbd5cd2df	-0.05391204
135	0x3e846407	0.25857565
136	0xbd2e8e9c	-0.04261647
137	0xbc9c6131	-0.019089313
138	0x3cb44da2	0.022009674
139	0xbb94d2e6	-0.0045417426
140	0xbb934676	-0.0044944836
141	0xbe3ad4cc	-0.18245238
142	0xbe54e6e6	-0.20791206
143	0xbe1b927b	-0.15192597
144	0xbcd850d9	-0.026405739
145	0xbe13ebbf	-0.14445399
146	0x3e5a1668	0.2129761
147	0xbdac1dd6	-0.08404128
148	0xbd849c58	-0.06475133
149	0x3c851c64	0.01624889
150	0xbb7ca7b3	-0.0038552105
151	0x3d15451e	0.03644287
152	0x3c2edb31	0.0106723765
153	0x3c8fb66b	0.017543038
154	0x3d876049	0.06610162
155	0xbcfe78c6	-0.031063449
156	0xbd3fbc91	-0.04681069
157	0x3c9aecc7	0.018911732
158	0xbcffd28d	-0.031228328
159	0xbd57c69b	-0.05267964
160	0x3e0a8e45	0.13530834
161	0x3e947107	0.28992483
162	0xbf120c71	-0.57050234
163	0x3c55f174	0.013058055
164	0x3c345270	0.011005983
165	0xbe6eb0cf	-0.23309635
166	0xbd3c3f51	-0.04595882
167	0xbeb033f7	-0.34414646
168	0xbea30a8e	-0.3184399
169	0xbd1e4cdf	-0.03864753
170	0x3e299b0f	0.16563056
171	0x3d9dcc0d	0.07704935
172	0xbf414cc7	-0.7550778
173	0xbecdfc0d	-0.40231362
174	0xbc573296	-0.013134619
175	0xbe9fc3b6	-0.31204003
176	0x3d816f4f	0.063200586
177	0x3e30adb1	0.17253758
178	0x3da28631	0.07935751
179	0x3e01c9a7	0.1267458
180	0xbe92d0b2	-0.28674847
181	0x3c623514	0.0138066
182	0xbe7449d0	-0.23856282
183	0x3e0e0218	0.13867986
184	0x3c9877aa	0.018611748
185	0xbe325c74	-0.1741808
186	0x3d95c7ea	0.07313521
187	0xbd89e4d3	-0.06733098
188	0xbdea54e2	-0.11441971
189	0x3e041fab	0.12902705
190	0xbda49ea0	-0.08038068
191	0xbd112747	-0.03543785
192	0xbe32fd6c	-0.17479485
193	0x3e9e466d	0.30913106
194	0xbc49bc42	-0.012312951
195	0x3da440ff	0.080202095
196	0x3ea0720d	0.31337014
197	0xbf58ad66	-0.84639585
198	0xbdc71958	-0.09721631
199	0xbbac4bae	-0.005258045
200	0x3dce9ed5	0.100888886
201	0x3dbf1e14	0.09331909
202	0x3e4d1e83	0.2003117
203	0xbe2c4a5a	-0.16825238
204	0xbeb2e45d	-0.34939852
205	0xbe91f46b	-0.2850679
206	0xbe9ca6a2	-0.3059588
207	0xbe11ae62	-0.14226678
208	0x3e20b919	0.15695609
209	0xbdd5a36e	-0.10431562
210	0x3d65d4a9	0.05611101
211	0x3d1344d6	0.03595432
212	0xbd85a439	-0.065254636
213	0xbcbc1fd5	-0.022964397
214	0xbe76601d	-0.24060102
215	0x3cc9244f	0.024553446
216	0xbdcb6fd2	-0.099334374
217	0x3de661af	0.112491004
218	0xbd684a55	-0.056711514
219	0xbe04ca34	-0.1296776
220	0xbcff82c7	-0.03119029
221	0xbdaf7f4f	-0.08569204
222	0xbd5d867e	-0.05408334
223	0xbe2c5461	-0.16829063
224	0x3db57888	0.0886088
225	0xbe6b299f	-0.22965096
226	0x3e1ee47a	0.15516844
227	0x3dc8047a	0.09766479
228	0x3e95faff	0.29293057
229	0x3e9256ed	0.28581944
230	0x3e39296b	0.18082206
231	0xbce63b42	-0.028104428
232	0x3d0ef2ef	0.03489965
233	0x3e2c1dd6	0.16808257
234	0xbe740087	-0.23828326
235	0xbe2508bb	-0.16116612
236	0x3d4d686a	0.050148405
237	0xbecf1627	-0.40446588
238	0xbe2c2cad	-0.16813917
239	0xbeae97df	-0.34100243
240	0x3e32dc11	0.17466761
241	0x3d2beab9	0.041971896
242	0x3dd312e7	0.1030634
243	0xbdaff459	-0.085915275
244	0xbe330c20	-0.17485094
245	0x3d334db4	0.043775275
246	0xbc8f7687	-0.017512573
247	0xbe51cd85	-0.20488556
248	0x3beb0a0e	0.0071728295
249	0xbe849d7a	-0.25901395
250	0xbc7d5271	-0.01546155
251	0xbdb23348	-0.08701187
252	0xbd93fd5b	-0.07226058
253	0xbd65dd62	-0.05611933
254	0xbe2c05fe	-0.16799161
255	0x3e148719	0.1450466

a2c_network.actor_mlp.0.bias f4 [256]
0	0x3e2053e7	0.15657006
1	0x3e98f769	0.2987626
2	0x3e03f7ad	0.1288745
3	0xbe8e6301	-0.2780991
4	0x3bba6dfa	0.0056893798
5	0x3e736d5a	0.23772183
6	0xbe47db95	-0.19517358
7	0xbe988c72	-0.2979465
8	0xba19b578	-0.0005863528
9	0xbe6c60a4	-0.2308374
10	0xbdfd9743	-0.123823665
11	0xbbfb323d	-0.007665901
12	0x3d00be73	0.031431627
13	0xbd99d34f	-0.07511007
14	0x3de5cdc5	0.11220888
15	0xbe1ec8e3	-0.1550632
16	0x3e290afa	0.16508093
17	0x3dd5e016	0.104431316
18	0x3d9c0172	0.07617463
19	0x3dba468f	0.09095489
20	0x3e1fc8ca	0.15603939
21	0xbe56c6bd	-0.2097425
22	0xbdc20795	-0.094741024
23	0x3e810c2e	0.25204605
24	0x3e9a0b98	0.3008697
25	0xbdcab0d5	-0.09897009
26	0xbe734d86	-0.23760042
27	0xbeab0003	-0.33398446
28	0xbeb3515c	-0.3502301
29	0xbe3c5b05	-0.18394096
30	0xbea5435d	-0.32277957
31	0xbd854ff9	-0.06509394
32	0xbe0fc5a7	-0.14040242
33	0xbe2bcadf	-0.16776608
34	0xbec6425b	-0.387225
35	0x3eab3f19	0.33446577
36	0x3d552a28	0.052042156
37	0x3e4b7ca2	0.19871762
38	0xbe2584e2	-0.16163972
39	0xbeb9e3d1	-0.36306623
40	0xbc844eb8	-0.016150817
41	0xbd8e5f94	-0.06951824
42	0x3e8dc999	0.2769287
43	0xbe139038	-0.14410484
44	0xbe324a1d	-0.17411084
45	0x3d500c4f	0.05079299
46	0x3d8c6743	0.06855633
47	0x3e598c1d	0.21244855
48	0x3e9cb75b	0.3060864
49	0xbe062243	-0.13099007
50	0xbd96a62f	-0.07355916
51	0xbe2b0256	-0.1670011
52	0xbe194147	-0.14966308
53	0x3eb5236f	0.35378596
54	0xbde2ef7d	-0.11080835
55	0x3e7e0735	0.24807437
56	0xbe79eefe	-0.24407575
57	0xbcffb446	-0.03121389
58	0x3e57dce1	0.21080352
59	0x3eb81da9	0.3596013
60	0x3e40b2c7	0.18818198
61	0x3e409b15	0.18809159
62	0x3ea53eb5	0.32274404
63	0xbe090ff6	-0.13384995
64	0x3e1a4555	0.1506551
65	0xbf111408	-0.5667119
66	0xbccebcbd	-0.025236482
67	0x3d4e0fc3	0.050308
68	0xbd7d74a2	-0.061878808
69	0x3e4966c1	0.19668104
70	0xbe6b67e1	-0.22988845
71	0xbdbab069	-0.09115679
72	0x3ec6446e	0.38724083
73	0xbc182b5b	-0.0092876805
74	0x3df46472	0.11933221
75	0x3d99a010	0.075012326
76	0x3df4acbd	0.1194701
77	0x3e3206e0	0.17385435
78	0x3ef04ada	0.46932107
79	0xbe377f9d	-0.17919774
80	0xbe89b11e	-0.26892942
81	0x3e31d3a5	0.17365892
82	0x3defa43b	0.11701246
83	0xbd9bc041	-0.07605029
84	0x3ded6f2d	0.11593471
85	0x3ea1a6c6	0.3157255
86	0x3de1c1b2	0.110232726
87	0x3c642aa9	0.013926187
88	0x3dcc9239	0.09988827
89	0x3c0ef226	0.008724725
90	0x3e873824	0.2641002
91	0x3e19c668	0.15017092
92	0xbdbe977f	-0.09306239
93	0xbe23be98	-0.15990674
94	0x3ef21e48	0.47288728
95	0x3dfc0729	0.12306053
96	0x3db94ca9	0.09047825
97	0x3b871ef1	0.0041235615
98	0x3d8487dc	0.064712256
99	0xbd492878	-0.04911086
100	0xbd760a35	-0.060068328
101	0xbe5e4d82	-0.21709254
102	0xbe1ab142	-0.15106681
103	0xbe3826e1	-0.17983581
104	0xbe7523bc	-0.23939413
105	0x3e4acddd	0.19805093
106	0xbd59f0ac	-0.05320804
107	0xbee3ab6b	-0.4446672
108	0x3ea9e276	0.33180588
109	0xbc786fc6	-0.015163368
110	0xbccc0173	-0.024903035
111	0xbdff61dd	-0.12469838
112	0xbda72ead	-0.081631996
113	0xbe3d1038	-0.18463218
114	0x3e93459b	0.28764042
115	0xbec34c25	-0.3814403
116	0x3e91a82a	0.28448611
117	0x3e7a16b9	0.2442273
118	0x3e14d591	0.14534594
119	0x3e5e1c00	0.21690369
120	0xbe76ae2f	-0.24089883
121	0xbe657e53	-0.2241147
122	0xbe24b5b5	-0.1608494
123	0xbdf42a0c	-0.11922082
124	0x3e488da4	0.19585282
125	0x3ee823b9	0.45339754
126	0x3ebbce02	0.3668061
127	0xbd4534c5	-0.048146028
128	0xbe29d2bc	-0.16584295
129	0x3d65d1a0	0.056108117
130	0x3ec91e64	0.39281
131	0xbd3a339e	-0.045459382
132	0x3e8c04de	0.27347463
133	0x3d05867d	0.03259896
134	0xbe921602	-0.28532416
135	0xbe59400c	-0.21215838
136	0xbea26bd9	-0.31722906
137	0x3ec5aec6	0.38609904
138	0x3deceddf	0.11568808
139	0xbd516f9c	-0.05113183
140	0x3ddbdfd3	0.107360505
141	0x3e03bac9	0.12864222
142	0xbe7f0851	-0.24905516
143	0xbea7f642	-0.32805067
144	0x3d9f94bb	0.0779204
145	0x3e768adb	0.24076407
146	0x3ec5cc91	0.38632634
147	0xbd21cf71	-0.039504472
148	0xbe8f982b	-0.28045782
149	0x3dfc76d8	0.12327355
150	0xbe3f1cd8	-0.18663347
151	0x3dd01591	0.101603635
152	0x3eb10d33	0.34580383
153	0x3e9622f7	0.2932355
154	0xbbda9ad4	-0.006671289
155	0x3c7cffa7	0.015441812
156	0x3dcb9f20	0.0994246
157	0xbe962035	-0.29321447
158	0x3e8940dc	0.26807296
159	0x3d6c0ca4	0.057629243
160	0xbe6af3b1	-0.22944523
161	0x3e88548b	0.26627
162	0x3e831e88	0.2560923
163	0xbe7e1ce2	-0.24815705
164	0xbe204de9	-0.1565472
165	0xbe064287	-0.13111316
166	0xbec3ebec	-0.38265932
167	0xbebf7948	-0.37397218
168	0xbd239fc2	-0.03994728
169	0xbdc3e245	-0.09564642
170	0xbd40777a	-0.04698894
171	0x3e50b0fd	0.20380016
172	0xbed65033	-0.41858062
173	0x3e64525b	0.22297041
174	0x3eab1bf9	0.3341978
175	0x3ebfbb43	0.37447557
176	0x3d3ec914	0.04657848
177	0x3e207a0f	0.15671562
178	0xbd88eda4	-0.06685951
179	0xbe668aae	-0.2251384
180	0x3e5b7cfa	0.21434394
181	0xbe79c970	-0.24393249
182	0x3e68a7cf	0.22720264
183	0xbdebb7ae	-0.115096435
184	0x3d9da740	0.07697916
185	0x3e46db12	0.19419506
186	0xbe1d100c	-0.15338153
187	0x3ec0d2d2	0.37660843
188	0xbe2ec5c3	-0.17067628
189	0xbdfd8a86	-0.12379937
190	0xbe5e451f	-0.21706055
191	0xbda287cb	-0.07936057
192	0x3dfa81d1	0.12231792
193	0xbcc1b53b	-0.023645988
194	0xbe0ca4d3	-0.1373475
195	0x3d532642	0.051550157
196	0x3e5f987e	0.21835515
197	0xbc44765f	-0.0119911125
198	0x3e2a1b86	0.16612062
199	0xbebceee3	-0.36901006
200	0xbb9e77b8	-0.004836049
201	0xbeabfbb5	-0.33590475
202	0xbe13689d	-0.14395376
203	0x3e62ab5f	0.22135685
204	0x3e88d050	0.2672143
205	0xbdf5aa2e	-0.1199535
206	0xbcac51e5	-0.021035144
207	0x3e6d8341	0.231946
208	0xbdc8dd5e	-0.098078474
209	0x3e64403a	0.22290125
210	0x3e2c30ee	0.1681554
211	0x3e70a9a0	0.23502207
212	0x3dff5997	0.1246826
213	0xbde51dae	-0.111873016
214	0x3e52db36	0.20591435
215	0x3bb48505	0.005509021
216	0xbdf0f3f3	-0.117652796
217	0xbd984663	-0.074353
218	0xbcc9cabb	-0.024632802
219	0x3e199996	0.14999995
220	0xbea00bb2	-0.31258923
221	0x3e317ba1	0.17332317
222	0xbe64325b	-0.22284834
223	0xbe3f2909	-0.18667997
224	0xbdcbc057	-0.09948795
225	0x3d8f6967	0.07002526
226	0xbb930b3c	-0.004487423
227	0x3c917e8b	0.017760536
228	0xbe52989b	-0.20566027
229	0xbde42282	-0.11139394
230	0xbe5e4a0f	-0.21707939
231	0x3ea1cba7	0.31600687
232	0x3dbc7f62	0.09203984
233	0xbe5eaa60	-0.2174468
234	0x3eb0967f	0.3448982
235	0xbccddac6	-0.025128733
236	0xbdcd36f9	-0.10020251
237	0x3e5b0608	0.2138902
238	0x3e5cc86a	0.21560827
239	0xbe4b78ec	-0.19870347
240	0xbe157518	-0.14595449
241	0xbe668701	-0.22512437
242	0x3e297a17	0.1655048
243	0xbe172097	-0.14758526
244	0x3d5bf7bd	0.05370306
245	0x3e3256a5	0.17415865
246	0x3eb13679	0.34611872
247	0xbe3a44a3	-0.18190245
248	0x3eac3110	0.33631182
249	0xbd3ee65b	-0.046606403
250	0xbdb1eb01	-0.086874016
251	0x3d7352cf	0.059405144
252	0xbe4eb845	-0.20187481
253	0x3dcdd863	0.10051038
254	0xbc8562fd	-0.016282553
255	0xbe763a36	-0.24045643

a2c_network.actor_mlp.2.weight f4 [128, 256]
0	0xbf103620	-0.5633259
1	0x3ea35764	0.3190261
2	0xbd376410	-0.04477316
3	0xbe4d7edd	-0.20067926
4	0xbe09e02d	-0.13464423
5	0xbebb2696	-0.36552876
6	0xbe21e99f	-0.15811776
7	0x3d1ee1e4	0.038789645
8	0x3d929944	0.07158139
9	0x3e5463d7	0.20741211
10	0xbeabfa04	-0.33589184
11	0xbde06c72	-0.10958184
12	0xbe293ef2	-0.16527918
13	0x3cdca802	0.026935581
14	0xbdfa544e	-0.12223111
15	0xbeaa62af	-0.33278415
16	0xbda1a45d	-0.07892678
17	0xbc61a2f1	-0.013771758
18	0xbd7f6000	-0.062347412
19	0x3e2af949	0.16696657
20	0xbe73dcdb	-0.23814718
21	0x3e144108	0.14477932
22	0xbe748d1a	-0.23881951
23	0x3d87b268	0.06625825
24	0x3d913d95	0.07091824
25	0x3d88c4fe	0.06678198
26	0xbdb4c33a	-0.08826299
27	0xbe343247	-0.17597304
28	0x3e9c15c6	0.30485362
29	0xbdee6ee1	-0.11642242
30	0x3e3142d7	0.17310654
31	0x3d5d6101	0.05404759
32	0xbc929740	-0.017894387
33	0x3e4cd5e4	0.20003468
34	0xbe17a234	-0.1480797
35	0xbea1d830	-0.3161025
36	0xbe2d6df5	-0.16936477
37	0x3def809d	0.11694453
38	0x3d0f436e	0.034976415
39	0x3e7a4367	0.24439774
40	0x3d8a926a	0.067662075
41	0x3dbed414	0.093177944
42	0xbe107ee9	-0.14110912
43	0xbde6d4e7	-0.11271077
44	0x3eaed3cc	0.34145963
45	0xbe592d42	-0.2120867
46	0xbe8e9a5a	-0.27852136
47	0xbded2376	-0.11579029
48	0x3e5b77e4	0.21432453
49	0x3e43bb52	0.19114426
50	0x3e1c0c2b	0.15239017
51	0xbe4c281a	-0.19937173
52	0x3e9c0eb5	0.3047997
53	0xbedad33b	-0.4273928
54	0x3e33b834	0.17550737
55	0x3e302bb2	0.17204168
56	0xbc52cde0	-0.012866467
57	0xbe49f552	-0.19722489
58	0x3e323b83	0.17405514
59	0xbe456c18	-0.19279516
60	0x3ee595da	0.4484089
61	0xbe9541ec	-0.29151857
62	0xbe316256	-0.17322668
63	0xbdfb0ea5	-0.122586526
64	0xbd99f528	-0.07517463
65	0xbe0b67d1	-0.13613822
66	0xbe89197e	-0.26777261
67	0xbd8321e6	-0.0640295
68	0xbe69c7b2	-0.22830084
69	0x3c04728f	0.0080839535
70	0x3e72520b	0.2366411
71	0xbe2f86bb	-0.1714124
72	0xbe8d1d88	-0.27561593
73	0x3df50926	0.119646356
74	0xbe26daa0	-0.16294336
75	0xbe0bf08e	-0.13665983
76	0xbdb74f93	-0.089507245
77	0x3d4a34bf	0.04936671
78	0xbe2001cc	-0.15625685
79	0xbc1ad844	-0.009450976
80	0x3bb62b07	0.0055593285
81	0xbd590f39	-0.052993033
82	0x3e4835b0	0.1955173
83	0xbdf4328d	-0.11923704
84	0x3d9be56a	0.07612117
85	0xbd70a747	-0.058753278
86	0x3b8c610e	0.0042840308
87	0xbeb8cb0a	-0.36092407
88	0xbdad1c6c	-0.08452687
89	0xbd6d35ec	-0.057912752
90	0x3d54cafb	0.05195139
91	0x3cc47478	0.023981318
92	0xbeac2d0f	-0.33628127
93	0xbe5d02ac	-0.2158305
94	0xbc9ffccf	-0.019529728
95	0x3e306aea	0.17228284
96	0xbe26109c	-0.16217273
97	0x3dceb079	0.10092253
98	0xbea10263	-0.31447133
99	0x3e534d07	0.20634852
100	0xbe7a8541	-0.24464895
101	0x3e130504	0.14357382
102	0x3e0d2b06	0.13785943
103	0x3e2c4bf9	0.16825856
104	0x3e2e94de	0.17048976
105	0xbeaae56f	-0.3337817
106	0x3cbb8201	0.02288914
107	0x3e21e09e	0.15808341
108	0xbdb409b9	-0.08790917
109	0x3e041d3f	0.12901781
110	0x3d24b5de	0.040212505
111	0x3d071e95	0.03298815
112	0x3d3b8d5e	0.045789115
113	0x3e4506b4	0.19240838
114	0x3e99d147	0.30042478
115	0x3e937d81	0.2880669
116	0xbcd73b84	-0.026273496
117	0xbc72902c	-0.014804881
118	0x3caa06d0	0.020755202
119	0xbcdb241d	-0.026750619
120	0xbcabaa04	-0.020955093
121	0xbde8ce92	-0.11367525
122	0x3d9ce380	0.0766058
123	0x3b8e5d15	0.0043445923
124	0x3bcd206d	0.006259969
125	0xbd56912d	-0.052384544
126	0xbe0f94be	-0.14021584
127	0x3d5f74c9	0.054554734
128	0xbd841c74	-0.064507395
129	0xbde6aac9	-0.112630434
130	0x3e11e817	0.14248691
131	0xbd87ecb1	-0.06636942
132	0xbe12ce60	-0.14336538
133	0xbea1994b	-0.31562266
134	0x3e0b1b7e	0.13584706
135	0x3bd2c11c	0.006431712
136	0xbe3c29db	-0.18375342
137	0x3d4a3d80	0.049375057
138	0x3e2a46c8	0.16628563
139	0x3e77f90d	0.24216099
140	0xbd4a057e	-0.049321644
141	0x3e3d1f53	0.1846898
142	0x3e8af837	0.27142498
143	0xbd6fdfbc	-0.05856298
144	0x3d506de3	0.050886046
145	0xbe6ba31a	-0.23011437
146	0x3db5bc62	0.08873822
147	0xbdbf697b	-0.09346291
148	0x3d890ac0	0.066915035
149	0xbe8b6edc	-0.27233016
150	0x3c0fd363	0.008778426
151	0x3e65d027	0.22442685
152	0x3e5c30fb	0.2150306
153	0xbdf599f1	-0.119922526
154	0xbe156c32	-0.14592054
155	0xbe000772	-0.1250284
156	0xbe706c5a	-0.23478833
157	0xbe379b3c	-0.17930311
158	0xbd5c1c00	-0.05373764
159	0xbf3a8e88	-0.72873735
160	0xbdb372ce	-0.08762132
161	0xbebe0760	-0.37115002
162	0xbef0ad76	-0.4700734
163	0xbec59df5	-0.38597074
164	0xbd8a8c00	-0.06764984
165	0x3e24eb8c	0.16105479
166	0xbe995b17	-0.2995231
167	0xbe53d014	-0.20684844
168	0xbe5e29f4	-0.21695691
169	0x3cf4a546	0.029863965
170	0xbe634d99	-0.2219757
171	0xbf7ae504	-0.980057
172	0x3e102382	0.14076045
173	0xbe4516bb	-0.19246952
174	0xbe9d1427	-0.30679438
175	0xbe7e48e9	-0.248325
176	0xbeb8a3ac	-0.36062372
177	0x3d8005cd	0.062511064
178	0xbde09057	-0.10965031
179	0x3ce1f67b	0.027583351
180	0x3e0e3106	0.13885888
181	0xbdb9b66d	-0.09067998
182	0x3cad3441	0.02114308
183	0x3d13be95	0.036070425
184	0xbdd0870d	-0.10182009
185	0xbd013ff9	-0.03155515
186	0xbe5fe959	-0.21866359
187	0x3c997c42	0.018736009
188	0x3d6e402c	0.058166668
189	0x3d997801	0.07493592
190	0x3e834063	0.2563506
191	0x3c5145ad	0.01277296
192	0x3e1616c5	0.14657123
193	0xbd707a77	-0.05871054
194	0x3e6a8f00	0.22906113
195	0x3d904dac	0.07046065
196	0x3dc476e9	0.09592993
197	0x3de6940e	0.11258708
198	0xbeb0cfb1	-0.34533456
199	0x3dfa4661	0.12220455
200	0xbe254062	-0.16137841
201	0x3e4b94c5	0.1988097
202	0xbcf3a0fe	-0.029739853
203	0xbe0dd4aa	-0.13850656
204	0xbdd75ca5	-0.105157174
205	0x3e3a0f8a	0.1816999
206	0xbe7db199	-0.2477478
207	0xbe8440df	-0.25830743
208	0x3efd9a2a	0.4953168
209	0x3e5b5153	0.21417741
210	0xbf2689c8	-0.6505399
211	0xbe633604	-0.22188574
212	0xbcbad992	-0.022808824
213	0x3e12bd40	0.14330006
214	0x3d7be64f	0.061498936
215	0xbd447c93	-0.047970366
216	0x3d3bb419	0.04582605
217	0xbe320417	-0.17384373
218	0xbe5908c8	-0.21194756
219	0xbeaba81b	-0.33526692
220	0x3e076a03	0.13224034
221	0xbec8572d	-0.3912901
222	0xbe3a49d4	-0.18192226
223	0xbd6dc099	-0.058045004
224	0x3d5ac693	0.05341203
225	0xbe89cb3f	-0.26912877
226	0x3ba16eed	0.0049265535
227	0xbe3a7d85	-0.18211944
228	0xbda9f155	-0.082979836
229	0xbf222b18	-0.63347006
230	0x3e28d6a5	0.1648813
231	0xbeaee2ab	-0.3415731
232	0x3d4b427a	0.049623944
233	0xbeb55970	-0.35419798
234	0xbc8f2b4c	-0.0174767
235	0xbdc4ca22	-0.09608866
236	0x3e82f2a5	0.25575748
237	0xbdc0f62f	-0.09421956
238	0xbe010b83	-0.12602048
239	0xbe1597d3	-0.14608698
240	0x3d9154a8	0.07096225
241	0x3dacca5b	0.08437034
242	0xbd653bd2	-0.055965252
243	0x3cd7b799	0.026332663
244	0xbe807a66	-0.25093383
245	0xbe6ac52f	-0.22926782
246	0xbe3be367	-0.18348466
247	0xbe0ac0e6	-0.13550147
248	0xbe1c3bd7	-0.15257202
249	0xbe368938	-0.17825782
250	0x3db0aeed	0.086271144
251	0xbef62a76	-0.4807927
252	0xbe7ca593	-0.24672537
253	0xbd2f49da	-0.04279504
254	0x3d201b03	0.03908826
255	0xbd8ec132	-0.06970443

a2c_network.actor_mlp.2.bias f4 [128]
0	0xbd99a73b	-0.075026
1	0x3d250b34	0.040293887
2	0x3e69fcc6	0.22850332
3	0xbd2c7d20	-0.042111516
4	0x3e826e45	0.25474754
5	0xbe9b54c7	-0.30338117
6	0xbe3f31ff	-0.18671416
7	0xbe82fdcc	-0.25584257
8	0xbf1b882b	-0.6075465
9	0xbc1cc825	-0.009569203
10	0xbf14343f	-0.5789222
11	0x3c80b935	0.015713314
12	0xbe41d338	-0.1892823
13	0xbeae3d53	-0.34031162
14	0xbe7e3702	-0.24825671
15	0xbe22a10d	-0.15881748
16	0xbd3fe97a	-0.04685352
17	0xbc820eb0	-0.015876144
18	0xbdf4d106	-0.119539306
19	0xbecd1ff7	-0.4006345
20	0x3c73374d	0.014844728
21	0xbdcde322	-0.10053088
22	0xbe8f8f2f	-0.28038928
23	0x3e5567da	0.20840397
24	0xbe2c99a7	-0.16855489
25	0xbd34a8d0	-0.044106305
26	0xbe6d369b	-0.23165362
27	0xbf2110ca	-0.62916243
28	0xbe4ebd3b	-0.20189373
29	0x3cf70d05	0.030157575
30	0x3ce6a3a9	0.028154211
31	0xbf354647	-0.7081036
32	0xbe5baeec	-0.21453446
33	0xbeb13a6f	-0.34614894
34	0xbea42fd1	-0.3206773
35	0x3e227aa2	0.15867093
36	0xbe90d1f4	-0.28285182
37	0xbf267ed0	-0.6503725
38	0xbe47a1c2	-0.194953
39	0xbf10f042	-0.56616604
40	0x3d989d3a	0.074518636
41	0xbdd59644	-0.104290515
42	0xbd13eca5	-0.036114354
43	0xbeb7932f	-0.3585448
44	0xbc8f9885	-0.017528782
45	0x3d7e879f	0.062141057
46	0xbea9fa4f	-0.33198783
47	0x3c9d05c7	0.019167794
48	0xbe30129f	-0.17194603
49	0xbd6d6b8e	-0.0579639
50	0xbe814fd5	-0.2525622
51	0xbc60b434	-0.013714839
52	0x3daa6e0e	0.083217725
53	0xbb863388	-0.0040954985
54	0x3df98696	0.12183873
55	0xbd91b1ef	-0.07114016
56	0xbe90907a	-0.28235227
57	0xbe8c1868	-0.2736237
58	0xbe71dea9	-0.23620094
59	0xbe884673	-0.26616248
60	0x3d1a5cea	0.037686266
61	0xbe290668	-0.1650635
62	0xbe5dd8ca	-0.2166473
63	0x3d9ac093	0.07556262
64	0xbe262ccd	-0.16228028
65	0x3dd1d186	0.102450415
66	0xbba2956b	-0.0049616597
67	0xbf09296c	-0.5357883
68	0xbc70b94e	-0.014692618
69	0xbe917216	-0.28407353
70	0x3db4da60	0.08830714
71	0xbe77bf19	-0.24193992
72	0xbf14e54f	-0.581624
73	0xbf086987	-0.5328602
74	0xbbb67243	-0.0055678203
75	0xbd9d29cc	-0.07673988
76	0xbea3a316	-0.31960362
77	0xbebb9e25	-0.36644092
78	0xbdd0dfff	-0.10198974
79	0xbe686b63	-0.22697215
80	0xbf2c3e43	-0.67282504
81	0xbe8e33f9	-0.27774027
82	0x3d3e90aa	0.04652468
83	0x3c9c0402	0.01904488
84	0xbef1c439	-0.47220019
85	0xbf01a99e	-0.5064944
86	0xbebde0b4	-0.37085497
87	0xbea9ae40	-0.33140755
88	0xbe40b1b8	-0.18817794
89	0xbed9477c	-0.4243735
90	0xbeaa31d7	-0.3324115
91	0xbdde21d0	-0.10846293
92	0xbe228c58	-0.1587385
93	0xbe3366c8	-0.17519677
94	0xbe81fd12	-0.2538839
95	0x3e53ffeb	0.20703094
96	0xbd43c666	-0.04779663
97	0x3d1b219b	0.037873846
98	0xbdf21d4f	-0.118219964
99	0x3d1f14ef	0.038838323
100	0xbeaa9cfd	-0.33322898
101	0xbe962a5a	-0.29329187
102	0x3d73fc95	0.059567053
103	0xbd184458	-0.037174553
104	0xbe6483b6	-0.22315869
105	0xbea0bd25	-0.31394306
106	0xbe4b4227	-0.19849454
107	0xbceb2756	-0.02870528
108	0xbee07ebe	-0.43846697
109	0xbddd6626	-0.10810499
110	0x3e4c5688	0.19954884
111	0xbba0be86	-0.0049055247
112	0xbe9ba9ad	-0.3040289
113	0xbe325b82	-0.1741772
114	0x3d9bf56a	0.076151684
115	0xbeafde98	-0.34349513
116	0xbe23431d	-0.1594357
117	0xbf09190c	-0.53553843
118	0x3e0f64aa	0.14003244
119	0xbe43f4b3	-0.19136314
120	0xbecd5ca9	-0.40109757
121	0xbe6bc980	-0.23026085
122	0xbde0d008	-0.10977179
123	0xbcfb0a70	-0.030644625
124	0xbe7a2089	-0.24426474
125	0xbc0d7231	-0.008633182
126	0xbe949dbc	-0.29026592
127	0xbce740fc	-0.02822923

a2c_network.actor_mlp.4.weight f4 [64, 128]
0	0xbd70c20f	-0.05877882
1	0xbe5b853d	-0.21437545
2	0x3bab397f	0.00522536
3	0xbcf5cb66	-0.030004214
4	0xbf158ddb	-0.5841958
5	0x3dc60b5a	0.09670134
6	0x3e0ceab0	0.13761401
7	0xbd4ed0a9	-0.050491963
8	0x3e24ccce	0.16093752
9	0x3e14ce16	0.1453174
10	0xbb645998	-0.003484344
11	0x3d642f57	0.05570921
12	0xbdf330c8	-0.11874539
13	0xbe3b908f	-0.18316863
14	0xbdaf81d3	-0.08569684
15	0x3de0acd0	0.10970461
16	0x3da7b01c	0.08187887
17	0xbdfb546d	-0.12271962
18	0x3e4af8a0	0.19821405
19	0xbd58b798	-0.052909464
20	0xbdec7da6	-0.11547403
21	0xbda9fa53	-0.08299699
22	0x3ce24412	0.02762035
23	0x3d7dcb22	0.0619613
24	0x3e4f6e51	0.20256926
25	0xbcf4ba25	-0.029873917
26	0xbd302560	-0.043004394
27	0x3de24ffc	0.11050412
28	0xbd8cb9d3	-0.06871381
29	0xbd66e0f1	-0.056366865
30	0xbd8dedef	-0.06930148
31	0x3db81681	0.08988667
32	0x3cc1075a	0.023563076
33	0xbd4a998d	-0.049462844
34	0xbe0324df	-0.12807034
35	0xbda08869	-0.07838518
36	0xba92b3fd	-0.0011192557
37	0x3d2898bd	0.041161288
38	0xbd27b7e2	-0.04094685
39	0x3de963c7	0.11395984
40	0xbd37c848	-0.044868737
41	0x3d22316f	0.039597925
42	0xbd74f387	-0.05980256
43	0x3bfccf97	0.0077151763
44	0xbe139156	-0.1441091
45	0x3df18317	0.117925815
46	0xbc23c981	-0.009996773
47	0xbd46473f	-0.04840779
48	0x3e0952ba	0.13410464
49	0xbddb590f	-0.10710346
50	0xbdd3c454	-0.10340181
51	0xbe8abbe5	-0.27096477
52	0x3da78ad3	0.081807755
53	0xbd28add7	-0.04118141
54	0xbe6b378a	-0.22970405
55	0xbeaa6c18	-0.33285594
56	0x3e2d7663	0.16939692
57	0x3de7d887	0.11320596
58	0x3e1f47f1	0.15554787
59	0x3e534ef5	0.20635588
60	0xbd4bd5fd	-0.049764622
61	0x3b1d3136	0.002398563
62	0x3c6187e1	0.013765306
63	0xbbe04af4	-0.0068448726
64	0x3ca4a74f	0.02009931
65	0xbe47ade9	-0.19499935
66	0x3ddfe53b	0.10932394
67	0x3dd838e8	0.10557729
68	0xbe608733	-0.21926574
69	0x3d051b2b	0.032496613
70	0xbe45c51e	-0.19313475
71	0xbde32493	-0.1109096
72	0x3e536711	0.20644785
73	0xbd70bd08	-0.058774024
74	0x3df1d67c	0.11808488
75	0xbd9b4455	-0.07581393
76	0x3cbb3c71	0.02285597
77	0x3dd15f67	0.10223275
78	0xbde2b80c	-0.110702604
79	0x3d6d0af0	0.05787176
80	0xbbd40ca3	-0.006471233
81	0x3d8d360d	0.06895075
82	0xbd0b1673	-0.033956956
83	0x3baf5558	0.00535075
84	0x3e02ff15	0.12792619
85	0x3ded0f34	0.115751654
86	0xbb2b2b12	-0.0026118201
87	0x3dbf752a	0.09348519
88	0x3d9d8c4a	0.07692774
89	0x3dfb46ea	0.12269385
90	0xbd6d3276	-0.05790945
91	0x3d24957a	0.040181614
92	0xbc9661ff	-0.018357275
93	0xbcac867f	-0.021060226
94	0x3944f5aa	0.00018783534
95	0x3d9130be	0.07089375
96	0x3d613a93	0.0549875
97	0x3e0363b8	0.12831008
98	0x3d2f2cbf	0.042767283
99	0xbe8ad5f3	-0.27116355
100	0x3e3dcc78	0.1853503
101	0x3e5508d6	0.20804152
102	0x3cc0823b	0.023499599
103	0x3e2f2328	0.17103255
104	0xbdf24456	-0.1182944
105	0x3e5e72f6	0.21723542
106	0xbd898f9f	-0.06716847
107	0x3e169cca	0.14708248
108	0x3e2790cd	0.16363831
109	0xbc9e0a87	-0.01929213
110	0x3dee8cc9	0.116479464
111	0x3d6a4ec4	0.057204023
112	0x3db1acf1	0.08675564
113	0xbcd32fef	-0.025779692
114	0xbda83432	-0.082130805
115	0xbda590af	-0.08084237
116	0x3d522ee8	0.051314265
117	0x3dc62f69	0.096770115
118	0xbdb14bd5	-0.08657042
119	0xbc880125	-0.016602108
120	0xbd490bce	-0.049083523
121	0xbd94bb30	-0.07262266
122	0x3dd5ceea	0.10439856
123	0xbdcb1174	-0.09915438
124	0xbd3e2d0c	-0.04642968
125	0xbe86c419	-0.26321486
126	0xbd6cfa21	-0.05785573
127	0x3da9c51c	0.08289549
128	0x3d48be48	0.04900959
129	0xbb45d531	-0.0030186886
130	0xbde5374a	-0.11192186
131	0x3d6aaa29	0.057291184
132	0xbe98630b	-0.29763064
133	0xbe912c2c	-0.28354013
134	0xbbaf8d06	-0.0053573875
135	0x3c9d3d30	0.019194216
136	0x3e487d53	0.19579057
137	0xbd335d29	-0.043790016
138	0xbd24b2cf	-0.040209588
139	0x3dcd3748	0.1002031
140	0xbd48889f	-0.048958417
141	0xbc5c3474	-0.01344024
142	0xbe3759d5	-0.17905362
143	0xbcf369df	-0.02971357
144	0xbc65aa16	-0.014017602
145	0xbc9db4b7	-0.01925121
146	0xbc9813ea	-0.018564183
147	0xbdf6a2ec	-0.12042794
148	0xbe10d0f6	-0.14142212
149	0x3d5b26ad	0.05350368
150	0x3d0394bb	0.032124262
151	0xbd1cf671	-0.038320962
152	0xbd8a0e8f	-0.06741058
153	0x3d18a80b	0.037269633
154	0xbd808f50	-0.06277335
155	0xbd49e995	-0.049295027
156	0xbd8e2206	-0.06940083
157	0xbd4c7aa4	-0.049921647
158	0xbd99f8e6	-0.07518177
159	0x3d9db47d	0.07700441
160	0xbce0d690	-0.027446061
161	0x3d9e70c6	0.077363536
162	0xbed4055f	-0.41410348
163	0xbe0f7264	-0.1400848
164	0xbe3c87ad	-0.18411131
165	0x3cfbbfc4	0.03073109
166	0x3d303259	0.043016765
167	0x3e7e3016	0.24823031
168	0x3cde2b75	0.027120331
169	0xbdf1518e	-0.117831334
170	0x3e82cf21	0.25548652
171	0x3e2d80e9	0.16943707
172	0xbda520e0	-0.08062911
173	0x3db6b897	0.089219265
174	0xbd34a6fd	-0.044104565
175	0xbea45c8a	-0.32101852
176	0xbd5e83b8	-0.054324836
177	0xbe0234ba	-0.12715426
178	0x3d9f89af	0.07789933
179	0xbe0726df	-0.13198422
180	0xbd4da13a	-0.050202586
181	0xbe034bd9	-0.12821902
182	0x3d418630	0.04724711
183	0xbe8c5acf	-0.2741303
184	0x3dd41bb4	0.103568465
185	0x3d24109c	0.040054902
186	0x3e156db6	0.14592633
187	0x3e808b65	0.2510635
188	0xbc2a66c7	-0.010400481
189	0xbe019234	-0.12653428
190	0xbbde39ad	-0.006781778
191	0x3b56ea73	0.0032793551
192	0x3d9b3231	0.075779326
193	0xbe3c08eb	-0.18362777
194	0xbd972142	-0.0737939
195	0x3e3ceef5	0.1845053
196	0xbd80584c	-0.06266841
197	0xbd9e0ef1	-0.077176936
198	0x3d1ef20b	0.03880505
199	0xbcbb9e65	-0.022902677
200	0xbe0b8cdc	-0.13627952
201	0x3cc3bd81	0.023894073
202	0xbd543176	-0.051804982
203	0x3d1f817f	0.038941856
204	0x3d81d227	0.063389115
205	0x3e384ae8	0.17997324
206	0xbe01de9c	-0.12682575
207	0x3d4a3abd	0.049372423
208	0x3e5c4bdc	0.21513313
209	0x3e30e4aa	0.17274728
210	0x3d4437df	0.047904845
211	0xbb1c2138	-0.002382351
212	0x3d590f36	0.052993022
213	0x3e19ce18	0.15020025
214	0xbe9ff094	-0.31238234
215	0x3dca2768	0.098707974
216	0x3d8339d1	0.06407512
217	0xbdf6ee0a	-0.12057121
218	0xbe1b673b	-0.15176098
219	0xbe3168d7	-0.1732515
220	0x3d5e5801	0.054283146
221	0xbdde8167	-0.10864525
222	0xbdd9e0ce	-0.10638581
223	0xbbb4ffc6	-0.0055236546
224	0x3d843769	0.06455881
225	0x3d1c18d8	0.03810963
226	0x3db4f000	0.08834839
227	0x3dacb521	0.08432985
228	0x3d8166a7	0.063184075
229	0xbcd3fac2	-0.025876407
230	0xbcfd22f1	-0.03090045
231	0xbc40a57c	-0.011758205
232	0x3d1c43c2	0.038150556
233	0xbda6cabb	-0.081441365
234	0xbbbca708	-0.0057572164
235	0x3d8b32c3	0.067967914
236	0x3db51265	0.08841399
237	0xbe2b5ded	-0.16735049
238	0x3ca80f15	0.020515004
239	0xbd5e22bf	-0.054232355
240	0xbdb2f68d	-0.08738432
241	0xbd70a814	-0.05875404
242	0xbdcc2028	-0.09967071
243	0xbe186976	-0.1488398
244	0x3d08d539	0.03340647
245	0x3cb4c6fc	0.02206754
246	0xbecdc29f	-0.40187547
247	0xbd65f3a1	-0.056140546
248	0x3cca4c92	0.024694715
249	0x3d8dbee2	0.06921174
250	0xbdfeba53	-0.12437882
251	0xbe1b9581	-0.1519375
252	0x3de596b4	0.11210385
253	0x3d6eb4fd	0.058278073
254	0x3d1172a4	0.03550972
255	0x3dc0427f	0.09387683

a2c_network.actor_mlp.4.bias f4 [64]
0	0xbe43bb81	-0.19114496
1	0xbd3fbc07	-0.046810176
2	0xbe372d0d	-0.1788828
3	0xbe934423	-0.28762922
4	0xbdc9afdb	-0.09847995
5	0xbd12d973	-0.035851907
6	0xbeb81ec9	-0.35960987
7	0xbd42e7d2	-0.047584362
8	0xbef48a90	-0.47761965
9	0xbdc60924	-0.09669712
10	0xbe2bd718	-0.1678127
11	0xbd26bfe0	-0.04071033
12	0x3a7818d4	0.0009464149
13	0xbd9a85e1	-0.075450666
14	0xbe4bf529	-0.1991774
15	0xbf020d50	-0.50801563
16	0xbbdced69	-0.0067421687
17	0xbe00e442	-0.12587073
18	0xbd0b8c7d	-0.034069527
19	0xbe85f8e4	-0.2616645
20	0xbdf44574	-0.1192731
21	0xbd7a4dde	-0.061109416
22	0xbe9b5d41	-0.30344585
23	0xbe44211b	-0.19153254
24	0xbea76247	-0.32692167
25	0xbe8729bd	-0.2639903
26	0xbe01b56f	-0.12666868
27	0x3cd705aa	0.026247818
28	0xbecd4c79	-0.40097407
29	0xbeea8dab	-0.4581121
30	0xbdf9bc52	-0.121941224
31	0x3d129e82	0.035795696
32	0xbec2c2f6	-0.38039368
33	0xbe2b77e6	-0.16744956
34	0xbd63679e	-0.05551874
35	0xbd9379bd	-0.07200954
36	0x3dd9b230	0.1062969
37	0xbeb39800	-0.35076904
38	0xbe4ea7b8	-0.20181167
39	0xbd596240	-0.053072214
40	0xbdcd630d	-0.10028658
41	0x3dcf5d3e	0.101252064
42	0x3c21f9ef	0.009886249
43	0xbe98ee91	-0.29869512
44	0xbe1c6e45	-0.1527644
45	0xbe6521eb	-0.2237622
46	0x3ce3e438	0.027818784
47	0xbe25a7b6	-0.16177258
48	0xbe8568b6	-0.2605645
49	0xbd130f47	-0.03590324
50	0xbe8900e0	-0.2675848
51	0xbea6d25f	-0.32582375
52	0xbebbb509	-0.36661556
53	0xbe6a7c63	-0.22899012
54	0x3c93a995	0.018025199
55	0xbe437c5b	-0.19090407
56	0x3d9afded	0.07567964
57	0x3d2f1e34	0.042753413
58	0xbe582365	-0.21107252
59	0xbd9cba36	-0.076527044
60	0x3cae356f	0.021265713
61	0xbe193f38	-0.14965522
62	0xbe2208c8	-0.15823662
63	0xbd160d44	-0.036633745

a2c_network.value.weight f4 [1, 64]
0	0xbd00da91	-0.03145844
1	0xbcb4121f	-0.021981297
2	0x3d29a519	0.041417215
3	0xbd3b71e1	-0.0457629
4	0xbcee3447	-0.029077662
5	0x3d0e1991	0.03469235
6	0xbcae291c	-0.021259837
7	0xbdda276c	-0.106520504
8	0xbcd757ff	-0.026287077
9	0x3dad267b	0.08454605
10	0xbe0471c6	-0.12934026
11	0x3bb28ed5	0.005449156
12	0xbd14a3c5	-0.036288995
13	0x3a877f98	0.0010337709
14	0x3cddcc8c	0.027075075
15	0xbd68aad5	-0.056803543
16	0xbc03056e	-0.0079969
17	0x3ce43627	0.027857853
18	0x3cb00c91	0.021490367
19	0xbc6cd992	-0.01445617
20	0x3da541f4	0.0806922
21	0x3f35e9aa	0.7105967
22	0xbd8e2eb3	-0.06942501
23	0xbb0f9ca1	-0.0021913426
24	0xbe17454c	-0.14772528
25	0xbcfd5cc3	-0.030928021
26	0xbc13b335	-0.009014894
27	0xbce870a2	-0.02837402
28	0xbe62f1f4	-0.2216261
29	0xbe5fa55e	-0.21840426
30	0x3c6fc087	0.014633304
31	0xbd07619d	-0.033052076
32	0x3bcab56e	0.006186179
33	0xbb69bcc7	-0.0035665499
34	0xbc30ad4f	-0.0107835075
35	0x3a66c8da	0.0008803733
36	0xbbc8869c	-0.0061195623
37	0xbdcbafa4	-0.0994561
38	0x3e5e9550	0.21736646
39	0xbba0278f	-0.0048875283
40	0x3b4648a2	0.0030255695
41	0x3f2e8043	0.6816446
42	0x390568c6	0.000127229
43	0xbd522ce0	-0.051312327
44	0xbca8b40e	-0.02059367
45	0xbde995ca	-0.11405523
46	0xbc026ac0	-0.0079600215
47	0xbca3eb92	-0.02000979
48	0x3d07e6f3	0.033179235
49	0x3d5871e9	0.05284301
50	0xbc06602d	-0.008201641
51	0xbe1685b6	-0.14699444
52	0xbd3f4be1	-0.046703223
53	0x3e1035de	0.14083049
54	0xbc3eeed6	-0.011653623
55	0x3c4bd676	0.012441268
56	0x3c009672	0.007848369
57	0xbb294b32	-0.0025832173
58	0xbd9c185c	-0.07621834
59	0x3b4527de	0.0030083577
60	0x3bb2e8d3	0.0054598837
61	0xbdba11fa	-0.0908546
62	0xbb7a2a41	-0.0038172158
63	0xbd5a0f9b	-0.05323754

a2c_network.mu.weight f4 [12, 64]
0	0xbdc81627	-0.0976985
1	0xbcc467b3	-0.023975229
2	0xbe05b30a	-0.13056579
3	0xbde72f7c	-0.11288354
4	0x3c49b5d7	0.01231142
5	0x3d0e4f8b	0.034743827
6	0x3acf0c57	0.0015796524
7	0x3d51e315	0.051241953
8	0xbe027037	-0.12738119
9	0x3af6c8a4	0.0018828106
10	0xbcb60ef5	-0.022223929
11	0xbcce43fa	-0.025178898
12	0x3e173367	0.14765702
13	0x3bec927c	0.0072196107
14	0x3db33465	0.08750228
15	0xbd4112f7	-0.047137227
16	0x3c8e8e76	0.017401915
17	0xbdce43ee	-0.1007155
18	0x3e0b255b	0.13588469
19	0x3c584aba	0.01320141
20	0x3dbb0990	0.09132683
21	0x3cd0e9a4	0.025502034
22	0xbe095217	-0.13410221
23	0x3d5be80d	0.053688098
24	0xbe45a17d	-0.19299884
25	0xbe0f939a	-0.1402115
26	0xbc693f24	-0.014236245
27	0x3cb5c26a	0.02218743
28	0x3c1630b9	0.00916689
29	0xbdfee186	-0.12445359
30	0xbcc23643	-0.023707515
31	0x3d14b7d5	0.03630813
32	0xbe03d345	-0.12873562
33	0xbd9d31d4	-0.076755196
34	0xbd9a40d2	-0.07531895
35	0x3d7f8336	0.062380992
36	0xbb1d0dee	-0.0023964602
37	0xbe0dc2f3	-0.13843898
38	0xb75ff23a	-1.3348234e-05
39	0x3c9dad11	0.019247564
40	0x3c436aaa	0.011927286
41	0xbc590ee7	-0.013248182
42	0xbc52fa21	-0.012877018
43	0x3d032376	0.03201624
44	0xbda0a2be	-0.078435406
45	0xbe1d59cf	-0.1536629
46	0x3ccd98fe	0.025097366
47	0xbdc9e1d2	-0.09857525
48	0xbdc97821	-0.09837366
49	0x3e20acdc	0.1569094
50	0xbce39c22	-0.02778441
51	0xbcc23deb	-0.023711165
52	0xbe35f941	-0.17770864
53	0xbc1e8f4a	-0.009677717
54	0xbc40e30e	-0.011772884
55	0x3db26c7b	0.08712097
56	0xbd5cdded	-0.053922582
57	0xbc5568ff	-0.013025521
58	0xbdb6122d	-0.088901855
59	0x3c2ecef4	0.010669459
60	0x3ce73941	0.028225543
61	0x3bf199d8	0.007373076
62	0xbc544104	-0.012954954
63	0x398bc7a9	0.00026660904
64	0xbc0b4309	-0.008499869
65	0x3e219ac6	0.15781698
66	0x3d93c9a2	0.07216193
67	0x3d6b474d	0.057441045
68	0x3ccb9c9c	0.02485495
69	0x3d479527	0.048726227
70	0xbdb4d273	-0.088292025
71	0x3cbb92ad	0.022897089
72	0xbdb012c3	-0.085973285
73	0xbc26b1cb	-0.010174225
74	0xbb312bce	-0.0027034166
75	0x3d09c3a9	0.03363386
76	0x3d110307	0.035403278
77	0xbba3dd82	-0.005000771
78	0x3cff027b	0.031129112
79	0x3da1cfa4	0.079009324
80	0xbc2ce5a4	-0.0105527975
81	0x3cd06e9d	0.02544337
82	0x3da44e48	0.080227435
83	0x3d80025d	0.06250451
84	0x3d3aaada	0.045573093
85	0x3cb42b62	0.021993343
86	0xbca32450	-0.019914776
87	0x3ced42fa	0.028962601
88	0x3a830479	0.000999584
89	0xbcc0f044	-0.023552068
90	0xbc43990e	-0.011938347
91	0x3c242583	0.010018709
92	0x3d088ff7	0.03334042
93	0x3e06b3f0	0.13154578
94	0xbba72f39	-0.005102065
95	0xbb2f9366	-0.0026790737
96	0xbcc28749	-0.02374615
97	0xbd0764d9	-0.03305516
98	0xbd7e3089	-0.062058005
99	0x3d5afc3f	0.053463217
100	0xbdded5ae	-0.108806
101	0xbb9caeae	-0.0047815656
102	0xbdc680dd	-0.096925475
103	0x3cdebfda	0.027191091
104	0xbcc1779e	-0.023616608
105	0x3cce35aa	0.025172073
106	0x3c59f549	0.013303109
107	0x3cf351f3	0.029702162
108	0xbd840a23	-0.06447246
109	0x3dfda0c9	0.12384183
110	0xbde9f922	-0.114244714
111	0x3bec7e8c	0.007217234
112	0x3c8b1be4	0.016981073
113	0x3e78656c	0.2425744
114	0x3dc9dcf6	0.09856598
115	0x3d1baaf4	0.03800483
116	0xbcb09ef7	-0.021560175
117	0xbdc6ea07	-0.09712606
118	0x3c8cd853	0.017192995
119	0x3d4fc1d0	0.050721943
120	0x3dcbf841	0.0995946
121	0x3c285a2e	0.010275407
122	0x3d308619	0.043096635
123	0x3c9b5c08	0.018964782
124	0x3cb31b2c	0.021863542
125	0x3d67b218	0.056566328
126	0x3caae8d9	0.020862984
127	0x3c04bff5	0.008102407
128	0x3d480769	0.048835192
129	0xbcdd01dc	-0.026978426
130	0xbc0704a7	-0.008240855
131	0x3cafa3bc	0.02144038
132	0x39356669	0.00017299656
133	0xbb415953	-0.0029502704
134	0x3d5a8d99	0.053357694
135	0xbc6d7f40	-0.014495671
136	0x3da1d392	0.07901682
137	0xbbac8160	-0.005264446
138	0xbb883f66	-0.0041579483
139	0x3c386efc	0.0112569295
140	0x3c703d3f	0.01466304
141	0x3c491d9a	0.012275124
142	0x3c4ae2b7	0.012383155
143	0x3dda944a	0.10672815
144	0xbac44455	-0.0014973978
145	0x3cc0f1f9	0.023552882
146	0xbcabdd05	-0.020979414
147	0x3d2138e8	0.03936091
148	0x3b3ae7c2	0.0028519486
149	0xbbeec4ce	-0.0072866445
150	0x3d14c420	0.036319852
151	0x3d2200af	0.039551433
152	0x3cff9286	0.031197798
153	0x3c886b49	0.01665272
154	0xbb135acc	-0.002248454
155	0xbc885268	-0.016640857
156	0x395832b5	0.00020618255
157	0x3cdf61bb	0.027268281
158	0x3cbee7e0	0.023303926
159	0x3bc57373	0.0060257255
160	0x3d06b0db	0.032883506
161	0xbcbca312	-0.023026977
162	0xbb6df7d9	-0.0036311059
163	0x3b229de4	0.0024813348
164	0xbc50b0d9	-0.012737476
165	0x3d90122c	0.07034716
166	0x3c6da4a0	0.014504582
167	0x37212e98	9.607196e-06
168	0xba6b9286	-0.0008986372
169	0xbbcd7a6f	-0.0062706987
170	0xba283af0	-0.0006417474
171	0x3b8ed13e	0.0043584397
172	0xbc11ed7f	-0.008906721
173	0x3cfc6e38	0.030814275
174	0x3c8c42d7	0.017121715
175	0xbd224e67	-0.03962555
176	0x3c88a4d3	0.016680157
177	0xbd21f683	-0.039541733
178	0x3c8f3a17	0.017483754
179	0xbb1cbd9f	-0.0023916734
180	0x3da4bff2	0.08044423
181	0x3cbcd672	0.023051474
182	0x3c16ee43	0.009212079
183	0x3d657350	0.056018174
184	0xbc009eb4	-0.007850338
185	0xbcb70bac	-0.022344433
186	0x3d8033c2	0.06259872
187	0xb980d2d8	-0.00024571153
188	0x3b30dacf	0.0026985889
189	0x3c56ed34	0.013118077
190	0x3b034bd7	0.0020034218
191	0x3bd880dc	0.006607158
192	0x3e17e782	0.14834407
193	0xbd0c27d0	-0.034217656
194	0x3ddf419e	0.10901187
195	0x3e62cdd3	0.22148828
196	0x3cb027c1	0.021503331
197	0x3b7b7c4b	0.0038373645
198	0x3d7dbde3	0.06194867
199	0x3c996441	0.018724563
200	0x3d1d9614	0.038473204
201	0x3c977dfb	0.01849269
202	0x3c155349	0.009114095
203	0x3b2db6d9	0.002650669
204	0xbd8d1861	-0.068894155
205	0xbcfbf9f5	-0.030758837
206	0xbbf9e9fa	-0.007626769
207	0x3dcd289c	0.10017511
208	0x3c32068a	0.010865817
209	0x3e0b2e74	0.13591939
210	0xbc3cc50e	-0.011521591
211	0x3e106801	0.14102174
212	0xbc289466	-0.010289287
213	0xbc91d67f	-0.017802475
214	0x3dd597f2	0.10429372
215	0xbaa178ba	-0.0012319305
216	0xbda09618	-0.07841128
217	0x3cafbdd6	0.021452826
218	0x3ba48d3b	0.005021719
219	0xbe06831f	-0.13135956
220	0x3cac6b78	0.021047339
221	0x3dac85b7	0.084239416
222	0xbc544a39	-0.012957149
223	0xbd5a70bb	-0.053330164
224	0x3c36d618	0.011159442
225	0xbdaaec94	-0.08345905
226	0xbc5f9063	-0.013645264
227	0xbdc118fc	-0.094285935
228	0x3b03a514	0.0020087408
229	0x3e07c2ff	0.13257979
230	0xbbaaf84e	-0.0052175885
231	0xbd4d6e98	-0.0501543
232	0xbd1c7dfe	-0.038206093
233	0xbd3c5c29	-0.04598633
234	0xbc9b7835	-0.018978218
235	0x3cee8e8a	0.029120702
236	0xbc116d6f	-0.008876189
237	0x3ca84053	0.020538485
238	0xbb4fe63e	-0.0031722928
239	0x3b0969ee	0.002096768
240	0x3d8b39cd	0.06798134
241	0x3daacf88	0.08340365
242	0x3e3479b2	0.17624548
243	0x3cca1f3b	0.024673095
244	0x3e30d242	0.17267707
245	0x3dc98df2	0.09841527
246	0x3d08e607	0.033422496
247	0xbd9e7504	-0.07737163
248	0x3d226b4c	0.039653108
249	0xbce5a6e2	-0.028033677
250	0xbc4b1d48	-0.012397118
251	0x3c784fd6	0.015155753
252	0xbd7da681	-0.06192637
253	0xbd3b9d07	-0.04580405
254	0xbccd8afa	-0.025090683
255	0x3c6ffcca	0.014647672

a2c_network.mu.bias f4 [12]
0	0x3e2eb8a1	0.17062618
1	0x3dc508e7	0.096208386
2	0xbe9b15e7	-0.30290148
3	0xbe095523	-0.13411383
4	0x3d9ca929	0.07649452
5	0xbc56770f	-0.013089909
6	0x3d8ccac2	0.068746105
7	0x3ce53423	0.027978962
8	0xbd5496bb	-0.05190156
9	0x3d97e04e	0.074158296
10	0x3db697ec	0.089156955
11	0xbd53028d	-0.051516104

exp_avg f4 [12]
0	0x3c8d9716	0.017283957
1	0x3bb47a69	0.0055077565
2	0x3bd4fb8e	0.006499714
3	0xbca114b3	-0.01966319
4	0xbd14531a	-0.036212064
5	0xbc13ab35	-0.009012987
6	0x3ba67000	0.0050792694
7	0xbbe2fd6f	-0.0069271843
8	0xbc3fe666	-0.011712646
9	0x3a3c4824	0.00071823807
10	0xbc1c2e4e	-0.009532524
11	0x3c3f6e07	0.011683947

exp_avg_sq f4 [12]
0	0x3b53d8c6	0.0032325252
1	0x3b55f169	0.0032645112
2	0x3b984f54	0.0046481285
3	0x3b6ebabf	0.0036427227
4	0x3b59b6d8	0.0033220556
5	0x3bba0b48	0.0056776144
6	0x3b75e430	0.0037520044
7	0x3b1c0fd9	0.0023813157
8	0x3b48d0c5	0.0030642014
9	0x3b6f64c0	0.0036528558
10	0x3b6d5bee	0.0036218124
11	0x3b56a4a9	0.0032751954
