omniisaacgymenvs/runs/WEE/nn/WEE.pth (torch, 619880 bytes, 36 tensors)

value_mean_std.running_mean f8 [1]
0	0xc00bcbdeeac30035	-3.4745462742576145

value_mean_std.running_var f8 [1]
0	0x40b3809f70ed9e94	4992.622816897598

value_mean_std.count f8 []
0	0x41bd340001000000	489947137.0

running_mean_std.running_mean f8 [32]
0	0xbf4fc06fee97d0da	-0.0009689852278698355
1	0x3f816ce1dcb64bc9	0.008508457706545418
2	0x3fde3065636f6a07	0.47170386038274653
3	0xbf94293dfe2c128e	-0.019688576353490243
4	0x3f8cfdbbfdc3388d	0.01415583484813634
5	0xbf7d56f60596ef92	-0.007163010618963643
6	0x3fda860760b7d796	0.41443046994333466
7	0x3fa0762f72adf5f9	0.03215168261429464
8	0x3f8284f666f3f7dd	0.009042668358684775
9	0x3f9eab5a5bb3f1d9	0.029950534674741156
10	0x3f6a34d0cefcc655	0.003199012593449161
11	0xbf467c73ac937726	-0.0006862225356163195
12	0x3fabe5698d1ef7e2	0.054484652020150084
13	0xbee23523b277f597	-8.682048771464427e-06
14	0xbef60b5fcb2b5ce5	-2.1023207135009796e-05
15	0x3fdb600004fa9b87	0.4277343796369952
16	0x3fddf5e89fc092b4	0.46813407517246763
17	0xbf26bbdf0c56ab81	-0.00017344568020169138
18	0x3f1e5c4a6fb9aa5f	0.00011581615756887366
19	0xbfd075218bcc354b	-0.25714911129110324
20	0x3f6a4f4911370a53	0.0032116343588495604
21	0x3f6cc40dfb87e97d	0.003511454877522967
22	0xbf7ae27de94bb196	-0.006563655701694057
23	0xbfcd065cf9d722c3	-0.22675668906437893
24	0x3fc9ed4877d82167	0.2025538048913049
25	0xbf908907995fd709	-0.01614772676108259
26	0x0000000000000000	0.0
27	0x0000000000000000	0.0
28	0x0000000000000000	0.0
29	0x0000000000000000	0.0
30	0x0000000000000000	0.0
31	0x0000000000000000	0.0

running_mean_std.running_var f8 [32]
0	0x3f67e4b7d654737d	0.0029166784830877966
1	0x3f5708f9cf19c9d6	0.0014059485951319803
2	0x3f52dff17d478ba6	0.0011520250601442044
3	0x3fe52166b3f5525e	0.6603272929010691
4	0x3f81ae4277aa8bf3	0.008633155133173509
5	0x3f994271c1d65a4d	0.02466752763356288
6	0x3fc135c6f218e4d4	0.13445364781526925
7	0x3fe26d414efaaa5c	0.5758368055879362
8	0x3fe3123c0b4f43a8	0.5959758969203124
9	0x3fe19dde339ddbfb	0.5505209930551013
10	0x4066a80b349c317f	181.2513678599025
11	0x405b8eeabc1c1538	110.2330770754096
12	0x406482da926a604d	164.08918114449116
13	0x3ecb3ee63a0f664c	3.2479405977892006e-06
14	0x3ed07c0059ed2d3a	3.930182542809339e-06
15	0x3ef7c4642b1d8dda	2.2666123818194463e-05
16	0x3fd16d6010fa211d	0.2723007360259702
17	0x3f27a221b4a19d98	0.00018030797429278707
18	0x3f2b01a8a2942c70	0.00020604308637248462
19	0x3fdc4ace7b730f7c	0.4420658307610592
20	0x3f74e6ea0947ad4c	0.005103029445744877
21	0x3f74d0edd95dc1c7	0.005082062814708305
22	0x3f6890b7ea6bdf50	0.0029986946204835566
23	0x4028bedf1142fae9	12.372795619417461
24	0x402ca14c963ab0e1	14.315037436165257
25	0x401a457db25463bb	6.567862306977015
26	0x3e31884969800bbd	4.082073033764554e-09
27	0x3e31884969800bbd	4.082073033764554e-09
28	0x3e31884969800bbd	4.082073033764554e-09
29	0x3e31884969800bbd	4.082073033764554e-09
30	0x3e31884969800bbd	4.082073033764554e-09
31	0x3e31884969800bbd	4.082073033764554e-09

running_mean_std.count f8 []
0	0x41ad340002000000	244973569.0

a2c_network.sigma f4 [12]
0	0xbfdb0318	-1.7110319
1	0xbfc4a3f6	-1.5362537
2	0xc0349800	-2.8217773
3	0xbf9afeb5	-1.210898
4	0xbfa34f3e	-1.2758558
5	0xc06aee06	-3.6707778
6	0xbfa2366b	-1.2672857
7	0xbf6e7a56	-0.9315542
8	0xbf85fdb5	-1.046805
9	0xbf555ef9	-0.8334804
10	0xbfa87e41	-1.316353
11	0xbf909fc0	-1.1298752

a2c_network.actor_mlp.0.weight f4 [256, 32]
0	0x3e203789	0.15646185
1	0x3da024f6	0.0781955
2	0xbf429be4	-0.7601912
3	0x3e3f9d53	0.18712358
4	0x3f1bfaa6	0.60929334
5	0x4017e1c5	2.3731549
6	0x3d5f86c3	0.05457188
7	0xbd86e453	-0.06586518
8	0xbc23635d	-0.0099724205
9	0xbe598b96	-0.21244654
10	0x3e9bbd3b	0.3041781
11	0xbd6ff979	-0.058587525
12	0xbe8ea2d6	-0.2785861
13	0xbe1a6d49	-0.15080751
14	0x3da07cc2	0.07836296
15	0xbe227a67	-0.15867005
16	0xbe606602	-0.21913913
17	0xbe890fc5	-0.26769844
18	0xbe9312fd	-0.28725424
19	0xbe208a6b	-0.15677802
20	0xbe0551af	-0.13019441
21	0x3dee0f59	0.11624021
22	0x3cda98a1	0.026684107
23	0x3dbdd68c	0.09269437
24	0x3daa0501	0.08301736
25	0xbce1de2d	-0.027571762
26	0x3e0daacf	0.1383469
27	0xbe009de0	-0.12560225
28	0x3c365cc8	0.011130519
29	0xbdf71b1f	-0.1206572
30	0x3d5f454c	0.054509446
31	0xbd795c02	-0.06087876
32	0x3d5ad1be	0.053422682
33	0x3c12cc49	0.008959838
34	0x3f01da47	0.5072369
35	0xbe586b5e	-0.21134707
36	0xbf3985fc	-0.7247007
37	0xbfb37feb	-1.4023412
38	0x3e34bdfe	0.17650601
39	0x3eac1705	0.33611313
40	0x3ed7b92c	0.42133462
41	0xbe778842	-0.24173072
42	0xbf2bfbb2	-0.6718093
43	0xbbb7c233	-0.005607867
44	0x3ea2ffa9	0.31835678
45	0x3ebff157	0.37488815
46	0xbe280fa3	-0.16412215
47	0x3e889049	0.2667258
48	0xbdb6f0c9	-0.08932645
49	0xbe2918a9	-0.16513313
50	0xbc674e52	-0.014117794
51	0xbe13f5dd	-0.14449258
52	0x3e17ba40	0.14817142
53	0xbdc26b3e	-0.09493111
54	0x3e0084e5	0.12550695
55	0xbd674186	-0.056458972
56	0xbd9a3a1d	-0.075306155
57	0x3d06cf2d	0.032912422
58	0x3d19134e	0.037371926
59	0xbd389c1f	-0.045070764
60	0x3dd7ccd9	0.105371185
61	0x3df61e02	0.12017442
62	0xbe034539	-0.12819375
63	0xbdc147eb	-0.094375454
64	0x3e0931cb	0.13397901
65	0xbde646d6	-0.1124398
66	0xbeccb960	-0.3998518
67	0xbed779fb	-0.4208525
68	0xbfaa38f8	-1.3298635
69	0xbf726450	-0.94684315
70	0xbdcb78fe	-0.09935187
71	0xbf0dc835	-0.55383617
72	0x3e4b5c71	0.19859482
73	0xbe862398	-0.2619903
74	0x3ee12aed	0.43978062
75	0xbf2ffbdb	-0.68743676
76	0xbf0d4591	-0.55184275
77	0xbeaa3190	-0.33240938
78	0x3f5b19a2	0.8558599
79	0x3db412f4	0.087926775
80	0xbcf19a82	-0.02949262
81	0xbe8f8c86	-0.28036898
82	0xbe86a6ea	-0.2629922
83	0xbd667613	-0.056264948
84	0xbd101dd5	-0.0351847
85	0xbddc5aec	-0.107595295
86	0xbdb7d323	-0.08975818
87	0xbe243a4e	-0.16037866
88	0xbb81d281	-0.0039618616
89	0xbd479a8b	-0.048731368
90	0xbc48b3b4	-0.012249876
91	0xbdf55402	-0.11978914
92	0xbdf88068	-0.121338665
93	0xbdd336c9	-0.10313184
94	0xbd77d98d	-0.060510207
95	0xbe0ee007	-0.13952647
96	0x3dd1e40c	0.102485746
97	0x3eaa4ebc	0.33263195
98	0xbe90493a	-0.28180867
99	0x3d858f00	0.06521416
100	0xbf10e4d7	-0.5659918
101	0x3eecc15f	0.4624128
102	0xbe9da9b3	-0.30793533
103	0xbeb66a52	-0.3562799
104	0xbeaa6a64	-0.33284295
105	0xbe48b89b	-0.19601671
106	0x3f1cc612	0.6123973
107	0x3f5c2713	0.8599712
108	0x3df2598a	0.118334845
109	0xbe6558d8	-0.22397172
110	0xbe864b46	-0.26229304
111	0xbe992fe0	-0.29919338
112	0xbf0f1a4e	-0.5589951
113	0xbc2801d4	-0.010254342
114	0xbdf5e48f	-0.12006485
115	0xbcd88394	-0.026429929
116	0x3dec7fb9	0.11547799
117	0xbe0f9cde	-0.14024684
118	0x3db4a328	0.08820182
119	0xbdb142fb	-0.08655354
120	0x3c73a0e6	0.014869904
121	0xbd94b886	-0.072617576
122	0x3e24e20e	0.16101858
123	0xbe04dbf6	-0.12974533
124	0x3dc17df5	0.094478525
125	0x3d7e782e	0.06212633
126	0x3d6b4b11	0.057444636
127	0xbdc3bc1e	-0.09557365
128	0x3e9d2a55	0.3069636
129	0xbe1d3111	-0.15350749
130	0xbe863ce6	-0.26218337
131	0xba57291d	-0.00082077255
132	0x3f83b119	1.0288421
133	0xbe509a38	-0.2037133
134	0xbdb207ce	-0.08692895
135	0x3deeb871	0.11656273
136	0xbd8be4d8	-0.06830758
137	0xbcc456b5	-0.023967126
138	0xbe884e6d	-0.26622334
139	0xbf70ba27	-0.94034046
140	0xbe8c4819	-0.27398756
141	0xbb59c4dd	-0.0033228912
142	0x3ebed73c	0.37273586
143	0xbe6daf07	-0.23211299
144	0x3d9e2509	0.07721908
145	0xbe676f41	-0.22601034
146	0x3e6416ad	0.22274275
147	0xbe3e401f	-0.18579148
148	0xbd64a535	-0.055821616
149	0xbdbe79bb	-0.09300562
150	0xbd764d55	-0.060132343
151	0x3d0f6ac9	0.035013948
152	0xbd12ad32	-0.035809703
153	0xba158492	-0.00057036534
154	0x3d876049	0.06610162
155	0xbcfe78c6	-0.031063449
156	0xbd3fbc91	-0.04681069
157	0x3c9aecc7	0.018911732
158	0xbcffd28d	-0.031228328
159	0xbd57c69b	-0.05267964
160	0x3e2692da	0.16266957
161	0x3e80933a	0.25112325
162	0xbf6ff7ba	-0.93737376
163	0x3d91cfd7	0.071197204
164	0xbd0d9289	-0.034563575
165	0xbe9fd108	-0.31214166
166	0xbd14b5c3	-0.036306154
167	0xbedd4eac	-0.43224084
168	0xbe9f0321	-0.31057075
169	0xbd392ad7	-0.04520687
170	0x3e84832e	0.25881332
171	0xbf7ae189	-0.9800039
172	0xbf48626d	-0.78275186
173	0xbef69a37	-0.48164532
174	0x3effb5e1	0.4994345
175	0xbe9df432	-0.3085037
176	0xbe2351f3	-0.1594923
177	0x3eb62378	0.35573936
178	0xbcece981	-0.028919937
179	0x3e2474fb	0.1606025
180	0xbe7dab69	-0.24772419
181	0x3d8cdc3a	0.068779424
182	0xbe349267	-0.17633973
183	0x3dd7e05b	0.10540839
184	0xbc1698ec	-0.009191733
185	0xbe19da0b	-0.15024583
186	0x3d95c7ea	0.07313521
187	0xbd89e4d3	-0.06733098
188	0xbdea54e2	-0.11441971
189	0x3e041fab	0.12902705
190	0xbda49ea0	-0.08038068
191	0xbd112747	-0.03543785
192	0xbe38865d	-0.18020006
193	0x3ea07659	0.31340292
194	0x3e334979	0.17508496
195	0x3d7a90c3	0.06117321
196	0x3efe28ec	0.49640596
197	0xc0164d78	-2.3484783
198	0xbddc30c6	-0.1075149
199	0x3dde0652	0.10841049
200	0xbb742027	-0.003725061
201	0x3d61c84e	0.055122666
202	0xbed5d622	-0.41764933
203	0xbf843bab	-1.0330709
204	0xbe76c3f0	-0.24098182
205	0xbed57890	-0.41693544
206	0x3e3cf674	0.1845339
207	0xbe0588a9	-0.13040413
208	0x3efdb3dd	0.49551287
209	0xbe9bb3ac	-0.30410516
210	0x3d4a54d0	0.04939729
211	0x3dba29b4	0.090899855
212	0xbc1eaff0	-0.009685501
213	0xbc960cb9	-0.018316614
214	0xbe6dff80	-0.23241997
215	0xbcac6051	-0.021042021
216	0xbdf06a36	-0.11739008
217	0x3d895df7	0.067073755
218	0xbd684a55	-0.056711514
219	0xbe04ca34	-0.1296776
220	0xbcff82c7	-0.03119029
221	0xbdaf7f4f	-0.08569204
222	0xbd5d867e	-0.05408334
223	0xbe2c5461	-0.16829063
224	0x3dc0132f	0.09378659
225	0xbe3ec08f	-0.18628143
226	0x3e0f4005	0.13989265
227	0x3d3c401f	0.04595959
228	0x3ec679b9	0.38764742
229	0x3e3a892d	0.18216391
230	0x3e23be91	0.15990664
231	0x3daa969c	0.08329508
232	0x3c960034	0.018310644
233	0x3da488f7	0.080339365
234	0xbec49ce0	-0.38400936
235	0xbf58962a	-0.8460413
236	0xbcc86ecc	-0.024466895
237	0xbeb581a1	-0.35450462
238	0x3e3fa858	0.18716562
239	0xbeb69a08	-0.35664392
240	0x3e8e4c3d	0.2779254
241	0xbe35974b	-0.17733495
242	0x3e8765ee	0.26444954
243	0xbe226e43	-0.15862374
244	0xbe0ed67b	-0.13949005
245	0x3df80678	0.12110609
246	0xbd63f551	-0.055653874
247	0xbe684acf	-0.22684787
248	0x3d293876	0.04131361
249	0xbe23be00	-0.15990448
250	0xbc7d5271	-0.01546155
251	0xbdb23348	-0.08701187
252	0xbd93fd5b	-0.07226058
253	0xbd65dd62	-0.05611933
254	0xbe2c05fe	-0.16799161
255	0x3e148719	0.1450466

a2c_network.actor_mlp.0.bias f4 [256]
0	0x3e2687b0	0.16262698
1	0x3ea6664d	0.32499924
2	0x3dcf2a0a	0.1011544
3	0xbea515e4	-0.32243264
4	0x3d621b4c	0.055201814
5	0x3e571bbe	0.21006677
6	0xbe522e43	-0.2052546
7	0xbea5bbae	-0.3236975
8	0xbd03797e	-0.032098286
9	0xbe86bda9	-0.26316574
10	0xbdd1ed9b	-0.10250398
11	0xbc0a23bb	-0.00843137
12	0x3c1e791a	0.009672428
13	0xbe028d8b	-0.12749307
14	0x3df3a03e	0.11895798
15	0xbe1b998c	-0.15195292
16	0x3e029ba4	0.12754685
17	0x3e3764a1	0.1790948
18	0x3d6aedb7	0.05735561
19	0x3e02786a	0.12741247
20	0x3e21455b	0.15749113
21	0xbe9234af	-0.2855582
22	0xbe11c04e	-0.14233515
23	0x3e96891a	0.29401475
24	0x3eae96cd	0.34099427
25	0xbe201383	-0.15632443
26	0xbe437701	-0.19088365
27	0xbec458b4	-0.38348925
28	0xbeac01b2	-0.33595043
29	0xbe225c02	-0.1585541
30	0xbeb37c30	-0.35055685
31	0xbd8cf22a	-0.06882127
32	0xbe1d64f2	-0.15370539
33	0xbe64cc9e	-0.2234368
34	0xbecb720e	-0.39735454
35	0x3e9322d3	0.28737506
36	0x3cdae240	0.026719213
37	0x3e0c052f	0.13673852
38	0xbe473a64	-0.19455868
39	0xbeae903e	-0.34094423
40	0x3cb11db8	0.021620616
41	0xbde6a45b	-0.11261817
42	0x3ea6ca20	0.32576084
43	0xbe0d2104	-0.13782126
44	0xbe44901f	-0.19195603
45	0x3d8df234	0.06930962
46	0xbcb4ac0c	-0.022054695
47	0x3e29ffba	0.16601458
48	0x3e950209	0.29103115
49	0xbdf52bdc	-0.11971256
50	0xbde0853c	-0.109629124
51	0xbe3b9184	-0.18317229
52	0xbe22ef30	-0.15911555
53	0x3ea309f9	0.31843546
54	0xbe00fb6d	-0.12595911
55	0x3e8acdd0	0.27110147
56	0xbe8da48b	-0.276646
57	0xbcd8229b	-0.026383689
58	0x3e22f562	0.15913919
59	0x3e75bab4	0.23997003
60	0x3e33ffba	0.1757802
61	0x3e4f468a	0.20241752
62	0x3eb40bea	0.3516534
63	0xbe1f9618	-0.155846
64	0x3dcd8911	0.10035909
65	0xbf14e558	-0.5816245
66	0x3da4ff2b	0.08056482
67	0x3cfebb77	0.03109525
68	0xbe12934c	-0.14314002
69	0x3e53b4a0	0.20674372
70	0xbe59e054	-0.2127698
71	0xbdeae163	-0.1146877
72	0x3ec71124	0.38880265
73	0x3b6cb11a	0.0036116303
74	0x3de98ce1	0.11403824
75	0x3e0881fa	0.13330832
76	0x3e12eb6a	0.14347616
77	0x3e6271a1	0.22113658
78	0x3f0a6e32	0.54074395
79	0xbe34d892	-0.1766074
80	0xbe52e7bd	-0.20596214
81	0x3e78dd89	0.24303259
82	0x3dd23388	0.10263735
83	0xbd9fe96f	-0.07808196
84	0x3e150847	0.14553939
85	0x3eddb785	0.43304077
86	0x3dd207b7	0.10255378
87	0xbcb492d5	-0.022042671
88	0x3e05404c	0.13012809
89	0xbd76e558	-0.060277313
90	0x3e2db5aa	0.1696383
91	0x3e1b1758	0.15145624
92	0xbe1653ab	-0.14680354
93	0xbe8c89e6	-0.27448958
94	0x3eeea9f7	0.46614048
95	0x3dda6ff1	0.106658824
96	0x3d1824fc	0.037144646
97	0xbc04aa8a	-0.0080973
98	0x3d11e3a4	0.035617486
99	0xbd89d267	-0.06729584
100	0xbe100298	-0.1406349
101	0xbe462ccd	-0.19353028
102	0xbdb09ee4	-0.08624056
103	0xbe5f1ffa	-0.21789542
104	0xbe9a87c6	-0.30181712
105	0x3e28fa42	0.16501716
106	0xbd40e066	-0.047089003
107	0xbef7c3c9	-0.4839156
108	0x3ec55ddb	0.3854817
109	0x3c93d655	0.018046537
110	0xbd8d3870	-0.0689553
111	0xbe31372c	-0.17306203
112	0xbe0417fb	-0.12899773
113	0xbdec6b3e	-0.11543892
114	0x3e916d95	0.28403917
115	0xbeba45e7	-0.36381456
116	0x3e8fc251	0.2807794
117	0x3e8625f0	0.2620082
118	0x3e1b3450	0.15156674
119	0x3e54d10c	0.2078287
120	0xbe5230ae	-0.20526382
121	0xbe68295a	-0.22672024
122	0xbe44da5f	-0.19223927
123	0xbdee0dc4	-0.11623719
124	0x3e4a2e21	0.1974416
125	0x3eebe3cb	0.4607223
126	0x3ea6c1c1	0.32569697
127	0xbcef7158	-0.029228851
128	0xbe5be169	-0.21472706
129	0x3de81916	0.1133291
130	0x3eccbbf6	0.39987153
131	0xbd938b5f	-0.07204317
132	0x3e9ea6e3	0.309867
133	0x3d14acf1	0.036297742
134	0xbe9280e0	-0.2861395
135	0xbe6d1921	-0.23154117
136	0xbeb5378a	-0.35393935
137	0x3ec55dbe	0.38548082
138	0x3dd06022	0.10174586
139	0xbc284c22	-0.010272058
140	0x3e257cae	0.16160843
141	0x3de4ce59	0.1117217
142	0xbe392d50	-0.18083692
143	0xbea461e0	-0.32105923
144	0x3daac35e	0.083380446
145	0x3e8b7f4a	0.2724555
146	0x3ec54c68	0.38534856
147	0x3cb70fb8	0.022346362
148	0xbe872e35	-0.2640244
149	0x3e118c06	0.14213571
150	0xbe286584	-0.16444975
151	0x3d6e30df	0.058152076
152	0x3eb4b987	0.35297796
153	0x3e6f4bee	0.23368809
154	0xbbb1f115	-0.0054303505
155	0x3c1c0b79	0.00952422
156	0x3da834bf	0.082131855
157	0xbe99dd66	-0.30051726
158	0x3e6d0f10	0.23150277
159	0x3d72a7c1	0.059242014
160	0xbe290691	-0.16506411
161	0x3e721ba9	0.23643364
162	0x3e8b005f	0.2714872
163	0xbe744866	-0.23855743
164	0xbe198888	-0.14993489
165	0xbe244047	-0.16040145
166	0xbec51fa5	-0.38500705
167	0xbecfd392	-0.40591103
168	0x3d0c2e2c	0.03422372
169	0xbdb700fe	-0.08935736
170	0xbdb9ae20	-0.09066415
171	0x3e3f4da3	0.1868196
172	0xbee8bcb3	-0.45456466
173	0x3e273d19	0.163319
174	0x3eb06fd4	0.34460318
175	0x3eb3dc48	0.35129
176	0x3d8366ea	0.06416114
177	0x3e26e38e	0.16297743
178	0xbda7ed29	-0.081995316
179	0xbe9b1913	-0.30292568
180	0x3e72a458	0.23695505
181	0xbe7797b1	-0.2417896
182	0x3e60429a	0.21900406
183	0xbe0ac84a	-0.13552967
184	0x3dfa1a46	0.122120425
185	0x3e430383	0.19044308
186	0xbdfd323b	-0.12363096
187	0x3ec22421	0.3791819
188	0xbe4cc77b	-0.19997971
189	0xbe35c71e	-0.17751738
190	0xbe6f0584	-0.23341948
191	0xbd85f3a7	-0.065406136
192	0x3e22b0e7	0.15887795
193	0xbd1d04b5	-0.038334567
194	0xbe4db851	-0.20089842
195	0x3ca1acc2	0.019735698
196	0x3e3707e1	0.178741
197	0x3cc6d0fb	0.024269572
198	0x3e296328	0.16541731
199	0xbec6a5b8	-0.38798308
200	0xb80bc421	-3.332284e-05
201	0xbeb59886	-0.3546793
202	0xbe4aa02e	-0.19787666
203	0x3e5bf04a	0.21478382
204	0x3eae924f	0.34096
205	0xbe143b97	-0.14475857
206	0xbcc6d695	-0.024272243
207	0x3e98938b	0.29800066
208	0xbde08d31	-0.1096443
209	0x3e1079d0	0.14108968
210	0x3e67013c	0.22559065
211	0x3e786079	0.24255551
212	0x3db788b9	0.08961625
213	0xbd5a8e13	-0.05335815
214	0x3e814aab	0.2525228
215	0x3cf0df8c	0.02940347
216	0xbdce86d7	-0.100843124
217	0xbdce212d	-0.100649215
218	0xbd804243	-0.062626384
219	0x3e519bbf	0.20469569
220	0xbe952367	-0.29128572
221	0x3e2acbb9	0.16679277
222	0xbe847094	-0.2586714
223	0xbe5f611e	-0.21814391
224	0xbe0b1fed	-0.13586397
225	0x3dd6267f	0.10456561
226	0x3bbb42d2	0.0057147527
227	0x3d16a317	0.03677663
228	0xbe78ec90	-0.24308991
229	0xbe2e5a11	-0.17026545
230	0xbe55368d	-0.2082159
231	0x3ea45dea	0.321029
232	0x3e060ea0	0.13091516
233	0xbe775933	-0.2415512
234	0x3eab7f68	0.3349564
235	0xbd4d0810	-0.050056517
236	0xbe006c1d	-0.12541242
237	0x3e301769	0.1719643
238	0x3e3b0ae8	0.18265879
239	0xbe9eb715	-0.30999056
240	0xbe264408	-0.1623689
241	0xbe8cef58	-0.27526355
242	0x3daa0691	0.08302034
243	0xbd9d9b36	-0.0769562
244	0x3d979dc8	0.07403141
245	0x3dd1f6c7	0.10252147
246	0x3ebd2fc2	0.369505
247	0xbe891700	-0.2677536
248	0x3ebe658c	0.3718685
249	0xba8288e2	-0.0009959007
250	0xbe076fe7	-0.13226281
251	0x3daf1b96	0.085501835
252	0xbe7d3fe8	-0.2473141
253	0x3e07c06f	0.13257001
254	0xbd82e643	-0.06391575
255	0xbe957636	-0.2919175

a2c_network.actor_mlp.2.weight f4 [128, 256]
0	0xbf139755	-0.5765279
1	0x3e90748b	0.28213915
2	0x3d2b4d8f	0.041822013
3	0xbe25aae0	-0.16178465
4	0xbe4dbd39	-0.20091714
5	0xbeed0dbd	-0.46299544
6	0xbe9fbc58	-0.31198382
7	0x3bbe6074	0.005809838
8	0x3dba69e9	0.09102232
9	0x3e37be80	0.17943764
10	0xbee7b62c	-0.45256174
11	0xbe2beb81	-0.16789056
12	0xbe0047fd	-0.12527461
13	0x3dff7c40	0.12474871
14	0xbe00b6c5	-0.12569721
15	0xbee14526	-0.4399807
16	0xbe511184	-0.20416838
17	0xbd5bcb3c	-0.053660616
18	0x3c8db24e	0.017296936
19	0x3dd86424	0.10565975
20	0xbe2b92b6	-0.16755185
21	0x3e50c858	0.20388925
22	0xbe8b7370	-0.2723651
23	0x3db94b58	0.09047574
24	0xbd826c74	-0.06368342
25	0x3e7e5333	0.24836425
26	0xbe293470	-0.1652391
27	0xbe046a68	-0.12931216
28	0x3ebec158	0.37256885
29	0x3edd7156	0.4325053
30	0x3eadc02e	0.33935684
31	0x3e0990dd	0.13434167
32	0x3d019cd2	0.031643696
33	0x3ed4ef1b	0.41588673
34	0xbe855663	-0.2604247
35	0xbeaf763b	-0.3426989
36	0xbe4da1b5	-0.20081218
37	0x3e6727f4	0.22573835
38	0xbe0b499c	-0.13602298
39	0x3eb76283	0.35817346
40	0x3d353261	0.0442375
41	0x3e03ee37	0.1288384
42	0xbe8f43a4	-0.27981293
43	0xbe0d6719	-0.1380886
44	0x3edc5578	0.43033957
45	0xbe6e07c6	-0.23245153
46	0xbeaf2e18	-0.34214854
47	0xbe592f6f	-0.212095
48	0x3e861175	0.26185194
49	0x3eed1ed2	0.46312577
50	0x3e3fc35d	0.18726869
51	0xbe71922d	-0.23590918
52	0x3ed95242	0.4244557
53	0xbf0258a4	-0.50916505
54	0x3e20128d	0.15632077
55	0x3e39f0bc	0.18158239
56	0xbd74cdb2	-0.05976648
57	0xbe617f64	-0.22021252
58	0x3e75a4c0	0.23988628
59	0xbe54f0c9	-0.20794977
60	0x3f1e5f31	0.61864
61	0xbea42638	-0.3206041
62	0xbeb84cce	-0.35996097
63	0xbe29c356	-0.16578421
64	0x3cf77a30	0.03020963
65	0xbe37b533	-0.17940216
66	0xbe9b4aef	-0.30330607
67	0x3e1219fc	0.14267725
68	0xbe13c039	-0.14428796
69	0x3cb39d18	0.021925494
70	0x3e3b16ae	0.1827037
71	0xbd92c4c2	-0.07166435
72	0xbe858b3a	-0.26082784
73	0x3e0d12b3	0.13776664
74	0xbe94991c	-0.29023063
75	0xbe302615	-0.17202027
76	0xbef107a7	-0.4707615
77	0x3cd76a6c	0.026295863
78	0xbeaf6ee9	-0.34264305
79	0xbd0be83a	-0.034157015
80	0x3b980bd2	0.004640081
81	0xbe1bd49c	-0.15217823
82	0x3ea364d7	0.31912872
83	0xbdef8de6	-0.11696987
84	0x3d1e689f	0.038673993
85	0xbe0163b9	-0.12635697
86	0xbcc0962e	-0.023509111
87	0xbee91d97	-0.45530388
88	0xbdcfc035	-0.101440825
89	0x3bb88172	0.0056306655
90	0x3e01d946	0.1268054
91	0xbd97f9be	-0.074206814
92	0xbe86f646	-0.26359767
93	0xbd992591	-0.07477868
94	0x3caf70f0	0.021416157
95	0x3e865264	0.26234734
96	0xbdeaf3ad	-0.11472259
97	0xbd207646	-0.039175294
98	0xbed7fc04	-0.4218446
99	0x3e9b58fd	0.3034133
100	0xbe35e1fd	-0.17761989
101	0x3e26df02	0.16296008
102	0x3e2a4464	0.16627651
103	0x3e15776d	0.14596339
104	0x3ea040db	0.3129948
105	0xbeccbd7f	-0.39988324
106	0xbb8d45c9	-0.0043112976
107	0x3e8f61e0	0.2800436
108	0xbe166914	-0.14688522
109	0x3e0af9e9	0.13571896
110	0x3e81eca0	0.25375843
111	0x3e4a79a0	0.19772959
112	0x3e1218c5	0.14267261
113	0x3e7dd15a	0.24786893
114	0x3e9d3dea	0.307113
115	0x3efb65d5	0.4910113
116	0xbb7a82ca	-0.003822493
117	0x3daec8f0	0.085344195
118	0x3cd871e4	0.026421495
119	0x3d06f766	0.03295078
120	0x3e136fe9	0.14398159
121	0x3c0c5a89	0.008566507
122	0x3e9c9985	0.30585876
123	0x3db7c657	0.08973377
124	0x3c126c83	0.008937004
125	0xbe21001a	-0.15722695
126	0xbe52441b	-0.20533793
127	0x3dbe9a65	0.09306792
128	0x3eaeab51	0.3411508
129	0xbd83814a	-0.06421144
130	0x3e49a7a2	0.19692853
131	0xbecddf8b	-0.40209612
132	0xbe82ba6b	-0.2553285
133	0xbe89839b	-0.2685822
134	0x3e8144f2	0.25247914
135	0x3e8071ca	0.25086814
136	0xbdbd952d	-0.09256969
137	0x3c150ab0	0.009096786
138	0x3e36ba37	0.17844473
139	0x3e950135	0.29102483
140	0xbdd7ec90	-0.105431676
141	0x3e8ddef2	0.27709156
142	0x3e9d19e0	0.30683804
143	0xbcd35d14	-0.025801219
144	0x3de0b05c	0.10971138
145	0xbe9d85cb	-0.30766138
146	0xbce8bc64	-0.028410144
147	0xbc3ee3f7	-0.011651031
148	0x3e4fdd80	0.2029934
149	0xbeb5e3df	-0.35525414
150	0x3e6def4e	0.23235819
151	0x3e433c31	0.1906593
152	0x3e5921fe	0.21204373
153	0xbd20fef6	-0.03930565
154	0xbe1f6a85	-0.15567978
155	0x39c14e2f	0.0003687008
156	0xbe0821e8	-0.13294184
157	0xbeb5263e	-0.3538074
158	0xbdf47feb	-0.11938461
159	0xbf800b07	-1.0003365
160	0xbd9ddbe2	-0.07707955
161	0xbeb7552a	-0.35807163
162	0xbf0f7531	-0.56038195
163	0xbee495b7	-0.44645473
164	0x3ceb978a	0.028758783
165	0x3e829bf1	0.255096
166	0xbea6e802	-0.32598883
167	0x3b88b0b4	0.0041714553
168	0xbe8ba3d0	-0.27273417
169	0x3e5e0987	0.21683322
170	0xbe402d77	-0.18767343
171	0xbf9b3b92	-1.2127554
172	0x3e91ae20	0.2845316
173	0xbe4b727d	-0.19867893
174	0xbe4d34b3	-0.20039634
175	0xbe80406e	-0.25049156
176	0xbe7c8884	-0.24661452
177	0x3df04544	0.11731961
178	0xbdae289e	-0.08503841
179	0x3d27b500	0.0409441
180	0x3e194c3f	0.14970492
181	0xbae8f935	-0.0017774465
182	0x3d9ef515	0.077615894
183	0x3e449118	0.19195974
184	0xbdc344d3	-0.095346116
185	0x3de8ad8f	0.11361229
186	0xbe6fff4a	-0.23437229
187	0xbd6382f0	-0.055544794
188	0x3e20f4bd	0.1571836
189	0x3e01ae75	0.12664206
190	0x3eaf252b	0.34208044
191	0x3cb6d9bb	0.022320619
192	0x3e209b2e	0.15684196
193	0x3c53830f	0.012909665
194	0x3e3f5aa4	0.1868692
195	0x3dc67ce5	0.096917905
196	0x3e8a7221	0.27040198
197	0x3e3c985c	0.18417495
198	0xbeead92f	-0.45868823
199	0x3d4e3e67	0.05035248
200	0x3d2d2696	0.042273127
201	0x3e5c1a71	0.21494462
202	0x3e7b26ce	0.24526522
203	0xbdee095f	-0.11622881
204	0xbe395c95	-0.18101723
205	0x3e6a2b01	0.22867967
206	0xbe39be77	-0.18139063
207	0xbec5c32c	-0.38625467
208	0x3f2c413a	0.6728703
209	0x3e85f41c	0.26162803
210	0xbf86da3a	-1.0535347
211	0xbec47747	-0.3837225
212	0xbd416960	-0.047219634
213	0x3e36a6aa	0.17837015
214	0x3cfcae73	0.030844903
215	0xbd93c997	-0.072161846
216	0x3d9e1c88	0.07720286
217	0xbe1c2c0a	-0.15251175
218	0xbe487fe3	-0.19580035
219	0xbec10364	-0.376979
220	0x3e44cc6f	0.1921861
221	0xbf01e8b3	-0.50745696
222	0xbe4e494b	-0.20145147
223	0xbcf91e74	-0.030410029
224	0x3de87472	0.11350335
225	0xbe706e12	-0.23479488
226	0x3e035b96	0.12827906
227	0xbeb58de1	-0.35459808
228	0xbdc73285	-0.09726433
229	0xbf24e7a3	-0.6441595
230	0x3d2a0d3c	0.041516528
231	0xbecbb93f	-0.3978977
232	0x39ed8a16	0.00045307045
233	0xbe8ef872	-0.27923924
234	0x3dbebd56	0.09313457
235	0xbde9f569	-0.114237614
236	0x3ed32f0f	0.4124684
237	0xbde0f080	-0.10983372
238	0xbdc1fd4c	-0.09472141
239	0xbe02d28a	-0.12775627
240	0xbbca1fa9	-0.006168325
241	0x3d6dd547	0.058064725
242	0x3de77180	0.11300945
243	0xbb9cffce	-0.0047912365
244	0xbde4baa4	-0.111684114
245	0xbe47fd98	-0.19530332
246	0xbe057098	-0.13031232
247	0xbdfc9e33	-0.123348616
248	0xbe2b6d95	-0.16741021
249	0xbe9477c1	-0.28997615
250	0x3dbe639c	0.09296343
251	0xbf2c7428	-0.6736474
252	0xbe808ebf	-0.25108907
253	0x3ca28a6e	0.019841399
254	0x3daf4354	0.08557764
255	0x3cd21d28	0.025648668

a2c_network.actor_mlp.2.bias f4 [128]
0	0xbdb571a7	-0.08859568
1	0x3dc7d92c	0.09758219
2	0x3e80831a	0.25100023
3	0xbdc0bfe8	-0.09411603
4	0x3e489c52	0.19590881
5	0xbe87a9d4	-0.26496756
6	0xbe214fd0	-0.15753102
7	0xbde4b163	-0.11166646
8	0xbf273792	-0.6531917
9	0xbc6df376	-0.014523378
10	0xbf12e130	-0.5737486
11	0x3c8a7a96	0.016904157
12	0xbe9563a0	-0.2917757
13	0xbec3df39	-0.38256243
14	0xbe35da5d	-0.1775908
15	0xbe4cc01d	-0.1999516
16	0xbe17d9c0	-0.14829159
17	0xbd2c396f	-0.04204696
18	0xbde007e2	-0.109390035
19	0xbeb92a09	-0.36164883
20	0xbc1be5e9	-0.009515264
21	0xbe217edf	-0.15771054
22	0xbe9282a2	-0.2861529
23	0x3e2352db	0.15949576
24	0xbe2344a2	-0.1594415
25	0xbcdf58f5	-0.027264098
26	0xbe7ba7cd	-0.2457573
27	0xbf59c144	-0.85060525
28	0xbe59e816	-0.2127994
29	0xbd1c3964	-0.03814067
30	0xbd21b5dd	-0.03948008
31	0xbf3db646	-0.7410625
32	0xbe413ccf	-0.18870853
33	0xbeb28f7f	-0.34875104
34	0xbebc93d2	-0.36831528
35	0x3dd3c19f	0.10339665
36	0xbebbfd10	-0.3671651
37	0xbf193f58	-0.5986228
38	0xbe61cbd0	-0.22050405
39	0xbf2b6c56	-0.6696218
40	0x3c7eb926	0.0155470725
41	0xbdd73818	-0.10508746
42	0xb9b023bc	-0.0003359596
43	0xbed50ccd	-0.4161133
44	0xbdb4a9f3	-0.08821478
45	0x3db4f612	0.08835997
46	0xbee7bd73	-0.45261726
47	0xbcbc7555	-0.023005167
48	0xbe860c68	-0.2618134
49	0xbcb5379f	-0.022121249
50	0xbe0f535c	-0.13996643
51	0x3c28f8e1	0.010313244
52	0x3d13b879	0.0360646
53	0xbde66422	-0.112495676
54	0x3e3143b0	0.17310977
55	0xbddab9aa	-0.10679944
56	0xbeb51a43	-0.353716
57	0xbe983f8c	-0.29735982
58	0xbe850bce	-0.2598557
59	0xbeabc213	-0.33546504
60	0x3d7130bc	0.058884367
61	0xbe36fc04	-0.17869574
62	0xbe5e3619	-0.21700324
63	0x3d0770cd	0.03306656
64	0xbdef65f0	-0.11689365
65	0xbb89dd9f	-0.0042073275
66	0xbd38dfe4	-0.045135394
67	0xbf2f5074	-0.68482137
68	0x3d0c903a	0.034317233
69	0xbe86e01e	-0.26342863
70	0x3d37d439	0.044880126
71	0xbe91710b	-0.28406557
72	0xbf3147a3	-0.69249934
73	0xbee93266	-0.45546263
74	0x3ced4c00	0.028966904
75	0xbdb4f932	-0.08836593
76	0xbeb1e139	-0.34742144
77	0xbeedd754	-0.46453345
78	0xbe3bc447	-0.18336593
79	0xbe85d7dd	-0.26141253
80	0xbf5a6ec1	-0.8532525
81	0xbecd6e5b	-0.40123257
82	0x3daf1d06	0.08550458
83	0x3b07c227	0.002071509
84	0xbef84309	-0.48488644
85	0xbee9a6e6	-0.45635146
86	0xbed0ba50	-0.40767145
87	0xbf01ed31	-0.5075255
88	0xbdf19ce5	-0.117975034
89	0xbeeb3b00	-0.4594345
90	0xbeac32ad	-0.33632413
91	0xbe2d2fd9	-0.16912784
92	0xbe541fb4	-0.20715219
93	0xbe267141	-0.1625414
94	0xbec15ab9	-0.37764528
95	0x3e148cb8	0.14506805
96	0x3d3035e6	0.04302015
97	0x3db099ba	0.08623071
98	0xbe26443f	-0.16236971
99	0x3d03d50c	0.0321856
100	0xbe978abb	-0.2959803
101	0xbea98ba6	-0.33114356
102	0x3d7326f2	0.059363313
103	0xbd54bca9	-0.051937733
104	0xbe9b9d8d	-0.3039364
105	0xbec51f50	-0.38500452
106	0xbe83e98a	-0.25764114
107	0x3cebc99c	0.028782658
108	0xbf222625	-0.63339454
109	0xbda7ec5e	-0.0819938
110	0x3e6b78b9	0.22995271
111	0xbcf618a3	-0.030041045
112	0xbf11390e	-0.56727684
113	0xbe39defc	-0.18151468
114	0x3db32804	0.08747867
115	0xbec0623c	-0.37574947
116	0xbda8d4b6	-0.082436964
117	0xbf22147c	-0.63312507
118	0x3df63b4c	0.12023029
119	0xbe34aef9	-0.17644872
120	0xbed58b87	-0.41708013
121	0xbe9bf2bd	-0.30458632
122	0xbe84ab92	-0.25912148
123	0xbca836c4	-0.020533927
124	0xbe8ba6da	-0.27275735
125	0x3c0df0d5	0.008663376
126	0xbea8a3fe	-0.32937616
127	0xbd22ea75	-0.039774377

a2c_network.actor_mlp.4.weight f4 [64, 128]
0	0x3c0f7ba5	0.0087575065
1	0xbea23486	-0.31680697
2	0x3ccaee8d	0.024771953
3	0x3cde360d	0.027125383
4	0xbf282d45	-0.65694076
5	0x3d12c0ab	0.035828274
6	0x3e143d9d	0.14476629
7	0x3ce07a62	0.027402107
8	0x3e335f3d	0.175168
9	0x3e511b0e	0.20420477
10	0x3b860746	0.0040902225
11	0x3d82033c	0.06348273
12	0xbdc95808	-0.09831244
13	0xbe480197	-0.19531856
14	0xbe415a3a	-0.18882075
15	0x3cf7afc7	0.030235184
16	0x3d9d81b9	0.07690758
17	0xbd8c54ca	-0.0685211
18	0x3db2b39d	0.08725665
19	0xbd8a54f6	-0.06754486
20	0x3c0866f1	0.008325324
21	0xbdbe5e26	-0.09295301
22	0xbcb5e1e5	-0.022202441
23	0x3d860a98	0.06544989
24	0x3e12bf48	0.1433078
25	0xbdc4fc5b	-0.096184455
26	0xbdbe1b22	-0.09282519
27	0x3e11f2dc	0.142528
28	0xbdc5be16	-0.09655397
29	0xbd0d9c09	-0.034572635
30	0x3d1f5e95	0.03890856
31	0x3e03a6b1	0.12856556
32	0x3c481ccc	0.012213897
33	0xbd770403	-0.06030656
34	0xbd92c6c9	-0.071668215
35	0xbe1f1bcd	-0.15537949
36	0xbc705f84	-0.01467121
37	0x3c986335	0.018601993
38	0xbdc5a89e	-0.09651302
39	0x3e16979d	0.14706273
40	0xbdcc91e5	-0.09988765
41	0x3b8d0354	0.0043033753
42	0xbd66a413	-0.056308817
43	0xbd970237	-0.07373469
44	0xbdded052	-0.10879578
45	0x3e111e39	0.14171685
46	0xbcc101a9	-0.023560362
47	0xbe0d9b58	-0.1382879
48	0x3e19e548	0.1502887
49	0xbde3458c	-0.110972494
50	0xbe4078ad	-0.18796034
51	0xbe143027	-0.14471494
52	0x3d489465	0.048969645
53	0xbd2c3ba3	-0.04204906
54	0xbe673256	-0.22577795
55	0xbed612c4	-0.41811192
56	0x3e2afc16	0.16697726
57	0x3e113d9c	0.14183658
58	0x3e2b63a5	0.1673723
59	0x3e14cf5b	0.14532225
60	0x3e0444fe	0.12916943
61	0xbdd73013	-0.10507216
62	0xbdcd787a	-0.10032745
63	0xba47ce0a	-0.000762195
64	0xbcbf7d13	-0.02337507
65	0xbe2b4437	-0.1672524
66	0x3d9e652b	0.0773414
67	0x3e03bb16	0.12864336
68	0xbe77aad8	-0.24186265
69	0x3d303b84	0.04302551
70	0xbe66a898	-0.22525251
71	0xbe4fc47d	-0.20289798
72	0x3e77a1d3	0.24182825
73	0xbd46411d	-0.04840194
74	0x3d1adeb5	0.037810046
75	0xbe1a92f9	-0.15095128
76	0x3d1d37d8	0.038383335
77	0x3e1bcdf3	0.15215282
78	0xbe74aae6	-0.23893318
79	0x3d4ab7fe	0.049491875
80	0x3c9c6e2c	0.019095503
81	0x3d7228a5	0.059120793
82	0xbdaa0c6b	-0.0830315
83	0xbda8df4b	-0.08245715
84	0x3dfe95ba	0.12430902
85	0x3dbd2a7b	0.09236618
86	0x3e1bb7c4	0.1520682
87	0x3d3093a1	0.04310954
88	0x3d905246	0.070469424
89	0x3e14a9d9	0.14517917
90	0xbcfd3661	-0.030909719
91	0xbc01d15a	-0.007923448
92	0xbdbf5e0a	-0.093441084
93	0xbd6b2a30	-0.05741328
94	0x3aab3e16	0.0013064768
95	0x3db1263e	0.08649872
96	0x3d230164	0.039796248
97	0x3d6e56c0	0.0581882
98	0xbd20716d	-0.03917067
99	0xbe467a89	-0.19382681
100	0x3e23a75a	0.15981808
101	0x3e5c34a0	0.2150445
102	0x3cf0c5df	0.029391227
103	0x3e61c1b1	0.22046544
104	0xbe49d301	-0.19709398
105	0x3e2d268d	0.16909237
106	0x3d212635	0.039343078
107	0x3e20052c	0.15626973
108	0x3e40b8d2	0.18820503
109	0xbd3b95b3	-0.04579706
110	0x3d315d96	0.04330214
111	0xbc26d03e	-0.010181485
112	0x3e575b69	0.21030964
113	0x3c1a97b7	0.009435586
114	0xbdb26e6c	-0.087124676
115	0xbd113538	-0.035451144
116	0x3cb9836c	0.022645675
117	0x3ddec10d	0.10876665
118	0xbcec2881	-0.028827908
119	0x3e0c025f	0.1367278
120	0xbe1a8ab3	-0.15091972
121	0xbd5e3722	-0.054251797
122	0xba66cbda	-0.000880418
123	0xbc10acfd	-0.008830306
124	0xbddf2d0a	-0.108972624
125	0xbe626ecc	-0.22112578
126	0xbd8e289d	-0.0694134
127	0x3da829a9	0.08211071
128	0x3be2d912	0.0069228495
129	0xbcb23eaf	-0.021758405
130	0xbe1ff908	-0.15622342
131	0x3dfaee41	0.122524746
132	0xbe7a9023	-0.24469046
133	0xbe640f32	-0.22271422
134	0xbdf3416b	-0.11877712
135	0x3d7bbe41	0.061460737
136	0x3e4f97eb	0.20272796
137	0xbd90e475	-0.07074825
138	0xbe158c67	-0.1460434
139	0x3e3f05a6	0.18654498
140	0xbd28dfd3	-0.04122908
141	0xbdc2bbd4	-0.095084816
142	0xbe83a118	-0.25708842
143	0xbd20f351	-0.039294545
144	0xbcddb53c	-0.027063958
145	0xbd975a73	-0.07390299
146	0x3dd830a8	0.105561554
147	0x3993f3be	0.00028219627
148	0xbdb2c433	-0.08728828
149	0xbd88e96f	-0.06685149
150	0x3d47f1df	0.04881465
151	0xbbf7dbff	-0.0075640674
152	0x3d1aaf46	0.03776481
153	0x38cdcbc7	9.813118e-05
154	0x3ccdddde	0.025130209
155	0xbd638952	-0.05555088
156	0xbd5fb2e2	-0.054613955
157	0x3dc26dd3	0.094936036
158	0xbe068ca9	-0.13139595
159	0x3d8a5154	0.06753793
160	0x3d89f9b9	0.06737084
161	0x3d836a61	0.064167745
162	0xbeeabeef	-0.45848796
163	0xbe377084	-0.17914015
164	0xbea0d1d3	-0.31410083
165	0x3bc5228c	0.006016081
166	0x3d91bf84	0.07116607
167	0x3e82889a	0.25494844
168	0x3d9d9cb2	0.07695903
169	0xbe75b658	-0.2399534
170	0x3deb0d9a	0.11477204
171	0x3e3d9cba	0.18516818
172	0xbd4a42d2	-0.04938013
173	0x3d6ef8ac	0.05834262
174	0xbd69626e	-0.056978635
175	0xbec2c321	-0.38039497
176	0xbd9c2f89	-0.07626254
177	0xbe060846	-0.13089094
178	0x3d3de2b3	0.046358775
179	0xbd3a69bc	-0.045510992
180	0xbde40683	-0.111340545
181	0xbd2bde78	-0.04196021
182	0x3d9351d8	0.07193345
183	0xbe731295	-0.23737557
184	0x3cf0667a	0.02934574
185	0x3d261a76	0.04055258
186	0x3e47d2e0	0.19514036
187	0x3d3a3960	0.045464873
188	0xbd8c3317	-0.06845682
189	0xbda65cb4	-0.081231505
190	0xb9bb1627	-0.00035683924
191	0xbc8a7574	-0.01690171
192	0xbd859686	-0.06522851
193	0xbdd521af	-0.10406815
194	0x3ce421d7	0.027848167
195	0x3e2542de	0.16138789
196	0xbcb72ffd	-0.02236175
197	0xbdc0dbdc	-0.09416935
198	0xbcd67210	-0.026177436
199	0xbe45adeb	-0.19304626
200	0xbe0adde3	-0.13561206
201	0x3b4e8e17	0.0031517798
202	0x3d5f0410	0.054447234
203	0x3dd14e94	0.10220066
204	0xbcd27614	-0.02569107
205	0x3e5b080d	0.2138979
206	0xbd197f73	-0.03747506
207	0x3e37faf3	0.17966823
208	0x3e57ef0d	0.21087284
209	0x3e50efa1	0.20403911
210	0x3e02da50	0.12778592
211	0xbd956cb5	-0.07296125
212	0xbabdb664	-0.0014473912
213	0x3daf0851	0.08546508
214	0xbe24123e	-0.16022584
215	0x3c543ee4	0.012954447
216	0x3dc92987	0.09822374
217	0xbe20bf4a	-0.15697971
218	0xbe60c7f0	-0.2195127
219	0xbe7ed55e	-0.2488608
220	0xbcc9dfc5	-0.024642834
221	0xbdc976b0	-0.09837091
222	0xbdafb5d5	-0.085796036
223	0xbe236a5d	-0.15958543
224	0x3d8c2307	0.068426184
225	0x3d1a0fae	0.03761261
226	0x3d871bc9	0.065970965
227	0x3debe070	0.115174174
228	0x3c012cd4	0.007884223
229	0xbb1e3d94	-0.002414559
230	0xbdeb1f9b	-0.11480638
231	0x3d6e3df5	0.058164556
232	0x3d6fa363	0.058505427
233	0xbda522b9	-0.080632634
234	0xbd4a29cf	-0.049356278
235	0x3debfcf1	0.11522854
236	0x3de0d7e6	0.10978679
237	0xbda9823b	-0.082767926
238	0x3e17a3b3	0.1480854
239	0xbe0ddf07	-0.1385461
240	0xbe182971	-0.14859559
241	0x3d8e2aaf	0.06941735
242	0xbddc5222	-0.10757853
243	0x3c3cfe4f	0.011535241
244	0x3ddc0bf4	0.107444674
245	0x3c95b002	0.018272404
246	0xbe9ddb92	-0.3083158
247	0xbdd176e4	-0.10227755
248	0x3d4cfdab	0.050046604
249	0x3e1060f4	0.14099485
250	0xbdac44aa	-0.08411534
251	0xbbf4068e	-0.0074470704
252	0xbe94698e	-0.28986782
253	0x3d3baa3f	0.045816656
254	0xbc6a2780	-0.014291644
255	0x3dee8950	0.11647284

a2c_network.actor_mlp.4.bias f4 [64]
0	0xbe6de2ea	-0.23231092
1	0xbd4a0a5d	-0.04932629
2	0xbe4ee77a	-0.20205489
3	0xbeb11dfc	-0.3459319
4	0xbd895a09	-0.06706626
5	0xbceac426	-0.028657984
6	0xbebc9076	-0.36828965
7	0xbd7c8e2a	-0.061659016
8	0xbf11f2e9	-0.57011276
9	0xbe42c64d	-0.19020958
10	0xbe048c86	-0.1294423
11	0xbdbe8df6	-0.09304421
12	0xbd06e6b9	-0.032934878
13	0xbdb010ff	-0.08596992
14	0xbe50d5bd	-0.20394035
15	0xbf2adaec	-0.667403
16	0x3c57e51c	0.0131771825
17	0xbe3c080d	-0.18362446
18	0xbd4f4605	-0.050603885
19	0xbedb1680	-0.42790604
20	0xbdbe8c80	-0.09304142
21	0xbe1424ab	-0.14467113
22	0xbed215fd	-0.410324
23	0xbe6c4165	-0.23071821
24	0xbecc1ceb	-0.39865813
25	0xbe834244	-0.25636494
26	0xbdef0d2a	-0.11672433
27	0x3d803da8	0.0626176
28	0xbed4d8c9	-0.41571644
29	0xbf0a3554	-0.5398762
30	0xbde25fe2	-0.110534444
31	0x3c812d50	0.015768677
32	0xbeb186e9	-0.3467324
33	0xbe162393	-0.14662008
34	0xbd2f0630	-0.04273051
35	0xbdde71a3	-0.10861518
36	0x3d92fba5	0.07176904
37	0xbf0efce4	-0.5585463
38	0xbe5fe1fa	-0.21863547
39	0xbc956f33	-0.0182415
40	0xbdcf10f8	-0.101106584
41	0x3c0d1f0d	0.00861336
42	0x3cfbbfa9	0.03073104
43	0xbeb84c11	-0.35995534
44	0xbe0bffa7	-0.13671742
45	0xbe9d0293	-0.30666026
46	0x3cc037a2	0.023464028
47	0xbe33df11	-0.17565562
48	0xbe98dce2	-0.2985602
49	0xbd973d6f	-0.073847644
50	0xbeb5bdf3	-0.35496482
51	0xbe8eaec7	-0.2786772
52	0xbefdfb89	-0.4960597
53	0xbe9ab7e7	-0.3021843
54	0x3cc22412	0.02369884
55	0xbe3ad1a5	-0.18244036
56	0x3d32684e	0.043556504
57	0x3d704a7e	0.05866479
58	0xbeb66a53	-0.35627994
59	0xbdad6464	-0.084664136
60	0xbcc4a203	-0.024003034
61	0xbe20a5e8	-0.15688288
62	0xbe0a34a9	-0.13496651
63	0xbd138bd8	-0.036022037

a2c_network.value.weight f4 [1, 64]
0	0x3bf84beb	0.0075774095
1	0xbcb1d4e8	-0.021707967
2	0x3c528c2b	0.012850801
3	0xbcb33e34	-0.021880247
4	0xbbc1e5b9	-0.0059172777
5	0x3d249b03	0.040186893
6	0xbbe6033f	-0.00701943
7	0xbe9bcd7d	-0.30430213
8	0x3bac33db	0.005255205
9	0x3e87464a	0.26420814
10	0x3c4da0ac	0.012550514
11	0xbc5dfc38	-0.013548903
12	0xbc0a1768	-0.008428432
13	0x3c8d8177	0.017273648
14	0x3bfe7b4f	0.0077661644
15	0xbdcbc6c0	-0.09950018
16	0x3cb2b7ad	0.021816099
17	0xbcba3287	-0.022729171
18	0x3bea5a98	0.007151913
19	0x3bed1558	0.0072352104
20	0x3d7cd405	0.061725635
21	0x3f135220	0.5754719
22	0xbbf64cb7	-0.0075164693
23	0x3b741abc	0.003724738
24	0xbcf6b35e	-0.030114826
25	0xbc48138b	-0.012211691
26	0x3aab6fbe	0.0013079566
27	0xbbb872e5	-0.005628931
28	0xbec866e3	-0.39140996
29	0xbe9ed174	-0.31019175
30	0x3c8c7b4c	0.017148636
31	0x3cf90315	0.030396977
32	0xbb87116f	-0.0041219513
33	0x3bd6cf22	0.006555454
34	0x3c1cf9d2	0.009581046
35	0x3c178869	0.009248831
36	0xbc8ce617	-0.01719956
37	0xbe234fc1	-0.15948392
38	0x3eaa989c	0.33319557
39	0x3cf697af	0.030101625
40	0x3c3d7010	0.011562362
41	0x3f5918c3	0.8480341
42	0x3c3d7119	0.011562609
43	0xbd08bd3a	-0.033383586
44	0xbba93068	-0.005163241
45	0xbe3efd23	-0.18651251
46	0xbc1e209a	-0.0096513275
47	0xbc78fb25	-0.015196596
48	0x3d481a9f	0.048853513
49	0x3c8c8c52	0.017156754
50	0xbc047e03	-0.008086684
51	0xbc9cb78e	-0.019130494
52	0xbd6b72ce	-0.057482533
53	0xbc1ac585	-0.009446506
54	0xbc36595c	-0.011129703
55	0x3c0cb9d6	0.008589229
56	0x3c255a57	0.0100923395
57	0x3d19e7ad	0.03757446
58	0xbe0960a9	-0.13415779
59	0x3d1fc018	0.039001554
60	0x3c8e38b0	0.017361015
61	0xbdcd3f27	-0.10021811
62	0xbbe25582	-0.006907166
63	0x3bf432b3	0.007452333

a2c_network.mu.weight f4 [12, 64]
0	0xbd735875	-0.05941053
1	0x3c2e1a1e	0.010626344
2	0xbd9c4d86	-0.07631974
3	0xbda00e88	-0.078152716
4	0x3a572454	0.00082070124
5	0xbb5d1119	-0.0033732115
6	0xbd1331d7	-0.035936203
7	0x3d1ca763	0.03824557
8	0xbdf27d8b	-0.11840352
9	0xbc69a5fd	-0.014260766
10	0x3bf34555	0.0074240365
11	0xbcad3a87	-0.021146072
12	0x3db96ff4	0.090545565
13	0x3c005600	0.007833004
14	0x3d9f2995	0.07771603
15	0xbd6de8a1	-0.05808318
16	0xbba43b9d	-0.0050119893
17	0xbd2e52b2	-0.042559333
18	0x3d081d1f	0.033230897
19	0xbd055042	-0.032547243
20	0x3d29361e	0.041311376
21	0x3cba509a	0.022743512
22	0xbe291f98	-0.16515958
23	0xbcb88b64	-0.022527404
24	0xbe58b187	-0.21161471
25	0xbc911655	-0.017710844
26	0xbb03bf02	-0.0020102863
27	0x3aa855fc	0.0012843008
28	0x3bc0ef10	0.0058878735
29	0xbe1ebc95	-0.15501626
30	0x3c48fb70	0.012266979
31	0x3c8f5a9e	0.017499264
32	0xbc98b18a	-0.018639345
33	0x3c2490fd	0.0100443335
34	0xbcef6d7f	-0.029227016
35	0xbc939d3f	-0.018019317
36	0x3aed0b2d	0.0018084996
37	0xbe2f5292	-0.17121342
38	0x3cb0b75e	0.021571811
39	0x3be78de8	0.007066477
40	0xbb4c37f4	-0.003116128
41	0x3b3353c9	0.0027363172
42	0x3b31d286	0.0027133538
43	0x3d35bb2f	0.044367965
44	0xbd348a54	-0.044077232
45	0xbe3c7c7b	-0.1840686
46	0x3d1ecfde	0.038772456
47	0xbd1d9f12	-0.03848178
48	0xbdd6f16a	-0.10495265
49	0x3e1281d6	0.14307341
50	0xbccef0ad	-0.025261248
51	0xbbdb0259	-0.0066836295
52	0xbe4c526e	-0.1995332
53	0xbd0a5b0c	-0.033778235
54	0x3b04b941	0.0020252021
55	0x3cefc8e9	0.029270606
56	0xbd17fb89	-0.037105117
57	0xbbd66e2f	-0.0065438966
58	0xbdd8d7fd	-0.105880715
59	0x3b59646c	0.0033171428
60	0xbb8f2fb9	-0.0043697027
61	0xbae7c84c	-0.0017683594
62	0x3bd82c3a	0.006597069
63	0x3c6df7bf	0.014524399
64	0xbc9cfbc1	-0.019163014
65	0x3d87757e	0.06614207
66	0x3d830cd7	0.063989334
67	0x3d307f75	0.043090302
68	0xbb9781aa	-0.0046236115
69	0x3cb8a4a4	0.022539444
70	0xbcdc0dde	-0.026862081
71	0xbd9c4594	-0.076304585
72	0xbdda8604	-0.10670093
73	0xbc789dc9	-0.015174338
74	0xbcb5877d	-0.022159332
75	0x3c9cb2d1	0.019128235
76	0x3d32ed7d	0.043683518
77	0x3c380cc5	0.011233513
78	0x3dd83336	0.10556643
79	0x3d8720d3	0.065980576
80	0x3bad49fc	0.0052883606
81	0xbcb71fb7	-0.02235399
82	0x3d0fca7f	0.035105225
83	0x3d3a3951	0.045464817
84	0x3c853508	0.016260639
85	0xbc8ee882	-0.017444853
86	0xbd0b7762	-0.0340494
87	0x3ba4cf81	0.005029619
88	0xbb566aa8	-0.003271738
89	0xbccd04a9	-0.025026636
90	0x3bc63f91	0.006050058
91	0x3c9f958e	0.019480493
92	0xbc4f0c1c	-0.012637164
93	0x3def63f9	0.1168899
94	0xbcc2e72c	-0.023791872
95	0xbc0a23e3	-0.008431408
96	0x3cd17e40	0.025572896
97	0xbd6a6eae	-0.05723446
98	0x3c92d025	0.017921517
99	0x3d6153ac	0.055011436
100	0xbc8c47ee	-0.017124142
101	0xbca9c1ad	-0.020722235
102	0xbd136d6a	-0.035993017
103	0xbc9ce3ca	-0.019151587
104	0x3c5e5df5	0.013572206
105	0x3cb34e6a	0.021887977
106	0xbb28b0a2	-0.0025740047
107	0x3ba45f89	0.0050162715
108	0xbdd0b5a4	-0.10190895
109	0x3def58ba	0.11686845
110	0xbd880c14	-0.06642929
111	0xbd161c69	-0.036648188
112	0x3da4837c	0.08032891
113	0x3e1fe282	0.1561375
114	0x3d7493b3	0.05971117
115	0xba96a0e5	-0.0011492042
116	0xbd864957	-0.06556957
117	0xbd488d39	-0.048962805
118	0xbb61a6a1	-0.0034431594
119	0x3d225e88	0.039640933
120	0x3c152223	0.009102377
121	0x3bad8edf	0.0052965726
122	0x3ca333c9	0.019922154
123	0xbb5bb0f8	-0.003352223
124	0x3c18627e	0.009300826
125	0xbb2b1caa	-0.0026109614
126	0x3b993aca	0.0046761977
127	0xbc8b5e56	-0.017012756
128	0x3c34d928	0.011038102
129	0xbc5f135a	-0.013615454
130	0xbc211299	-0.009831094
131	0xbc14a2da	-0.00907203
132	0xb9a52f5d	-0.0003150654
133	0x3b64bac9	0.0034901372
134	0x3ba6af41	0.00508681
135	0x3a86ac61	0.0010274762
136	0x3d99ec31	0.07515753
137	0x3c839e9a	0.016066838
138	0xbc284b38	-0.01027184
139	0x3cb15ef5	0.021651724
140	0x3cd8fc34	0.026487447
141	0xba53b822	-0.0008076449
142	0x3c83591a	0.016033698
143	0x3de24290	0.11047852
144	0xbb485121	-0.0030565935
145	0xbb02c6bd	-0.0019954883
146	0xbcf5e007	-0.030014051
147	0x3ca10e1b	0.019660046
148	0x3b3088ff	0.0026937125
149	0xbbd790e5	-0.006578552
150	0x3d78b7c0	0.060722113
151	0xba3e5d46	-0.00072618236
152	0x3d268e0c	0.04066281
153	0x3d0f234c	0.03494577
154	0x3bfe252d	0.0077558965
155	0xbbb9d539	-0.00567117
156	0xbc69e342	-0.014275374
157	0x3c84dfeb	0.016220054
158	0xba1f2e52	-0.0006072271
159	0xbc3c0889	-0.011476644
160	0xbcb528af	-0.022114126
161	0x3b8d665f	0.004315182
162	0x3c15710a	0.009121189
163	0xbca4121e	-0.02002817
164	0x3b0ab6ef	0.0021166166
165	0x3ddb3411	0.1070329
166	0xb7c9ab9f	-2.4040984e-05
167	0xba274ea7	-0.00063822645
168	0x3b1036f1	0.0022005404
169	0xbb6c8ad3	-0.0036093488
170	0xba849570	-0.0010115337
171	0x3c5ab30d	0.013348353
172	0xbd0c73c5	-0.034290094
173	0x3d565153	0.05232365
174	0x3b73ea22	0.0037218411
175	0xbce9b2e4	-0.028527685
176	0x38bce73b	9.0076086e-05
177	0xbc675917	-0.014120362
178	0xbc39445d	-0.011307803
179	0xba15cdc7	-0.0005714562
180	0x3dc9ecd5	0.09859625
181	0x3c305c46	0.010764187
182	0x3af2b601	0.0018517376
183	0x3d071b2c	0.032984897
184	0xbbec8769	-0.0072182906
185	0xbb29c7c2	-0.0025906418
186	0x3d965de6	0.073421285
187	0x3b26595b	0.002538285
188	0x3b339ced	0.0027406767
189	0x3c20e51c	0.009820249
190	0x3a22fc35	0.00062173913
191	0xbb86024e	-0.00408963
192	0x3e04fe5c	0.12987655
193	0xbca285b9	-0.019839155
194	0x3cafb140	0.021446824
195	0x3e05b41d	0.13056989
196	0x3c26b623	0.010175261
197	0xbcc371c1	-0.023857953
198	0x3cbeb01b	0.023277333
199	0x3ca78cf4	0.020452954
200	0x3dab0398	0.08350295
201	0xbbd05280	-0.006357491
202	0xbc237ef5	-0.009978999
203	0x3b3421cb	0.0027485962
204	0xbd1cc6b4	-0.038275436
205	0xbc8f4f6a	-0.017493922
206	0x3d2761d1	0.04086477
207	0x3e27638a	0.16346565
208	0x3bf1de92	0.007381269
209	0x3df1d92c	0.118090004
210	0x3cc8c4f7	0.024507983
211	0x3da48e8b	0.080350004
212	0xbc231995	-0.00995483
213	0x3d79852c	0.06091802
214	0x3e0cf2e1	0.13764526
215	0x3c978fd5	0.018501202
216	0xbd2743ba	-0.040836073
217	0x3d506882	0.050880916
218	0xbc87df19	-0.016585873
219	0xbd4e4be6	-0.05036535
220	0x3ccc826a	0.02496453
221	0x3e158e26	0.14605007
222	0xbd1a1bc2	-0.03762413
223	0xbd646df2	-0.055768915
224	0xbc996f2b	-0.018729767
225	0xbbc38b6a	-0.005967547
226	0xbd0575ab	-0.03258292
227	0xbdb6cabe	-0.08925389
228	0xbd0e0c1b	-0.034679513
229	0x3e4a1c6d	0.19737406
230	0xbd46d880	-0.048546314
231	0xbcc50a07	-0.024052633
232	0x39740f6d	0.000232754
233	0xbd2a83dd	-0.04162966
234	0x3b8a7504	0.004225375
235	0x3d13d6d9	0.036093567
236	0x3cc15967	0.0236022
237	0x3da841aa	0.082156494
238	0x3b36ab7e	0.0027873213
239	0x3d84f991	0.064929135
240	0x3d46742e	0.04845064
241	0x3d279d8b	0.04092173
242	0x3e306984	0.17227751
243	0xbc71af85	-0.01475132
244	0x3e334440	0.17506504
245	0x3de49177	0.11160558
246	0x37e77f5d	2.7596654e-05
247	0xbd4a3b1d	-0.04937278
248	0xbcf8513e	-0.030312177
249	0xbc89d5d4	-0.016825594
250	0x3d3b15bc	0.045675024
251	0xbb778388	-0.0037767608
252	0x3c920fe3	0.017829841
253	0xbd48b50d	-0.04900079
254	0x3b2e0694	0.0026554214
255	0x3b2182bd	0.0024644576

a2c_network.mu.bias f4 [12]
0	0x3e53e1a4	0.20691544
1	0x3dedfeb7	0.116208486
2	0xbeaa7a1e	-0.33296293
3	0xbe5973c1	-0.21235563
4	0x3dbad0b9	0.09121842
5	0xbbaecd4a	-0.005334531
6	0x3e02cb41	0.12772848
7	0x3d806740	0.062696934
8	0xbdbc7fc4	-0.09204057
9	0x3e4502c6	0.19239339
10	0x3d5f7265	0.054552455
11	0xbd9616f3	-0.07328596

exp_avg f4 [12]
0	0xbc8335a3	-0.016016787
1	0x3887ebbe	6.481212e-05
2	0x3a484060	0.0007638987
3	0xbc5a4cb8	-0.013323955
4	0xbca4943d	-0.020090217
5	0xbbc05fcc	-0.005870795
6	0x3a02e616	0.0004993392
7	0xbc1a10e1	-0.009403438
8	0x3c326dc0	0.010890424
9	0x38a22b67	7.732846e-05
10	0xbc3f4f70	-0.011676654
11	0xb9e775d8	-0.00044147554

exp_avg_sq f4 [12]
0	0x3b3f82ef	0.002922233
1	0x3b6d5deb	0.003621931
2	0x3b507b2b	0.0031811695
3	0x3b8736b3	0.0041263937
4	0x3b3dcb7d	0.00289604
5	0x3ba17ce7	0.0049282196
6	0x3b5b5579	0.0033467694
7	0x3b304429	0.0026896095
8	0x3b788767	0.0037922503
9	0x3b743989	0.003726574
10	0x3b9cca21	0.004784838
11	0x3b4759a6	0.0030418425
